{
  "nodes": [
    {
      "op": "null", 
      "name": "data", 
      "inputs": []
    }, 
    {
      "op": "null", 
      "name": "conv1_weight", 
      "attrs": {
        "kernel": "(7, 7)", 
        "no_bias": "True", 
        "num_filter": "64", 
        "pad": "(3, 3)", 
        "stride": "(2, 2)"
      }, 
      "inputs": []
    }, 
    {
      "op": "Convolution", 
      "name": "conv1", 
      "attrs": {
        "kernel": "(7, 7)", 
        "no_bias": "True", 
        "num_filter": "64", 
        "pad": "(3, 3)", 
        "stride": "(2, 2)"
      }, 
      "inputs": [[0, 0, 0], [1, 0, 0]]
    }, 
    {
      "op": "null", 
      "name": "conv1_bn_gamma", 
      "attrs": {
        "eps": "1e-05", 
        "fix_gamma": "False", 
        "use_global_stats": "True"
      }, 
      "inputs": []
    }, 
    {
      "op": "null", 
      "name": "conv1_bn_beta", 
      "attrs": {
        "eps": "1e-05", 
        "fix_gamma": "False", 
        "use_global_stats": "True"
      }, 
      "inputs": []
    }, 
    {
      "op": "null", 
      "name": "conv1_bn_moving_mean", 
      "attrs": {
        "__init__": "[\"zero\", {}]", 
        "eps": "1e-05", 
        "fix_gamma": "False", 
        "use_global_stats": "True"
      }, 
      "inputs": []
    }, 
    {
      "op": "null", 
      "name": "conv1_bn_moving_var", 
      "attrs": {
        "__init__": "[\"one\", {}]", 
        "eps": "1e-05", 
        "fix_gamma": "False", 
        "use_global_stats": "True"
      }, 
      "inputs": []
    }, 
    {
      "op": "BatchNorm", 
      "name": "conv1_bn", 
      "attrs": {
        "eps": "1e-05", 
        "fix_gamma": "False", 
        "use_global_stats": "True"
      }, 
      "inputs": [[2, 0, 0], [3, 0, 0], [4, 0, 0], [5, 0, 1], [6, 0, 1]]
    }, 
    {
      "op": "Activation", 
      "name": "conv1_relu", 
      "attrs": {"act_type": "relu"}, 
      "inputs": [[7, 0, 0]]
    }, 
    {
      "op": "Pooling", 
      "name": "pool1", 
      "attrs": {
        "cudnn_off": "False", 
        "global_pool": "False", 
        "kernel": "(3, 3)", 
        "pool_type": "max", 
        "pooling_convention": "full", 
        "stride": "(2, 2)"
      }, 
      "inputs": [[8, 0, 0]]
    }, 
    {
      "op": "null", 
      "name": "conv2_reduce_weight", 
      "attrs": {
        "kernel": "(1, 1)", 
        "no_bias": "True", 
        "num_filter": "64", 
        "pad": "(0, 0)", 
        "stride": "(1, 1)"
      }, 
      "inputs": []
    }, 
    {
      "op": "Convolution", 
      "name": "conv2_reduce", 
      "attrs": {
        "kernel": "(1, 1)", 
        "no_bias": "True", 
        "num_filter": "64", 
        "pad": "(0, 0)", 
        "stride": "(1, 1)"
      }, 
      "inputs": [[9, 0, 0], [10, 0, 0]]
    }, 
    {
      "op": "null", 
      "name": "conv2_reduce_bn_gamma", 
      "attrs": {
        "eps": "1e-05", 
        "fix_gamma": "False", 
        "use_global_stats": "True"
      }, 
      "inputs": []
    }, 
    {
      "op": "null", 
      "name": "conv2_reduce_bn_beta", 
      "attrs": {
        "eps": "1e-05", 
        "fix_gamma": "False", 
        "use_global_stats": "True"
      }, 
      "inputs": []
    }, 
    {
      "op": "null", 
      "name": "conv2_reduce_bn_moving_mean", 
      "attrs": {
        "__init__": "[\"zero\", {}]", 
        "eps": "1e-05", 
        "fix_gamma": "False", 
        "use_global_stats": "True"
      }, 
      "inputs": []
    }, 
    {
      "op": "null", 
      "name": "conv2_reduce_bn_moving_var", 
      "attrs": {
        "__init__": "[\"one\", {}]", 
        "eps": "1e-05", 
        "fix_gamma": "False", 
        "use_global_stats": "True"
      }, 
      "inputs": []
    }, 
    {
      "op": "BatchNorm", 
      "name": "conv2_reduce_bn", 
      "attrs": {
        "eps": "1e-05", 
        "fix_gamma": "False", 
        "use_global_stats": "True"
      }, 
      "inputs": [[11, 0, 0], [12, 0, 0], [13, 0, 0], [14, 0, 1], [15, 0, 1]]
    }, 
    {
      "op": "Activation", 
      "name": "conv2_reduce_relu", 
      "attrs": {"act_type": "relu"}, 
      "inputs": [[16, 0, 0]]
    }, 
    {
      "op": "null", 
      "name": "conv2_weight", 
      "attrs": {
        "kernel": "(3, 3)", 
        "no_bias": "True", 
        "num_filter": "192", 
        "pad": "(1, 1)", 
        "stride": "(1, 1)"
      }, 
      "inputs": []
    }, 
    {
      "op": "Convolution", 
      "name": "conv2", 
      "attrs": {
        "kernel": "(3, 3)", 
        "no_bias": "True", 
        "num_filter": "192", 
        "pad": "(1, 1)", 
        "stride": "(1, 1)"
      }, 
      "inputs": [[17, 0, 0], [18, 0, 0]]
    }, 
    {
      "op": "null", 
      "name": "conv2_bn_gamma", 
      "attrs": {
        "eps": "1e-05", 
        "fix_gamma": "False", 
        "use_global_stats": "True"
      }, 
      "inputs": []
    }, 
    {
      "op": "null", 
      "name": "conv2_bn_beta", 
      "attrs": {
        "eps": "1e-05", 
        "fix_gamma": "False", 
        "use_global_stats": "True"
      }, 
      "inputs": []
    }, 
    {
      "op": "null", 
      "name": "conv2_bn_moving_mean", 
      "attrs": {
        "__init__": "[\"zero\", {}]", 
        "eps": "1e-05", 
        "fix_gamma": "False", 
        "use_global_stats": "True"
      }, 
      "inputs": []
    }, 
    {
      "op": "null", 
      "name": "conv2_bn_moving_var", 
      "attrs": {
        "__init__": "[\"one\", {}]", 
        "eps": "1e-05", 
        "fix_gamma": "False", 
        "use_global_stats": "True"
      }, 
      "inputs": []
    }, 
    {
      "op": "BatchNorm", 
      "name": "conv2_bn", 
      "attrs": {
        "eps": "1e-05", 
        "fix_gamma": "False", 
        "use_global_stats": "True"
      }, 
      "inputs": [[19, 0, 0], [20, 0, 0], [21, 0, 0], [22, 0, 1], [23, 0, 1]]
    }, 
    {
      "op": "Activation", 
      "name": "conv2_relu", 
      "attrs": {"act_type": "relu"}, 
      "inputs": [[24, 0, 0]]
    }, 
    {
      "op": "Pooling", 
      "name": "pool2", 
      "attrs": {
        "cudnn_off": "False", 
        "global_pool": "False", 
        "kernel": "(3, 3)", 
        "pool_type": "max", 
        "pooling_convention": "full", 
        "stride": "(2, 2)"
      }, 
      "inputs": [[25, 0, 0]]
    }, 
    {
      "op": "null", 
      "name": "inception_3a_1x1_weight", 
      "attrs": {
        "kernel": "(1, 1)", 
        "no_bias": "True", 
        "num_filter": "64", 
        "pad": "(0, 0)", 
        "stride": "(1, 1)"
      }, 
      "inputs": []
    }, 
    {
      "op": "Convolution", 
      "name": "inception_3a_1x1", 
      "attrs": {
        "kernel": "(1, 1)", 
        "no_bias": "True", 
        "num_filter": "64", 
        "pad": "(0, 0)", 
        "stride": "(1, 1)"
      }, 
      "inputs": [[26, 0, 0], [27, 0, 0]]
    }, 
    {
      "op": "null", 
      "name": "inception_3a_1x1_bn_gamma", 
      "attrs": {
        "eps": "1e-05", 
        "fix_gamma": "False", 
        "use_global_stats": "True"
      }, 
      "inputs": []
    }, 
    {
      "op": "null", 
      "name": "inception_3a_1x1_bn_beta", 
      "attrs": {
        "eps": "1e-05", 
        "fix_gamma": "False", 
        "use_global_stats": "True"
      }, 
      "inputs": []
    }, 
    {
      "op": "null", 
      "name": "inception_3a_1x1_bn_moving_mean", 
      "attrs": {
        "__init__": "[\"zero\", {}]", 
        "eps": "1e-05", 
        "fix_gamma": "False", 
        "use_global_stats": "True"
      }, 
      "inputs": []
    }, 
    {
      "op": "null", 
      "name": "inception_3a_1x1_bn_moving_var", 
      "attrs": {
        "__init__": "[\"one\", {}]", 
        "eps": "1e-05", 
        "fix_gamma": "False", 
        "use_global_stats": "True"
      }, 
      "inputs": []
    }, 
    {
      "op": "BatchNorm", 
      "name": "inception_3a_1x1_bn", 
      "attrs": {
        "eps": "1e-05", 
        "fix_gamma": "False", 
        "use_global_stats": "True"
      }, 
      "inputs": [[28, 0, 0], [29, 0, 0], [30, 0, 0], [31, 0, 1], [32, 0, 1]]
    }, 
    {
      "op": "Activation", 
      "name": "inception_3a_1x1_relu", 
      "attrs": {"act_type": "relu"}, 
      "inputs": [[33, 0, 0]]
    }, 
    {
      "op": "null", 
      "name": "inception_3a_3x3_reduce_weight", 
      "attrs": {
        "kernel": "(1, 1)", 
        "no_bias": "True", 
        "num_filter": "64", 
        "pad": "(0, 0)", 
        "stride": "(1, 1)"
      }, 
      "inputs": []
    }, 
    {
      "op": "Convolution", 
      "name": "inception_3a_3x3_reduce", 
      "attrs": {
        "kernel": "(1, 1)", 
        "no_bias": "True", 
        "num_filter": "64", 
        "pad": "(0, 0)", 
        "stride": "(1, 1)"
      }, 
      "inputs": [[26, 0, 0], [35, 0, 0]]
    }, 
    {
      "op": "null", 
      "name": "inception_3a_3x3_reduce_bn_gamma", 
      "attrs": {
        "eps": "1e-05", 
        "fix_gamma": "False", 
        "use_global_stats": "True"
      }, 
      "inputs": []
    }, 
    {
      "op": "null", 
      "name": "inception_3a_3x3_reduce_bn_beta", 
      "attrs": {
        "eps": "1e-05", 
        "fix_gamma": "False", 
        "use_global_stats": "True"
      }, 
      "inputs": []
    }, 
    {
      "op": "null", 
      "name": "inception_3a_3x3_reduce_bn_moving_mean", 
      "attrs": {
        "__init__": "[\"zero\", {}]", 
        "eps": "1e-05", 
        "fix_gamma": "False", 
        "use_global_stats": "True"
      }, 
      "inputs": []
    }, 
    {
      "op": "null", 
      "name": "inception_3a_3x3_reduce_bn_moving_var", 
      "attrs": {
        "__init__": "[\"one\", {}]", 
        "eps": "1e-05", 
        "fix_gamma": "False", 
        "use_global_stats": "True"
      }, 
      "inputs": []
    }, 
    {
      "op": "BatchNorm", 
      "name": "inception_3a_3x3_reduce_bn", 
      "attrs": {
        "eps": "1e-05", 
        "fix_gamma": "False", 
        "use_global_stats": "True"
      }, 
      "inputs": [[36, 0, 0], [37, 0, 0], [38, 0, 0], [39, 0, 1], [40, 0, 1]]
    }, 
    {
      "op": "Activation", 
      "name": "inception_3a_3x3_reduce_relu", 
      "attrs": {"act_type": "relu"}, 
      "inputs": [[41, 0, 0]]
    }, 
    {
      "op": "null", 
      "name": "inception_3a_3x3_weight", 
      "attrs": {
        "kernel": "(3, 3)", 
        "no_bias": "True", 
        "num_filter": "64", 
        "pad": "(1, 1)", 
        "stride": "(1, 1)"
      }, 
      "inputs": []
    }, 
    {
      "op": "Convolution", 
      "name": "inception_3a_3x3", 
      "attrs": {
        "kernel": "(3, 3)", 
        "no_bias": "True", 
        "num_filter": "64", 
        "pad": "(1, 1)", 
        "stride": "(1, 1)"
      }, 
      "inputs": [[42, 0, 0], [43, 0, 0]]
    }, 
    {
      "op": "null", 
      "name": "inception_3a_3x3_bn_gamma", 
      "attrs": {
        "eps": "1e-05", 
        "fix_gamma": "False", 
        "use_global_stats": "True"
      }, 
      "inputs": []
    }, 
    {
      "op": "null", 
      "name": "inception_3a_3x3_bn_beta", 
      "attrs": {
        "eps": "1e-05", 
        "fix_gamma": "False", 
        "use_global_stats": "True"
      }, 
      "inputs": []
    }, 
    {
      "op": "null", 
      "name": "inception_3a_3x3_bn_moving_mean", 
      "attrs": {
        "__init__": "[\"zero\", {}]", 
        "eps": "1e-05", 
        "fix_gamma": "False", 
        "use_global_stats": "True"
      }, 
      "inputs": []
    }, 
    {
      "op": "null", 
      "name": "inception_3a_3x3_bn_moving_var", 
      "attrs": {
        "__init__": "[\"one\", {}]", 
        "eps": "1e-05", 
        "fix_gamma": "False", 
        "use_global_stats": "True"
      }, 
      "inputs": []
    }, 
    {
      "op": "BatchNorm", 
      "name": "inception_3a_3x3_bn", 
      "attrs": {
        "eps": "1e-05", 
        "fix_gamma": "False", 
        "use_global_stats": "True"
      }, 
      "inputs": [[44, 0, 0], [45, 0, 0], [46, 0, 0], [47, 0, 1], [48, 0, 1]]
    }, 
    {
      "op": "Activation", 
      "name": "inception_3a_3x3_relu", 
      "attrs": {"act_type": "relu"}, 
      "inputs": [[49, 0, 0]]
    }, 
    {
      "op": "null", 
      "name": "inception_3a_3x3_2_reduce_weight", 
      "attrs": {
        "kernel": "(1, 1)", 
        "no_bias": "True", 
        "num_filter": "64", 
        "pad": "(0, 0)", 
        "stride": "(1, 1)"
      }, 
      "inputs": []
    }, 
    {
      "op": "Convolution", 
      "name": "inception_3a_3x3_2_reduce", 
      "attrs": {
        "kernel": "(1, 1)", 
        "no_bias": "True", 
        "num_filter": "64", 
        "pad": "(0, 0)", 
        "stride": "(1, 1)"
      }, 
      "inputs": [[26, 0, 0], [51, 0, 0]]
    }, 
    {
      "op": "null", 
      "name": "inception_3a_3x3_2_reduce_bn_gamma", 
      "attrs": {
        "eps": "1e-05", 
        "fix_gamma": "False", 
        "use_global_stats": "True"
      }, 
      "inputs": []
    }, 
    {
      "op": "null", 
      "name": "inception_3a_3x3_2_reduce_bn_beta", 
      "attrs": {
        "eps": "1e-05", 
        "fix_gamma": "False", 
        "use_global_stats": "True"
      }, 
      "inputs": []
    }, 
    {
      "op": "null", 
      "name": "inception_3a_3x3_2_reduce_bn_moving_mean", 
      "attrs": {
        "__init__": "[\"zero\", {}]", 
        "eps": "1e-05", 
        "fix_gamma": "False", 
        "use_global_stats": "True"
      }, 
      "inputs": []
    }, 
    {
      "op": "null", 
      "name": "inception_3a_3x3_2_reduce_bn_moving_var", 
      "attrs": {
        "__init__": "[\"one\", {}]", 
        "eps": "1e-05", 
        "fix_gamma": "False", 
        "use_global_stats": "True"
      }, 
      "inputs": []
    }, 
    {
      "op": "BatchNorm", 
      "name": "inception_3a_3x3_2_reduce_bn", 
      "attrs": {
        "eps": "1e-05", 
        "fix_gamma": "False", 
        "use_global_stats": "True"
      }, 
      "inputs": [[52, 0, 0], [53, 0, 0], [54, 0, 0], [55, 0, 1], [56, 0, 1]]
    }, 
    {
      "op": "Activation", 
      "name": "inception_3a_3x3_2_reduce_relu", 
      "attrs": {"act_type": "relu"}, 
      "inputs": [[57, 0, 0]]
    }, 
    {
      "op": "null", 
      "name": "inception_3a_3x3_2_weight", 
      "attrs": {
        "kernel": "(3, 3)", 
        "no_bias": "True", 
        "num_filter": "96", 
        "pad": "(1, 1)", 
        "stride": "(1, 1)"
      }, 
      "inputs": []
    }, 
    {
      "op": "Convolution", 
      "name": "inception_3a_3x3_2", 
      "attrs": {
        "kernel": "(3, 3)", 
        "no_bias": "True", 
        "num_filter": "96", 
        "pad": "(1, 1)", 
        "stride": "(1, 1)"
      }, 
      "inputs": [[58, 0, 0], [59, 0, 0]]
    }, 
    {
      "op": "null", 
      "name": "inception_3a_3x3_2_bn_gamma", 
      "attrs": {
        "eps": "1e-05", 
        "fix_gamma": "False", 
        "use_global_stats": "True"
      }, 
      "inputs": []
    }, 
    {
      "op": "null", 
      "name": "inception_3a_3x3_2_bn_beta", 
      "attrs": {
        "eps": "1e-05", 
        "fix_gamma": "False", 
        "use_global_stats": "True"
      }, 
      "inputs": []
    }, 
    {
      "op": "null", 
      "name": "inception_3a_3x3_2_bn_moving_mean", 
      "attrs": {
        "__init__": "[\"zero\", {}]", 
        "eps": "1e-05", 
        "fix_gamma": "False", 
        "use_global_stats": "True"
      }, 
      "inputs": []
    }, 
    {
      "op": "null", 
      "name": "inception_3a_3x3_2_bn_moving_var", 
      "attrs": {
        "__init__": "[\"one\", {}]", 
        "eps": "1e-05", 
        "fix_gamma": "False", 
        "use_global_stats": "True"
      }, 
      "inputs": []
    }, 
    {
      "op": "BatchNorm", 
      "name": "inception_3a_3x3_2_bn", 
      "attrs": {
        "eps": "1e-05", 
        "fix_gamma": "False", 
        "use_global_stats": "True"
      }, 
      "inputs": [[60, 0, 0], [61, 0, 0], [62, 0, 0], [63, 0, 1], [64, 0, 1]]
    }, 
    {
      "op": "Activation", 
      "name": "inception_3a_3x3_2_relu", 
      "attrs": {"act_type": "relu"}, 
      "inputs": [[65, 0, 0]]
    }, 
    {
      "op": "null", 
      "name": "inception_3a_3x3_3_weight", 
      "attrs": {
        "kernel": "(3, 3)", 
        "no_bias": "True", 
        "num_filter": "96", 
        "pad": "(1, 1)", 
        "stride": "(1, 1)"
      }, 
      "inputs": []
    }, 
    {
      "op": "Convolution", 
      "name": "inception_3a_3x3_3", 
      "attrs": {
        "kernel": "(3, 3)", 
        "no_bias": "True", 
        "num_filter": "96", 
        "pad": "(1, 1)", 
        "stride": "(1, 1)"
      }, 
      "inputs": [[66, 0, 0], [67, 0, 0]]
    }, 
    {
      "op": "null", 
      "name": "inception_3a_3x3_3_bn_gamma", 
      "attrs": {
        "eps": "1e-05", 
        "fix_gamma": "False", 
        "use_global_stats": "True"
      }, 
      "inputs": []
    }, 
    {
      "op": "null", 
      "name": "inception_3a_3x3_3_bn_beta", 
      "attrs": {
        "eps": "1e-05", 
        "fix_gamma": "False", 
        "use_global_stats": "True"
      }, 
      "inputs": []
    }, 
    {
      "op": "null", 
      "name": "inception_3a_3x3_3_bn_moving_mean", 
      "attrs": {
        "__init__": "[\"zero\", {}]", 
        "eps": "1e-05", 
        "fix_gamma": "False", 
        "use_global_stats": "True"
      }, 
      "inputs": []
    }, 
    {
      "op": "null", 
      "name": "inception_3a_3x3_3_bn_moving_var", 
      "attrs": {
        "__init__": "[\"one\", {}]", 
        "eps": "1e-05", 
        "fix_gamma": "False", 
        "use_global_stats": "True"
      }, 
      "inputs": []
    }, 
    {
      "op": "BatchNorm", 
      "name": "inception_3a_3x3_3_bn", 
      "attrs": {
        "eps": "1e-05", 
        "fix_gamma": "False", 
        "use_global_stats": "True"
      }, 
      "inputs": [[68, 0, 0], [69, 0, 0], [70, 0, 0], [71, 0, 1], [72, 0, 1]]
    }, 
    {
      "op": "Activation", 
      "name": "inception_3a_3x3_3_relu", 
      "attrs": {"act_type": "relu"}, 
      "inputs": [[73, 0, 0]]
    }, 
    {
      "op": "Pooling", 
      "name": "inception_3a_avg_pool", 
      "attrs": {
        "kernel": "(3, 3)", 
        "pad": "(1, 1)", 
        "pool_type": "avg", 
        "stride": "(1, 1)"
      }, 
      "inputs": [[26, 0, 0]]
    }, 
    {
      "op": "null", 
      "name": "inception_3a_pool_proj_weight", 
      "attrs": {
        "kernel": "(1, 1)", 
        "no_bias": "True", 
        "num_filter": "32", 
        "pad": "(0, 0)", 
        "stride": "(1, 1)"
      }, 
      "inputs": []
    }, 
    {
      "op": "Convolution", 
      "name": "inception_3a_pool_proj", 
      "attrs": {
        "kernel": "(1, 1)", 
        "no_bias": "True", 
        "num_filter": "32", 
        "pad": "(0, 0)", 
        "stride": "(1, 1)"
      }, 
      "inputs": [[75, 0, 0], [76, 0, 0]]
    }, 
    {
      "op": "null", 
      "name": "inception_3a_pool_proj_bn_gamma", 
      "attrs": {
        "eps": "1e-05", 
        "fix_gamma": "False", 
        "use_global_stats": "True"
      }, 
      "inputs": []
    }, 
    {
      "op": "null", 
      "name": "inception_3a_pool_proj_bn_beta", 
      "attrs": {
        "eps": "1e-05", 
        "fix_gamma": "False", 
        "use_global_stats": "True"
      }, 
      "inputs": []
    }, 
    {
      "op": "null", 
      "name": "inception_3a_pool_proj_bn_moving_mean", 
      "attrs": {
        "__init__": "[\"zero\", {}]", 
        "eps": "1e-05", 
        "fix_gamma": "False", 
        "use_global_stats": "True"
      }, 
      "inputs": []
    }, 
    {
      "op": "null", 
      "name": "inception_3a_pool_proj_bn_moving_var", 
      "attrs": {
        "__init__": "[\"one\", {}]", 
        "eps": "1e-05", 
        "fix_gamma": "False", 
        "use_global_stats": "True"
      }, 
      "inputs": []
    }, 
    {
      "op": "BatchNorm", 
      "name": "inception_3a_pool_proj_bn", 
      "attrs": {
        "eps": "1e-05", 
        "fix_gamma": "False", 
        "use_global_stats": "True"
      }, 
      "inputs": [[77, 0, 0], [78, 0, 0], [79, 0, 0], [80, 0, 1], [81, 0, 1]]
    }, 
    {
      "op": "Activation", 
      "name": "inception_3a_pool_proj_relu", 
      "attrs": {"act_type": "relu"}, 
      "inputs": [[82, 0, 0]]
    }, 
    {
      "op": "Concat", 
      "name": "inception_3a_concat", 
      "attrs": {"num_args": "4"}, 
      "inputs": [[34, 0, 0], [50, 0, 0], [74, 0, 0], [83, 0, 0]]
    }, 
    {
      "op": "Pooling", 
      "name": "inception_3a_global_pool", 
      "attrs": {
        "global_pool": "True", 
        "kernel": "(7, 7)", 
        "pool_type": "avg", 
        "pooling_convention": "full"
      }, 
      "inputs": [[84, 0, 0]]
    }, 
    {
      "op": "null", 
      "name": "inception_3a_1x1_down_weight", 
      "attrs": {
        "kernel": "(1, 1)", 
        "no_bias": "False", 
        "num_filter": "16", 
        "stride": "(1, 1)"
      }, 
      "inputs": []
    }, 
    {
      "op": "null", 
      "name": "inception_3a_1x1_down_bias", 
      "attrs": {
        "kernel": "(1, 1)", 
        "no_bias": "False", 
        "num_filter": "16", 
        "stride": "(1, 1)"
      }, 
      "inputs": []
    }, 
    {
      "op": "Convolution", 
      "name": "inception_3a_1x1_down", 
      "attrs": {
        "kernel": "(1, 1)", 
        "no_bias": "False", 
        "num_filter": "16", 
        "stride": "(1, 1)"
      }, 
      "inputs": [[85, 0, 0], [86, 0, 0], [87, 0, 0]]
    }, 
    {
      "op": "Activation", 
      "name": "inception_3a_1x1_down_relu", 
      "attrs": {"act_type": "relu"}, 
      "inputs": [[88, 0, 0]]
    }, 
    {
      "op": "null", 
      "name": "inception_3a_1x1_up_weight", 
      "attrs": {
        "kernel": "(1, 1)", 
        "no_bias": "False", 
        "num_filter": "256", 
        "pad": "(0, 0)", 
        "stride": "(1, 1)"
      }, 
      "inputs": []
    }, 
    {
      "op": "null", 
      "name": "inception_3a_1x1_up_bias", 
      "attrs": {
        "kernel": "(1, 1)", 
        "no_bias": "False", 
        "num_filter": "256", 
        "pad": "(0, 0)", 
        "stride": "(1, 1)"
      }, 
      "inputs": []
    }, 
    {
      "op": "Convolution", 
      "name": "inception_3a_1x1_up", 
      "attrs": {
        "kernel": "(1, 1)", 
        "no_bias": "False", 
        "num_filter": "256", 
        "pad": "(0, 0)", 
        "stride": "(1, 1)"
      }, 
      "inputs": [[89, 0, 0], [90, 0, 0], [91, 0, 0]]
    }, 
    {
      "op": "Activation", 
      "name": "inception_3a_1x1_up_prob", 
      "attrs": {"act_type": "sigmoid"}, 
      "inputs": [[92, 0, 0]]
    }, 
    {
      "op": "Reshape", 
      "name": "reshape0", 
      "attrs": {"shape": "(-1, 256, 1, 1)"}, 
      "inputs": [[93, 0, 0]]
    }, 
    {
      "op": "broadcast_mul", 
      "name": "broadcast_mul0", 
      "inputs": [[84, 0, 0], [94, 0, 0]]
    }, 
    {
      "op": "null", 
      "name": "inception_3b_1x1_weight", 
      "attrs": {
        "kernel": "(1, 1)", 
        "no_bias": "True", 
        "num_filter": "64", 
        "pad": "(0, 0)", 
        "stride": "(1, 1)"
      }, 
      "inputs": []
    }, 
    {
      "op": "Convolution", 
      "name": "inception_3b_1x1", 
      "attrs": {
        "kernel": "(1, 1)", 
        "no_bias": "True", 
        "num_filter": "64", 
        "pad": "(0, 0)", 
        "stride": "(1, 1)"
      }, 
      "inputs": [[95, 0, 0], [96, 0, 0]]
    }, 
    {
      "op": "null", 
      "name": "inception_3b_1x1_bn_gamma", 
      "attrs": {
        "eps": "1e-05", 
        "fix_gamma": "False", 
        "use_global_stats": "True"
      }, 
      "inputs": []
    }, 
    {
      "op": "null", 
      "name": "inception_3b_1x1_bn_beta", 
      "attrs": {
        "eps": "1e-05", 
        "fix_gamma": "False", 
        "use_global_stats": "True"
      }, 
      "inputs": []
    }, 
    {
      "op": "null", 
      "name": "inception_3b_1x1_bn_moving_mean", 
      "attrs": {
        "__init__": "[\"zero\", {}]", 
        "eps": "1e-05", 
        "fix_gamma": "False", 
        "use_global_stats": "True"
      }, 
      "inputs": []
    }, 
    {
      "op": "null", 
      "name": "inception_3b_1x1_bn_moving_var", 
      "attrs": {
        "__init__": "[\"one\", {}]", 
        "eps": "1e-05", 
        "fix_gamma": "False", 
        "use_global_stats": "True"
      }, 
      "inputs": []
    }, 
    {
      "op": "BatchNorm", 
      "name": "inception_3b_1x1_bn", 
      "attrs": {
        "eps": "1e-05", 
        "fix_gamma": "False", 
        "use_global_stats": "True"
      }, 
      "inputs": [[97, 0, 0], [98, 0, 0], [99, 0, 0], [100, 0, 1], [101, 0, 1]]
    }, 
    {
      "op": "Activation", 
      "name": "inception_3b_1x1_relu", 
      "attrs": {"act_type": "relu"}, 
      "inputs": [[102, 0, 0]]
    }, 
    {
      "op": "null", 
      "name": "inception_3b_3x3_reduce_weight", 
      "attrs": {
        "kernel": "(1, 1)", 
        "no_bias": "True", 
        "num_filter": "64", 
        "pad": "(0, 0)", 
        "stride": "(1, 1)"
      }, 
      "inputs": []
    }, 
    {
      "op": "Convolution", 
      "name": "inception_3b_3x3_reduce", 
      "attrs": {
        "kernel": "(1, 1)", 
        "no_bias": "True", 
        "num_filter": "64", 
        "pad": "(0, 0)", 
        "stride": "(1, 1)"
      }, 
      "inputs": [[95, 0, 0], [104, 0, 0]]
    }, 
    {
      "op": "null", 
      "name": "inception_3b_3x3_reduce_bn_gamma", 
      "attrs": {
        "eps": "1e-05", 
        "fix_gamma": "False", 
        "use_global_stats": "True"
      }, 
      "inputs": []
    }, 
    {
      "op": "null", 
      "name": "inception_3b_3x3_reduce_bn_beta", 
      "attrs": {
        "eps": "1e-05", 
        "fix_gamma": "False", 
        "use_global_stats": "True"
      }, 
      "inputs": []
    }, 
    {
      "op": "null", 
      "name": "inception_3b_3x3_reduce_bn_moving_mean", 
      "attrs": {
        "__init__": "[\"zero\", {}]", 
        "eps": "1e-05", 
        "fix_gamma": "False", 
        "use_global_stats": "True"
      }, 
      "inputs": []
    }, 
    {
      "op": "null", 
      "name": "inception_3b_3x3_reduce_bn_moving_var", 
      "attrs": {
        "__init__": "[\"one\", {}]", 
        "eps": "1e-05", 
        "fix_gamma": "False", 
        "use_global_stats": "True"
      }, 
      "inputs": []
    }, 
    {
      "op": "BatchNorm", 
      "name": "inception_3b_3x3_reduce_bn", 
      "attrs": {
        "eps": "1e-05", 
        "fix_gamma": "False", 
        "use_global_stats": "True"
      }, 
      "inputs": [[105, 0, 0], [106, 0, 0], [107, 0, 0], [108, 0, 1], [109, 0, 1]]
    }, 
    {
      "op": "Activation", 
      "name": "inception_3b_3x3_reduce_relu", 
      "attrs": {"act_type": "relu"}, 
      "inputs": [[110, 0, 0]]
    }, 
    {
      "op": "null", 
      "name": "inception_3b_3x3_weight", 
      "attrs": {
        "kernel": "(3, 3)", 
        "no_bias": "True", 
        "num_filter": "96", 
        "pad": "(1, 1)", 
        "stride": "(1, 1)"
      }, 
      "inputs": []
    }, 
    {
      "op": "Convolution", 
      "name": "inception_3b_3x3", 
      "attrs": {
        "kernel": "(3, 3)", 
        "no_bias": "True", 
        "num_filter": "96", 
        "pad": "(1, 1)", 
        "stride": "(1, 1)"
      }, 
      "inputs": [[111, 0, 0], [112, 0, 0]]
    }, 
    {
      "op": "null", 
      "name": "inception_3b_3x3_bn_gamma", 
      "attrs": {
        "eps": "1e-05", 
        "fix_gamma": "False", 
        "use_global_stats": "True"
      }, 
      "inputs": []
    }, 
    {
      "op": "null", 
      "name": "inception_3b_3x3_bn_beta", 
      "attrs": {
        "eps": "1e-05", 
        "fix_gamma": "False", 
        "use_global_stats": "True"
      }, 
      "inputs": []
    }, 
    {
      "op": "null", 
      "name": "inception_3b_3x3_bn_moving_mean", 
      "attrs": {
        "__init__": "[\"zero\", {}]", 
        "eps": "1e-05", 
        "fix_gamma": "False", 
        "use_global_stats": "True"
      }, 
      "inputs": []
    }, 
    {
      "op": "null", 
      "name": "inception_3b_3x3_bn_moving_var", 
      "attrs": {
        "__init__": "[\"one\", {}]", 
        "eps": "1e-05", 
        "fix_gamma": "False", 
        "use_global_stats": "True"
      }, 
      "inputs": []
    }, 
    {
      "op": "BatchNorm", 
      "name": "inception_3b_3x3_bn", 
      "attrs": {
        "eps": "1e-05", 
        "fix_gamma": "False", 
        "use_global_stats": "True"
      }, 
      "inputs": [[113, 0, 0], [114, 0, 0], [115, 0, 0], [116, 0, 1], [117, 0, 1]]
    }, 
    {
      "op": "Activation", 
      "name": "inception_3b_3x3_relu", 
      "attrs": {"act_type": "relu"}, 
      "inputs": [[118, 0, 0]]
    }, 
    {
      "op": "null", 
      "name": "inception_3b_3x3_2_reduce_weight", 
      "attrs": {
        "kernel": "(1, 1)", 
        "no_bias": "True", 
        "num_filter": "64", 
        "pad": "(0, 0)", 
        "stride": "(1, 1)"
      }, 
      "inputs": []
    }, 
    {
      "op": "Convolution", 
      "name": "inception_3b_3x3_2_reduce", 
      "attrs": {
        "kernel": "(1, 1)", 
        "no_bias": "True", 
        "num_filter": "64", 
        "pad": "(0, 0)", 
        "stride": "(1, 1)"
      }, 
      "inputs": [[95, 0, 0], [120, 0, 0]]
    }, 
    {
      "op": "null", 
      "name": "inception_3b_3x3_2_reduce_bn_gamma", 
      "attrs": {
        "eps": "1e-05", 
        "fix_gamma": "False", 
        "use_global_stats": "True"
      }, 
      "inputs": []
    }, 
    {
      "op": "null", 
      "name": "inception_3b_3x3_2_reduce_bn_beta", 
      "attrs": {
        "eps": "1e-05", 
        "fix_gamma": "False", 
        "use_global_stats": "True"
      }, 
      "inputs": []
    }, 
    {
      "op": "null", 
      "name": "inception_3b_3x3_2_reduce_bn_moving_mean", 
      "attrs": {
        "__init__": "[\"zero\", {}]", 
        "eps": "1e-05", 
        "fix_gamma": "False", 
        "use_global_stats": "True"
      }, 
      "inputs": []
    }, 
    {
      "op": "null", 
      "name": "inception_3b_3x3_2_reduce_bn_moving_var", 
      "attrs": {
        "__init__": "[\"one\", {}]", 
        "eps": "1e-05", 
        "fix_gamma": "False", 
        "use_global_stats": "True"
      }, 
      "inputs": []
    }, 
    {
      "op": "BatchNorm", 
      "name": "inception_3b_3x3_2_reduce_bn", 
      "attrs": {
        "eps": "1e-05", 
        "fix_gamma": "False", 
        "use_global_stats": "True"
      }, 
      "inputs": [[121, 0, 0], [122, 0, 0], [123, 0, 0], [124, 0, 1], [125, 0, 1]]
    }, 
    {
      "op": "Activation", 
      "name": "inception_3b_3x3_2_reduce_relu", 
      "attrs": {"act_type": "relu"}, 
      "inputs": [[126, 0, 0]]
    }, 
    {
      "op": "null", 
      "name": "inception_3b_3x3_2_weight", 
      "attrs": {
        "kernel": "(3, 3)", 
        "no_bias": "True", 
        "num_filter": "96", 
        "pad": "(1, 1)", 
        "stride": "(1, 1)"
      }, 
      "inputs": []
    }, 
    {
      "op": "Convolution", 
      "name": "inception_3b_3x3_2", 
      "attrs": {
        "kernel": "(3, 3)", 
        "no_bias": "True", 
        "num_filter": "96", 
        "pad": "(1, 1)", 
        "stride": "(1, 1)"
      }, 
      "inputs": [[127, 0, 0], [128, 0, 0]]
    }, 
    {
      "op": "null", 
      "name": "inception_3b_3x3_2_bn_gamma", 
      "attrs": {
        "eps": "1e-05", 
        "fix_gamma": "False", 
        "use_global_stats": "True"
      }, 
      "inputs": []
    }, 
    {
      "op": "null", 
      "name": "inception_3b_3x3_2_bn_beta", 
      "attrs": {
        "eps": "1e-05", 
        "fix_gamma": "False", 
        "use_global_stats": "True"
      }, 
      "inputs": []
    }, 
    {
      "op": "null", 
      "name": "inception_3b_3x3_2_bn_moving_mean", 
      "attrs": {
        "__init__": "[\"zero\", {}]", 
        "eps": "1e-05", 
        "fix_gamma": "False", 
        "use_global_stats": "True"
      }, 
      "inputs": []
    }, 
    {
      "op": "null", 
      "name": "inception_3b_3x3_2_bn_moving_var", 
      "attrs": {
        "__init__": "[\"one\", {}]", 
        "eps": "1e-05", 
        "fix_gamma": "False", 
        "use_global_stats": "True"
      }, 
      "inputs": []
    }, 
    {
      "op": "BatchNorm", 
      "name": "inception_3b_3x3_2_bn", 
      "attrs": {
        "eps": "1e-05", 
        "fix_gamma": "False", 
        "use_global_stats": "True"
      }, 
      "inputs": [[129, 0, 0], [130, 0, 0], [131, 0, 0], [132, 0, 1], [133, 0, 1]]
    }, 
    {
      "op": "Activation", 
      "name": "inception_3b_3x3_2_relu", 
      "attrs": {"act_type": "relu"}, 
      "inputs": [[134, 0, 0]]
    }, 
    {
      "op": "null", 
      "name": "inception_3b_3x3_3_weight", 
      "attrs": {
        "kernel": "(3, 3)", 
        "no_bias": "True", 
        "num_filter": "96", 
        "pad": "(1, 1)", 
        "stride": "(1, 1)"
      }, 
      "inputs": []
    }, 
    {
      "op": "Convolution", 
      "name": "inception_3b_3x3_3", 
      "attrs": {
        "kernel": "(3, 3)", 
        "no_bias": "True", 
        "num_filter": "96", 
        "pad": "(1, 1)", 
        "stride": "(1, 1)"
      }, 
      "inputs": [[135, 0, 0], [136, 0, 0]]
    }, 
    {
      "op": "null", 
      "name": "inception_3b_3x3_3_bn_gamma", 
      "attrs": {
        "eps": "1e-05", 
        "fix_gamma": "False", 
        "use_global_stats": "True"
      }, 
      "inputs": []
    }, 
    {
      "op": "null", 
      "name": "inception_3b_3x3_3_bn_beta", 
      "attrs": {
        "eps": "1e-05", 
        "fix_gamma": "False", 
        "use_global_stats": "True"
      }, 
      "inputs": []
    }, 
    {
      "op": "null", 
      "name": "inception_3b_3x3_3_bn_moving_mean", 
      "attrs": {
        "__init__": "[\"zero\", {}]", 
        "eps": "1e-05", 
        "fix_gamma": "False", 
        "use_global_stats": "True"
      }, 
      "inputs": []
    }, 
    {
      "op": "null", 
      "name": "inception_3b_3x3_3_bn_moving_var", 
      "attrs": {
        "__init__": "[\"one\", {}]", 
        "eps": "1e-05", 
        "fix_gamma": "False", 
        "use_global_stats": "True"
      }, 
      "inputs": []
    }, 
    {
      "op": "BatchNorm", 
      "name": "inception_3b_3x3_3_bn", 
      "attrs": {
        "eps": "1e-05", 
        "fix_gamma": "False", 
        "use_global_stats": "True"
      }, 
      "inputs": [[137, 0, 0], [138, 0, 0], [139, 0, 0], [140, 0, 1], [141, 0, 1]]
    }, 
    {
      "op": "Activation", 
      "name": "inception_3b_3x3_3_relu", 
      "attrs": {"act_type": "relu"}, 
      "inputs": [[142, 0, 0]]
    }, 
    {
      "op": "Pooling", 
      "name": "inception_3b_avg_pool", 
      "attrs": {
        "kernel": "(3, 3)", 
        "pad": "(1, 1)", 
        "pool_type": "avg", 
        "stride": "(1, 1)"
      }, 
      "inputs": [[95, 0, 0]]
    }, 
    {
      "op": "null", 
      "name": "inception_3b_pool_proj_weight", 
      "attrs": {
        "kernel": "(1, 1)", 
        "no_bias": "True", 
        "num_filter": "64", 
        "pad": "(0, 0)", 
        "stride": "(1, 1)"
      }, 
      "inputs": []
    }, 
    {
      "op": "Convolution", 
      "name": "inception_3b_pool_proj", 
      "attrs": {
        "kernel": "(1, 1)", 
        "no_bias": "True", 
        "num_filter": "64", 
        "pad": "(0, 0)", 
        "stride": "(1, 1)"
      }, 
      "inputs": [[144, 0, 0], [145, 0, 0]]
    }, 
    {
      "op": "null", 
      "name": "inception_3b_pool_proj_bn_gamma", 
      "attrs": {
        "eps": "1e-05", 
        "fix_gamma": "False", 
        "use_global_stats": "True"
      }, 
      "inputs": []
    }, 
    {
      "op": "null", 
      "name": "inception_3b_pool_proj_bn_beta", 
      "attrs": {
        "eps": "1e-05", 
        "fix_gamma": "False", 
        "use_global_stats": "True"
      }, 
      "inputs": []
    }, 
    {
      "op": "null", 
      "name": "inception_3b_pool_proj_bn_moving_mean", 
      "attrs": {
        "__init__": "[\"zero\", {}]", 
        "eps": "1e-05", 
        "fix_gamma": "False", 
        "use_global_stats": "True"
      }, 
      "inputs": []
    }, 
    {
      "op": "null", 
      "name": "inception_3b_pool_proj_bn_moving_var", 
      "attrs": {
        "__init__": "[\"one\", {}]", 
        "eps": "1e-05", 
        "fix_gamma": "False", 
        "use_global_stats": "True"
      }, 
      "inputs": []
    }, 
    {
      "op": "BatchNorm", 
      "name": "inception_3b_pool_proj_bn", 
      "attrs": {
        "eps": "1e-05", 
        "fix_gamma": "False", 
        "use_global_stats": "True"
      }, 
      "inputs": [[146, 0, 0], [147, 0, 0], [148, 0, 0], [149, 0, 1], [150, 0, 1]]
    }, 
    {
      "op": "Activation", 
      "name": "inception_3b_pool_proj_relu", 
      "attrs": {"act_type": "relu"}, 
      "inputs": [[151, 0, 0]]
    }, 
    {
      "op": "Concat", 
      "name": "inception_3b_concat", 
      "attrs": {"num_args": "4"}, 
      "inputs": [[103, 0, 0], [119, 0, 0], [143, 0, 0], [152, 0, 0]]
    }, 
    {
      "op": "Pooling", 
      "name": "inception_3b_global_pool", 
      "attrs": {
        "global_pool": "True", 
        "kernel": "(7, 7)", 
        "pool_type": "avg", 
        "pooling_convention": "full"
      }, 
      "inputs": [[153, 0, 0]]
    }, 
    {
      "op": "null", 
      "name": "inception_3b_1x1_down_weight", 
      "attrs": {
        "kernel": "(1, 1)", 
        "no_bias": "False", 
        "num_filter": "20", 
        "stride": "(1, 1)"
      }, 
      "inputs": []
    }, 
    {
      "op": "null", 
      "name": "inception_3b_1x1_down_bias", 
      "attrs": {
        "kernel": "(1, 1)", 
        "no_bias": "False", 
        "num_filter": "20", 
        "stride": "(1, 1)"
      }, 
      "inputs": []
    }, 
    {
      "op": "Convolution", 
      "name": "inception_3b_1x1_down", 
      "attrs": {
        "kernel": "(1, 1)", 
        "no_bias": "False", 
        "num_filter": "20", 
        "stride": "(1, 1)"
      }, 
      "inputs": [[154, 0, 0], [155, 0, 0], [156, 0, 0]]
    }, 
    {
      "op": "Activation", 
      "name": "inception_3b_1x1_down_relu", 
      "attrs": {"act_type": "relu"}, 
      "inputs": [[157, 0, 0]]
    }, 
    {
      "op": "null", 
      "name": "inception_3b_1x1_up_weight", 
      "attrs": {
        "kernel": "(1, 1)", 
        "no_bias": "False", 
        "num_filter": "320", 
        "pad": "(0, 0)", 
        "stride": "(1, 1)"
      }, 
      "inputs": []
    }, 
    {
      "op": "null", 
      "name": "inception_3b_1x1_up_bias", 
      "attrs": {
        "kernel": "(1, 1)", 
        "no_bias": "False", 
        "num_filter": "320", 
        "pad": "(0, 0)", 
        "stride": "(1, 1)"
      }, 
      "inputs": []
    }, 
    {
      "op": "Convolution", 
      "name": "inception_3b_1x1_up", 
      "attrs": {
        "kernel": "(1, 1)", 
        "no_bias": "False", 
        "num_filter": "320", 
        "pad": "(0, 0)", 
        "stride": "(1, 1)"
      }, 
      "inputs": [[158, 0, 0], [159, 0, 0], [160, 0, 0]]
    }, 
    {
      "op": "Activation", 
      "name": "inception_3b_1x1_up_prob", 
      "attrs": {"act_type": "sigmoid"}, 
      "inputs": [[161, 0, 0]]
    }, 
    {
      "op": "Reshape", 
      "name": "reshape1", 
      "attrs": {"shape": "(-1, 320, 1, 1)"}, 
      "inputs": [[162, 0, 0]]
    }, 
    {
      "op": "broadcast_mul", 
      "name": "broadcast_mul1", 
      "inputs": [[153, 0, 0], [163, 0, 0]]
    }, 
    {
      "op": "null", 
      "name": "inception_3c_3x3_reduce_weight", 
      "attrs": {
        "kernel": "(1, 1)", 
        "no_bias": "True", 
        "num_filter": "128", 
        "pad": "(0, 0)", 
        "stride": "(1, 1)"
      }, 
      "inputs": []
    }, 
    {
      "op": "Convolution", 
      "name": "inception_3c_3x3_reduce", 
      "attrs": {
        "kernel": "(1, 1)", 
        "no_bias": "True", 
        "num_filter": "128", 
        "pad": "(0, 0)", 
        "stride": "(1, 1)"
      }, 
      "inputs": [[164, 0, 0], [165, 0, 0]]
    }, 
    {
      "op": "null", 
      "name": "inception_3c_3x3_reduce_bn_gamma", 
      "attrs": {
        "eps": "1e-05", 
        "fix_gamma": "False", 
        "use_global_stats": "True"
      }, 
      "inputs": []
    }, 
    {
      "op": "null", 
      "name": "inception_3c_3x3_reduce_bn_beta", 
      "attrs": {
        "eps": "1e-05", 
        "fix_gamma": "False", 
        "use_global_stats": "True"
      }, 
      "inputs": []
    }, 
    {
      "op": "null", 
      "name": "inception_3c_3x3_reduce_bn_moving_mean", 
      "attrs": {
        "__init__": "[\"zero\", {}]", 
        "eps": "1e-05", 
        "fix_gamma": "False", 
        "use_global_stats": "True"
      }, 
      "inputs": []
    }, 
    {
      "op": "null", 
      "name": "inception_3c_3x3_reduce_bn_moving_var", 
      "attrs": {
        "__init__": "[\"one\", {}]", 
        "eps": "1e-05", 
        "fix_gamma": "False", 
        "use_global_stats": "True"
      }, 
      "inputs": []
    }, 
    {
      "op": "BatchNorm", 
      "name": "inception_3c_3x3_reduce_bn", 
      "attrs": {
        "eps": "1e-05", 
        "fix_gamma": "False", 
        "use_global_stats": "True"
      }, 
      "inputs": [[166, 0, 0], [167, 0, 0], [168, 0, 0], [169, 0, 1], [170, 0, 1]]
    }, 
    {
      "op": "Activation", 
      "name": "inception_3c_3x3_reduce_relu", 
      "attrs": {"act_type": "relu"}, 
      "inputs": [[171, 0, 0]]
    }, 
    {
      "op": "null", 
      "name": "inception_3c_3x3_weight", 
      "attrs": {
        "kernel": "(3, 3)", 
        "no_bias": "True", 
        "num_filter": "160", 
        "pad": "(1, 1)", 
        "stride": "(2, 2)"
      }, 
      "inputs": []
    }, 
    {
      "op": "Convolution", 
      "name": "inception_3c_3x3", 
      "attrs": {
        "kernel": "(3, 3)", 
        "no_bias": "True", 
        "num_filter": "160", 
        "pad": "(1, 1)", 
        "stride": "(2, 2)"
      }, 
      "inputs": [[172, 0, 0], [173, 0, 0]]
    }, 
    {
      "op": "null", 
      "name": "inception_3c_3x3_bn_gamma", 
      "attrs": {
        "eps": "1e-05", 
        "fix_gamma": "False", 
        "use_global_stats": "True"
      }, 
      "inputs": []
    }, 
    {
      "op": "null", 
      "name": "inception_3c_3x3_bn_beta", 
      "attrs": {
        "eps": "1e-05", 
        "fix_gamma": "False", 
        "use_global_stats": "True"
      }, 
      "inputs": []
    }, 
    {
      "op": "null", 
      "name": "inception_3c_3x3_bn_moving_mean", 
      "attrs": {
        "__init__": "[\"zero\", {}]", 
        "eps": "1e-05", 
        "fix_gamma": "False", 
        "use_global_stats": "True"
      }, 
      "inputs": []
    }, 
    {
      "op": "null", 
      "name": "inception_3c_3x3_bn_moving_var", 
      "attrs": {
        "__init__": "[\"one\", {}]", 
        "eps": "1e-05", 
        "fix_gamma": "False", 
        "use_global_stats": "True"
      }, 
      "inputs": []
    }, 
    {
      "op": "BatchNorm", 
      "name": "inception_3c_3x3_bn", 
      "attrs": {
        "eps": "1e-05", 
        "fix_gamma": "False", 
        "use_global_stats": "True"
      }, 
      "inputs": [[174, 0, 0], [175, 0, 0], [176, 0, 0], [177, 0, 1], [178, 0, 1]]
    }, 
    {
      "op": "Activation", 
      "name": "inception_3c_3x3_relu", 
      "attrs": {"act_type": "relu"}, 
      "inputs": [[179, 0, 0]]
    }, 
    {
      "op": "null", 
      "name": "inception_3c_3x3_2_reduce_weight", 
      "attrs": {
        "kernel": "(1, 1)", 
        "no_bias": "True", 
        "num_filter": "64", 
        "pad": "(0, 0)", 
        "stride": "(1, 1)"
      }, 
      "inputs": []
    }, 
    {
      "op": "Convolution", 
      "name": "inception_3c_3x3_2_reduce", 
      "attrs": {
        "kernel": "(1, 1)", 
        "no_bias": "True", 
        "num_filter": "64", 
        "pad": "(0, 0)", 
        "stride": "(1, 1)"
      }, 
      "inputs": [[164, 0, 0], [181, 0, 0]]
    }, 
    {
      "op": "null", 
      "name": "inception_3c_3x3_2_reduce_bn_gamma", 
      "attrs": {
        "eps": "1e-05", 
        "fix_gamma": "False", 
        "use_global_stats": "True"
      }, 
      "inputs": []
    }, 
    {
      "op": "null", 
      "name": "inception_3c_3x3_2_reduce_bn_beta", 
      "attrs": {
        "eps": "1e-05", 
        "fix_gamma": "False", 
        "use_global_stats": "True"
      }, 
      "inputs": []
    }, 
    {
      "op": "null", 
      "name": "inception_3c_3x3_2_reduce_bn_moving_mean", 
      "attrs": {
        "__init__": "[\"zero\", {}]", 
        "eps": "1e-05", 
        "fix_gamma": "False", 
        "use_global_stats": "True"
      }, 
      "inputs": []
    }, 
    {
      "op": "null", 
      "name": "inception_3c_3x3_2_reduce_bn_moving_var", 
      "attrs": {
        "__init__": "[\"one\", {}]", 
        "eps": "1e-05", 
        "fix_gamma": "False", 
        "use_global_stats": "True"
      }, 
      "inputs": []
    }, 
    {
      "op": "BatchNorm", 
      "name": "inception_3c_3x3_2_reduce_bn", 
      "attrs": {
        "eps": "1e-05", 
        "fix_gamma": "False", 
        "use_global_stats": "True"
      }, 
      "inputs": [[182, 0, 0], [183, 0, 0], [184, 0, 0], [185, 0, 1], [186, 0, 1]]
    }, 
    {
      "op": "Activation", 
      "name": "inception_3c_3x3_2_reduce_relu", 
      "attrs": {"act_type": "relu"}, 
      "inputs": [[187, 0, 0]]
    }, 
    {
      "op": "null", 
      "name": "inception_3c_3x3_2_weight", 
      "attrs": {
        "kernel": "(3, 3)", 
        "no_bias": "True", 
        "num_filter": "96", 
        "pad": "(1, 1)", 
        "stride": "(1, 1)"
      }, 
      "inputs": []
    }, 
    {
      "op": "Convolution", 
      "name": "inception_3c_3x3_2", 
      "attrs": {
        "kernel": "(3, 3)", 
        "no_bias": "True", 
        "num_filter": "96", 
        "pad": "(1, 1)", 
        "stride": "(1, 1)"
      }, 
      "inputs": [[188, 0, 0], [189, 0, 0]]
    }, 
    {
      "op": "null", 
      "name": "inception_3c_3x3_2_bn_gamma", 
      "attrs": {
        "eps": "1e-05", 
        "fix_gamma": "False", 
        "use_global_stats": "True"
      }, 
      "inputs": []
    }, 
    {
      "op": "null", 
      "name": "inception_3c_3x3_2_bn_beta", 
      "attrs": {
        "eps": "1e-05", 
        "fix_gamma": "False", 
        "use_global_stats": "True"
      }, 
      "inputs": []
    }, 
    {
      "op": "null", 
      "name": "inception_3c_3x3_2_bn_moving_mean", 
      "attrs": {
        "__init__": "[\"zero\", {}]", 
        "eps": "1e-05", 
        "fix_gamma": "False", 
        "use_global_stats": "True"
      }, 
      "inputs": []
    }, 
    {
      "op": "null", 
      "name": "inception_3c_3x3_2_bn_moving_var", 
      "attrs": {
        "__init__": "[\"one\", {}]", 
        "eps": "1e-05", 
        "fix_gamma": "False", 
        "use_global_stats": "True"
      }, 
      "inputs": []
    }, 
    {
      "op": "BatchNorm", 
      "name": "inception_3c_3x3_2_bn", 
      "attrs": {
        "eps": "1e-05", 
        "fix_gamma": "False", 
        "use_global_stats": "True"
      }, 
      "inputs": [[190, 0, 0], [191, 0, 0], [192, 0, 0], [193, 0, 1], [194, 0, 1]]
    }, 
    {
      "op": "Activation", 
      "name": "inception_3c_3x3_2_relu", 
      "attrs": {"act_type": "relu"}, 
      "inputs": [[195, 0, 0]]
    }, 
    {
      "op": "null", 
      "name": "inception_3c_3x3_3_weight", 
      "attrs": {
        "kernel": "(3, 3)", 
        "no_bias": "True", 
        "num_filter": "96", 
        "pad": "(1, 1)", 
        "stride": "(2, 2)"
      }, 
      "inputs": []
    }, 
    {
      "op": "Convolution", 
      "name": "inception_3c_3x3_3", 
      "attrs": {
        "kernel": "(3, 3)", 
        "no_bias": "True", 
        "num_filter": "96", 
        "pad": "(1, 1)", 
        "stride": "(2, 2)"
      }, 
      "inputs": [[196, 0, 0], [197, 0, 0]]
    }, 
    {
      "op": "null", 
      "name": "inception_3c_3x3_3_bn_gamma", 
      "attrs": {
        "eps": "1e-05", 
        "fix_gamma": "False", 
        "use_global_stats": "True"
      }, 
      "inputs": []
    }, 
    {
      "op": "null", 
      "name": "inception_3c_3x3_3_bn_beta", 
      "attrs": {
        "eps": "1e-05", 
        "fix_gamma": "False", 
        "use_global_stats": "True"
      }, 
      "inputs": []
    }, 
    {
      "op": "null", 
      "name": "inception_3c_3x3_3_bn_moving_mean", 
      "attrs": {
        "__init__": "[\"zero\", {}]", 
        "eps": "1e-05", 
        "fix_gamma": "False", 
        "use_global_stats": "True"
      }, 
      "inputs": []
    }, 
    {
      "op": "null", 
      "name": "inception_3c_3x3_3_bn_moving_var", 
      "attrs": {
        "__init__": "[\"one\", {}]", 
        "eps": "1e-05", 
        "fix_gamma": "False", 
        "use_global_stats": "True"
      }, 
      "inputs": []
    }, 
    {
      "op": "BatchNorm", 
      "name": "inception_3c_3x3_3_bn", 
      "attrs": {
        "eps": "1e-05", 
        "fix_gamma": "False", 
        "use_global_stats": "True"
      }, 
      "inputs": [[198, 0, 0], [199, 0, 0], [200, 0, 0], [201, 0, 1], [202, 0, 1]]
    }, 
    {
      "op": "Activation", 
      "name": "inception_3c_3x3_3_relu", 
      "attrs": {"act_type": "relu"}, 
      "inputs": [[203, 0, 0]]
    }, 
    {
      "op": "Pooling", 
      "name": "inception_3c_pool", 
      "attrs": {
        "cudnn_off": "False", 
        "global_pool": "False", 
        "kernel": "(3, 3)", 
        "pad": "(0, 0)", 
        "pool_type": "max", 
        "pooling_convention": "full", 
        "stride": "(2, 2)"
      }, 
      "inputs": [[164, 0, 0]]
    }, 
    {
      "op": "Concat", 
      "name": "inception_3c_concat", 
      "attrs": {"num_args": "3"}, 
      "inputs": [[180, 0, 0], [204, 0, 0], [205, 0, 0]]
    }, 
    {
      "op": "Pooling", 
      "name": "inception_3c_global_pool", 
      "attrs": {
        "global_pool": "True", 
        "kernel": "(7, 7)", 
        "pool_type": "avg", 
        "pooling_convention": "full"
      }, 
      "inputs": [[206, 0, 0]]
    }, 
    {
      "op": "null", 
      "name": "inception_3c_1x1_down_weight", 
      "attrs": {
        "kernel": "(1, 1)", 
        "no_bias": "False", 
        "num_filter": "36", 
        "stride": "(1, 1)"
      }, 
      "inputs": []
    }, 
    {
      "op": "null", 
      "name": "inception_3c_1x1_down_bias", 
      "attrs": {
        "kernel": "(1, 1)", 
        "no_bias": "False", 
        "num_filter": "36", 
        "stride": "(1, 1)"
      }, 
      "inputs": []
    }, 
    {
      "op": "Convolution", 
      "name": "inception_3c_1x1_down", 
      "attrs": {
        "kernel": "(1, 1)", 
        "no_bias": "False", 
        "num_filter": "36", 
        "stride": "(1, 1)"
      }, 
      "inputs": [[207, 0, 0], [208, 0, 0], [209, 0, 0]]
    }, 
    {
      "op": "Activation", 
      "name": "inception_3c_1x1_down_relu", 
      "attrs": {"act_type": "relu"}, 
      "inputs": [[210, 0, 0]]
    }, 
    {
      "op": "null", 
      "name": "inception_3c_1x1_up_weight", 
      "attrs": {
        "kernel": "(1, 1)", 
        "no_bias": "False", 
        "num_filter": "576", 
        "pad": "(0, 0)", 
        "stride": "(1, 1)"
      }, 
      "inputs": []
    }, 
    {
      "op": "null", 
      "name": "inception_3c_1x1_up_bias", 
      "attrs": {
        "kernel": "(1, 1)", 
        "no_bias": "False", 
        "num_filter": "576", 
        "pad": "(0, 0)", 
        "stride": "(1, 1)"
      }, 
      "inputs": []
    }, 
    {
      "op": "Convolution", 
      "name": "inception_3c_1x1_up", 
      "attrs": {
        "kernel": "(1, 1)", 
        "no_bias": "False", 
        "num_filter": "576", 
        "pad": "(0, 0)", 
        "stride": "(1, 1)"
      }, 
      "inputs": [[211, 0, 0], [212, 0, 0], [213, 0, 0]]
    }, 
    {
      "op": "Activation", 
      "name": "inception_3c_1x1_up_prob", 
      "attrs": {"act_type": "sigmoid"}, 
      "inputs": [[214, 0, 0]]
    }, 
    {
      "op": "Reshape", 
      "name": "reshape2", 
      "attrs": {"shape": "(-1, 576, 1, 1)"}, 
      "inputs": [[215, 0, 0]]
    }, 
    {
      "op": "broadcast_mul", 
      "name": "broadcast_mul2", 
      "inputs": [[206, 0, 0], [216, 0, 0]]
    }, 
    {
      "op": "null", 
      "name": "inception_4a_1x1_weight", 
      "attrs": {
        "kernel": "(1, 1)", 
        "no_bias": "True", 
        "num_filter": "224", 
        "pad": "(0, 0)", 
        "stride": "(1, 1)"
      }, 
      "inputs": []
    }, 
    {
      "op": "Convolution", 
      "name": "inception_4a_1x1", 
      "attrs": {
        "kernel": "(1, 1)", 
        "no_bias": "True", 
        "num_filter": "224", 
        "pad": "(0, 0)", 
        "stride": "(1, 1)"
      }, 
      "inputs": [[217, 0, 0], [218, 0, 0]]
    }, 
    {
      "op": "null", 
      "name": "inception_4a_1x1_bn_gamma", 
      "attrs": {
        "eps": "1e-05", 
        "fix_gamma": "False", 
        "use_global_stats": "True"
      }, 
      "inputs": []
    }, 
    {
      "op": "null", 
      "name": "inception_4a_1x1_bn_beta", 
      "attrs": {
        "eps": "1e-05", 
        "fix_gamma": "False", 
        "use_global_stats": "True"
      }, 
      "inputs": []
    }, 
    {
      "op": "null", 
      "name": "inception_4a_1x1_bn_moving_mean", 
      "attrs": {
        "__init__": "[\"zero\", {}]", 
        "eps": "1e-05", 
        "fix_gamma": "False", 
        "use_global_stats": "True"
      }, 
      "inputs": []
    }, 
    {
      "op": "null", 
      "name": "inception_4a_1x1_bn_moving_var", 
      "attrs": {
        "__init__": "[\"one\", {}]", 
        "eps": "1e-05", 
        "fix_gamma": "False", 
        "use_global_stats": "True"
      }, 
      "inputs": []
    }, 
    {
      "op": "BatchNorm", 
      "name": "inception_4a_1x1_bn", 
      "attrs": {
        "eps": "1e-05", 
        "fix_gamma": "False", 
        "use_global_stats": "True"
      }, 
      "inputs": [[219, 0, 0], [220, 0, 0], [221, 0, 0], [222, 0, 1], [223, 0, 1]]
    }, 
    {
      "op": "Activation", 
      "name": "inception_4a_1x1_relu", 
      "attrs": {"act_type": "relu"}, 
      "inputs": [[224, 0, 0]]
    }, 
    {
      "op": "null", 
      "name": "inception_4a_3x3_reduce_weight", 
      "attrs": {
        "kernel": "(1, 1)", 
        "no_bias": "True", 
        "num_filter": "64", 
        "pad": "(0, 0)", 
        "stride": "(1, 1)"
      }, 
      "inputs": []
    }, 
    {
      "op": "Convolution", 
      "name": "inception_4a_3x3_reduce", 
      "attrs": {
        "kernel": "(1, 1)", 
        "no_bias": "True", 
        "num_filter": "64", 
        "pad": "(0, 0)", 
        "stride": "(1, 1)"
      }, 
      "inputs": [[217, 0, 0], [226, 0, 0]]
    }, 
    {
      "op": "null", 
      "name": "inception_4a_3x3_reduce_bn_gamma", 
      "attrs": {
        "eps": "1e-05", 
        "fix_gamma": "False", 
        "use_global_stats": "True"
      }, 
      "inputs": []
    }, 
    {
      "op": "null", 
      "name": "inception_4a_3x3_reduce_bn_beta", 
      "attrs": {
        "eps": "1e-05", 
        "fix_gamma": "False", 
        "use_global_stats": "True"
      }, 
      "inputs": []
    }, 
    {
      "op": "null", 
      "name": "inception_4a_3x3_reduce_bn_moving_mean", 
      "attrs": {
        "__init__": "[\"zero\", {}]", 
        "eps": "1e-05", 
        "fix_gamma": "False", 
        "use_global_stats": "True"
      }, 
      "inputs": []
    }, 
    {
      "op": "null", 
      "name": "inception_4a_3x3_reduce_bn_moving_var", 
      "attrs": {
        "__init__": "[\"one\", {}]", 
        "eps": "1e-05", 
        "fix_gamma": "False", 
        "use_global_stats": "True"
      }, 
      "inputs": []
    }, 
    {
      "op": "BatchNorm", 
      "name": "inception_4a_3x3_reduce_bn", 
      "attrs": {
        "eps": "1e-05", 
        "fix_gamma": "False", 
        "use_global_stats": "True"
      }, 
      "inputs": [[227, 0, 0], [228, 0, 0], [229, 0, 0], [230, 0, 1], [231, 0, 1]]
    }, 
    {
      "op": "Activation", 
      "name": "inception_4a_3x3_reduce_relu", 
      "attrs": {"act_type": "relu"}, 
      "inputs": [[232, 0, 0]]
    }, 
    {
      "op": "null", 
      "name": "inception_4a_3x3_weight", 
      "attrs": {
        "kernel": "(3, 3)", 
        "no_bias": "True", 
        "num_filter": "96", 
        "pad": "(1, 1)", 
        "stride": "(1, 1)"
      }, 
      "inputs": []
    }, 
    {
      "op": "Convolution", 
      "name": "inception_4a_3x3", 
      "attrs": {
        "kernel": "(3, 3)", 
        "no_bias": "True", 
        "num_filter": "96", 
        "pad": "(1, 1)", 
        "stride": "(1, 1)"
      }, 
      "inputs": [[233, 0, 0], [234, 0, 0]]
    }, 
    {
      "op": "null", 
      "name": "inception_4a_3x3_bn_gamma", 
      "attrs": {
        "eps": "1e-05", 
        "fix_gamma": "False", 
        "use_global_stats": "True"
      }, 
      "inputs": []
    }, 
    {
      "op": "null", 
      "name": "inception_4a_3x3_bn_beta", 
      "attrs": {
        "eps": "1e-05", 
        "fix_gamma": "False", 
        "use_global_stats": "True"
      }, 
      "inputs": []
    }, 
    {
      "op": "null", 
      "name": "inception_4a_3x3_bn_moving_mean", 
      "attrs": {
        "__init__": "[\"zero\", {}]", 
        "eps": "1e-05", 
        "fix_gamma": "False", 
        "use_global_stats": "True"
      }, 
      "inputs": []
    }, 
    {
      "op": "null", 
      "name": "inception_4a_3x3_bn_moving_var", 
      "attrs": {
        "__init__": "[\"one\", {}]", 
        "eps": "1e-05", 
        "fix_gamma": "False", 
        "use_global_stats": "True"
      }, 
      "inputs": []
    }, 
    {
      "op": "BatchNorm", 
      "name": "inception_4a_3x3_bn", 
      "attrs": {
        "eps": "1e-05", 
        "fix_gamma": "False", 
        "use_global_stats": "True"
      }, 
      "inputs": [[235, 0, 0], [236, 0, 0], [237, 0, 0], [238, 0, 1], [239, 0, 1]]
    }, 
    {
      "op": "Activation", 
      "name": "inception_4a_3x3_relu", 
      "attrs": {"act_type": "relu"}, 
      "inputs": [[240, 0, 0]]
    }, 
    {
      "op": "null", 
      "name": "inception_4a_3x3_2_reduce_weight", 
      "attrs": {
        "kernel": "(1, 1)", 
        "no_bias": "True", 
        "num_filter": "96", 
        "pad": "(0, 0)", 
        "stride": "(1, 1)"
      }, 
      "inputs": []
    }, 
    {
      "op": "Convolution", 
      "name": "inception_4a_3x3_2_reduce", 
      "attrs": {
        "kernel": "(1, 1)", 
        "no_bias": "True", 
        "num_filter": "96", 
        "pad": "(0, 0)", 
        "stride": "(1, 1)"
      }, 
      "inputs": [[217, 0, 0], [242, 0, 0]]
    }, 
    {
      "op": "null", 
      "name": "inception_4a_3x3_2_reduce_bn_gamma", 
      "attrs": {
        "eps": "1e-05", 
        "fix_gamma": "False", 
        "use_global_stats": "True"
      }, 
      "inputs": []
    }, 
    {
      "op": "null", 
      "name": "inception_4a_3x3_2_reduce_bn_beta", 
      "attrs": {
        "eps": "1e-05", 
        "fix_gamma": "False", 
        "use_global_stats": "True"
      }, 
      "inputs": []
    }, 
    {
      "op": "null", 
      "name": "inception_4a_3x3_2_reduce_bn_moving_mean", 
      "attrs": {
        "__init__": "[\"zero\", {}]", 
        "eps": "1e-05", 
        "fix_gamma": "False", 
        "use_global_stats": "True"
      }, 
      "inputs": []
    }, 
    {
      "op": "null", 
      "name": "inception_4a_3x3_2_reduce_bn_moving_var", 
      "attrs": {
        "__init__": "[\"one\", {}]", 
        "eps": "1e-05", 
        "fix_gamma": "False", 
        "use_global_stats": "True"
      }, 
      "inputs": []
    }, 
    {
      "op": "BatchNorm", 
      "name": "inception_4a_3x3_2_reduce_bn", 
      "attrs": {
        "eps": "1e-05", 
        "fix_gamma": "False", 
        "use_global_stats": "True"
      }, 
      "inputs": [[243, 0, 0], [244, 0, 0], [245, 0, 0], [246, 0, 1], [247, 0, 1]]
    }, 
    {
      "op": "Activation", 
      "name": "inception_4a_3x3_2_reduce_relu", 
      "attrs": {"act_type": "relu"}, 
      "inputs": [[248, 0, 0]]
    }, 
    {
      "op": "null", 
      "name": "inception_4a_3x3_2_weight", 
      "attrs": {
        "kernel": "(3, 3)", 
        "no_bias": "True", 
        "num_filter": "128", 
        "pad": "(1, 1)", 
        "stride": "(1, 1)"
      }, 
      "inputs": []
    }, 
    {
      "op": "Convolution", 
      "name": "inception_4a_3x3_2", 
      "attrs": {
        "kernel": "(3, 3)", 
        "no_bias": "True", 
        "num_filter": "128", 
        "pad": "(1, 1)", 
        "stride": "(1, 1)"
      }, 
      "inputs": [[249, 0, 0], [250, 0, 0]]
    }, 
    {
      "op": "null", 
      "name": "inception_4a_3x3_2_bn_gamma", 
      "attrs": {
        "eps": "1e-05", 
        "fix_gamma": "False", 
        "use_global_stats": "True"
      }, 
      "inputs": []
    }, 
    {
      "op": "null", 
      "name": "inception_4a_3x3_2_bn_beta", 
      "attrs": {
        "eps": "1e-05", 
        "fix_gamma": "False", 
        "use_global_stats": "True"
      }, 
      "inputs": []
    }, 
    {
      "op": "null", 
      "name": "inception_4a_3x3_2_bn_moving_mean", 
      "attrs": {
        "__init__": "[\"zero\", {}]", 
        "eps": "1e-05", 
        "fix_gamma": "False", 
        "use_global_stats": "True"
      }, 
      "inputs": []
    }, 
    {
      "op": "null", 
      "name": "inception_4a_3x3_2_bn_moving_var", 
      "attrs": {
        "__init__": "[\"one\", {}]", 
        "eps": "1e-05", 
        "fix_gamma": "False", 
        "use_global_stats": "True"
      }, 
      "inputs": []
    }, 
    {
      "op": "BatchNorm", 
      "name": "inception_4a_3x3_2_bn", 
      "attrs": {
        "eps": "1e-05", 
        "fix_gamma": "False", 
        "use_global_stats": "True"
      }, 
      "inputs": [[251, 0, 0], [252, 0, 0], [253, 0, 0], [254, 0, 1], [255, 0, 1]]
    }, 
    {
      "op": "Activation", 
      "name": "inception_4a_3x3_2_relu", 
      "attrs": {"act_type": "relu"}, 
      "inputs": [[256, 0, 0]]
    }, 
    {
      "op": "null", 
      "name": "inception_4a_3x3_3_weight", 
      "attrs": {
        "kernel": "(3, 3)", 
        "no_bias": "True", 
        "num_filter": "128", 
        "pad": "(1, 1)", 
        "stride": "(1, 1)"
      }, 
      "inputs": []
    }, 
    {
      "op": "Convolution", 
      "name": "inception_4a_3x3_3", 
      "attrs": {
        "kernel": "(3, 3)", 
        "no_bias": "True", 
        "num_filter": "128", 
        "pad": "(1, 1)", 
        "stride": "(1, 1)"
      }, 
      "inputs": [[257, 0, 0], [258, 0, 0]]
    }, 
    {
      "op": "null", 
      "name": "inception_4a_3x3_3_bn_gamma", 
      "attrs": {
        "eps": "1e-05", 
        "fix_gamma": "False", 
        "use_global_stats": "True"
      }, 
      "inputs": []
    }, 
    {
      "op": "null", 
      "name": "inception_4a_3x3_3_bn_beta", 
      "attrs": {
        "eps": "1e-05", 
        "fix_gamma": "False", 
        "use_global_stats": "True"
      }, 
      "inputs": []
    }, 
    {
      "op": "null", 
      "name": "inception_4a_3x3_3_bn_moving_mean", 
      "attrs": {
        "__init__": "[\"zero\", {}]", 
        "eps": "1e-05", 
        "fix_gamma": "False", 
        "use_global_stats": "True"
      }, 
      "inputs": []
    }, 
    {
      "op": "null", 
      "name": "inception_4a_3x3_3_bn_moving_var", 
      "attrs": {
        "__init__": "[\"one\", {}]", 
        "eps": "1e-05", 
        "fix_gamma": "False", 
        "use_global_stats": "True"
      }, 
      "inputs": []
    }, 
    {
      "op": "BatchNorm", 
      "name": "inception_4a_3x3_3_bn", 
      "attrs": {
        "eps": "1e-05", 
        "fix_gamma": "False", 
        "use_global_stats": "True"
      }, 
      "inputs": [[259, 0, 0], [260, 0, 0], [261, 0, 0], [262, 0, 1], [263, 0, 1]]
    }, 
    {
      "op": "Activation", 
      "name": "inception_4a_3x3_3_relu", 
      "attrs": {"act_type": "relu"}, 
      "inputs": [[264, 0, 0]]
    }, 
    {
      "op": "Pooling", 
      "name": "inception_4a_avg_pool", 
      "attrs": {
        "kernel": "(3, 3)", 
        "pad": "(1, 1)", 
        "pool_type": "avg", 
        "stride": "(1, 1)"
      }, 
      "inputs": [[217, 0, 0]]
    }, 
    {
      "op": "null", 
      "name": "inception_4a_pool_proj_weight", 
      "attrs": {
        "kernel": "(1, 1)", 
        "no_bias": "True", 
        "num_filter": "128", 
        "pad": "(0, 0)", 
        "stride": "(1, 1)"
      }, 
      "inputs": []
    }, 
    {
      "op": "Convolution", 
      "name": "inception_4a_pool_proj", 
      "attrs": {
        "kernel": "(1, 1)", 
        "no_bias": "True", 
        "num_filter": "128", 
        "pad": "(0, 0)", 
        "stride": "(1, 1)"
      }, 
      "inputs": [[266, 0, 0], [267, 0, 0]]
    }, 
    {
      "op": "null", 
      "name": "inception_4a_pool_proj_bn_gamma", 
      "attrs": {
        "eps": "1e-05", 
        "fix_gamma": "False", 
        "use_global_stats": "True"
      }, 
      "inputs": []
    }, 
    {
      "op": "null", 
      "name": "inception_4a_pool_proj_bn_beta", 
      "attrs": {
        "eps": "1e-05", 
        "fix_gamma": "False", 
        "use_global_stats": "True"
      }, 
      "inputs": []
    }, 
    {
      "op": "null", 
      "name": "inception_4a_pool_proj_bn_moving_mean", 
      "attrs": {
        "__init__": "[\"zero\", {}]", 
        "eps": "1e-05", 
        "fix_gamma": "False", 
        "use_global_stats": "True"
      }, 
      "inputs": []
    }, 
    {
      "op": "null", 
      "name": "inception_4a_pool_proj_bn_moving_var", 
      "attrs": {
        "__init__": "[\"one\", {}]", 
        "eps": "1e-05", 
        "fix_gamma": "False", 
        "use_global_stats": "True"
      }, 
      "inputs": []
    }, 
    {
      "op": "BatchNorm", 
      "name": "inception_4a_pool_proj_bn", 
      "attrs": {
        "eps": "1e-05", 
        "fix_gamma": "False", 
        "use_global_stats": "True"
      }, 
      "inputs": [[268, 0, 0], [269, 0, 0], [270, 0, 0], [271, 0, 1], [272, 0, 1]]
    }, 
    {
      "op": "Activation", 
      "name": "inception_4a_pool_proj_relu", 
      "attrs": {"act_type": "relu"}, 
      "inputs": [[273, 0, 0]]
    }, 
    {
      "op": "Concat", 
      "name": "inception_4a_concat", 
      "attrs": {"num_args": "4"}, 
      "inputs": [[225, 0, 0], [241, 0, 0], [265, 0, 0], [274, 0, 0]]
    }, 
    {
      "op": "Pooling", 
      "name": "inception_4a_global_pool", 
      "attrs": {
        "global_pool": "True", 
        "kernel": "(7, 7)", 
        "pool_type": "avg", 
        "pooling_convention": "full"
      }, 
      "inputs": [[275, 0, 0]]
    }, 
    {
      "op": "null", 
      "name": "inception_4a_1x1_down_weight", 
      "attrs": {
        "kernel": "(1, 1)", 
        "no_bias": "False", 
        "num_filter": "36", 
        "stride": "(1, 1)"
      }, 
      "inputs": []
    }, 
    {
      "op": "null", 
      "name": "inception_4a_1x1_down_bias", 
      "attrs": {
        "kernel": "(1, 1)", 
        "no_bias": "False", 
        "num_filter": "36", 
        "stride": "(1, 1)"
      }, 
      "inputs": []
    }, 
    {
      "op": "Convolution", 
      "name": "inception_4a_1x1_down", 
      "attrs": {
        "kernel": "(1, 1)", 
        "no_bias": "False", 
        "num_filter": "36", 
        "stride": "(1, 1)"
      }, 
      "inputs": [[276, 0, 0], [277, 0, 0], [278, 0, 0]]
    }, 
    {
      "op": "Activation", 
      "name": "inception_4a_1x1_down_relu", 
      "attrs": {"act_type": "relu"}, 
      "inputs": [[279, 0, 0]]
    }, 
    {
      "op": "null", 
      "name": "inception_4a_1x1_up_weight", 
      "attrs": {
        "kernel": "(1, 1)", 
        "no_bias": "False", 
        "num_filter": "576", 
        "pad": "(0, 0)", 
        "stride": "(1, 1)"
      }, 
      "inputs": []
    }, 
    {
      "op": "null", 
      "name": "inception_4a_1x1_up_bias", 
      "attrs": {
        "kernel": "(1, 1)", 
        "no_bias": "False", 
        "num_filter": "576", 
        "pad": "(0, 0)", 
        "stride": "(1, 1)"
      }, 
      "inputs": []
    }, 
    {
      "op": "Convolution", 
      "name": "inception_4a_1x1_up", 
      "attrs": {
        "kernel": "(1, 1)", 
        "no_bias": "False", 
        "num_filter": "576", 
        "pad": "(0, 0)", 
        "stride": "(1, 1)"
      }, 
      "inputs": [[280, 0, 0], [281, 0, 0], [282, 0, 0]]
    }, 
    {
      "op": "Activation", 
      "name": "inception_4a_1x1_up_prob", 
      "attrs": {"act_type": "sigmoid"}, 
      "inputs": [[283, 0, 0]]
    }, 
    {
      "op": "Reshape", 
      "name": "reshape3", 
      "attrs": {"shape": "(-1, 576, 1, 1)"}, 
      "inputs": [[284, 0, 0]]
    }, 
    {
      "op": "broadcast_mul", 
      "name": "broadcast_mul3", 
      "inputs": [[275, 0, 0], [285, 0, 0]]
    }, 
    {
      "op": "null", 
      "name": "inception_4b_1x1_weight", 
      "attrs": {
        "kernel": "(1, 1)", 
        "no_bias": "True", 
        "num_filter": "192", 
        "pad": "(0, 0)", 
        "stride": "(1, 1)"
      }, 
      "inputs": []
    }, 
    {
      "op": "Convolution", 
      "name": "inception_4b_1x1", 
      "attrs": {
        "kernel": "(1, 1)", 
        "no_bias": "True", 
        "num_filter": "192", 
        "pad": "(0, 0)", 
        "stride": "(1, 1)"
      }, 
      "inputs": [[286, 0, 0], [287, 0, 0]]
    }, 
    {
      "op": "null", 
      "name": "inception_4b_1x1_bn_gamma", 
      "attrs": {
        "eps": "1e-05", 
        "fix_gamma": "False", 
        "use_global_stats": "True"
      }, 
      "inputs": []
    }, 
    {
      "op": "null", 
      "name": "inception_4b_1x1_bn_beta", 
      "attrs": {
        "eps": "1e-05", 
        "fix_gamma": "False", 
        "use_global_stats": "True"
      }, 
      "inputs": []
    }, 
    {
      "op": "null", 
      "name": "inception_4b_1x1_bn_moving_mean", 
      "attrs": {
        "__init__": "[\"zero\", {}]", 
        "eps": "1e-05", 
        "fix_gamma": "False", 
        "use_global_stats": "True"
      }, 
      "inputs": []
    }, 
    {
      "op": "null", 
      "name": "inception_4b_1x1_bn_moving_var", 
      "attrs": {
        "__init__": "[\"one\", {}]", 
        "eps": "1e-05", 
        "fix_gamma": "False", 
        "use_global_stats": "True"
      }, 
      "inputs": []
    }, 
    {
      "op": "BatchNorm", 
      "name": "inception_4b_1x1_bn", 
      "attrs": {
        "eps": "1e-05", 
        "fix_gamma": "False", 
        "use_global_stats": "True"
      }, 
      "inputs": [[288, 0, 0], [289, 0, 0], [290, 0, 0], [291, 0, 1], [292, 0, 1]]
    }, 
    {
      "op": "Activation", 
      "name": "inception_4b_1x1_relu", 
      "attrs": {"act_type": "relu"}, 
      "inputs": [[293, 0, 0]]
    }, 
    {
      "op": "null", 
      "name": "inception_4b_3x3_reduce_weight", 
      "attrs": {
        "kernel": "(1, 1)", 
        "no_bias": "True", 
        "num_filter": "96", 
        "pad": "(0, 0)", 
        "stride": "(1, 1)"
      }, 
      "inputs": []
    }, 
    {
      "op": "Convolution", 
      "name": "inception_4b_3x3_reduce", 
      "attrs": {
        "kernel": "(1, 1)", 
        "no_bias": "True", 
        "num_filter": "96", 
        "pad": "(0, 0)", 
        "stride": "(1, 1)"
      }, 
      "inputs": [[286, 0, 0], [295, 0, 0]]
    }, 
    {
      "op": "null", 
      "name": "inception_4b_3x3_reduce_bn_gamma", 
      "attrs": {
        "eps": "1e-05", 
        "fix_gamma": "False", 
        "use_global_stats": "True"
      }, 
      "inputs": []
    }, 
    {
      "op": "null", 
      "name": "inception_4b_3x3_reduce_bn_beta", 
      "attrs": {
        "eps": "1e-05", 
        "fix_gamma": "False", 
        "use_global_stats": "True"
      }, 
      "inputs": []
    }, 
    {
      "op": "null", 
      "name": "inception_4b_3x3_reduce_bn_moving_mean", 
      "attrs": {
        "__init__": "[\"zero\", {}]", 
        "eps": "1e-05", 
        "fix_gamma": "False", 
        "use_global_stats": "True"
      }, 
      "inputs": []
    }, 
    {
      "op": "null", 
      "name": "inception_4b_3x3_reduce_bn_moving_var", 
      "attrs": {
        "__init__": "[\"one\", {}]", 
        "eps": "1e-05", 
        "fix_gamma": "False", 
        "use_global_stats": "True"
      }, 
      "inputs": []
    }, 
    {
      "op": "BatchNorm", 
      "name": "inception_4b_3x3_reduce_bn", 
      "attrs": {
        "eps": "1e-05", 
        "fix_gamma": "False", 
        "use_global_stats": "True"
      }, 
      "inputs": [[296, 0, 0], [297, 0, 0], [298, 0, 0], [299, 0, 1], [300, 0, 1]]
    }, 
    {
      "op": "Activation", 
      "name": "inception_4b_3x3_reduce_relu", 
      "attrs": {"act_type": "relu"}, 
      "inputs": [[301, 0, 0]]
    }, 
    {
      "op": "null", 
      "name": "inception_4b_3x3_weight", 
      "attrs": {
        "kernel": "(3, 3)", 
        "no_bias": "True", 
        "num_filter": "128", 
        "pad": "(1, 1)", 
        "stride": "(1, 1)"
      }, 
      "inputs": []
    }, 
    {
      "op": "Convolution", 
      "name": "inception_4b_3x3", 
      "attrs": {
        "kernel": "(3, 3)", 
        "no_bias": "True", 
        "num_filter": "128", 
        "pad": "(1, 1)", 
        "stride": "(1, 1)"
      }, 
      "inputs": [[302, 0, 0], [303, 0, 0]]
    }, 
    {
      "op": "null", 
      "name": "inception_4b_3x3_bn_gamma", 
      "attrs": {
        "eps": "1e-05", 
        "fix_gamma": "False", 
        "use_global_stats": "True"
      }, 
      "inputs": []
    }, 
    {
      "op": "null", 
      "name": "inception_4b_3x3_bn_beta", 
      "attrs": {
        "eps": "1e-05", 
        "fix_gamma": "False", 
        "use_global_stats": "True"
      }, 
      "inputs": []
    }, 
    {
      "op": "null", 
      "name": "inception_4b_3x3_bn_moving_mean", 
      "attrs": {
        "__init__": "[\"zero\", {}]", 
        "eps": "1e-05", 
        "fix_gamma": "False", 
        "use_global_stats": "True"
      }, 
      "inputs": []
    }, 
    {
      "op": "null", 
      "name": "inception_4b_3x3_bn_moving_var", 
      "attrs": {
        "__init__": "[\"one\", {}]", 
        "eps": "1e-05", 
        "fix_gamma": "False", 
        "use_global_stats": "True"
      }, 
      "inputs": []
    }, 
    {
      "op": "BatchNorm", 
      "name": "inception_4b_3x3_bn", 
      "attrs": {
        "eps": "1e-05", 
        "fix_gamma": "False", 
        "use_global_stats": "True"
      }, 
      "inputs": [[304, 0, 0], [305, 0, 0], [306, 0, 0], [307, 0, 1], [308, 0, 1]]
    }, 
    {
      "op": "Activation", 
      "name": "inception_4b_3x3_relu", 
      "attrs": {"act_type": "relu"}, 
      "inputs": [[309, 0, 0]]
    }, 
    {
      "op": "null", 
      "name": "inception_4b_3x3_2_reduce_weight", 
      "attrs": {
        "kernel": "(1, 1)", 
        "no_bias": "True", 
        "num_filter": "96", 
        "pad": "(0, 0)", 
        "stride": "(1, 1)"
      }, 
      "inputs": []
    }, 
    {
      "op": "Convolution", 
      "name": "inception_4b_3x3_2_reduce", 
      "attrs": {
        "kernel": "(1, 1)", 
        "no_bias": "True", 
        "num_filter": "96", 
        "pad": "(0, 0)", 
        "stride": "(1, 1)"
      }, 
      "inputs": [[286, 0, 0], [311, 0, 0]]
    }, 
    {
      "op": "null", 
      "name": "inception_4b_3x3_2_reduce_bn_gamma", 
      "attrs": {
        "eps": "1e-05", 
        "fix_gamma": "False", 
        "use_global_stats": "True"
      }, 
      "inputs": []
    }, 
    {
      "op": "null", 
      "name": "inception_4b_3x3_2_reduce_bn_beta", 
      "attrs": {
        "eps": "1e-05", 
        "fix_gamma": "False", 
        "use_global_stats": "True"
      }, 
      "inputs": []
    }, 
    {
      "op": "null", 
      "name": "inception_4b_3x3_2_reduce_bn_moving_mean", 
      "attrs": {
        "__init__": "[\"zero\", {}]", 
        "eps": "1e-05", 
        "fix_gamma": "False", 
        "use_global_stats": "True"
      }, 
      "inputs": []
    }, 
    {
      "op": "null", 
      "name": "inception_4b_3x3_2_reduce_bn_moving_var", 
      "attrs": {
        "__init__": "[\"one\", {}]", 
        "eps": "1e-05", 
        "fix_gamma": "False", 
        "use_global_stats": "True"
      }, 
      "inputs": []
    }, 
    {
      "op": "BatchNorm", 
      "name": "inception_4b_3x3_2_reduce_bn", 
      "attrs": {
        "eps": "1e-05", 
        "fix_gamma": "False", 
        "use_global_stats": "True"
      }, 
      "inputs": [[312, 0, 0], [313, 0, 0], [314, 0, 0], [315, 0, 1], [316, 0, 1]]
    }, 
    {
      "op": "Activation", 
      "name": "inception_4b_3x3_2_reduce_relu", 
      "attrs": {"act_type": "relu"}, 
      "inputs": [[317, 0, 0]]
    }, 
    {
      "op": "null", 
      "name": "inception_4b_3x3_2_weight", 
      "attrs": {
        "kernel": "(3, 3)", 
        "no_bias": "True", 
        "num_filter": "128", 
        "pad": "(1, 1)", 
        "stride": "(1, 1)"
      }, 
      "inputs": []
    }, 
    {
      "op": "Convolution", 
      "name": "inception_4b_3x3_2", 
      "attrs": {
        "kernel": "(3, 3)", 
        "no_bias": "True", 
        "num_filter": "128", 
        "pad": "(1, 1)", 
        "stride": "(1, 1)"
      }, 
      "inputs": [[318, 0, 0], [319, 0, 0]]
    }, 
    {
      "op": "null", 
      "name": "inception_4b_3x3_2_bn_gamma", 
      "attrs": {
        "eps": "1e-05", 
        "fix_gamma": "False", 
        "use_global_stats": "True"
      }, 
      "inputs": []
    }, 
    {
      "op": "null", 
      "name": "inception_4b_3x3_2_bn_beta", 
      "attrs": {
        "eps": "1e-05", 
        "fix_gamma": "False", 
        "use_global_stats": "True"
      }, 
      "inputs": []
    }, 
    {
      "op": "null", 
      "name": "inception_4b_3x3_2_bn_moving_mean", 
      "attrs": {
        "__init__": "[\"zero\", {}]", 
        "eps": "1e-05", 
        "fix_gamma": "False", 
        "use_global_stats": "True"
      }, 
      "inputs": []
    }, 
    {
      "op": "null", 
      "name": "inception_4b_3x3_2_bn_moving_var", 
      "attrs": {
        "__init__": "[\"one\", {}]", 
        "eps": "1e-05", 
        "fix_gamma": "False", 
        "use_global_stats": "True"
      }, 
      "inputs": []
    }, 
    {
      "op": "BatchNorm", 
      "name": "inception_4b_3x3_2_bn", 
      "attrs": {
        "eps": "1e-05", 
        "fix_gamma": "False", 
        "use_global_stats": "True"
      }, 
      "inputs": [[320, 0, 0], [321, 0, 0], [322, 0, 0], [323, 0, 1], [324, 0, 1]]
    }, 
    {
      "op": "Activation", 
      "name": "inception_4b_3x3_2_relu", 
      "attrs": {"act_type": "relu"}, 
      "inputs": [[325, 0, 0]]
    }, 
    {
      "op": "null", 
      "name": "inception_4b_3x3_3_weight", 
      "attrs": {
        "kernel": "(3, 3)", 
        "no_bias": "True", 
        "num_filter": "128", 
        "pad": "(1, 1)", 
        "stride": "(1, 1)"
      }, 
      "inputs": []
    }, 
    {
      "op": "Convolution", 
      "name": "inception_4b_3x3_3", 
      "attrs": {
        "kernel": "(3, 3)", 
        "no_bias": "True", 
        "num_filter": "128", 
        "pad": "(1, 1)", 
        "stride": "(1, 1)"
      }, 
      "inputs": [[326, 0, 0], [327, 0, 0]]
    }, 
    {
      "op": "null", 
      "name": "inception_4b_3x3_3_bn_gamma", 
      "attrs": {
        "eps": "1e-05", 
        "fix_gamma": "False", 
        "use_global_stats": "True"
      }, 
      "inputs": []
    }, 
    {
      "op": "null", 
      "name": "inception_4b_3x3_3_bn_beta", 
      "attrs": {
        "eps": "1e-05", 
        "fix_gamma": "False", 
        "use_global_stats": "True"
      }, 
      "inputs": []
    }, 
    {
      "op": "null", 
      "name": "inception_4b_3x3_3_bn_moving_mean", 
      "attrs": {
        "__init__": "[\"zero\", {}]", 
        "eps": "1e-05", 
        "fix_gamma": "False", 
        "use_global_stats": "True"
      }, 
      "inputs": []
    }, 
    {
      "op": "null", 
      "name": "inception_4b_3x3_3_bn_moving_var", 
      "attrs": {
        "__init__": "[\"one\", {}]", 
        "eps": "1e-05", 
        "fix_gamma": "False", 
        "use_global_stats": "True"
      }, 
      "inputs": []
    }, 
    {
      "op": "BatchNorm", 
      "name": "inception_4b_3x3_3_bn", 
      "attrs": {
        "eps": "1e-05", 
        "fix_gamma": "False", 
        "use_global_stats": "True"
      }, 
      "inputs": [[328, 0, 0], [329, 0, 0], [330, 0, 0], [331, 0, 1], [332, 0, 1]]
    }, 
    {
      "op": "Activation", 
      "name": "inception_4b_3x3_3_relu", 
      "attrs": {"act_type": "relu"}, 
      "inputs": [[333, 0, 0]]
    }, 
    {
      "op": "Pooling", 
      "name": "inception_4b_avg_pool", 
      "attrs": {
        "kernel": "(3, 3)", 
        "pad": "(1, 1)", 
        "pool_type": "avg", 
        "stride": "(1, 1)"
      }, 
      "inputs": [[286, 0, 0]]
    }, 
    {
      "op": "null", 
      "name": "inception_4b_pool_proj_weight", 
      "attrs": {
        "kernel": "(1, 1)", 
        "no_bias": "True", 
        "num_filter": "128", 
        "pad": "(0, 0)", 
        "stride": "(1, 1)"
      }, 
      "inputs": []
    }, 
    {
      "op": "Convolution", 
      "name": "inception_4b_pool_proj", 
      "attrs": {
        "kernel": "(1, 1)", 
        "no_bias": "True", 
        "num_filter": "128", 
        "pad": "(0, 0)", 
        "stride": "(1, 1)"
      }, 
      "inputs": [[335, 0, 0], [336, 0, 0]]
    }, 
    {
      "op": "null", 
      "name": "inception_4b_pool_proj_bn_gamma", 
      "attrs": {
        "eps": "1e-05", 
        "fix_gamma": "False", 
        "use_global_stats": "True"
      }, 
      "inputs": []
    }, 
    {
      "op": "null", 
      "name": "inception_4b_pool_proj_bn_beta", 
      "attrs": {
        "eps": "1e-05", 
        "fix_gamma": "False", 
        "use_global_stats": "True"
      }, 
      "inputs": []
    }, 
    {
      "op": "null", 
      "name": "inception_4b_pool_proj_bn_moving_mean", 
      "attrs": {
        "__init__": "[\"zero\", {}]", 
        "eps": "1e-05", 
        "fix_gamma": "False", 
        "use_global_stats": "True"
      }, 
      "inputs": []
    }, 
    {
      "op": "null", 
      "name": "inception_4b_pool_proj_bn_moving_var", 
      "attrs": {
        "__init__": "[\"one\", {}]", 
        "eps": "1e-05", 
        "fix_gamma": "False", 
        "use_global_stats": "True"
      }, 
      "inputs": []
    }, 
    {
      "op": "BatchNorm", 
      "name": "inception_4b_pool_proj_bn", 
      "attrs": {
        "eps": "1e-05", 
        "fix_gamma": "False", 
        "use_global_stats": "True"
      }, 
      "inputs": [[337, 0, 0], [338, 0, 0], [339, 0, 0], [340, 0, 1], [341, 0, 1]]
    }, 
    {
      "op": "Activation", 
      "name": "inception_4b_pool_proj_relu", 
      "attrs": {"act_type": "relu"}, 
      "inputs": [[342, 0, 0]]
    }, 
    {
      "op": "Concat", 
      "name": "inception_4b_concat", 
      "attrs": {"num_args": "4"}, 
      "inputs": [[294, 0, 0], [310, 0, 0], [334, 0, 0], [343, 0, 0]]
    }, 
    {
      "op": "Pooling", 
      "name": "inception_4b_global_pool", 
      "attrs": {
        "global_pool": "True", 
        "kernel": "(7, 7)", 
        "pool_type": "avg", 
        "pooling_convention": "full"
      }, 
      "inputs": [[344, 0, 0]]
    }, 
    {
      "op": "null", 
      "name": "inception_4b_1x1_down_weight", 
      "attrs": {
        "kernel": "(1, 1)", 
        "no_bias": "False", 
        "num_filter": "36", 
        "stride": "(1, 1)"
      }, 
      "inputs": []
    }, 
    {
      "op": "null", 
      "name": "inception_4b_1x1_down_bias", 
      "attrs": {
        "kernel": "(1, 1)", 
        "no_bias": "False", 
        "num_filter": "36", 
        "stride": "(1, 1)"
      }, 
      "inputs": []
    }, 
    {
      "op": "Convolution", 
      "name": "inception_4b_1x1_down", 
      "attrs": {
        "kernel": "(1, 1)", 
        "no_bias": "False", 
        "num_filter": "36", 
        "stride": "(1, 1)"
      }, 
      "inputs": [[345, 0, 0], [346, 0, 0], [347, 0, 0]]
    }, 
    {
      "op": "Activation", 
      "name": "inception_4b_1x1_down_relu", 
      "attrs": {"act_type": "relu"}, 
      "inputs": [[348, 0, 0]]
    }, 
    {
      "op": "null", 
      "name": "inception_4b_1x1_up_weight", 
      "attrs": {
        "kernel": "(1, 1)", 
        "no_bias": "False", 
        "num_filter": "576", 
        "pad": "(0, 0)", 
        "stride": "(1, 1)"
      }, 
      "inputs": []
    }, 
    {
      "op": "null", 
      "name": "inception_4b_1x1_up_bias", 
      "attrs": {
        "kernel": "(1, 1)", 
        "no_bias": "False", 
        "num_filter": "576", 
        "pad": "(0, 0)", 
        "stride": "(1, 1)"
      }, 
      "inputs": []
    }, 
    {
      "op": "Convolution", 
      "name": "inception_4b_1x1_up", 
      "attrs": {
        "kernel": "(1, 1)", 
        "no_bias": "False", 
        "num_filter": "576", 
        "pad": "(0, 0)", 
        "stride": "(1, 1)"
      }, 
      "inputs": [[349, 0, 0], [350, 0, 0], [351, 0, 0]]
    }, 
    {
      "op": "Activation", 
      "name": "inception_4b_1x1_up_prob", 
      "attrs": {"act_type": "sigmoid"}, 
      "inputs": [[352, 0, 0]]
    }, 
    {
      "op": "Reshape", 
      "name": "reshape4", 
      "attrs": {"shape": "(-1, 576, 1, 1)"}, 
      "inputs": [[353, 0, 0]]
    }, 
    {
      "op": "broadcast_mul", 
      "name": "broadcast_mul4", 
      "inputs": [[344, 0, 0], [354, 0, 0]]
    }, 
    {
      "op": "null", 
      "name": "inception_4c_1x1_weight", 
      "attrs": {
        "kernel": "(1, 1)", 
        "no_bias": "True", 
        "num_filter": "160", 
        "pad": "(0, 0)", 
        "stride": "(1, 1)"
      }, 
      "inputs": []
    }, 
    {
      "op": "Convolution", 
      "name": "inception_4c_1x1", 
      "attrs": {
        "kernel": "(1, 1)", 
        "no_bias": "True", 
        "num_filter": "160", 
        "pad": "(0, 0)", 
        "stride": "(1, 1)"
      }, 
      "inputs": [[355, 0, 0], [356, 0, 0]]
    }, 
    {
      "op": "null", 
      "name": "inception_4c_1x1_bn_gamma", 
      "attrs": {
        "eps": "1e-05", 
        "fix_gamma": "False", 
        "use_global_stats": "True"
      }, 
      "inputs": []
    }, 
    {
      "op": "null", 
      "name": "inception_4c_1x1_bn_beta", 
      "attrs": {
        "eps": "1e-05", 
        "fix_gamma": "False", 
        "use_global_stats": "True"
      }, 
      "inputs": []
    }, 
    {
      "op": "null", 
      "name": "inception_4c_1x1_bn_moving_mean", 
      "attrs": {
        "__init__": "[\"zero\", {}]", 
        "eps": "1e-05", 
        "fix_gamma": "False", 
        "use_global_stats": "True"
      }, 
      "inputs": []
    }, 
    {
      "op": "null", 
      "name": "inception_4c_1x1_bn_moving_var", 
      "attrs": {
        "__init__": "[\"one\", {}]", 
        "eps": "1e-05", 
        "fix_gamma": "False", 
        "use_global_stats": "True"
      }, 
      "inputs": []
    }, 
    {
      "op": "BatchNorm", 
      "name": "inception_4c_1x1_bn", 
      "attrs": {
        "eps": "1e-05", 
        "fix_gamma": "False", 
        "use_global_stats": "True"
      }, 
      "inputs": [[357, 0, 0], [358, 0, 0], [359, 0, 0], [360, 0, 1], [361, 0, 1]]
    }, 
    {
      "op": "Activation", 
      "name": "inception_4c_1x1_relu", 
      "attrs": {"act_type": "relu"}, 
      "inputs": [[362, 0, 0]]
    }, 
    {
      "op": "null", 
      "name": "inception_4c_3x3_reduce_weight", 
      "attrs": {
        "kernel": "(1, 1)", 
        "no_bias": "True", 
        "num_filter": "128", 
        "pad": "(0, 0)", 
        "stride": "(1, 1)"
      }, 
      "inputs": []
    }, 
    {
      "op": "Convolution", 
      "name": "inception_4c_3x3_reduce", 
      "attrs": {
        "kernel": "(1, 1)", 
        "no_bias": "True", 
        "num_filter": "128", 
        "pad": "(0, 0)", 
        "stride": "(1, 1)"
      }, 
      "inputs": [[355, 0, 0], [364, 0, 0]]
    }, 
    {
      "op": "null", 
      "name": "inception_4c_3x3_reduce_bn_gamma", 
      "attrs": {
        "eps": "1e-05", 
        "fix_gamma": "False", 
        "use_global_stats": "True"
      }, 
      "inputs": []
    }, 
    {
      "op": "null", 
      "name": "inception_4c_3x3_reduce_bn_beta", 
      "attrs": {
        "eps": "1e-05", 
        "fix_gamma": "False", 
        "use_global_stats": "True"
      }, 
      "inputs": []
    }, 
    {
      "op": "null", 
      "name": "inception_4c_3x3_reduce_bn_moving_mean", 
      "attrs": {
        "__init__": "[\"zero\", {}]", 
        "eps": "1e-05", 
        "fix_gamma": "False", 
        "use_global_stats": "True"
      }, 
      "inputs": []
    }, 
    {
      "op": "null", 
      "name": "inception_4c_3x3_reduce_bn_moving_var", 
      "attrs": {
        "__init__": "[\"one\", {}]", 
        "eps": "1e-05", 
        "fix_gamma": "False", 
        "use_global_stats": "True"
      }, 
      "inputs": []
    }, 
    {
      "op": "BatchNorm", 
      "name": "inception_4c_3x3_reduce_bn", 
      "attrs": {
        "eps": "1e-05", 
        "fix_gamma": "False", 
        "use_global_stats": "True"
      }, 
      "inputs": [[365, 0, 0], [366, 0, 0], [367, 0, 0], [368, 0, 1], [369, 0, 1]]
    }, 
    {
      "op": "Activation", 
      "name": "inception_4c_3x3_reduce_relu", 
      "attrs": {"act_type": "relu"}, 
      "inputs": [[370, 0, 0]]
    }, 
    {
      "op": "null", 
      "name": "inception_4c_3x3_weight", 
      "attrs": {
        "kernel": "(3, 3)", 
        "no_bias": "True", 
        "num_filter": "160", 
        "pad": "(1, 1)", 
        "stride": "(1, 1)"
      }, 
      "inputs": []
    }, 
    {
      "op": "Convolution", 
      "name": "inception_4c_3x3", 
      "attrs": {
        "kernel": "(3, 3)", 
        "no_bias": "True", 
        "num_filter": "160", 
        "pad": "(1, 1)", 
        "stride": "(1, 1)"
      }, 
      "inputs": [[371, 0, 0], [372, 0, 0]]
    }, 
    {
      "op": "null", 
      "name": "inception_4c_3x3_bn_gamma", 
      "attrs": {
        "eps": "1e-05", 
        "fix_gamma": "False", 
        "use_global_stats": "True"
      }, 
      "inputs": []
    }, 
    {
      "op": "null", 
      "name": "inception_4c_3x3_bn_beta", 
      "attrs": {
        "eps": "1e-05", 
        "fix_gamma": "False", 
        "use_global_stats": "True"
      }, 
      "inputs": []
    }, 
    {
      "op": "null", 
      "name": "inception_4c_3x3_bn_moving_mean", 
      "attrs": {
        "__init__": "[\"zero\", {}]", 
        "eps": "1e-05", 
        "fix_gamma": "False", 
        "use_global_stats": "True"
      }, 
      "inputs": []
    }, 
    {
      "op": "null", 
      "name": "inception_4c_3x3_bn_moving_var", 
      "attrs": {
        "__init__": "[\"one\", {}]", 
        "eps": "1e-05", 
        "fix_gamma": "False", 
        "use_global_stats": "True"
      }, 
      "inputs": []
    }, 
    {
      "op": "BatchNorm", 
      "name": "inception_4c_3x3_bn", 
      "attrs": {
        "eps": "1e-05", 
        "fix_gamma": "False", 
        "use_global_stats": "True"
      }, 
      "inputs": [[373, 0, 0], [374, 0, 0], [375, 0, 0], [376, 0, 1], [377, 0, 1]]
    }, 
    {
      "op": "Activation", 
      "name": "inception_4c_3x3_relu", 
      "attrs": {"act_type": "relu"}, 
      "inputs": [[378, 0, 0]]
    }, 
    {
      "op": "null", 
      "name": "inception_4c_3x3_2_reduce_weight", 
      "attrs": {
        "kernel": "(1, 1)", 
        "no_bias": "True", 
        "num_filter": "128", 
        "pad": "(0, 0)", 
        "stride": "(1, 1)"
      }, 
      "inputs": []
    }, 
    {
      "op": "Convolution", 
      "name": "inception_4c_3x3_2_reduce", 
      "attrs": {
        "kernel": "(1, 1)", 
        "no_bias": "True", 
        "num_filter": "128", 
        "pad": "(0, 0)", 
        "stride": "(1, 1)"
      }, 
      "inputs": [[355, 0, 0], [380, 0, 0]]
    }, 
    {
      "op": "null", 
      "name": "inception_4c_3x3_2_reduce_bn_gamma", 
      "attrs": {
        "eps": "1e-05", 
        "fix_gamma": "False", 
        "use_global_stats": "True"
      }, 
      "inputs": []
    }, 
    {
      "op": "null", 
      "name": "inception_4c_3x3_2_reduce_bn_beta", 
      "attrs": {
        "eps": "1e-05", 
        "fix_gamma": "False", 
        "use_global_stats": "True"
      }, 
      "inputs": []
    }, 
    {
      "op": "null", 
      "name": "inception_4c_3x3_2_reduce_bn_moving_mean", 
      "attrs": {
        "__init__": "[\"zero\", {}]", 
        "eps": "1e-05", 
        "fix_gamma": "False", 
        "use_global_stats": "True"
      }, 
      "inputs": []
    }, 
    {
      "op": "null", 
      "name": "inception_4c_3x3_2_reduce_bn_moving_var", 
      "attrs": {
        "__init__": "[\"one\", {}]", 
        "eps": "1e-05", 
        "fix_gamma": "False", 
        "use_global_stats": "True"
      }, 
      "inputs": []
    }, 
    {
      "op": "BatchNorm", 
      "name": "inception_4c_3x3_2_reduce_bn", 
      "attrs": {
        "eps": "1e-05", 
        "fix_gamma": "False", 
        "use_global_stats": "True"
      }, 
      "inputs": [[381, 0, 0], [382, 0, 0], [383, 0, 0], [384, 0, 1], [385, 0, 1]]
    }, 
    {
      "op": "Activation", 
      "name": "inception_4c_3x3_2_reduce_relu", 
      "attrs": {"act_type": "relu"}, 
      "inputs": [[386, 0, 0]]
    }, 
    {
      "op": "null", 
      "name": "inception_4c_3x3_2_weight", 
      "attrs": {
        "kernel": "(3, 3)", 
        "no_bias": "True", 
        "num_filter": "160", 
        "pad": "(1, 1)", 
        "stride": "(1, 1)"
      }, 
      "inputs": []
    }, 
    {
      "op": "Convolution", 
      "name": "inception_4c_3x3_2", 
      "attrs": {
        "kernel": "(3, 3)", 
        "no_bias": "True", 
        "num_filter": "160", 
        "pad": "(1, 1)", 
        "stride": "(1, 1)"
      }, 
      "inputs": [[387, 0, 0], [388, 0, 0]]
    }, 
    {
      "op": "null", 
      "name": "inception_4c_3x3_2_bn_gamma", 
      "attrs": {
        "eps": "1e-05", 
        "fix_gamma": "False", 
        "use_global_stats": "True"
      }, 
      "inputs": []
    }, 
    {
      "op": "null", 
      "name": "inception_4c_3x3_2_bn_beta", 
      "attrs": {
        "eps": "1e-05", 
        "fix_gamma": "False", 
        "use_global_stats": "True"
      }, 
      "inputs": []
    }, 
    {
      "op": "null", 
      "name": "inception_4c_3x3_2_bn_moving_mean", 
      "attrs": {
        "__init__": "[\"zero\", {}]", 
        "eps": "1e-05", 
        "fix_gamma": "False", 
        "use_global_stats": "True"
      }, 
      "inputs": []
    }, 
    {
      "op": "null", 
      "name": "inception_4c_3x3_2_bn_moving_var", 
      "attrs": {
        "__init__": "[\"one\", {}]", 
        "eps": "1e-05", 
        "fix_gamma": "False", 
        "use_global_stats": "True"
      }, 
      "inputs": []
    }, 
    {
      "op": "BatchNorm", 
      "name": "inception_4c_3x3_2_bn", 
      "attrs": {
        "eps": "1e-05", 
        "fix_gamma": "False", 
        "use_global_stats": "True"
      }, 
      "inputs": [[389, 0, 0], [390, 0, 0], [391, 0, 0], [392, 0, 1], [393, 0, 1]]
    }, 
    {
      "op": "Activation", 
      "name": "inception_4c_3x3_2_relu", 
      "attrs": {"act_type": "relu"}, 
      "inputs": [[394, 0, 0]]
    }, 
    {
      "op": "null", 
      "name": "inception_4c_3x3_3_weight", 
      "attrs": {
        "kernel": "(3, 3)", 
        "no_bias": "True", 
        "num_filter": "160", 
        "pad": "(1, 1)", 
        "stride": "(1, 1)"
      }, 
      "inputs": []
    }, 
    {
      "op": "Convolution", 
      "name": "inception_4c_3x3_3", 
      "attrs": {
        "kernel": "(3, 3)", 
        "no_bias": "True", 
        "num_filter": "160", 
        "pad": "(1, 1)", 
        "stride": "(1, 1)"
      }, 
      "inputs": [[395, 0, 0], [396, 0, 0]]
    }, 
    {
      "op": "null", 
      "name": "inception_4c_3x3_3_bn_gamma", 
      "attrs": {
        "eps": "1e-05", 
        "fix_gamma": "False", 
        "use_global_stats": "True"
      }, 
      "inputs": []
    }, 
    {
      "op": "null", 
      "name": "inception_4c_3x3_3_bn_beta", 
      "attrs": {
        "eps": "1e-05", 
        "fix_gamma": "False", 
        "use_global_stats": "True"
      }, 
      "inputs": []
    }, 
    {
      "op": "null", 
      "name": "inception_4c_3x3_3_bn_moving_mean", 
      "attrs": {
        "__init__": "[\"zero\", {}]", 
        "eps": "1e-05", 
        "fix_gamma": "False", 
        "use_global_stats": "True"
      }, 
      "inputs": []
    }, 
    {
      "op": "null", 
      "name": "inception_4c_3x3_3_bn_moving_var", 
      "attrs": {
        "__init__": "[\"one\", {}]", 
        "eps": "1e-05", 
        "fix_gamma": "False", 
        "use_global_stats": "True"
      }, 
      "inputs": []
    }, 
    {
      "op": "BatchNorm", 
      "name": "inception_4c_3x3_3_bn", 
      "attrs": {
        "eps": "1e-05", 
        "fix_gamma": "False", 
        "use_global_stats": "True"
      }, 
      "inputs": [[397, 0, 0], [398, 0, 0], [399, 0, 0], [400, 0, 1], [401, 0, 1]]
    }, 
    {
      "op": "Activation", 
      "name": "inception_4c_3x3_3_relu", 
      "attrs": {"act_type": "relu"}, 
      "inputs": [[402, 0, 0]]
    }, 
    {
      "op": "Pooling", 
      "name": "inception_4c_avg_pool", 
      "attrs": {
        "kernel": "(3, 3)", 
        "pad": "(1, 1)", 
        "pool_type": "avg", 
        "stride": "(1, 1)"
      }, 
      "inputs": [[355, 0, 0]]
    }, 
    {
      "op": "null", 
      "name": "inception_4c_pool_proj_weight", 
      "attrs": {
        "kernel": "(1, 1)", 
        "no_bias": "True", 
        "num_filter": "128", 
        "pad": "(0, 0)", 
        "stride": "(1, 1)"
      }, 
      "inputs": []
    }, 
    {
      "op": "Convolution", 
      "name": "inception_4c_pool_proj", 
      "attrs": {
        "kernel": "(1, 1)", 
        "no_bias": "True", 
        "num_filter": "128", 
        "pad": "(0, 0)", 
        "stride": "(1, 1)"
      }, 
      "inputs": [[404, 0, 0], [405, 0, 0]]
    }, 
    {
      "op": "null", 
      "name": "inception_4c_pool_proj_bn_gamma", 
      "attrs": {
        "eps": "1e-05", 
        "fix_gamma": "False", 
        "use_global_stats": "True"
      }, 
      "inputs": []
    }, 
    {
      "op": "null", 
      "name": "inception_4c_pool_proj_bn_beta", 
      "attrs": {
        "eps": "1e-05", 
        "fix_gamma": "False", 
        "use_global_stats": "True"
      }, 
      "inputs": []
    }, 
    {
      "op": "null", 
      "name": "inception_4c_pool_proj_bn_moving_mean", 
      "attrs": {
        "__init__": "[\"zero\", {}]", 
        "eps": "1e-05", 
        "fix_gamma": "False", 
        "use_global_stats": "True"
      }, 
      "inputs": []
    }, 
    {
      "op": "null", 
      "name": "inception_4c_pool_proj_bn_moving_var", 
      "attrs": {
        "__init__": "[\"one\", {}]", 
        "eps": "1e-05", 
        "fix_gamma": "False", 
        "use_global_stats": "True"
      }, 
      "inputs": []
    }, 
    {
      "op": "BatchNorm", 
      "name": "inception_4c_pool_proj_bn", 
      "attrs": {
        "eps": "1e-05", 
        "fix_gamma": "False", 
        "use_global_stats": "True"
      }, 
      "inputs": [[406, 0, 0], [407, 0, 0], [408, 0, 0], [409, 0, 1], [410, 0, 1]]
    }, 
    {
      "op": "Activation", 
      "name": "inception_4c_pool_proj_relu", 
      "attrs": {"act_type": "relu"}, 
      "inputs": [[411, 0, 0]]
    }, 
    {
      "op": "Concat", 
      "name": "inception_4c_concat", 
      "attrs": {"num_args": "4"}, 
      "inputs": [[363, 0, 0], [379, 0, 0], [403, 0, 0], [412, 0, 0]]
    }, 
    {
      "op": "Pooling", 
      "name": "inception_4c_global_pool", 
      "attrs": {
        "global_pool": "True", 
        "kernel": "(7, 7)", 
        "pool_type": "avg", 
        "pooling_convention": "full"
      }, 
      "inputs": [[413, 0, 0]]
    }, 
    {
      "op": "null", 
      "name": "inception_4c_1x1_down_weight", 
      "attrs": {
        "kernel": "(1, 1)", 
        "no_bias": "False", 
        "num_filter": "38", 
        "stride": "(1, 1)"
      }, 
      "inputs": []
    }, 
    {
      "op": "null", 
      "name": "inception_4c_1x1_down_bias", 
      "attrs": {
        "kernel": "(1, 1)", 
        "no_bias": "False", 
        "num_filter": "38", 
        "stride": "(1, 1)"
      }, 
      "inputs": []
    }, 
    {
      "op": "Convolution", 
      "name": "inception_4c_1x1_down", 
      "attrs": {
        "kernel": "(1, 1)", 
        "no_bias": "False", 
        "num_filter": "38", 
        "stride": "(1, 1)"
      }, 
      "inputs": [[414, 0, 0], [415, 0, 0], [416, 0, 0]]
    }, 
    {
      "op": "Activation", 
      "name": "inception_4c_1x1_down_relu", 
      "attrs": {"act_type": "relu"}, 
      "inputs": [[417, 0, 0]]
    }, 
    {
      "op": "null", 
      "name": "inception_4c_1x1_up_weight", 
      "attrs": {
        "kernel": "(1, 1)", 
        "no_bias": "False", 
        "num_filter": "608", 
        "pad": "(0, 0)", 
        "stride": "(1, 1)"
      }, 
      "inputs": []
    }, 
    {
      "op": "null", 
      "name": "inception_4c_1x1_up_bias", 
      "attrs": {
        "kernel": "(1, 1)", 
        "no_bias": "False", 
        "num_filter": "608", 
        "pad": "(0, 0)", 
        "stride": "(1, 1)"
      }, 
      "inputs": []
    }, 
    {
      "op": "Convolution", 
      "name": "inception_4c_1x1_up", 
      "attrs": {
        "kernel": "(1, 1)", 
        "no_bias": "False", 
        "num_filter": "608", 
        "pad": "(0, 0)", 
        "stride": "(1, 1)"
      }, 
      "inputs": [[418, 0, 0], [419, 0, 0], [420, 0, 0]]
    }, 
    {
      "op": "Activation", 
      "name": "inception_4c_1x1_up_prob", 
      "attrs": {"act_type": "sigmoid"}, 
      "inputs": [[421, 0, 0]]
    }, 
    {
      "op": "Reshape", 
      "name": "reshape5", 
      "attrs": {"shape": "(-1, 608, 1, 1)"}, 
      "inputs": [[422, 0, 0]]
    }, 
    {
      "op": "broadcast_mul", 
      "name": "broadcast_mul5", 
      "inputs": [[413, 0, 0], [423, 0, 0]]
    }, 
    {
      "op": "null", 
      "name": "inception_4d_1x1_weight", 
      "attrs": {
        "kernel": "(1, 1)", 
        "no_bias": "True", 
        "num_filter": "96", 
        "pad": "(0, 0)", 
        "stride": "(1, 1)"
      }, 
      "inputs": []
    }, 
    {
      "op": "Convolution", 
      "name": "inception_4d_1x1", 
      "attrs": {
        "kernel": "(1, 1)", 
        "no_bias": "True", 
        "num_filter": "96", 
        "pad": "(0, 0)", 
        "stride": "(1, 1)"
      }, 
      "inputs": [[424, 0, 0], [425, 0, 0]]
    }, 
    {
      "op": "null", 
      "name": "inception_4d_1x1_bn_gamma", 
      "attrs": {
        "eps": "1e-05", 
        "fix_gamma": "False", 
        "use_global_stats": "True"
      }, 
      "inputs": []
    }, 
    {
      "op": "null", 
      "name": "inception_4d_1x1_bn_beta", 
      "attrs": {
        "eps": "1e-05", 
        "fix_gamma": "False", 
        "use_global_stats": "True"
      }, 
      "inputs": []
    }, 
    {
      "op": "null", 
      "name": "inception_4d_1x1_bn_moving_mean", 
      "attrs": {
        "__init__": "[\"zero\", {}]", 
        "eps": "1e-05", 
        "fix_gamma": "False", 
        "use_global_stats": "True"
      }, 
      "inputs": []
    }, 
    {
      "op": "null", 
      "name": "inception_4d_1x1_bn_moving_var", 
      "attrs": {
        "__init__": "[\"one\", {}]", 
        "eps": "1e-05", 
        "fix_gamma": "False", 
        "use_global_stats": "True"
      }, 
      "inputs": []
    }, 
    {
      "op": "BatchNorm", 
      "name": "inception_4d_1x1_bn", 
      "attrs": {
        "eps": "1e-05", 
        "fix_gamma": "False", 
        "use_global_stats": "True"
      }, 
      "inputs": [[426, 0, 0], [427, 0, 0], [428, 0, 0], [429, 0, 1], [430, 0, 1]]
    }, 
    {
      "op": "Activation", 
      "name": "inception_4d_1x1_relu", 
      "attrs": {"act_type": "relu"}, 
      "inputs": [[431, 0, 0]]
    }, 
    {
      "op": "null", 
      "name": "inception_4d_3x3_reduce_weight", 
      "attrs": {
        "kernel": "(1, 1)", 
        "no_bias": "True", 
        "num_filter": "128", 
        "pad": "(0, 0)", 
        "stride": "(1, 1)"
      }, 
      "inputs": []
    }, 
    {
      "op": "Convolution", 
      "name": "inception_4d_3x3_reduce", 
      "attrs": {
        "kernel": "(1, 1)", 
        "no_bias": "True", 
        "num_filter": "128", 
        "pad": "(0, 0)", 
        "stride": "(1, 1)"
      }, 
      "inputs": [[424, 0, 0], [433, 0, 0]]
    }, 
    {
      "op": "null", 
      "name": "inception_4d_3x3_reduce_bn_gamma", 
      "attrs": {
        "eps": "1e-05", 
        "fix_gamma": "False", 
        "use_global_stats": "True"
      }, 
      "inputs": []
    }, 
    {
      "op": "null", 
      "name": "inception_4d_3x3_reduce_bn_beta", 
      "attrs": {
        "eps": "1e-05", 
        "fix_gamma": "False", 
        "use_global_stats": "True"
      }, 
      "inputs": []
    }, 
    {
      "op": "null", 
      "name": "inception_4d_3x3_reduce_bn_moving_mean", 
      "attrs": {
        "__init__": "[\"zero\", {}]", 
        "eps": "1e-05", 
        "fix_gamma": "False", 
        "use_global_stats": "True"
      }, 
      "inputs": []
    }, 
    {
      "op": "null", 
      "name": "inception_4d_3x3_reduce_bn_moving_var", 
      "attrs": {
        "__init__": "[\"one\", {}]", 
        "eps": "1e-05", 
        "fix_gamma": "False", 
        "use_global_stats": "True"
      }, 
      "inputs": []
    }, 
    {
      "op": "BatchNorm", 
      "name": "inception_4d_3x3_reduce_bn", 
      "attrs": {
        "eps": "1e-05", 
        "fix_gamma": "False", 
        "use_global_stats": "True"
      }, 
      "inputs": [[434, 0, 0], [435, 0, 0], [436, 0, 0], [437, 0, 1], [438, 0, 1]]
    }, 
    {
      "op": "Activation", 
      "name": "inception_4d_3x3_reduce_relu", 
      "attrs": {"act_type": "relu"}, 
      "inputs": [[439, 0, 0]]
    }, 
    {
      "op": "null", 
      "name": "inception_4d_3x3_weight", 
      "attrs": {
        "kernel": "(3, 3)", 
        "no_bias": "True", 
        "num_filter": "192", 
        "pad": "(1, 1)", 
        "stride": "(1, 1)"
      }, 
      "inputs": []
    }, 
    {
      "op": "Convolution", 
      "name": "inception_4d_3x3", 
      "attrs": {
        "kernel": "(3, 3)", 
        "no_bias": "True", 
        "num_filter": "192", 
        "pad": "(1, 1)", 
        "stride": "(1, 1)"
      }, 
      "inputs": [[440, 0, 0], [441, 0, 0]]
    }, 
    {
      "op": "null", 
      "name": "inception_4d_3x3_bn_gamma", 
      "attrs": {
        "eps": "1e-05", 
        "fix_gamma": "False", 
        "use_global_stats": "True"
      }, 
      "inputs": []
    }, 
    {
      "op": "null", 
      "name": "inception_4d_3x3_bn_beta", 
      "attrs": {
        "eps": "1e-05", 
        "fix_gamma": "False", 
        "use_global_stats": "True"
      }, 
      "inputs": []
    }, 
    {
      "op": "null", 
      "name": "inception_4d_3x3_bn_moving_mean", 
      "attrs": {
        "__init__": "[\"zero\", {}]", 
        "eps": "1e-05", 
        "fix_gamma": "False", 
        "use_global_stats": "True"
      }, 
      "inputs": []
    }, 
    {
      "op": "null", 
      "name": "inception_4d_3x3_bn_moving_var", 
      "attrs": {
        "__init__": "[\"one\", {}]", 
        "eps": "1e-05", 
        "fix_gamma": "False", 
        "use_global_stats": "True"
      }, 
      "inputs": []
    }, 
    {
      "op": "BatchNorm", 
      "name": "inception_4d_3x3_bn", 
      "attrs": {
        "eps": "1e-05", 
        "fix_gamma": "False", 
        "use_global_stats": "True"
      }, 
      "inputs": [[442, 0, 0], [443, 0, 0], [444, 0, 0], [445, 0, 1], [446, 0, 1]]
    }, 
    {
      "op": "Activation", 
      "name": "inception_4d_3x3_relu", 
      "attrs": {"act_type": "relu"}, 
      "inputs": [[447, 0, 0]]
    }, 
    {
      "op": "null", 
      "name": "inception_4d_3x3_2_reduce_weight", 
      "attrs": {
        "kernel": "(1, 1)", 
        "no_bias": "True", 
        "num_filter": "160", 
        "pad": "(0, 0)", 
        "stride": "(1, 1)"
      }, 
      "inputs": []
    }, 
    {
      "op": "Convolution", 
      "name": "inception_4d_3x3_2_reduce", 
      "attrs": {
        "kernel": "(1, 1)", 
        "no_bias": "True", 
        "num_filter": "160", 
        "pad": "(0, 0)", 
        "stride": "(1, 1)"
      }, 
      "inputs": [[424, 0, 0], [449, 0, 0]]
    }, 
    {
      "op": "null", 
      "name": "inception_4d_3x3_2_reduce_bn_gamma", 
      "attrs": {
        "eps": "1e-05", 
        "fix_gamma": "False", 
        "use_global_stats": "True"
      }, 
      "inputs": []
    }, 
    {
      "op": "null", 
      "name": "inception_4d_3x3_2_reduce_bn_beta", 
      "attrs": {
        "eps": "1e-05", 
        "fix_gamma": "False", 
        "use_global_stats": "True"
      }, 
      "inputs": []
    }, 
    {
      "op": "null", 
      "name": "inception_4d_3x3_2_reduce_bn_moving_mean", 
      "attrs": {
        "__init__": "[\"zero\", {}]", 
        "eps": "1e-05", 
        "fix_gamma": "False", 
        "use_global_stats": "True"
      }, 
      "inputs": []
    }, 
    {
      "op": "null", 
      "name": "inception_4d_3x3_2_reduce_bn_moving_var", 
      "attrs": {
        "__init__": "[\"one\", {}]", 
        "eps": "1e-05", 
        "fix_gamma": "False", 
        "use_global_stats": "True"
      }, 
      "inputs": []
    }, 
    {
      "op": "BatchNorm", 
      "name": "inception_4d_3x3_2_reduce_bn", 
      "attrs": {
        "eps": "1e-05", 
        "fix_gamma": "False", 
        "use_global_stats": "True"
      }, 
      "inputs": [[450, 0, 0], [451, 0, 0], [452, 0, 0], [453, 0, 1], [454, 0, 1]]
    }, 
    {
      "op": "Activation", 
      "name": "inception_4d_3x3_2_reduce_relu", 
      "attrs": {"act_type": "relu"}, 
      "inputs": [[455, 0, 0]]
    }, 
    {
      "op": "null", 
      "name": "inception_4d_3x3_2_weight", 
      "attrs": {
        "kernel": "(3, 3)", 
        "no_bias": "True", 
        "num_filter": "192", 
        "pad": "(1, 1)", 
        "stride": "(1, 1)"
      }, 
      "inputs": []
    }, 
    {
      "op": "Convolution", 
      "name": "inception_4d_3x3_2", 
      "attrs": {
        "kernel": "(3, 3)", 
        "no_bias": "True", 
        "num_filter": "192", 
        "pad": "(1, 1)", 
        "stride": "(1, 1)"
      }, 
      "inputs": [[456, 0, 0], [457, 0, 0]]
    }, 
    {
      "op": "null", 
      "name": "inception_4d_3x3_2_bn_gamma", 
      "attrs": {
        "eps": "1e-05", 
        "fix_gamma": "False", 
        "use_global_stats": "True"
      }, 
      "inputs": []
    }, 
    {
      "op": "null", 
      "name": "inception_4d_3x3_2_bn_beta", 
      "attrs": {
        "eps": "1e-05", 
        "fix_gamma": "False", 
        "use_global_stats": "True"
      }, 
      "inputs": []
    }, 
    {
      "op": "null", 
      "name": "inception_4d_3x3_2_bn_moving_mean", 
      "attrs": {
        "__init__": "[\"zero\", {}]", 
        "eps": "1e-05", 
        "fix_gamma": "False", 
        "use_global_stats": "True"
      }, 
      "inputs": []
    }, 
    {
      "op": "null", 
      "name": "inception_4d_3x3_2_bn_moving_var", 
      "attrs": {
        "__init__": "[\"one\", {}]", 
        "eps": "1e-05", 
        "fix_gamma": "False", 
        "use_global_stats": "True"
      }, 
      "inputs": []
    }, 
    {
      "op": "BatchNorm", 
      "name": "inception_4d_3x3_2_bn", 
      "attrs": {
        "eps": "1e-05", 
        "fix_gamma": "False", 
        "use_global_stats": "True"
      }, 
      "inputs": [[458, 0, 0], [459, 0, 0], [460, 0, 0], [461, 0, 1], [462, 0, 1]]
    }, 
    {
      "op": "Activation", 
      "name": "inception_4d_3x3_2_relu", 
      "attrs": {"act_type": "relu"}, 
      "inputs": [[463, 0, 0]]
    }, 
    {
      "op": "null", 
      "name": "inception_4d_3x3_3_weight", 
      "attrs": {
        "kernel": "(3, 3)", 
        "no_bias": "True", 
        "num_filter": "192", 
        "pad": "(1, 1)", 
        "stride": "(1, 1)"
      }, 
      "inputs": []
    }, 
    {
      "op": "Convolution", 
      "name": "inception_4d_3x3_3", 
      "attrs": {
        "kernel": "(3, 3)", 
        "no_bias": "True", 
        "num_filter": "192", 
        "pad": "(1, 1)", 
        "stride": "(1, 1)"
      }, 
      "inputs": [[464, 0, 0], [465, 0, 0]]
    }, 
    {
      "op": "null", 
      "name": "inception_4d_3x3_3_bn_gamma", 
      "attrs": {
        "eps": "1e-05", 
        "fix_gamma": "False", 
        "use_global_stats": "True"
      }, 
      "inputs": []
    }, 
    {
      "op": "null", 
      "name": "inception_4d_3x3_3_bn_beta", 
      "attrs": {
        "eps": "1e-05", 
        "fix_gamma": "False", 
        "use_global_stats": "True"
      }, 
      "inputs": []
    }, 
    {
      "op": "null", 
      "name": "inception_4d_3x3_3_bn_moving_mean", 
      "attrs": {
        "__init__": "[\"zero\", {}]", 
        "eps": "1e-05", 
        "fix_gamma": "False", 
        "use_global_stats": "True"
      }, 
      "inputs": []
    }, 
    {
      "op": "null", 
      "name": "inception_4d_3x3_3_bn_moving_var", 
      "attrs": {
        "__init__": "[\"one\", {}]", 
        "eps": "1e-05", 
        "fix_gamma": "False", 
        "use_global_stats": "True"
      }, 
      "inputs": []
    }, 
    {
      "op": "BatchNorm", 
      "name": "inception_4d_3x3_3_bn", 
      "attrs": {
        "eps": "1e-05", 
        "fix_gamma": "False", 
        "use_global_stats": "True"
      }, 
      "inputs": [[466, 0, 0], [467, 0, 0], [468, 0, 0], [469, 0, 1], [470, 0, 1]]
    }, 
    {
      "op": "Activation", 
      "name": "inception_4d_3x3_3_relu", 
      "attrs": {"act_type": "relu"}, 
      "inputs": [[471, 0, 0]]
    }, 
    {
      "op": "Pooling", 
      "name": "inception_4d_avg_pool", 
      "attrs": {
        "kernel": "(3, 3)", 
        "pad": "(1, 1)", 
        "pool_type": "avg", 
        "stride": "(1, 1)"
      }, 
      "inputs": [[424, 0, 0]]
    }, 
    {
      "op": "null", 
      "name": "inception_4d_pool_proj_weight", 
      "attrs": {
        "kernel": "(1, 1)", 
        "no_bias": "True", 
        "num_filter": "128", 
        "pad": "(0, 0)", 
        "stride": "(1, 1)"
      }, 
      "inputs": []
    }, 
    {
      "op": "Convolution", 
      "name": "inception_4d_pool_proj", 
      "attrs": {
        "kernel": "(1, 1)", 
        "no_bias": "True", 
        "num_filter": "128", 
        "pad": "(0, 0)", 
        "stride": "(1, 1)"
      }, 
      "inputs": [[473, 0, 0], [474, 0, 0]]
    }, 
    {
      "op": "null", 
      "name": "inception_4d_pool_proj_bn_gamma", 
      "attrs": {
        "eps": "1e-05", 
        "fix_gamma": "False", 
        "use_global_stats": "True"
      }, 
      "inputs": []
    }, 
    {
      "op": "null", 
      "name": "inception_4d_pool_proj_bn_beta", 
      "attrs": {
        "eps": "1e-05", 
        "fix_gamma": "False", 
        "use_global_stats": "True"
      }, 
      "inputs": []
    }, 
    {
      "op": "null", 
      "name": "inception_4d_pool_proj_bn_moving_mean", 
      "attrs": {
        "__init__": "[\"zero\", {}]", 
        "eps": "1e-05", 
        "fix_gamma": "False", 
        "use_global_stats": "True"
      }, 
      "inputs": []
    }, 
    {
      "op": "null", 
      "name": "inception_4d_pool_proj_bn_moving_var", 
      "attrs": {
        "__init__": "[\"one\", {}]", 
        "eps": "1e-05", 
        "fix_gamma": "False", 
        "use_global_stats": "True"
      }, 
      "inputs": []
    }, 
    {
      "op": "BatchNorm", 
      "name": "inception_4d_pool_proj_bn", 
      "attrs": {
        "eps": "1e-05", 
        "fix_gamma": "False", 
        "use_global_stats": "True"
      }, 
      "inputs": [[475, 0, 0], [476, 0, 0], [477, 0, 0], [478, 0, 1], [479, 0, 1]]
    }, 
    {
      "op": "Activation", 
      "name": "inception_4d_pool_proj_relu", 
      "attrs": {"act_type": "relu"}, 
      "inputs": [[480, 0, 0]]
    }, 
    {
      "op": "Concat", 
      "name": "inception_4d_concat", 
      "attrs": {"num_args": "4"}, 
      "inputs": [[432, 0, 0], [448, 0, 0], [472, 0, 0], [481, 0, 0]]
    }, 
    {
      "op": "Pooling", 
      "name": "inception_4d_global_pool", 
      "attrs": {
        "global_pool": "True", 
        "kernel": "(7, 7)", 
        "pool_type": "avg", 
        "pooling_convention": "full"
      }, 
      "inputs": [[482, 0, 0]]
    }, 
    {
      "op": "null", 
      "name": "inception_4d_1x1_down_weight", 
      "attrs": {
        "kernel": "(1, 1)", 
        "no_bias": "False", 
        "num_filter": "38", 
        "stride": "(1, 1)"
      }, 
      "inputs": []
    }, 
    {
      "op": "null", 
      "name": "inception_4d_1x1_down_bias", 
      "attrs": {
        "kernel": "(1, 1)", 
        "no_bias": "False", 
        "num_filter": "38", 
        "stride": "(1, 1)"
      }, 
      "inputs": []
    }, 
    {
      "op": "Convolution", 
      "name": "inception_4d_1x1_down", 
      "attrs": {
        "kernel": "(1, 1)", 
        "no_bias": "False", 
        "num_filter": "38", 
        "stride": "(1, 1)"
      }, 
      "inputs": [[483, 0, 0], [484, 0, 0], [485, 0, 0]]
    }, 
    {
      "op": "Activation", 
      "name": "inception_4d_1x1_down_relu", 
      "attrs": {"act_type": "relu"}, 
      "inputs": [[486, 0, 0]]
    }, 
    {
      "op": "null", 
      "name": "inception_4d_1x1_up_weight", 
      "attrs": {
        "kernel": "(1, 1)", 
        "no_bias": "False", 
        "num_filter": "608", 
        "pad": "(0, 0)", 
        "stride": "(1, 1)"
      }, 
      "inputs": []
    }, 
    {
      "op": "null", 
      "name": "inception_4d_1x1_up_bias", 
      "attrs": {
        "kernel": "(1, 1)", 
        "no_bias": "False", 
        "num_filter": "608", 
        "pad": "(0, 0)", 
        "stride": "(1, 1)"
      }, 
      "inputs": []
    }, 
    {
      "op": "Convolution", 
      "name": "inception_4d_1x1_up", 
      "attrs": {
        "kernel": "(1, 1)", 
        "no_bias": "False", 
        "num_filter": "608", 
        "pad": "(0, 0)", 
        "stride": "(1, 1)"
      }, 
      "inputs": [[487, 0, 0], [488, 0, 0], [489, 0, 0]]
    }, 
    {
      "op": "Activation", 
      "name": "inception_4d_1x1_up_prob", 
      "attrs": {"act_type": "sigmoid"}, 
      "inputs": [[490, 0, 0]]
    }, 
    {
      "op": "Reshape", 
      "name": "reshape6", 
      "attrs": {"shape": "(-1, 608, 1, 1)"}, 
      "inputs": [[491, 0, 0]]
    }, 
    {
      "op": "broadcast_mul", 
      "name": "broadcast_mul6", 
      "inputs": [[482, 0, 0], [492, 0, 0]]
    }, 
    {
      "op": "null", 
      "name": "inception_4e_3x3_reduce_weight", 
      "attrs": {
        "kernel": "(1, 1)", 
        "no_bias": "True", 
        "num_filter": "128", 
        "pad": "(0, 0)", 
        "stride": "(1, 1)"
      }, 
      "inputs": []
    }, 
    {
      "op": "Convolution", 
      "name": "inception_4e_3x3_reduce", 
      "attrs": {
        "kernel": "(1, 1)", 
        "no_bias": "True", 
        "num_filter": "128", 
        "pad": "(0, 0)", 
        "stride": "(1, 1)"
      }, 
      "inputs": [[493, 0, 0], [494, 0, 0]]
    }, 
    {
      "op": "null", 
      "name": "inception_4e_3x3_reduce_bn_gamma", 
      "attrs": {
        "eps": "1e-05", 
        "fix_gamma": "False", 
        "use_global_stats": "True"
      }, 
      "inputs": []
    }, 
    {
      "op": "null", 
      "name": "inception_4e_3x3_reduce_bn_beta", 
      "attrs": {
        "eps": "1e-05", 
        "fix_gamma": "False", 
        "use_global_stats": "True"
      }, 
      "inputs": []
    }, 
    {
      "op": "null", 
      "name": "inception_4e_3x3_reduce_bn_moving_mean", 
      "attrs": {
        "__init__": "[\"zero\", {}]", 
        "eps": "1e-05", 
        "fix_gamma": "False", 
        "use_global_stats": "True"
      }, 
      "inputs": []
    }, 
    {
      "op": "null", 
      "name": "inception_4e_3x3_reduce_bn_moving_var", 
      "attrs": {
        "__init__": "[\"one\", {}]", 
        "eps": "1e-05", 
        "fix_gamma": "False", 
        "use_global_stats": "True"
      }, 
      "inputs": []
    }, 
    {
      "op": "BatchNorm", 
      "name": "inception_4e_3x3_reduce_bn", 
      "attrs": {
        "eps": "1e-05", 
        "fix_gamma": "False", 
        "use_global_stats": "True"
      }, 
      "inputs": [[495, 0, 0], [496, 0, 0], [497, 0, 0], [498, 0, 1], [499, 0, 1]]
    }, 
    {
      "op": "Activation", 
      "name": "inception_4e_3x3_reduce_relu", 
      "attrs": {"act_type": "relu"}, 
      "inputs": [[500, 0, 0]]
    }, 
    {
      "op": "null", 
      "name": "inception_4e_3x3_weight", 
      "attrs": {
        "kernel": "(3, 3)", 
        "no_bias": "True", 
        "num_filter": "192", 
        "pad": "(1, 1)", 
        "stride": "(2, 2)"
      }, 
      "inputs": []
    }, 
    {
      "op": "Convolution", 
      "name": "inception_4e_3x3", 
      "attrs": {
        "kernel": "(3, 3)", 
        "no_bias": "True", 
        "num_filter": "192", 
        "pad": "(1, 1)", 
        "stride": "(2, 2)"
      }, 
      "inputs": [[501, 0, 0], [502, 0, 0]]
    }, 
    {
      "op": "null", 
      "name": "inception_4e_3x3_bn_gamma", 
      "attrs": {
        "eps": "1e-05", 
        "fix_gamma": "False", 
        "use_global_stats": "True"
      }, 
      "inputs": []
    }, 
    {
      "op": "null", 
      "name": "inception_4e_3x3_bn_beta", 
      "attrs": {
        "eps": "1e-05", 
        "fix_gamma": "False", 
        "use_global_stats": "True"
      }, 
      "inputs": []
    }, 
    {
      "op": "null", 
      "name": "inception_4e_3x3_bn_moving_mean", 
      "attrs": {
        "__init__": "[\"zero\", {}]", 
        "eps": "1e-05", 
        "fix_gamma": "False", 
        "use_global_stats": "True"
      }, 
      "inputs": []
    }, 
    {
      "op": "null", 
      "name": "inception_4e_3x3_bn_moving_var", 
      "attrs": {
        "__init__": "[\"one\", {}]", 
        "eps": "1e-05", 
        "fix_gamma": "False", 
        "use_global_stats": "True"
      }, 
      "inputs": []
    }, 
    {
      "op": "BatchNorm", 
      "name": "inception_4e_3x3_bn", 
      "attrs": {
        "eps": "1e-05", 
        "fix_gamma": "False", 
        "use_global_stats": "True"
      }, 
      "inputs": [[503, 0, 0], [504, 0, 0], [505, 0, 0], [506, 0, 1], [507, 0, 1]]
    }, 
    {
      "op": "Activation", 
      "name": "inception_4e_3x3_relu", 
      "attrs": {"act_type": "relu"}, 
      "inputs": [[508, 0, 0]]
    }, 
    {
      "op": "null", 
      "name": "inception_4e_3x3_2_reduce_weight", 
      "attrs": {
        "kernel": "(1, 1)", 
        "no_bias": "True", 
        "num_filter": "192", 
        "pad": "(0, 0)", 
        "stride": "(1, 1)"
      }, 
      "inputs": []
    }, 
    {
      "op": "Convolution", 
      "name": "inception_4e_3x3_2_reduce", 
      "attrs": {
        "kernel": "(1, 1)", 
        "no_bias": "True", 
        "num_filter": "192", 
        "pad": "(0, 0)", 
        "stride": "(1, 1)"
      }, 
      "inputs": [[493, 0, 0], [510, 0, 0]]
    }, 
    {
      "op": "null", 
      "name": "inception_4e_3x3_2_reduce_bn_gamma", 
      "attrs": {
        "eps": "1e-05", 
        "fix_gamma": "False", 
        "use_global_stats": "True"
      }, 
      "inputs": []
    }, 
    {
      "op": "null", 
      "name": "inception_4e_3x3_2_reduce_bn_beta", 
      "attrs": {
        "eps": "1e-05", 
        "fix_gamma": "False", 
        "use_global_stats": "True"
      }, 
      "inputs": []
    }, 
    {
      "op": "null", 
      "name": "inception_4e_3x3_2_reduce_bn_moving_mean", 
      "attrs": {
        "__init__": "[\"zero\", {}]", 
        "eps": "1e-05", 
        "fix_gamma": "False", 
        "use_global_stats": "True"
      }, 
      "inputs": []
    }, 
    {
      "op": "null", 
      "name": "inception_4e_3x3_2_reduce_bn_moving_var", 
      "attrs": {
        "__init__": "[\"one\", {}]", 
        "eps": "1e-05", 
        "fix_gamma": "False", 
        "use_global_stats": "True"
      }, 
      "inputs": []
    }, 
    {
      "op": "BatchNorm", 
      "name": "inception_4e_3x3_2_reduce_bn", 
      "attrs": {
        "eps": "1e-05", 
        "fix_gamma": "False", 
        "use_global_stats": "True"
      }, 
      "inputs": [[511, 0, 0], [512, 0, 0], [513, 0, 0], [514, 0, 1], [515, 0, 1]]
    }, 
    {
      "op": "Activation", 
      "name": "inception_4e_3x3_2_reduce_relu", 
      "attrs": {"act_type": "relu"}, 
      "inputs": [[516, 0, 0]]
    }, 
    {
      "op": "null", 
      "name": "inception_4e_3x3_2_weight", 
      "attrs": {
        "kernel": "(3, 3)", 
        "no_bias": "True", 
        "num_filter": "256", 
        "pad": "(1, 1)", 
        "stride": "(1, 1)"
      }, 
      "inputs": []
    }, 
    {
      "op": "Convolution", 
      "name": "inception_4e_3x3_2", 
      "attrs": {
        "kernel": "(3, 3)", 
        "no_bias": "True", 
        "num_filter": "256", 
        "pad": "(1, 1)", 
        "stride": "(1, 1)"
      }, 
      "inputs": [[517, 0, 0], [518, 0, 0]]
    }, 
    {
      "op": "null", 
      "name": "inception_4e_3x3_2_bn_gamma", 
      "attrs": {
        "eps": "1e-05", 
        "fix_gamma": "False", 
        "use_global_stats": "True"
      }, 
      "inputs": []
    }, 
    {
      "op": "null", 
      "name": "inception_4e_3x3_2_bn_beta", 
      "attrs": {
        "eps": "1e-05", 
        "fix_gamma": "False", 
        "use_global_stats": "True"
      }, 
      "inputs": []
    }, 
    {
      "op": "null", 
      "name": "inception_4e_3x3_2_bn_moving_mean", 
      "attrs": {
        "__init__": "[\"zero\", {}]", 
        "eps": "1e-05", 
        "fix_gamma": "False", 
        "use_global_stats": "True"
      }, 
      "inputs": []
    }, 
    {
      "op": "null", 
      "name": "inception_4e_3x3_2_bn_moving_var", 
      "attrs": {
        "__init__": "[\"one\", {}]", 
        "eps": "1e-05", 
        "fix_gamma": "False", 
        "use_global_stats": "True"
      }, 
      "inputs": []
    }, 
    {
      "op": "BatchNorm", 
      "name": "inception_4e_3x3_2_bn", 
      "attrs": {
        "eps": "1e-05", 
        "fix_gamma": "False", 
        "use_global_stats": "True"
      }, 
      "inputs": [[519, 0, 0], [520, 0, 0], [521, 0, 0], [522, 0, 1], [523, 0, 1]]
    }, 
    {
      "op": "Activation", 
      "name": "inception_4e_3x3_2_relu", 
      "attrs": {"act_type": "relu"}, 
      "inputs": [[524, 0, 0]]
    }, 
    {
      "op": "null", 
      "name": "inception_4e_3x3_3_weight", 
      "attrs": {
        "kernel": "(3, 3)", 
        "no_bias": "True", 
        "num_filter": "256", 
        "pad": "(1, 1)", 
        "stride": "(2, 2)"
      }, 
      "inputs": []
    }, 
    {
      "op": "Convolution", 
      "name": "inception_4e_3x3_3", 
      "attrs": {
        "kernel": "(3, 3)", 
        "no_bias": "True", 
        "num_filter": "256", 
        "pad": "(1, 1)", 
        "stride": "(2, 2)"
      }, 
      "inputs": [[525, 0, 0], [526, 0, 0]]
    }, 
    {
      "op": "null", 
      "name": "inception_4e_3x3_3_bn_gamma", 
      "attrs": {
        "eps": "1e-05", 
        "fix_gamma": "False", 
        "use_global_stats": "True"
      }, 
      "inputs": []
    }, 
    {
      "op": "null", 
      "name": "inception_4e_3x3_3_bn_beta", 
      "attrs": {
        "eps": "1e-05", 
        "fix_gamma": "False", 
        "use_global_stats": "True"
      }, 
      "inputs": []
    }, 
    {
      "op": "null", 
      "name": "inception_4e_3x3_3_bn_moving_mean", 
      "attrs": {
        "__init__": "[\"zero\", {}]", 
        "eps": "1e-05", 
        "fix_gamma": "False", 
        "use_global_stats": "True"
      }, 
      "inputs": []
    }, 
    {
      "op": "null", 
      "name": "inception_4e_3x3_3_bn_moving_var", 
      "attrs": {
        "__init__": "[\"one\", {}]", 
        "eps": "1e-05", 
        "fix_gamma": "False", 
        "use_global_stats": "True"
      }, 
      "inputs": []
    }, 
    {
      "op": "BatchNorm", 
      "name": "inception_4e_3x3_3_bn", 
      "attrs": {
        "eps": "1e-05", 
        "fix_gamma": "False", 
        "use_global_stats": "True"
      }, 
      "inputs": [[527, 0, 0], [528, 0, 0], [529, 0, 0], [530, 0, 1], [531, 0, 1]]
    }, 
    {
      "op": "Activation", 
      "name": "inception_4e_3x3_3_relu", 
      "attrs": {"act_type": "relu"}, 
      "inputs": [[532, 0, 0]]
    }, 
    {
      "op": "Pooling", 
      "name": "inception_4e_pool", 
      "attrs": {
        "cudnn_off": "False", 
        "global_pool": "False", 
        "kernel": "(3, 3)", 
        "pad": "(0, 0)", 
        "pool_type": "max", 
        "pooling_convention": "full", 
        "stride": "(2, 2)"
      }, 
      "inputs": [[493, 0, 0]]
    }, 
    {
      "op": "Concat", 
      "name": "inception_4e_concat", 
      "attrs": {"num_args": "3"}, 
      "inputs": [[509, 0, 0], [533, 0, 0], [534, 0, 0]]
    }, 
    {
      "op": "Pooling", 
      "name": "inception_4e_global_pool", 
      "attrs": {
        "global_pool": "True", 
        "kernel": "(7, 7)", 
        "pool_type": "avg", 
        "pooling_convention": "full"
      }, 
      "inputs": [[535, 0, 0]]
    }, 
    {
      "op": "null", 
      "name": "inception_4e_1x1_down_weight", 
      "attrs": {
        "kernel": "(1, 1)", 
        "no_bias": "False", 
        "num_filter": "66", 
        "stride": "(1, 1)"
      }, 
      "inputs": []
    }, 
    {
      "op": "null", 
      "name": "inception_4e_1x1_down_bias", 
      "attrs": {
        "kernel": "(1, 1)", 
        "no_bias": "False", 
        "num_filter": "66", 
        "stride": "(1, 1)"
      }, 
      "inputs": []
    }, 
    {
      "op": "Convolution", 
      "name": "inception_4e_1x1_down", 
      "attrs": {
        "kernel": "(1, 1)", 
        "no_bias": "False", 
        "num_filter": "66", 
        "stride": "(1, 1)"
      }, 
      "inputs": [[536, 0, 0], [537, 0, 0], [538, 0, 0]]
    }, 
    {
      "op": "Activation", 
      "name": "inception_4e_1x1_down_relu", 
      "attrs": {"act_type": "relu"}, 
      "inputs": [[539, 0, 0]]
    }, 
    {
      "op": "null", 
      "name": "inception_4e_1x1_up_weight", 
      "attrs": {
        "kernel": "(1, 1)", 
        "no_bias": "False", 
        "num_filter": "1056", 
        "pad": "(0, 0)", 
        "stride": "(1, 1)"
      }, 
      "inputs": []
    }, 
    {
      "op": "null", 
      "name": "inception_4e_1x1_up_bias", 
      "attrs": {
        "kernel": "(1, 1)", 
        "no_bias": "False", 
        "num_filter": "1056", 
        "pad": "(0, 0)", 
        "stride": "(1, 1)"
      }, 
      "inputs": []
    }, 
    {
      "op": "Convolution", 
      "name": "inception_4e_1x1_up", 
      "attrs": {
        "kernel": "(1, 1)", 
        "no_bias": "False", 
        "num_filter": "1056", 
        "pad": "(0, 0)", 
        "stride": "(1, 1)"
      }, 
      "inputs": [[540, 0, 0], [541, 0, 0], [542, 0, 0]]
    }, 
    {
      "op": "Activation", 
      "name": "inception_4e_1x1_up_prob", 
      "attrs": {"act_type": "sigmoid"}, 
      "inputs": [[543, 0, 0]]
    }, 
    {
      "op": "Reshape", 
      "name": "reshape7", 
      "attrs": {"shape": "(-1, 1056, 1, 1)"}, 
      "inputs": [[544, 0, 0]]
    }, 
    {
      "op": "broadcast_mul", 
      "name": "broadcast_mul7", 
      "inputs": [[535, 0, 0], [545, 0, 0]]
    }, 
    {
      "op": "null", 
      "name": "inception_5a_1x1_weight", 
      "attrs": {
        "kernel": "(1, 1)", 
        "no_bias": "True", 
        "num_filter": "352", 
        "pad": "(0, 0)", 
        "stride": "(1, 1)"
      }, 
      "inputs": []
    }, 
    {
      "op": "Convolution", 
      "name": "inception_5a_1x1", 
      "attrs": {
        "kernel": "(1, 1)", 
        "no_bias": "True", 
        "num_filter": "352", 
        "pad": "(0, 0)", 
        "stride": "(1, 1)"
      }, 
      "inputs": [[546, 0, 0], [547, 0, 0]]
    }, 
    {
      "op": "null", 
      "name": "inception_5a_1x1_bn_gamma", 
      "attrs": {
        "eps": "1e-05", 
        "fix_gamma": "False", 
        "use_global_stats": "True"
      }, 
      "inputs": []
    }, 
    {
      "op": "null", 
      "name": "inception_5a_1x1_bn_beta", 
      "attrs": {
        "eps": "1e-05", 
        "fix_gamma": "False", 
        "use_global_stats": "True"
      }, 
      "inputs": []
    }, 
    {
      "op": "null", 
      "name": "inception_5a_1x1_bn_moving_mean", 
      "attrs": {
        "__init__": "[\"zero\", {}]", 
        "eps": "1e-05", 
        "fix_gamma": "False", 
        "use_global_stats": "True"
      }, 
      "inputs": []
    }, 
    {
      "op": "null", 
      "name": "inception_5a_1x1_bn_moving_var", 
      "attrs": {
        "__init__": "[\"one\", {}]", 
        "eps": "1e-05", 
        "fix_gamma": "False", 
        "use_global_stats": "True"
      }, 
      "inputs": []
    }, 
    {
      "op": "BatchNorm", 
      "name": "inception_5a_1x1_bn", 
      "attrs": {
        "eps": "1e-05", 
        "fix_gamma": "False", 
        "use_global_stats": "True"
      }, 
      "inputs": [[548, 0, 0], [549, 0, 0], [550, 0, 0], [551, 0, 1], [552, 0, 1]]
    }, 
    {
      "op": "Activation", 
      "name": "inception_5a_1x1_relu", 
      "attrs": {"act_type": "relu"}, 
      "inputs": [[553, 0, 0]]
    }, 
    {
      "op": "null", 
      "name": "inception_5a_3x3_reduce_weight", 
      "attrs": {
        "kernel": "(1, 1)", 
        "no_bias": "True", 
        "num_filter": "192", 
        "pad": "(0, 0)", 
        "stride": "(1, 1)"
      }, 
      "inputs": []
    }, 
    {
      "op": "Convolution", 
      "name": "inception_5a_3x3_reduce", 
      "attrs": {
        "kernel": "(1, 1)", 
        "no_bias": "True", 
        "num_filter": "192", 
        "pad": "(0, 0)", 
        "stride": "(1, 1)"
      }, 
      "inputs": [[546, 0, 0], [555, 0, 0]]
    }, 
    {
      "op": "null", 
      "name": "inception_5a_3x3_reduce_bn_gamma", 
      "attrs": {
        "eps": "1e-05", 
        "fix_gamma": "False", 
        "use_global_stats": "True"
      }, 
      "inputs": []
    }, 
    {
      "op": "null", 
      "name": "inception_5a_3x3_reduce_bn_beta", 
      "attrs": {
        "eps": "1e-05", 
        "fix_gamma": "False", 
        "use_global_stats": "True"
      }, 
      "inputs": []
    }, 
    {
      "op": "null", 
      "name": "inception_5a_3x3_reduce_bn_moving_mean", 
      "attrs": {
        "__init__": "[\"zero\", {}]", 
        "eps": "1e-05", 
        "fix_gamma": "False", 
        "use_global_stats": "True"
      }, 
      "inputs": []
    }, 
    {
      "op": "null", 
      "name": "inception_5a_3x3_reduce_bn_moving_var", 
      "attrs": {
        "__init__": "[\"one\", {}]", 
        "eps": "1e-05", 
        "fix_gamma": "False", 
        "use_global_stats": "True"
      }, 
      "inputs": []
    }, 
    {
      "op": "BatchNorm", 
      "name": "inception_5a_3x3_reduce_bn", 
      "attrs": {
        "eps": "1e-05", 
        "fix_gamma": "False", 
        "use_global_stats": "True"
      }, 
      "inputs": [[556, 0, 0], [557, 0, 0], [558, 0, 0], [559, 0, 1], [560, 0, 1]]
    }, 
    {
      "op": "Activation", 
      "name": "inception_5a_3x3_reduce_relu", 
      "attrs": {"act_type": "relu"}, 
      "inputs": [[561, 0, 0]]
    }, 
    {
      "op": "null", 
      "name": "inception_5a_3x3_weight", 
      "attrs": {
        "kernel": "(3, 3)", 
        "no_bias": "True", 
        "num_filter": "320", 
        "pad": "(1, 1)", 
        "stride": "(1, 1)"
      }, 
      "inputs": []
    }, 
    {
      "op": "Convolution", 
      "name": "inception_5a_3x3", 
      "attrs": {
        "kernel": "(3, 3)", 
        "no_bias": "True", 
        "num_filter": "320", 
        "pad": "(1, 1)", 
        "stride": "(1, 1)"
      }, 
      "inputs": [[562, 0, 0], [563, 0, 0]]
    }, 
    {
      "op": "null", 
      "name": "inception_5a_3x3_bn_gamma", 
      "attrs": {
        "eps": "1e-05", 
        "fix_gamma": "False", 
        "use_global_stats": "True"
      }, 
      "inputs": []
    }, 
    {
      "op": "null", 
      "name": "inception_5a_3x3_bn_beta", 
      "attrs": {
        "eps": "1e-05", 
        "fix_gamma": "False", 
        "use_global_stats": "True"
      }, 
      "inputs": []
    }, 
    {
      "op": "null", 
      "name": "inception_5a_3x3_bn_moving_mean", 
      "attrs": {
        "__init__": "[\"zero\", {}]", 
        "eps": "1e-05", 
        "fix_gamma": "False", 
        "use_global_stats": "True"
      }, 
      "inputs": []
    }, 
    {
      "op": "null", 
      "name": "inception_5a_3x3_bn_moving_var", 
      "attrs": {
        "__init__": "[\"one\", {}]", 
        "eps": "1e-05", 
        "fix_gamma": "False", 
        "use_global_stats": "True"
      }, 
      "inputs": []
    }, 
    {
      "op": "BatchNorm", 
      "name": "inception_5a_3x3_bn", 
      "attrs": {
        "eps": "1e-05", 
        "fix_gamma": "False", 
        "use_global_stats": "True"
      }, 
      "inputs": [[564, 0, 0], [565, 0, 0], [566, 0, 0], [567, 0, 1], [568, 0, 1]]
    }, 
    {
      "op": "Activation", 
      "name": "inception_5a_3x3_relu", 
      "attrs": {"act_type": "relu"}, 
      "inputs": [[569, 0, 0]]
    }, 
    {
      "op": "null", 
      "name": "inception_5a_3x3_2_reduce_weight", 
      "attrs": {
        "kernel": "(1, 1)", 
        "no_bias": "True", 
        "num_filter": "160", 
        "pad": "(0, 0)", 
        "stride": "(1, 1)"
      }, 
      "inputs": []
    }, 
    {
      "op": "Convolution", 
      "name": "inception_5a_3x3_2_reduce", 
      "attrs": {
        "kernel": "(1, 1)", 
        "no_bias": "True", 
        "num_filter": "160", 
        "pad": "(0, 0)", 
        "stride": "(1, 1)"
      }, 
      "inputs": [[546, 0, 0], [571, 0, 0]]
    }, 
    {
      "op": "null", 
      "name": "inception_5a_3x3_2_reduce_bn_gamma", 
      "attrs": {
        "eps": "1e-05", 
        "fix_gamma": "False", 
        "use_global_stats": "True"
      }, 
      "inputs": []
    }, 
    {
      "op": "null", 
      "name": "inception_5a_3x3_2_reduce_bn_beta", 
      "attrs": {
        "eps": "1e-05", 
        "fix_gamma": "False", 
        "use_global_stats": "True"
      }, 
      "inputs": []
    }, 
    {
      "op": "null", 
      "name": "inception_5a_3x3_2_reduce_bn_moving_mean", 
      "attrs": {
        "__init__": "[\"zero\", {}]", 
        "eps": "1e-05", 
        "fix_gamma": "False", 
        "use_global_stats": "True"
      }, 
      "inputs": []
    }, 
    {
      "op": "null", 
      "name": "inception_5a_3x3_2_reduce_bn_moving_var", 
      "attrs": {
        "__init__": "[\"one\", {}]", 
        "eps": "1e-05", 
        "fix_gamma": "False", 
        "use_global_stats": "True"
      }, 
      "inputs": []
    }, 
    {
      "op": "BatchNorm", 
      "name": "inception_5a_3x3_2_reduce_bn", 
      "attrs": {
        "eps": "1e-05", 
        "fix_gamma": "False", 
        "use_global_stats": "True"
      }, 
      "inputs": [[572, 0, 0], [573, 0, 0], [574, 0, 0], [575, 0, 1], [576, 0, 1]]
    }, 
    {
      "op": "Activation", 
      "name": "inception_5a_3x3_2_reduce_relu", 
      "attrs": {"act_type": "relu"}, 
      "inputs": [[577, 0, 0]]
    }, 
    {
      "op": "null", 
      "name": "inception_5a_3x3_2_weight", 
      "attrs": {
        "kernel": "(3, 3)", 
        "no_bias": "True", 
        "num_filter": "224", 
        "pad": "(1, 1)", 
        "stride": "(1, 1)"
      }, 
      "inputs": []
    }, 
    {
      "op": "Convolution", 
      "name": "inception_5a_3x3_2", 
      "attrs": {
        "kernel": "(3, 3)", 
        "no_bias": "True", 
        "num_filter": "224", 
        "pad": "(1, 1)", 
        "stride": "(1, 1)"
      }, 
      "inputs": [[578, 0, 0], [579, 0, 0]]
    }, 
    {
      "op": "null", 
      "name": "inception_5a_3x3_2_bn_gamma", 
      "attrs": {
        "eps": "1e-05", 
        "fix_gamma": "False", 
        "use_global_stats": "True"
      }, 
      "inputs": []
    }, 
    {
      "op": "null", 
      "name": "inception_5a_3x3_2_bn_beta", 
      "attrs": {
        "eps": "1e-05", 
        "fix_gamma": "False", 
        "use_global_stats": "True"
      }, 
      "inputs": []
    }, 
    {
      "op": "null", 
      "name": "inception_5a_3x3_2_bn_moving_mean", 
      "attrs": {
        "__init__": "[\"zero\", {}]", 
        "eps": "1e-05", 
        "fix_gamma": "False", 
        "use_global_stats": "True"
      }, 
      "inputs": []
    }, 
    {
      "op": "null", 
      "name": "inception_5a_3x3_2_bn_moving_var", 
      "attrs": {
        "__init__": "[\"one\", {}]", 
        "eps": "1e-05", 
        "fix_gamma": "False", 
        "use_global_stats": "True"
      }, 
      "inputs": []
    }, 
    {
      "op": "BatchNorm", 
      "name": "inception_5a_3x3_2_bn", 
      "attrs": {
        "eps": "1e-05", 
        "fix_gamma": "False", 
        "use_global_stats": "True"
      }, 
      "inputs": [[580, 0, 0], [581, 0, 0], [582, 0, 0], [583, 0, 1], [584, 0, 1]]
    }, 
    {
      "op": "Activation", 
      "name": "inception_5a_3x3_2_relu", 
      "attrs": {"act_type": "relu"}, 
      "inputs": [[585, 0, 0]]
    }, 
    {
      "op": "null", 
      "name": "inception_5a_3x3_3_weight", 
      "attrs": {
        "kernel": "(3, 3)", 
        "no_bias": "True", 
        "num_filter": "224", 
        "pad": "(1, 1)", 
        "stride": "(1, 1)"
      }, 
      "inputs": []
    }, 
    {
      "op": "Convolution", 
      "name": "inception_5a_3x3_3", 
      "attrs": {
        "kernel": "(3, 3)", 
        "no_bias": "True", 
        "num_filter": "224", 
        "pad": "(1, 1)", 
        "stride": "(1, 1)"
      }, 
      "inputs": [[586, 0, 0], [587, 0, 0]]
    }, 
    {
      "op": "null", 
      "name": "inception_5a_3x3_3_bn_gamma", 
      "attrs": {
        "eps": "1e-05", 
        "fix_gamma": "False", 
        "use_global_stats": "True"
      }, 
      "inputs": []
    }, 
    {
      "op": "null", 
      "name": "inception_5a_3x3_3_bn_beta", 
      "attrs": {
        "eps": "1e-05", 
        "fix_gamma": "False", 
        "use_global_stats": "True"
      }, 
      "inputs": []
    }, 
    {
      "op": "null", 
      "name": "inception_5a_3x3_3_bn_moving_mean", 
      "attrs": {
        "__init__": "[\"zero\", {}]", 
        "eps": "1e-05", 
        "fix_gamma": "False", 
        "use_global_stats": "True"
      }, 
      "inputs": []
    }, 
    {
      "op": "null", 
      "name": "inception_5a_3x3_3_bn_moving_var", 
      "attrs": {
        "__init__": "[\"one\", {}]", 
        "eps": "1e-05", 
        "fix_gamma": "False", 
        "use_global_stats": "True"
      }, 
      "inputs": []
    }, 
    {
      "op": "BatchNorm", 
      "name": "inception_5a_3x3_3_bn", 
      "attrs": {
        "eps": "1e-05", 
        "fix_gamma": "False", 
        "use_global_stats": "True"
      }, 
      "inputs": [[588, 0, 0], [589, 0, 0], [590, 0, 0], [591, 0, 1], [592, 0, 1]]
    }, 
    {
      "op": "Activation", 
      "name": "inception_5a_3x3_3_relu", 
      "attrs": {"act_type": "relu"}, 
      "inputs": [[593, 0, 0]]
    }, 
    {
      "op": "Pooling", 
      "name": "inception_5a_avg_pool", 
      "attrs": {
        "kernel": "(3, 3)", 
        "pad": "(1, 1)", 
        "pool_type": "avg", 
        "stride": "(1, 1)"
      }, 
      "inputs": [[546, 0, 0]]
    }, 
    {
      "op": "null", 
      "name": "inception_5a_pool_proj_weight", 
      "attrs": {
        "kernel": "(1, 1)", 
        "no_bias": "True", 
        "num_filter": "128", 
        "pad": "(0, 0)", 
        "stride": "(1, 1)"
      }, 
      "inputs": []
    }, 
    {
      "op": "Convolution", 
      "name": "inception_5a_pool_proj", 
      "attrs": {
        "kernel": "(1, 1)", 
        "no_bias": "True", 
        "num_filter": "128", 
        "pad": "(0, 0)", 
        "stride": "(1, 1)"
      }, 
      "inputs": [[595, 0, 0], [596, 0, 0]]
    }, 
    {
      "op": "null", 
      "name": "inception_5a_pool_proj_bn_gamma", 
      "attrs": {
        "eps": "1e-05", 
        "fix_gamma": "False", 
        "use_global_stats": "True"
      }, 
      "inputs": []
    }, 
    {
      "op": "null", 
      "name": "inception_5a_pool_proj_bn_beta", 
      "attrs": {
        "eps": "1e-05", 
        "fix_gamma": "False", 
        "use_global_stats": "True"
      }, 
      "inputs": []
    }, 
    {
      "op": "null", 
      "name": "inception_5a_pool_proj_bn_moving_mean", 
      "attrs": {
        "__init__": "[\"zero\", {}]", 
        "eps": "1e-05", 
        "fix_gamma": "False", 
        "use_global_stats": "True"
      }, 
      "inputs": []
    }, 
    {
      "op": "null", 
      "name": "inception_5a_pool_proj_bn_moving_var", 
      "attrs": {
        "__init__": "[\"one\", {}]", 
        "eps": "1e-05", 
        "fix_gamma": "False", 
        "use_global_stats": "True"
      }, 
      "inputs": []
    }, 
    {
      "op": "BatchNorm", 
      "name": "inception_5a_pool_proj_bn", 
      "attrs": {
        "eps": "1e-05", 
        "fix_gamma": "False", 
        "use_global_stats": "True"
      }, 
      "inputs": [[597, 0, 0], [598, 0, 0], [599, 0, 0], [600, 0, 1], [601, 0, 1]]
    }, 
    {
      "op": "Activation", 
      "name": "inception_5a_pool_proj_relu", 
      "attrs": {"act_type": "relu"}, 
      "inputs": [[602, 0, 0]]
    }, 
    {
      "op": "Concat", 
      "name": "inception_5a_concat", 
      "attrs": {"num_args": "4"}, 
      "inputs": [[554, 0, 0], [570, 0, 0], [594, 0, 0], [603, 0, 0]]
    }, 
    {
      "op": "Pooling", 
      "name": "inception_5a_global_pool", 
      "attrs": {
        "global_pool": "True", 
        "kernel": "(7, 7)", 
        "pool_type": "avg", 
        "pooling_convention": "full"
      }, 
      "inputs": [[604, 0, 0]]
    }, 
    {
      "op": "null", 
      "name": "inception_5a_1x1_down_weight", 
      "attrs": {
        "kernel": "(1, 1)", 
        "no_bias": "False", 
        "num_filter": "64", 
        "stride": "(1, 1)"
      }, 
      "inputs": []
    }, 
    {
      "op": "null", 
      "name": "inception_5a_1x1_down_bias", 
      "attrs": {
        "kernel": "(1, 1)", 
        "no_bias": "False", 
        "num_filter": "64", 
        "stride": "(1, 1)"
      }, 
      "inputs": []
    }, 
    {
      "op": "Convolution", 
      "name": "inception_5a_1x1_down", 
      "attrs": {
        "kernel": "(1, 1)", 
        "no_bias": "False", 
        "num_filter": "64", 
        "stride": "(1, 1)"
      }, 
      "inputs": [[605, 0, 0], [606, 0, 0], [607, 0, 0]]
    }, 
    {
      "op": "Activation", 
      "name": "inception_5a_1x1_down_relu", 
      "attrs": {"act_type": "relu"}, 
      "inputs": [[608, 0, 0]]
    }, 
    {
      "op": "null", 
      "name": "inception_5a_1x1_up_weight", 
      "attrs": {
        "kernel": "(1, 1)", 
        "no_bias": "False", 
        "num_filter": "1024", 
        "pad": "(0, 0)", 
        "stride": "(1, 1)"
      }, 
      "inputs": []
    }, 
    {
      "op": "null", 
      "name": "inception_5a_1x1_up_bias", 
      "attrs": {
        "kernel": "(1, 1)", 
        "no_bias": "False", 
        "num_filter": "1024", 
        "pad": "(0, 0)", 
        "stride": "(1, 1)"
      }, 
      "inputs": []
    }, 
    {
      "op": "Convolution", 
      "name": "inception_5a_1x1_up", 
      "attrs": {
        "kernel": "(1, 1)", 
        "no_bias": "False", 
        "num_filter": "1024", 
        "pad": "(0, 0)", 
        "stride": "(1, 1)"
      }, 
      "inputs": [[609, 0, 0], [610, 0, 0], [611, 0, 0]]
    }, 
    {
      "op": "Activation", 
      "name": "inception_5a_1x1_up_prob", 
      "attrs": {"act_type": "sigmoid"}, 
      "inputs": [[612, 0, 0]]
    }, 
    {
      "op": "Reshape", 
      "name": "reshape8", 
      "attrs": {"shape": "(-1, 1024, 1, 1)"}, 
      "inputs": [[613, 0, 0]]
    }, 
    {
      "op": "broadcast_mul", 
      "name": "broadcast_mul8", 
      "inputs": [[604, 0, 0], [614, 0, 0]]
    }, 
    {
      "op": "null", 
      "name": "inception_5b_1x1_weight", 
      "attrs": {
        "kernel": "(1, 1)", 
        "no_bias": "True", 
        "num_filter": "352", 
        "pad": "(0, 0)", 
        "stride": "(1, 1)"
      }, 
      "inputs": []
    }, 
    {
      "op": "Convolution", 
      "name": "inception_5b_1x1", 
      "attrs": {
        "kernel": "(1, 1)", 
        "no_bias": "True", 
        "num_filter": "352", 
        "pad": "(0, 0)", 
        "stride": "(1, 1)"
      }, 
      "inputs": [[615, 0, 0], [616, 0, 0]]
    }, 
    {
      "op": "null", 
      "name": "inception_5b_1x1_bn_gamma", 
      "attrs": {
        "eps": "1e-05", 
        "fix_gamma": "False", 
        "use_global_stats": "True"
      }, 
      "inputs": []
    }, 
    {
      "op": "null", 
      "name": "inception_5b_1x1_bn_beta", 
      "attrs": {
        "eps": "1e-05", 
        "fix_gamma": "False", 
        "use_global_stats": "True"
      }, 
      "inputs": []
    }, 
    {
      "op": "null", 
      "name": "inception_5b_1x1_bn_moving_mean", 
      "attrs": {
        "__init__": "[\"zero\", {}]", 
        "eps": "1e-05", 
        "fix_gamma": "False", 
        "use_global_stats": "True"
      }, 
      "inputs": []
    }, 
    {
      "op": "null", 
      "name": "inception_5b_1x1_bn_moving_var", 
      "attrs": {
        "__init__": "[\"one\", {}]", 
        "eps": "1e-05", 
        "fix_gamma": "False", 
        "use_global_stats": "True"
      }, 
      "inputs": []
    }, 
    {
      "op": "BatchNorm", 
      "name": "inception_5b_1x1_bn", 
      "attrs": {
        "eps": "1e-05", 
        "fix_gamma": "False", 
        "use_global_stats": "True"
      }, 
      "inputs": [[617, 0, 0], [618, 0, 0], [619, 0, 0], [620, 0, 1], [621, 0, 1]]
    }, 
    {
      "op": "Activation", 
      "name": "inception_5b_1x1_relu", 
      "attrs": {"act_type": "relu"}, 
      "inputs": [[622, 0, 0]]
    }, 
    {
      "op": "null", 
      "name": "inception_5b_3x3_reduce_weight", 
      "attrs": {
        "kernel": "(1, 1)", 
        "no_bias": "True", 
        "num_filter": "192", 
        "pad": "(0, 0)", 
        "stride": "(1, 1)"
      }, 
      "inputs": []
    }, 
    {
      "op": "Convolution", 
      "name": "inception_5b_3x3_reduce", 
      "attrs": {
        "kernel": "(1, 1)", 
        "no_bias": "True", 
        "num_filter": "192", 
        "pad": "(0, 0)", 
        "stride": "(1, 1)"
      }, 
      "inputs": [[615, 0, 0], [624, 0, 0]]
    }, 
    {
      "op": "null", 
      "name": "inception_5b_3x3_reduce_bn_gamma", 
      "attrs": {
        "eps": "1e-05", 
        "fix_gamma": "False", 
        "use_global_stats": "True"
      }, 
      "inputs": []
    }, 
    {
      "op": "null", 
      "name": "inception_5b_3x3_reduce_bn_beta", 
      "attrs": {
        "eps": "1e-05", 
        "fix_gamma": "False", 
        "use_global_stats": "True"
      }, 
      "inputs": []
    }, 
    {
      "op": "null", 
      "name": "inception_5b_3x3_reduce_bn_moving_mean", 
      "attrs": {
        "__init__": "[\"zero\", {}]", 
        "eps": "1e-05", 
        "fix_gamma": "False", 
        "use_global_stats": "True"
      }, 
      "inputs": []
    }, 
    {
      "op": "null", 
      "name": "inception_5b_3x3_reduce_bn_moving_var", 
      "attrs": {
        "__init__": "[\"one\", {}]", 
        "eps": "1e-05", 
        "fix_gamma": "False", 
        "use_global_stats": "True"
      }, 
      "inputs": []
    }, 
    {
      "op": "BatchNorm", 
      "name": "inception_5b_3x3_reduce_bn", 
      "attrs": {
        "eps": "1e-05", 
        "fix_gamma": "False", 
        "use_global_stats": "True"
      }, 
      "inputs": [[625, 0, 0], [626, 0, 0], [627, 0, 0], [628, 0, 1], [629, 0, 1]]
    }, 
    {
      "op": "Activation", 
      "name": "inception_5b_3x3_reduce_relu", 
      "attrs": {"act_type": "relu"}, 
      "inputs": [[630, 0, 0]]
    }, 
    {
      "op": "null", 
      "name": "inception_5b_3x3_weight", 
      "attrs": {
        "kernel": "(3, 3)", 
        "no_bias": "True", 
        "num_filter": "320", 
        "pad": "(1, 1)", 
        "stride": "(1, 1)"
      }, 
      "inputs": []
    }, 
    {
      "op": "Convolution", 
      "name": "inception_5b_3x3", 
      "attrs": {
        "kernel": "(3, 3)", 
        "no_bias": "True", 
        "num_filter": "320", 
        "pad": "(1, 1)", 
        "stride": "(1, 1)"
      }, 
      "inputs": [[631, 0, 0], [632, 0, 0]]
    }, 
    {
      "op": "null", 
      "name": "inception_5b_3x3_bn_gamma", 
      "attrs": {
        "eps": "1e-05", 
        "fix_gamma": "False", 
        "use_global_stats": "True"
      }, 
      "inputs": []
    }, 
    {
      "op": "null", 
      "name": "inception_5b_3x3_bn_beta", 
      "attrs": {
        "eps": "1e-05", 
        "fix_gamma": "False", 
        "use_global_stats": "True"
      }, 
      "inputs": []
    }, 
    {
      "op": "null", 
      "name": "inception_5b_3x3_bn_moving_mean", 
      "attrs": {
        "__init__": "[\"zero\", {}]", 
        "eps": "1e-05", 
        "fix_gamma": "False", 
        "use_global_stats": "True"
      }, 
      "inputs": []
    }, 
    {
      "op": "null", 
      "name": "inception_5b_3x3_bn_moving_var", 
      "attrs": {
        "__init__": "[\"one\", {}]", 
        "eps": "1e-05", 
        "fix_gamma": "False", 
        "use_global_stats": "True"
      }, 
      "inputs": []
    }, 
    {
      "op": "BatchNorm", 
      "name": "inception_5b_3x3_bn", 
      "attrs": {
        "eps": "1e-05", 
        "fix_gamma": "False", 
        "use_global_stats": "True"
      }, 
      "inputs": [[633, 0, 0], [634, 0, 0], [635, 0, 0], [636, 0, 1], [637, 0, 1]]
    }, 
    {
      "op": "Activation", 
      "name": "inception_5b_3x3_relu", 
      "attrs": {"act_type": "relu"}, 
      "inputs": [[638, 0, 0]]
    }, 
    {
      "op": "null", 
      "name": "inception_5b_3x3_2_reduce_weight", 
      "attrs": {
        "kernel": "(1, 1)", 
        "no_bias": "True", 
        "num_filter": "192", 
        "pad": "(0, 0)", 
        "stride": "(1, 1)"
      }, 
      "inputs": []
    }, 
    {
      "op": "Convolution", 
      "name": "inception_5b_3x3_2_reduce", 
      "attrs": {
        "kernel": "(1, 1)", 
        "no_bias": "True", 
        "num_filter": "192", 
        "pad": "(0, 0)", 
        "stride": "(1, 1)"
      }, 
      "inputs": [[615, 0, 0], [640, 0, 0]]
    }, 
    {
      "op": "null", 
      "name": "inception_5b_3x3_2_reduce_bn_gamma", 
      "attrs": {
        "eps": "1e-05", 
        "fix_gamma": "False", 
        "use_global_stats": "True"
      }, 
      "inputs": []
    }, 
    {
      "op": "null", 
      "name": "inception_5b_3x3_2_reduce_bn_beta", 
      "attrs": {
        "eps": "1e-05", 
        "fix_gamma": "False", 
        "use_global_stats": "True"
      }, 
      "inputs": []
    }, 
    {
      "op": "null", 
      "name": "inception_5b_3x3_2_reduce_bn_moving_mean", 
      "attrs": {
        "__init__": "[\"zero\", {}]", 
        "eps": "1e-05", 
        "fix_gamma": "False", 
        "use_global_stats": "True"
      }, 
      "inputs": []
    }, 
    {
      "op": "null", 
      "name": "inception_5b_3x3_2_reduce_bn_moving_var", 
      "attrs": {
        "__init__": "[\"one\", {}]", 
        "eps": "1e-05", 
        "fix_gamma": "False", 
        "use_global_stats": "True"
      }, 
      "inputs": []
    }, 
    {
      "op": "BatchNorm", 
      "name": "inception_5b_3x3_2_reduce_bn", 
      "attrs": {
        "eps": "1e-05", 
        "fix_gamma": "False", 
        "use_global_stats": "True"
      }, 
      "inputs": [[641, 0, 0], [642, 0, 0], [643, 0, 0], [644, 0, 1], [645, 0, 1]]
    }, 
    {
      "op": "Activation", 
      "name": "inception_5b_3x3_2_reduce_relu", 
      "attrs": {"act_type": "relu"}, 
      "inputs": [[646, 0, 0]]
    }, 
    {
      "op": "null", 
      "name": "inception_5b_3x3_2_weight", 
      "attrs": {
        "kernel": "(3, 3)", 
        "no_bias": "True", 
        "num_filter": "224", 
        "pad": "(1, 1)", 
        "stride": "(1, 1)"
      }, 
      "inputs": []
    }, 
    {
      "op": "Convolution", 
      "name": "inception_5b_3x3_2", 
      "attrs": {
        "kernel": "(3, 3)", 
        "no_bias": "True", 
        "num_filter": "224", 
        "pad": "(1, 1)", 
        "stride": "(1, 1)"
      }, 
      "inputs": [[647, 0, 0], [648, 0, 0]]
    }, 
    {
      "op": "null", 
      "name": "inception_5b_3x3_2_bn_gamma", 
      "attrs": {
        "eps": "1e-05", 
        "fix_gamma": "False", 
        "use_global_stats": "True"
      }, 
      "inputs": []
    }, 
    {
      "op": "null", 
      "name": "inception_5b_3x3_2_bn_beta", 
      "attrs": {
        "eps": "1e-05", 
        "fix_gamma": "False", 
        "use_global_stats": "True"
      }, 
      "inputs": []
    }, 
    {
      "op": "null", 
      "name": "inception_5b_3x3_2_bn_moving_mean", 
      "attrs": {
        "__init__": "[\"zero\", {}]", 
        "eps": "1e-05", 
        "fix_gamma": "False", 
        "use_global_stats": "True"
      }, 
      "inputs": []
    }, 
    {
      "op": "null", 
      "name": "inception_5b_3x3_2_bn_moving_var", 
      "attrs": {
        "__init__": "[\"one\", {}]", 
        "eps": "1e-05", 
        "fix_gamma": "False", 
        "use_global_stats": "True"
      }, 
      "inputs": []
    }, 
    {
      "op": "BatchNorm", 
      "name": "inception_5b_3x3_2_bn", 
      "attrs": {
        "eps": "1e-05", 
        "fix_gamma": "False", 
        "use_global_stats": "True"
      }, 
      "inputs": [[649, 0, 0], [650, 0, 0], [651, 0, 0], [652, 0, 1], [653, 0, 1]]
    }, 
    {
      "op": "Activation", 
      "name": "inception_5b_3x3_2_relu", 
      "attrs": {"act_type": "relu"}, 
      "inputs": [[654, 0, 0]]
    }, 
    {
      "op": "null", 
      "name": "inception_5b_3x3_3_weight", 
      "attrs": {
        "kernel": "(3, 3)", 
        "no_bias": "True", 
        "num_filter": "224", 
        "pad": "(1, 1)", 
        "stride": "(1, 1)"
      }, 
      "inputs": []
    }, 
    {
      "op": "Convolution", 
      "name": "inception_5b_3x3_3", 
      "attrs": {
        "kernel": "(3, 3)", 
        "no_bias": "True", 
        "num_filter": "224", 
        "pad": "(1, 1)", 
        "stride": "(1, 1)"
      }, 
      "inputs": [[655, 0, 0], [656, 0, 0]]
    }, 
    {
      "op": "null", 
      "name": "inception_5b_3x3_3_bn_gamma", 
      "attrs": {
        "eps": "1e-05", 
        "fix_gamma": "False", 
        "use_global_stats": "True"
      }, 
      "inputs": []
    }, 
    {
      "op": "null", 
      "name": "inception_5b_3x3_3_bn_beta", 
      "attrs": {
        "eps": "1e-05", 
        "fix_gamma": "False", 
        "use_global_stats": "True"
      }, 
      "inputs": []
    }, 
    {
      "op": "null", 
      "name": "inception_5b_3x3_3_bn_moving_mean", 
      "attrs": {
        "__init__": "[\"zero\", {}]", 
        "eps": "1e-05", 
        "fix_gamma": "False", 
        "use_global_stats": "True"
      }, 
      "inputs": []
    }, 
    {
      "op": "null", 
      "name": "inception_5b_3x3_3_bn_moving_var", 
      "attrs": {
        "__init__": "[\"one\", {}]", 
        "eps": "1e-05", 
        "fix_gamma": "False", 
        "use_global_stats": "True"
      }, 
      "inputs": []
    }, 
    {
      "op": "BatchNorm", 
      "name": "inception_5b_3x3_3_bn", 
      "attrs": {
        "eps": "1e-05", 
        "fix_gamma": "False", 
        "use_global_stats": "True"
      }, 
      "inputs": [[657, 0, 0], [658, 0, 0], [659, 0, 0], [660, 0, 1], [661, 0, 1]]
    }, 
    {
      "op": "Activation", 
      "name": "inception_5b_3x3_3_relu", 
      "attrs": {"act_type": "relu"}, 
      "inputs": [[662, 0, 0]]
    }, 
    {
      "op": "Pooling", 
      "name": "inception_5b_max_pool", 
      "attrs": {
        "kernel": "(3, 3)", 
        "pad": "(1, 1)", 
        "pool_type": "max", 
        "stride": "(1, 1)"
      }, 
      "inputs": [[615, 0, 0]]
    }, 
    {
      "op": "null", 
      "name": "inception_5b_pool_proj_weight", 
      "attrs": {
        "kernel": "(1, 1)", 
        "no_bias": "True", 
        "num_filter": "128", 
        "pad": "(0, 0)", 
        "stride": "(1, 1)"
      }, 
      "inputs": []
    }, 
    {
      "op": "Convolution", 
      "name": "inception_5b_pool_proj", 
      "attrs": {
        "kernel": "(1, 1)", 
        "no_bias": "True", 
        "num_filter": "128", 
        "pad": "(0, 0)", 
        "stride": "(1, 1)"
      }, 
      "inputs": [[664, 0, 0], [665, 0, 0]]
    }, 
    {
      "op": "null", 
      "name": "inception_5b_pool_proj_bn_gamma", 
      "attrs": {
        "eps": "1e-05", 
        "fix_gamma": "False", 
        "use_global_stats": "True"
      }, 
      "inputs": []
    }, 
    {
      "op": "null", 
      "name": "inception_5b_pool_proj_bn_beta", 
      "attrs": {
        "eps": "1e-05", 
        "fix_gamma": "False", 
        "use_global_stats": "True"
      }, 
      "inputs": []
    }, 
    {
      "op": "null", 
      "name": "inception_5b_pool_proj_bn_moving_mean", 
      "attrs": {
        "__init__": "[\"zero\", {}]", 
        "eps": "1e-05", 
        "fix_gamma": "False", 
        "use_global_stats": "True"
      }, 
      "inputs": []
    }, 
    {
      "op": "null", 
      "name": "inception_5b_pool_proj_bn_moving_var", 
      "attrs": {
        "__init__": "[\"one\", {}]", 
        "eps": "1e-05", 
        "fix_gamma": "False", 
        "use_global_stats": "True"
      }, 
      "inputs": []
    }, 
    {
      "op": "BatchNorm", 
      "name": "inception_5b_pool_proj_bn", 
      "attrs": {
        "eps": "1e-05", 
        "fix_gamma": "False", 
        "use_global_stats": "True"
      }, 
      "inputs": [[666, 0, 0], [667, 0, 0], [668, 0, 0], [669, 0, 1], [670, 0, 1]]
    }, 
    {
      "op": "Activation", 
      "name": "inception_5b_pool_proj_relu", 
      "attrs": {"act_type": "relu"}, 
      "inputs": [[671, 0, 0]]
    }, 
    {
      "op": "Concat", 
      "name": "inception_5b_concat", 
      "attrs": {"num_args": "4"}, 
      "inputs": [[623, 0, 0], [639, 0, 0], [663, 0, 0], [672, 0, 0]]
    }, 
    {
      "op": "Pooling", 
      "name": "inception_5b_global_pool", 
      "attrs": {
        "global_pool": "True", 
        "kernel": "(7, 7)", 
        "pool_type": "avg", 
        "pooling_convention": "full"
      }, 
      "inputs": [[673, 0, 0]]
    }, 
    {
      "op": "null", 
      "name": "inception_5b_1x1_down_weight", 
      "attrs": {
        "kernel": "(1, 1)", 
        "no_bias": "False", 
        "num_filter": "64", 
        "stride": "(1, 1)"
      }, 
      "inputs": []
    }, 
    {
      "op": "null", 
      "name": "inception_5b_1x1_down_bias", 
      "attrs": {
        "kernel": "(1, 1)", 
        "no_bias": "False", 
        "num_filter": "64", 
        "stride": "(1, 1)"
      }, 
      "inputs": []
    }, 
    {
      "op": "Convolution", 
      "name": "inception_5b_1x1_down", 
      "attrs": {
        "kernel": "(1, 1)", 
        "no_bias": "False", 
        "num_filter": "64", 
        "stride": "(1, 1)"
      }, 
      "inputs": [[674, 0, 0], [675, 0, 0], [676, 0, 0]]
    }, 
    {
      "op": "Activation", 
      "name": "inception_5b_1x1_down_relu", 
      "attrs": {"act_type": "relu"}, 
      "inputs": [[677, 0, 0]]
    }, 
    {
      "op": "null", 
      "name": "inception_5b_1x1_up_weight", 
      "attrs": {
        "kernel": "(1, 1)", 
        "no_bias": "False", 
        "num_filter": "1024", 
        "pad": "(0, 0)", 
        "stride": "(1, 1)"
      }, 
      "inputs": []
    }, 
    {
      "op": "null", 
      "name": "inception_5b_1x1_up_bias", 
      "attrs": {
        "kernel": "(1, 1)", 
        "no_bias": "False", 
        "num_filter": "1024", 
        "pad": "(0, 0)", 
        "stride": "(1, 1)"
      }, 
      "inputs": []
    }, 
    {
      "op": "Convolution", 
      "name": "inception_5b_1x1_up", 
      "attrs": {
        "kernel": "(1, 1)", 
        "no_bias": "False", 
        "num_filter": "1024", 
        "pad": "(0, 0)", 
        "stride": "(1, 1)"
      }, 
      "inputs": [[678, 0, 0], [679, 0, 0], [680, 0, 0]]
    }, 
    {
      "op": "Activation", 
      "name": "inception_5b_1x1_up_prob", 
      "attrs": {"act_type": "sigmoid"}, 
      "inputs": [[681, 0, 0]]
    }, 
    {
      "op": "Reshape", 
      "name": "reshape9", 
      "attrs": {"shape": "(-1, 1024, 1, 1)"}, 
      "inputs": [[682, 0, 0]]
    }, 
    {
      "op": "broadcast_mul", 
      "name": "broadcast_mul9", 
      "inputs": [[673, 0, 0], [683, 0, 0]]
    }, 
    {
      "op": "Pooling", 
      "name": "avg_pool", 
      "attrs": {
        "cudnn_off": "False", 
        "global_pool": "True", 
        "kernel": "(7, 7)", 
        "pool_type": "avg", 
        "pooling_convention": "valid", 
        "stride": "(1, 1)"
      }, 
      "inputs": [[684, 0, 0]]
    }, 
    {
      "op": "Flatten", 
      "name": "flatten", 
      "inputs": [[685, 0, 0]]
    }, 
    {
      "op": "null", 
      "name": "classifier_weight", 
      "attrs": {"num_hidden": "1000"}, 
      "inputs": []
    }, 
    {
      "op": "null", 
      "name": "classifier_bias", 
      "attrs": {"num_hidden": "1000"}, 
      "inputs": []
    }, 
    {
      "op": "FullyConnected", 
      "name": "classifier", 
      "attrs": {"num_hidden": "1000"}, 
      "inputs": [[686, 0, 0], [687, 0, 0], [688, 0, 0]]
    }, 
    {
      "op": "null", 
      "name": "softmax_label", 
      "inputs": []
    }, 
    {
      "op": "SoftmaxOutput", 
      "name": "softmax", 
      "inputs": [[689, 0, 0], [690, 0, 0]]
    }
  ], 
  "arg_nodes": [
    0, 
    1, 
    3, 
    4, 
    5, 
    6, 
    10, 
    12, 
    13, 
    14, 
    15, 
    18, 
    20, 
    21, 
    22, 
    23, 
    27, 
    29, 
    30, 
    31, 
    32, 
    35, 
    37, 
    38, 
    39, 
    40, 
    43, 
    45, 
    46, 
    47, 
    48, 
    51, 
    53, 
    54, 
    55, 
    56, 
    59, 
    61, 
    62, 
    63, 
    64, 
    67, 
    69, 
    70, 
    71, 
    72, 
    76, 
    78, 
    79, 
    80, 
    81, 
    86, 
    87, 
    90, 
    91, 
    96, 
    98, 
    99, 
    100, 
    101, 
    104, 
    106, 
    107, 
    108, 
    109, 
    112, 
    114, 
    115, 
    116, 
    117, 
    120, 
    122, 
    123, 
    124, 
    125, 
    128, 
    130, 
    131, 
    132, 
    133, 
    136, 
    138, 
    139, 
    140, 
    141, 
    145, 
    147, 
    148, 
    149, 
    150, 
    155, 
    156, 
    159, 
    160, 
    165, 
    167, 
    168, 
    169, 
    170, 
    173, 
    175, 
    176, 
    177, 
    178, 
    181, 
    183, 
    184, 
    185, 
    186, 
    189, 
    191, 
    192, 
    193, 
    194, 
    197, 
    199, 
    200, 
    201, 
    202, 
    208, 
    209, 
    212, 
    213, 
    218, 
    220, 
    221, 
    222, 
    223, 
    226, 
    228, 
    229, 
    230, 
    231, 
    234, 
    236, 
    237, 
    238, 
    239, 
    242, 
    244, 
    245, 
    246, 
    247, 
    250, 
    252, 
    253, 
    254, 
    255, 
    258, 
    260, 
    261, 
    262, 
    263, 
    267, 
    269, 
    270, 
    271, 
    272, 
    277, 
    278, 
    281, 
    282, 
    287, 
    289, 
    290, 
    291, 
    292, 
    295, 
    297, 
    298, 
    299, 
    300, 
    303, 
    305, 
    306, 
    307, 
    308, 
    311, 
    313, 
    314, 
    315, 
    316, 
    319, 
    321, 
    322, 
    323, 
    324, 
    327, 
    329, 
    330, 
    331, 
    332, 
    336, 
    338, 
    339, 
    340, 
    341, 
    346, 
    347, 
    350, 
    351, 
    356, 
    358, 
    359, 
    360, 
    361, 
    364, 
    366, 
    367, 
    368, 
    369, 
    372, 
    374, 
    375, 
    376, 
    377, 
    380, 
    382, 
    383, 
    384, 
    385, 
    388, 
    390, 
    391, 
    392, 
    393, 
    396, 
    398, 
    399, 
    400, 
    401, 
    405, 
    407, 
    408, 
    409, 
    410, 
    415, 
    416, 
    419, 
    420, 
    425, 
    427, 
    428, 
    429, 
    430, 
    433, 
    435, 
    436, 
    437, 
    438, 
    441, 
    443, 
    444, 
    445, 
    446, 
    449, 
    451, 
    452, 
    453, 
    454, 
    457, 
    459, 
    460, 
    461, 
    462, 
    465, 
    467, 
    468, 
    469, 
    470, 
    474, 
    476, 
    477, 
    478, 
    479, 
    484, 
    485, 
    488, 
    489, 
    494, 
    496, 
    497, 
    498, 
    499, 
    502, 
    504, 
    505, 
    506, 
    507, 
    510, 
    512, 
    513, 
    514, 
    515, 
    518, 
    520, 
    521, 
    522, 
    523, 
    526, 
    528, 
    529, 
    530, 
    531, 
    537, 
    538, 
    541, 
    542, 
    547, 
    549, 
    550, 
    551, 
    552, 
    555, 
    557, 
    558, 
    559, 
    560, 
    563, 
    565, 
    566, 
    567, 
    568, 
    571, 
    573, 
    574, 
    575, 
    576, 
    579, 
    581, 
    582, 
    583, 
    584, 
    587, 
    589, 
    590, 
    591, 
    592, 
    596, 
    598, 
    599, 
    600, 
    601, 
    606, 
    607, 
    610, 
    611, 
    616, 
    618, 
    619, 
    620, 
    621, 
    624, 
    626, 
    627, 
    628, 
    629, 
    632, 
    634, 
    635, 
    636, 
    637, 
    640, 
    642, 
    643, 
    644, 
    645, 
    648, 
    650, 
    651, 
    652, 
    653, 
    656, 
    658, 
    659, 
    660, 
    661, 
    665, 
    667, 
    668, 
    669, 
    670, 
    675, 
    676, 
    679, 
    680, 
    687, 
    688, 
    690
  ], 
  "node_row_ptr": [
    0, 
    1, 
    2, 
    3, 
    4, 
    5, 
    6, 
    7, 
    10, 
    11, 
    12, 
    13, 
    14, 
    15, 
    16, 
    17, 
    18, 
    21, 
    22, 
    23, 
    24, 
    25, 
    26, 
    27, 
    28, 
    31, 
    32, 
    33, 
    34, 
    35, 
    36, 
    37, 
    38, 
    39, 
    42, 
    43, 
    44, 
    45, 
    46, 
    47, 
    48, 
    49, 
    52, 
    53, 
    54, 
    55, 
    56, 
    57, 
    58, 
    59, 
    62, 
    63, 
    64, 
    65, 
    66, 
    67, 
    68, 
    69, 
    72, 
    73, 
    74, 
    75, 
    76, 
    77, 
    78, 
    79, 
    82, 
    83, 
    84, 
    85, 
    86, 
    87, 
    88, 
    89, 
    92, 
    93, 
    94, 
    95, 
    96, 
    97, 
    98, 
    99, 
    100, 
    103, 
    104, 
    105, 
    106, 
    107, 
    108, 
    109, 
    110, 
    111, 
    112, 
    113, 
    114, 
    115, 
    116, 
    117, 
    118, 
    119, 
    120, 
    121, 
    122, 
    125, 
    126, 
    127, 
    128, 
    129, 
    130, 
    131, 
    132, 
    135, 
    136, 
    137, 
    138, 
    139, 
    140, 
    141, 
    142, 
    145, 
    146, 
    147, 
    148, 
    149, 
    150, 
    151, 
    152, 
    155, 
    156, 
    157, 
    158, 
    159, 
    160, 
    161, 
    162, 
    165, 
    166, 
    167, 
    168, 
    169, 
    170, 
    171, 
    172, 
    175, 
    176, 
    177, 
    178, 
    179, 
    180, 
    181, 
    182, 
    183, 
    186, 
    187, 
    188, 
    189, 
    190, 
    191, 
    192, 
    193, 
    194, 
    195, 
    196, 
    197, 
    198, 
    199, 
    200, 
    201, 
    202, 
    203, 
    204, 
    205, 
    208, 
    209, 
    210, 
    211, 
    212, 
    213, 
    214, 
    215, 
    218, 
    219, 
    220, 
    221, 
    222, 
    223, 
    224, 
    225, 
    228, 
    229, 
    230, 
    231, 
    232, 
    233, 
    234, 
    235, 
    238, 
    239, 
    240, 
    241, 
    242, 
    243, 
    244, 
    245, 
    248, 
    249, 
    250, 
    251, 
    252, 
    253, 
    254, 
    255, 
    256, 
    257, 
    258, 
    259, 
    260, 
    261, 
    262, 
    263, 
    264, 
    265, 
    266, 
    267, 
    268, 
    271, 
    272, 
    273, 
    274, 
    275, 
    276, 
    277, 
    278, 
    281, 
    282, 
    283, 
    284, 
    285, 
    286, 
    287, 
    288, 
    291, 
    292, 
    293, 
    294, 
    295, 
    296, 
    297, 
    298, 
    301, 
    302, 
    303, 
    304, 
    305, 
    306, 
    307, 
    308, 
    311, 
    312, 
    313, 
    314, 
    315, 
    316, 
    317, 
    318, 
    321, 
    322, 
    323, 
    324, 
    325, 
    326, 
    327, 
    328, 
    329, 
    332, 
    333, 
    334, 
    335, 
    336, 
    337, 
    338, 
    339, 
    340, 
    341, 
    342, 
    343, 
    344, 
    345, 
    346, 
    347, 
    348, 
    349, 
    350, 
    351, 
    354, 
    355, 
    356, 
    357, 
    358, 
    359, 
    360, 
    361, 
    364, 
    365, 
    366, 
    367, 
    368, 
    369, 
    370, 
    371, 
    374, 
    375, 
    376, 
    377, 
    378, 
    379, 
    380, 
    381, 
    384, 
    385, 
    386, 
    387, 
    388, 
    389, 
    390, 
    391, 
    394, 
    395, 
    396, 
    397, 
    398, 
    399, 
    400, 
    401, 
    404, 
    405, 
    406, 
    407, 
    408, 
    409, 
    410, 
    411, 
    412, 
    415, 
    416, 
    417, 
    418, 
    419, 
    420, 
    421, 
    422, 
    423, 
    424, 
    425, 
    426, 
    427, 
    428, 
    429, 
    430, 
    431, 
    432, 
    433, 
    434, 
    437, 
    438, 
    439, 
    440, 
    441, 
    442, 
    443, 
    444, 
    447, 
    448, 
    449, 
    450, 
    451, 
    452, 
    453, 
    454, 
    457, 
    458, 
    459, 
    460, 
    461, 
    462, 
    463, 
    464, 
    467, 
    468, 
    469, 
    470, 
    471, 
    472, 
    473, 
    474, 
    477, 
    478, 
    479, 
    480, 
    481, 
    482, 
    483, 
    484, 
    487, 
    488, 
    489, 
    490, 
    491, 
    492, 
    493, 
    494, 
    495, 
    498, 
    499, 
    500, 
    501, 
    502, 
    503, 
    504, 
    505, 
    506, 
    507, 
    508, 
    509, 
    510, 
    511, 
    512, 
    513, 
    514, 
    515, 
    516, 
    517, 
    520, 
    521, 
    522, 
    523, 
    524, 
    525, 
    526, 
    527, 
    530, 
    531, 
    532, 
    533, 
    534, 
    535, 
    536, 
    537, 
    540, 
    541, 
    542, 
    543, 
    544, 
    545, 
    546, 
    547, 
    550, 
    551, 
    552, 
    553, 
    554, 
    555, 
    556, 
    557, 
    560, 
    561, 
    562, 
    563, 
    564, 
    565, 
    566, 
    567, 
    570, 
    571, 
    572, 
    573, 
    574, 
    575, 
    576, 
    577, 
    578, 
    581, 
    582, 
    583, 
    584, 
    585, 
    586, 
    587, 
    588, 
    589, 
    590, 
    591, 
    592, 
    593, 
    594, 
    595, 
    596, 
    597, 
    598, 
    599, 
    600, 
    603, 
    604, 
    605, 
    606, 
    607, 
    608, 
    609, 
    610, 
    613, 
    614, 
    615, 
    616, 
    617, 
    618, 
    619, 
    620, 
    623, 
    624, 
    625, 
    626, 
    627, 
    628, 
    629, 
    630, 
    633, 
    634, 
    635, 
    636, 
    637, 
    638, 
    639, 
    640, 
    643, 
    644, 
    645, 
    646, 
    647, 
    648, 
    649, 
    650, 
    651, 
    652, 
    653, 
    654, 
    655, 
    656, 
    657, 
    658, 
    659, 
    660, 
    661, 
    662, 
    663, 
    666, 
    667, 
    668, 
    669, 
    670, 
    671, 
    672, 
    673, 
    676, 
    677, 
    678, 
    679, 
    680, 
    681, 
    682, 
    683, 
    686, 
    687, 
    688, 
    689, 
    690, 
    691, 
    692, 
    693, 
    696, 
    697, 
    698, 
    699, 
    700, 
    701, 
    702, 
    703, 
    706, 
    707, 
    708, 
    709, 
    710, 
    711, 
    712, 
    713, 
    716, 
    717, 
    718, 
    719, 
    720, 
    721, 
    722, 
    723, 
    724, 
    727, 
    728, 
    729, 
    730, 
    731, 
    732, 
    733, 
    734, 
    735, 
    736, 
    737, 
    738, 
    739, 
    740, 
    741, 
    742, 
    743, 
    744, 
    745, 
    746, 
    749, 
    750, 
    751, 
    752, 
    753, 
    754, 
    755, 
    756, 
    759, 
    760, 
    761, 
    762, 
    763, 
    764, 
    765, 
    766, 
    769, 
    770, 
    771, 
    772, 
    773, 
    774, 
    775, 
    776, 
    779, 
    780, 
    781, 
    782, 
    783, 
    784, 
    785, 
    786, 
    789, 
    790, 
    791, 
    792, 
    793, 
    794, 
    795, 
    796, 
    799, 
    800, 
    801, 
    802, 
    803, 
    804, 
    805, 
    806, 
    807, 
    810, 
    811, 
    812, 
    813, 
    814, 
    815, 
    816, 
    817, 
    818, 
    819, 
    820, 
    821, 
    822, 
    823, 
    824, 
    825, 
    826, 
    827, 
    828, 
    829, 
    830
  ], 
  "heads": [[691, 0, 0]], 
  "attrs": {"mxnet_version": ["int", 10001]}
}