{
  "nodes": [
    {
      "op": "null", 
      "name": "data", 
      "inputs": []
    }, 
    {
      "op": "null", 
      "name": "conv1_weight", 
      "attrs": {
        "kernel": "(3, 3)", 
        "no_bias": "True", 
        "num_filter": "64", 
        "num_group": "1", 
        "pad": "(1, 1)", 
        "stride": "(2, 2)"
      }, 
      "inputs": []
    }, 
    {
      "op": "Convolution", 
      "name": "conv1", 
      "attrs": {
        "kernel": "(3, 3)", 
        "no_bias": "True", 
        "num_filter": "64", 
        "num_group": "1", 
        "pad": "(1, 1)", 
        "stride": "(2, 2)"
      }, 
      "inputs": [[0, 0, 0], [1, 0, 0]]
    }, 
    {
      "op": "null", 
      "name": "conv1_bn_gamma", 
      "attrs": {
        "eps": "0.0001", 
        "fix_gamma": "False", 
        "use_global_stats": "True"
      }, 
      "inputs": []
    }, 
    {
      "op": "null", 
      "name": "conv1_bn_beta", 
      "attrs": {
        "eps": "0.0001", 
        "fix_gamma": "False", 
        "use_global_stats": "True"
      }, 
      "inputs": []
    }, 
    {
      "op": "null", 
      "name": "conv1_bn_moving_mean", 
      "attrs": {
        "__init__": "[\"zero\", {}]", 
        "eps": "0.0001", 
        "fix_gamma": "False", 
        "use_global_stats": "True"
      }, 
      "inputs": []
    }, 
    {
      "op": "null", 
      "name": "conv1_bn_moving_var", 
      "attrs": {
        "__init__": "[\"one\", {}]", 
        "eps": "0.0001", 
        "fix_gamma": "False", 
        "use_global_stats": "True"
      }, 
      "inputs": []
    }, 
    {
      "op": "BatchNorm", 
      "name": "conv1_bn", 
      "attrs": {
        "eps": "0.0001", 
        "fix_gamma": "False", 
        "use_global_stats": "True"
      }, 
      "inputs": [[2, 0, 0], [3, 0, 0], [4, 0, 0], [5, 0, 1], [6, 0, 1]]
    }, 
    {
      "op": "Activation", 
      "name": "conv1_relu", 
      "attrs": {"act_type": "relu"}, 
      "inputs": [[7, 0, 0]]
    }, 
    {
      "op": "null", 
      "name": "conv2_weight", 
      "attrs": {
        "kernel": "(3, 3)", 
        "no_bias": "True", 
        "num_filter": "64", 
        "num_group": "1", 
        "pad": "(1, 1)", 
        "stride": "(1, 1)"
      }, 
      "inputs": []
    }, 
    {
      "op": "Convolution", 
      "name": "conv2", 
      "attrs": {
        "kernel": "(3, 3)", 
        "no_bias": "True", 
        "num_filter": "64", 
        "num_group": "1", 
        "pad": "(1, 1)", 
        "stride": "(1, 1)"
      }, 
      "inputs": [[8, 0, 0], [9, 0, 0]]
    }, 
    {
      "op": "null", 
      "name": "conv2_bn_gamma", 
      "attrs": {
        "eps": "0.0001", 
        "fix_gamma": "False", 
        "use_global_stats": "True"
      }, 
      "inputs": []
    }, 
    {
      "op": "null", 
      "name": "conv2_bn_beta", 
      "attrs": {
        "eps": "0.0001", 
        "fix_gamma": "False", 
        "use_global_stats": "True"
      }, 
      "inputs": []
    }, 
    {
      "op": "null", 
      "name": "conv2_bn_moving_mean", 
      "attrs": {
        "__init__": "[\"zero\", {}]", 
        "eps": "0.0001", 
        "fix_gamma": "False", 
        "use_global_stats": "True"
      }, 
      "inputs": []
    }, 
    {
      "op": "null", 
      "name": "conv2_bn_moving_var", 
      "attrs": {
        "__init__": "[\"one\", {}]", 
        "eps": "0.0001", 
        "fix_gamma": "False", 
        "use_global_stats": "True"
      }, 
      "inputs": []
    }, 
    {
      "op": "BatchNorm", 
      "name": "conv2_bn", 
      "attrs": {
        "eps": "0.0001", 
        "fix_gamma": "False", 
        "use_global_stats": "True"
      }, 
      "inputs": [[10, 0, 0], [11, 0, 0], [12, 0, 0], [13, 0, 1], [14, 0, 1]]
    }, 
    {
      "op": "Activation", 
      "name": "conv2_relu", 
      "attrs": {"act_type": "relu"}, 
      "inputs": [[15, 0, 0]]
    }, 
    {
      "op": "null", 
      "name": "conv3_weight", 
      "attrs": {
        "kernel": "(3, 3)", 
        "no_bias": "True", 
        "num_filter": "128", 
        "num_group": "1", 
        "pad": "(1, 1)", 
        "stride": "(1, 1)"
      }, 
      "inputs": []
    }, 
    {
      "op": "Convolution", 
      "name": "conv3", 
      "attrs": {
        "kernel": "(3, 3)", 
        "no_bias": "True", 
        "num_filter": "128", 
        "num_group": "1", 
        "pad": "(1, 1)", 
        "stride": "(1, 1)"
      }, 
      "inputs": [[16, 0, 0], [17, 0, 0]]
    }, 
    {
      "op": "null", 
      "name": "conv3_bn_gamma", 
      "attrs": {
        "eps": "0.0001", 
        "fix_gamma": "False", 
        "use_global_stats": "True"
      }, 
      "inputs": []
    }, 
    {
      "op": "null", 
      "name": "conv3_bn_beta", 
      "attrs": {
        "eps": "0.0001", 
        "fix_gamma": "False", 
        "use_global_stats": "True"
      }, 
      "inputs": []
    }, 
    {
      "op": "null", 
      "name": "conv3_bn_moving_mean", 
      "attrs": {
        "__init__": "[\"zero\", {}]", 
        "eps": "0.0001", 
        "fix_gamma": "False", 
        "use_global_stats": "True"
      }, 
      "inputs": []
    }, 
    {
      "op": "null", 
      "name": "conv3_bn_moving_var", 
      "attrs": {
        "__init__": "[\"one\", {}]", 
        "eps": "0.0001", 
        "fix_gamma": "False", 
        "use_global_stats": "True"
      }, 
      "inputs": []
    }, 
    {
      "op": "BatchNorm", 
      "name": "conv3_bn", 
      "attrs": {
        "eps": "0.0001", 
        "fix_gamma": "False", 
        "use_global_stats": "True"
      }, 
      "inputs": [[18, 0, 0], [19, 0, 0], [20, 0, 0], [21, 0, 1], [22, 0, 1]]
    }, 
    {
      "op": "Activation", 
      "name": "conv3_relu", 
      "attrs": {"act_type": "relu"}, 
      "inputs": [[23, 0, 0]]
    }, 
    {
      "op": "Pooling", 
      "name": "pool1", 
      "attrs": {
        "cudnn_off": "False", 
        "global_pool": "False", 
        "kernel": "(3, 3)", 
        "pool_type": "max", 
        "pooling_convention": "full", 
        "stride": "(2, 2)"
      }, 
      "inputs": [[24, 0, 0]]
    }, 
    {
      "op": "null", 
      "name": "seresx1_conv1_weight", 
      "attrs": {
        "kernel": "(1, 1)", 
        "no_bias": "True", 
        "num_filter": "128", 
        "num_group": "1", 
        "pad": "(0, 0)", 
        "stride": "(1, 1)"
      }, 
      "inputs": []
    }, 
    {
      "op": "Convolution", 
      "name": "seresx1_conv1", 
      "attrs": {
        "kernel": "(1, 1)", 
        "no_bias": "True", 
        "num_filter": "128", 
        "num_group": "1", 
        "pad": "(0, 0)", 
        "stride": "(1, 1)"
      }, 
      "inputs": [[25, 0, 0], [26, 0, 0]]
    }, 
    {
      "op": "null", 
      "name": "seresx1_conv1_bn_gamma", 
      "attrs": {
        "eps": "0.0001", 
        "fix_gamma": "False", 
        "use_global_stats": "True"
      }, 
      "inputs": []
    }, 
    {
      "op": "null", 
      "name": "seresx1_conv1_bn_beta", 
      "attrs": {
        "eps": "0.0001", 
        "fix_gamma": "False", 
        "use_global_stats": "True"
      }, 
      "inputs": []
    }, 
    {
      "op": "null", 
      "name": "seresx1_conv1_bn_moving_mean", 
      "attrs": {
        "__init__": "[\"zero\", {}]", 
        "eps": "0.0001", 
        "fix_gamma": "False", 
        "use_global_stats": "True"
      }, 
      "inputs": []
    }, 
    {
      "op": "null", 
      "name": "seresx1_conv1_bn_moving_var", 
      "attrs": {
        "__init__": "[\"one\", {}]", 
        "eps": "0.0001", 
        "fix_gamma": "False", 
        "use_global_stats": "True"
      }, 
      "inputs": []
    }, 
    {
      "op": "BatchNorm", 
      "name": "seresx1_conv1_bn", 
      "attrs": {
        "eps": "0.0001", 
        "fix_gamma": "False", 
        "use_global_stats": "True"
      }, 
      "inputs": [[27, 0, 0], [28, 0, 0], [29, 0, 0], [30, 0, 1], [31, 0, 1]]
    }, 
    {
      "op": "Activation", 
      "name": "seresx1_conv1_relu", 
      "attrs": {"act_type": "relu"}, 
      "inputs": [[32, 0, 0]]
    }, 
    {
      "op": "null", 
      "name": "seresx1_conv2_weight", 
      "attrs": {
        "kernel": "(3, 3)", 
        "no_bias": "True", 
        "num_filter": "256", 
        "num_group": "64", 
        "pad": "(1, 1)", 
        "stride": "(1, 1)"
      }, 
      "inputs": []
    }, 
    {
      "op": "Convolution", 
      "name": "seresx1_conv2", 
      "attrs": {
        "kernel": "(3, 3)", 
        "no_bias": "True", 
        "num_filter": "256", 
        "num_group": "64", 
        "pad": "(1, 1)", 
        "stride": "(1, 1)"
      }, 
      "inputs": [[33, 0, 0], [34, 0, 0]]
    }, 
    {
      "op": "null", 
      "name": "seresx1_conv2_bn_gamma", 
      "attrs": {
        "eps": "0.0001", 
        "fix_gamma": "False", 
        "use_global_stats": "True"
      }, 
      "inputs": []
    }, 
    {
      "op": "null", 
      "name": "seresx1_conv2_bn_beta", 
      "attrs": {
        "eps": "0.0001", 
        "fix_gamma": "False", 
        "use_global_stats": "True"
      }, 
      "inputs": []
    }, 
    {
      "op": "null", 
      "name": "seresx1_conv2_bn_moving_mean", 
      "attrs": {
        "__init__": "[\"zero\", {}]", 
        "eps": "0.0001", 
        "fix_gamma": "False", 
        "use_global_stats": "True"
      }, 
      "inputs": []
    }, 
    {
      "op": "null", 
      "name": "seresx1_conv2_bn_moving_var", 
      "attrs": {
        "__init__": "[\"one\", {}]", 
        "eps": "0.0001", 
        "fix_gamma": "False", 
        "use_global_stats": "True"
      }, 
      "inputs": []
    }, 
    {
      "op": "BatchNorm", 
      "name": "seresx1_conv2_bn", 
      "attrs": {
        "eps": "0.0001", 
        "fix_gamma": "False", 
        "use_global_stats": "True"
      }, 
      "inputs": [[35, 0, 0], [36, 0, 0], [37, 0, 0], [38, 0, 1], [39, 0, 1]]
    }, 
    {
      "op": "Activation", 
      "name": "seresx1_conv2_relu", 
      "attrs": {"act_type": "relu"}, 
      "inputs": [[40, 0, 0]]
    }, 
    {
      "op": "null", 
      "name": "seresx1_conv3_weight", 
      "attrs": {
        "kernel": "(1, 1)", 
        "no_bias": "True", 
        "num_filter": "256", 
        "pad": "(0, 0)", 
        "stride": "(1, 1)"
      }, 
      "inputs": []
    }, 
    {
      "op": "Convolution", 
      "name": "seresx1_conv3", 
      "attrs": {
        "kernel": "(1, 1)", 
        "no_bias": "True", 
        "num_filter": "256", 
        "pad": "(0, 0)", 
        "stride": "(1, 1)"
      }, 
      "inputs": [[41, 0, 0], [42, 0, 0]]
    }, 
    {
      "op": "null", 
      "name": "seresx1_conv3_bn_gamma", 
      "attrs": {
        "eps": "1e-05", 
        "fix_gamma": "False", 
        "use_global_stats": "True"
      }, 
      "inputs": []
    }, 
    {
      "op": "null", 
      "name": "seresx1_conv3_bn_beta", 
      "attrs": {
        "eps": "1e-05", 
        "fix_gamma": "False", 
        "use_global_stats": "True"
      }, 
      "inputs": []
    }, 
    {
      "op": "null", 
      "name": "seresx1_conv3_bn_moving_mean", 
      "attrs": {
        "__init__": "[\"zero\", {}]", 
        "eps": "1e-05", 
        "fix_gamma": "False", 
        "use_global_stats": "True"
      }, 
      "inputs": []
    }, 
    {
      "op": "null", 
      "name": "seresx1_conv3_bn_moving_var", 
      "attrs": {
        "__init__": "[\"one\", {}]", 
        "eps": "1e-05", 
        "fix_gamma": "False", 
        "use_global_stats": "True"
      }, 
      "inputs": []
    }, 
    {
      "op": "BatchNorm", 
      "name": "seresx1_conv3_bn", 
      "attrs": {
        "eps": "1e-05", 
        "fix_gamma": "False", 
        "use_global_stats": "True"
      }, 
      "inputs": [[43, 0, 0], [44, 0, 0], [45, 0, 0], [46, 0, 1], [47, 0, 1]]
    }, 
    {
      "op": "Pooling", 
      "name": "seresx1_global_pool", 
      "attrs": {
        "global_pool": "True", 
        "kernel": "(7, 7)", 
        "pool_type": "avg", 
        "pooling_convention": "full"
      }, 
      "inputs": [[48, 0, 0]]
    }, 
    {
      "op": "null", 
      "name": "seresx1_down_weight", 
      "attrs": {
        "kernel": "(1, 1)", 
        "no_bias": "False", 
        "num_filter": "16", 
        "pad": "(0, 0)", 
        "stride": "(1, 1)"
      }, 
      "inputs": []
    }, 
    {
      "op": "null", 
      "name": "seresx1_down_bias", 
      "attrs": {
        "kernel": "(1, 1)", 
        "no_bias": "False", 
        "num_filter": "16", 
        "pad": "(0, 0)", 
        "stride": "(1, 1)"
      }, 
      "inputs": []
    }, 
    {
      "op": "Convolution", 
      "name": "seresx1_down", 
      "attrs": {
        "kernel": "(1, 1)", 
        "no_bias": "False", 
        "num_filter": "16", 
        "pad": "(0, 0)", 
        "stride": "(1, 1)"
      }, 
      "inputs": [[49, 0, 0], [50, 0, 0], [51, 0, 0]]
    }, 
    {
      "op": "Activation", 
      "name": "seresx1_down_relu", 
      "attrs": {"act_type": "relu"}, 
      "inputs": [[52, 0, 0]]
    }, 
    {
      "op": "null", 
      "name": "seresx1_up_weight", 
      "attrs": {
        "kernel": "(1, 1)", 
        "no_bias": "False", 
        "num_filter": "256", 
        "pad": "(0, 0)", 
        "stride": "(1, 1)"
      }, 
      "inputs": []
    }, 
    {
      "op": "null", 
      "name": "seresx1_up_bias", 
      "attrs": {
        "kernel": "(1, 1)", 
        "no_bias": "False", 
        "num_filter": "256", 
        "pad": "(0, 0)", 
        "stride": "(1, 1)"
      }, 
      "inputs": []
    }, 
    {
      "op": "Convolution", 
      "name": "seresx1_up", 
      "attrs": {
        "kernel": "(1, 1)", 
        "no_bias": "False", 
        "num_filter": "256", 
        "pad": "(0, 0)", 
        "stride": "(1, 1)"
      }, 
      "inputs": [[53, 0, 0], [54, 0, 0], [55, 0, 0]]
    }, 
    {
      "op": "Activation", 
      "name": "seresx1_up_sigmoid", 
      "attrs": {"act_type": "sigmoid"}, 
      "inputs": [[56, 0, 0]]
    }, 
    {
      "op": "Reshape", 
      "name": "reshape0", 
      "attrs": {"shape": "(-1, 256, 1, 1)"}, 
      "inputs": [[57, 0, 0]]
    }, 
    {
      "op": "broadcast_mul", 
      "name": "broadcast_mul0", 
      "inputs": [[48, 0, 0], [58, 0, 0]]
    }, 
    {
      "op": "null", 
      "name": "seresx1_match_conv_weight", 
      "attrs": {
        "kernel": "(1, 1)", 
        "no_bias": "True", 
        "num_filter": "256", 
        "pad": "(0, 0)", 
        "stride": "(1, 1)"
      }, 
      "inputs": []
    }, 
    {
      "op": "Convolution", 
      "name": "seresx1_match_conv", 
      "attrs": {
        "kernel": "(1, 1)", 
        "no_bias": "True", 
        "num_filter": "256", 
        "pad": "(0, 0)", 
        "stride": "(1, 1)"
      }, 
      "inputs": [[25, 0, 0], [60, 0, 0]]
    }, 
    {
      "op": "null", 
      "name": "seresx1_match_conv_bn_gamma", 
      "attrs": {
        "eps": "1e-05", 
        "fix_gamma": "False", 
        "use_global_stats": "True"
      }, 
      "inputs": []
    }, 
    {
      "op": "null", 
      "name": "seresx1_match_conv_bn_beta", 
      "attrs": {
        "eps": "1e-05", 
        "fix_gamma": "False", 
        "use_global_stats": "True"
      }, 
      "inputs": []
    }, 
    {
      "op": "null", 
      "name": "seresx1_match_conv_bn_moving_mean", 
      "attrs": {
        "__init__": "[\"zero\", {}]", 
        "eps": "1e-05", 
        "fix_gamma": "False", 
        "use_global_stats": "True"
      }, 
      "inputs": []
    }, 
    {
      "op": "null", 
      "name": "seresx1_match_conv_bn_moving_var", 
      "attrs": {
        "__init__": "[\"one\", {}]", 
        "eps": "1e-05", 
        "fix_gamma": "False", 
        "use_global_stats": "True"
      }, 
      "inputs": []
    }, 
    {
      "op": "BatchNorm", 
      "name": "seresx1_match_conv_bn", 
      "attrs": {
        "eps": "1e-05", 
        "fix_gamma": "False", 
        "use_global_stats": "True"
      }, 
      "inputs": [[61, 0, 0], [62, 0, 0], [63, 0, 0], [64, 0, 1], [65, 0, 1]]
    }, 
    {
      "op": "broadcast_add", 
      "name": "seresx1", 
      "inputs": [[59, 0, 0], [66, 0, 0]]
    }, 
    {
      "op": "Activation", 
      "name": "seresx1_relu", 
      "attrs": {"act_type": "relu"}, 
      "inputs": [[67, 0, 0]]
    }, 
    {
      "op": "null", 
      "name": "seresx2_conv1_weight", 
      "attrs": {
        "kernel": "(1, 1)", 
        "no_bias": "True", 
        "num_filter": "128", 
        "num_group": "1", 
        "pad": "(0, 0)", 
        "stride": "(1, 1)"
      }, 
      "inputs": []
    }, 
    {
      "op": "Convolution", 
      "name": "seresx2_conv1", 
      "attrs": {
        "kernel": "(1, 1)", 
        "no_bias": "True", 
        "num_filter": "128", 
        "num_group": "1", 
        "pad": "(0, 0)", 
        "stride": "(1, 1)"
      }, 
      "inputs": [[68, 0, 0], [69, 0, 0]]
    }, 
    {
      "op": "null", 
      "name": "seresx2_conv1_bn_gamma", 
      "attrs": {
        "eps": "0.0001", 
        "fix_gamma": "False", 
        "use_global_stats": "True"
      }, 
      "inputs": []
    }, 
    {
      "op": "null", 
      "name": "seresx2_conv1_bn_beta", 
      "attrs": {
        "eps": "0.0001", 
        "fix_gamma": "False", 
        "use_global_stats": "True"
      }, 
      "inputs": []
    }, 
    {
      "op": "null", 
      "name": "seresx2_conv1_bn_moving_mean", 
      "attrs": {
        "__init__": "[\"zero\", {}]", 
        "eps": "0.0001", 
        "fix_gamma": "False", 
        "use_global_stats": "True"
      }, 
      "inputs": []
    }, 
    {
      "op": "null", 
      "name": "seresx2_conv1_bn_moving_var", 
      "attrs": {
        "__init__": "[\"one\", {}]", 
        "eps": "0.0001", 
        "fix_gamma": "False", 
        "use_global_stats": "True"
      }, 
      "inputs": []
    }, 
    {
      "op": "BatchNorm", 
      "name": "seresx2_conv1_bn", 
      "attrs": {
        "eps": "0.0001", 
        "fix_gamma": "False", 
        "use_global_stats": "True"
      }, 
      "inputs": [[70, 0, 0], [71, 0, 0], [72, 0, 0], [73, 0, 1], [74, 0, 1]]
    }, 
    {
      "op": "Activation", 
      "name": "seresx2_conv1_relu", 
      "attrs": {"act_type": "relu"}, 
      "inputs": [[75, 0, 0]]
    }, 
    {
      "op": "null", 
      "name": "seresx2_conv2_weight", 
      "attrs": {
        "kernel": "(3, 3)", 
        "no_bias": "True", 
        "num_filter": "256", 
        "num_group": "64", 
        "pad": "(1, 1)", 
        "stride": "(1, 1)"
      }, 
      "inputs": []
    }, 
    {
      "op": "Convolution", 
      "name": "seresx2_conv2", 
      "attrs": {
        "kernel": "(3, 3)", 
        "no_bias": "True", 
        "num_filter": "256", 
        "num_group": "64", 
        "pad": "(1, 1)", 
        "stride": "(1, 1)"
      }, 
      "inputs": [[76, 0, 0], [77, 0, 0]]
    }, 
    {
      "op": "null", 
      "name": "seresx2_conv2_bn_gamma", 
      "attrs": {
        "eps": "0.0001", 
        "fix_gamma": "False", 
        "use_global_stats": "True"
      }, 
      "inputs": []
    }, 
    {
      "op": "null", 
      "name": "seresx2_conv2_bn_beta", 
      "attrs": {
        "eps": "0.0001", 
        "fix_gamma": "False", 
        "use_global_stats": "True"
      }, 
      "inputs": []
    }, 
    {
      "op": "null", 
      "name": "seresx2_conv2_bn_moving_mean", 
      "attrs": {
        "__init__": "[\"zero\", {}]", 
        "eps": "0.0001", 
        "fix_gamma": "False", 
        "use_global_stats": "True"
      }, 
      "inputs": []
    }, 
    {
      "op": "null", 
      "name": "seresx2_conv2_bn_moving_var", 
      "attrs": {
        "__init__": "[\"one\", {}]", 
        "eps": "0.0001", 
        "fix_gamma": "False", 
        "use_global_stats": "True"
      }, 
      "inputs": []
    }, 
    {
      "op": "BatchNorm", 
      "name": "seresx2_conv2_bn", 
      "attrs": {
        "eps": "0.0001", 
        "fix_gamma": "False", 
        "use_global_stats": "True"
      }, 
      "inputs": [[78, 0, 0], [79, 0, 0], [80, 0, 0], [81, 0, 1], [82, 0, 1]]
    }, 
    {
      "op": "Activation", 
      "name": "seresx2_conv2_relu", 
      "attrs": {"act_type": "relu"}, 
      "inputs": [[83, 0, 0]]
    }, 
    {
      "op": "null", 
      "name": "seresx2_conv3_weight", 
      "attrs": {
        "kernel": "(1, 1)", 
        "no_bias": "True", 
        "num_filter": "256", 
        "pad": "(0, 0)", 
        "stride": "(1, 1)"
      }, 
      "inputs": []
    }, 
    {
      "op": "Convolution", 
      "name": "seresx2_conv3", 
      "attrs": {
        "kernel": "(1, 1)", 
        "no_bias": "True", 
        "num_filter": "256", 
        "pad": "(0, 0)", 
        "stride": "(1, 1)"
      }, 
      "inputs": [[84, 0, 0], [85, 0, 0]]
    }, 
    {
      "op": "null", 
      "name": "seresx2_conv3_bn_gamma", 
      "attrs": {
        "eps": "1e-05", 
        "fix_gamma": "False", 
        "use_global_stats": "True"
      }, 
      "inputs": []
    }, 
    {
      "op": "null", 
      "name": "seresx2_conv3_bn_beta", 
      "attrs": {
        "eps": "1e-05", 
        "fix_gamma": "False", 
        "use_global_stats": "True"
      }, 
      "inputs": []
    }, 
    {
      "op": "null", 
      "name": "seresx2_conv3_bn_moving_mean", 
      "attrs": {
        "__init__": "[\"zero\", {}]", 
        "eps": "1e-05", 
        "fix_gamma": "False", 
        "use_global_stats": "True"
      }, 
      "inputs": []
    }, 
    {
      "op": "null", 
      "name": "seresx2_conv3_bn_moving_var", 
      "attrs": {
        "__init__": "[\"one\", {}]", 
        "eps": "1e-05", 
        "fix_gamma": "False", 
        "use_global_stats": "True"
      }, 
      "inputs": []
    }, 
    {
      "op": "BatchNorm", 
      "name": "seresx2_conv3_bn", 
      "attrs": {
        "eps": "1e-05", 
        "fix_gamma": "False", 
        "use_global_stats": "True"
      }, 
      "inputs": [[86, 0, 0], [87, 0, 0], [88, 0, 0], [89, 0, 1], [90, 0, 1]]
    }, 
    {
      "op": "Pooling", 
      "name": "seresx2_global_pool", 
      "attrs": {
        "global_pool": "True", 
        "kernel": "(7, 7)", 
        "pool_type": "avg", 
        "pooling_convention": "full"
      }, 
      "inputs": [[91, 0, 0]]
    }, 
    {
      "op": "null", 
      "name": "seresx2_down_weight", 
      "attrs": {
        "kernel": "(1, 1)", 
        "no_bias": "False", 
        "num_filter": "16", 
        "pad": "(0, 0)", 
        "stride": "(1, 1)"
      }, 
      "inputs": []
    }, 
    {
      "op": "null", 
      "name": "seresx2_down_bias", 
      "attrs": {
        "kernel": "(1, 1)", 
        "no_bias": "False", 
        "num_filter": "16", 
        "pad": "(0, 0)", 
        "stride": "(1, 1)"
      }, 
      "inputs": []
    }, 
    {
      "op": "Convolution", 
      "name": "seresx2_down", 
      "attrs": {
        "kernel": "(1, 1)", 
        "no_bias": "False", 
        "num_filter": "16", 
        "pad": "(0, 0)", 
        "stride": "(1, 1)"
      }, 
      "inputs": [[92, 0, 0], [93, 0, 0], [94, 0, 0]]
    }, 
    {
      "op": "Activation", 
      "name": "seresx2_down_relu", 
      "attrs": {"act_type": "relu"}, 
      "inputs": [[95, 0, 0]]
    }, 
    {
      "op": "null", 
      "name": "seresx2_up_weight", 
      "attrs": {
        "kernel": "(1, 1)", 
        "no_bias": "False", 
        "num_filter": "256", 
        "pad": "(0, 0)", 
        "stride": "(1, 1)"
      }, 
      "inputs": []
    }, 
    {
      "op": "null", 
      "name": "seresx2_up_bias", 
      "attrs": {
        "kernel": "(1, 1)", 
        "no_bias": "False", 
        "num_filter": "256", 
        "pad": "(0, 0)", 
        "stride": "(1, 1)"
      }, 
      "inputs": []
    }, 
    {
      "op": "Convolution", 
      "name": "seresx2_up", 
      "attrs": {
        "kernel": "(1, 1)", 
        "no_bias": "False", 
        "num_filter": "256", 
        "pad": "(0, 0)", 
        "stride": "(1, 1)"
      }, 
      "inputs": [[96, 0, 0], [97, 0, 0], [98, 0, 0]]
    }, 
    {
      "op": "Activation", 
      "name": "seresx2_up_sigmoid", 
      "attrs": {"act_type": "sigmoid"}, 
      "inputs": [[99, 0, 0]]
    }, 
    {
      "op": "Reshape", 
      "name": "reshape1", 
      "attrs": {"shape": "(-1, 256, 1, 1)"}, 
      "inputs": [[100, 0, 0]]
    }, 
    {
      "op": "broadcast_mul", 
      "name": "broadcast_mul1", 
      "inputs": [[91, 0, 0], [101, 0, 0]]
    }, 
    {
      "op": "broadcast_add", 
      "name": "seresx2", 
      "inputs": [[68, 0, 0], [102, 0, 0]]
    }, 
    {
      "op": "Activation", 
      "name": "seresx2_relu", 
      "attrs": {"act_type": "relu"}, 
      "inputs": [[103, 0, 0]]
    }, 
    {
      "op": "null", 
      "name": "seresx3_conv1_weight", 
      "attrs": {
        "kernel": "(1, 1)", 
        "no_bias": "True", 
        "num_filter": "128", 
        "num_group": "1", 
        "pad": "(0, 0)", 
        "stride": "(1, 1)"
      }, 
      "inputs": []
    }, 
    {
      "op": "Convolution", 
      "name": "seresx3_conv1", 
      "attrs": {
        "kernel": "(1, 1)", 
        "no_bias": "True", 
        "num_filter": "128", 
        "num_group": "1", 
        "pad": "(0, 0)", 
        "stride": "(1, 1)"
      }, 
      "inputs": [[104, 0, 0], [105, 0, 0]]
    }, 
    {
      "op": "null", 
      "name": "seresx3_conv1_bn_gamma", 
      "attrs": {
        "eps": "0.0001", 
        "fix_gamma": "False", 
        "use_global_stats": "True"
      }, 
      "inputs": []
    }, 
    {
      "op": "null", 
      "name": "seresx3_conv1_bn_beta", 
      "attrs": {
        "eps": "0.0001", 
        "fix_gamma": "False", 
        "use_global_stats": "True"
      }, 
      "inputs": []
    }, 
    {
      "op": "null", 
      "name": "seresx3_conv1_bn_moving_mean", 
      "attrs": {
        "__init__": "[\"zero\", {}]", 
        "eps": "0.0001", 
        "fix_gamma": "False", 
        "use_global_stats": "True"
      }, 
      "inputs": []
    }, 
    {
      "op": "null", 
      "name": "seresx3_conv1_bn_moving_var", 
      "attrs": {
        "__init__": "[\"one\", {}]", 
        "eps": "0.0001", 
        "fix_gamma": "False", 
        "use_global_stats": "True"
      }, 
      "inputs": []
    }, 
    {
      "op": "BatchNorm", 
      "name": "seresx3_conv1_bn", 
      "attrs": {
        "eps": "0.0001", 
        "fix_gamma": "False", 
        "use_global_stats": "True"
      }, 
      "inputs": [[106, 0, 0], [107, 0, 0], [108, 0, 0], [109, 0, 1], [110, 0, 1]]
    }, 
    {
      "op": "Activation", 
      "name": "seresx3_conv1_relu", 
      "attrs": {"act_type": "relu"}, 
      "inputs": [[111, 0, 0]]
    }, 
    {
      "op": "null", 
      "name": "seresx3_conv2_weight", 
      "attrs": {
        "kernel": "(3, 3)", 
        "no_bias": "True", 
        "num_filter": "256", 
        "num_group": "64", 
        "pad": "(1, 1)", 
        "stride": "(1, 1)"
      }, 
      "inputs": []
    }, 
    {
      "op": "Convolution", 
      "name": "seresx3_conv2", 
      "attrs": {
        "kernel": "(3, 3)", 
        "no_bias": "True", 
        "num_filter": "256", 
        "num_group": "64", 
        "pad": "(1, 1)", 
        "stride": "(1, 1)"
      }, 
      "inputs": [[112, 0, 0], [113, 0, 0]]
    }, 
    {
      "op": "null", 
      "name": "seresx3_conv2_bn_gamma", 
      "attrs": {
        "eps": "0.0001", 
        "fix_gamma": "False", 
        "use_global_stats": "True"
      }, 
      "inputs": []
    }, 
    {
      "op": "null", 
      "name": "seresx3_conv2_bn_beta", 
      "attrs": {
        "eps": "0.0001", 
        "fix_gamma": "False", 
        "use_global_stats": "True"
      }, 
      "inputs": []
    }, 
    {
      "op": "null", 
      "name": "seresx3_conv2_bn_moving_mean", 
      "attrs": {
        "__init__": "[\"zero\", {}]", 
        "eps": "0.0001", 
        "fix_gamma": "False", 
        "use_global_stats": "True"
      }, 
      "inputs": []
    }, 
    {
      "op": "null", 
      "name": "seresx3_conv2_bn_moving_var", 
      "attrs": {
        "__init__": "[\"one\", {}]", 
        "eps": "0.0001", 
        "fix_gamma": "False", 
        "use_global_stats": "True"
      }, 
      "inputs": []
    }, 
    {
      "op": "BatchNorm", 
      "name": "seresx3_conv2_bn", 
      "attrs": {
        "eps": "0.0001", 
        "fix_gamma": "False", 
        "use_global_stats": "True"
      }, 
      "inputs": [[114, 0, 0], [115, 0, 0], [116, 0, 0], [117, 0, 1], [118, 0, 1]]
    }, 
    {
      "op": "Activation", 
      "name": "seresx3_conv2_relu", 
      "attrs": {"act_type": "relu"}, 
      "inputs": [[119, 0, 0]]
    }, 
    {
      "op": "null", 
      "name": "seresx3_conv3_weight", 
      "attrs": {
        "kernel": "(1, 1)", 
        "no_bias": "True", 
        "num_filter": "256", 
        "pad": "(0, 0)", 
        "stride": "(1, 1)"
      }, 
      "inputs": []
    }, 
    {
      "op": "Convolution", 
      "name": "seresx3_conv3", 
      "attrs": {
        "kernel": "(1, 1)", 
        "no_bias": "True", 
        "num_filter": "256", 
        "pad": "(0, 0)", 
        "stride": "(1, 1)"
      }, 
      "inputs": [[120, 0, 0], [121, 0, 0]]
    }, 
    {
      "op": "null", 
      "name": "seresx3_conv3_bn_gamma", 
      "attrs": {
        "eps": "1e-05", 
        "fix_gamma": "False", 
        "use_global_stats": "True"
      }, 
      "inputs": []
    }, 
    {
      "op": "null", 
      "name": "seresx3_conv3_bn_beta", 
      "attrs": {
        "eps": "1e-05", 
        "fix_gamma": "False", 
        "use_global_stats": "True"
      }, 
      "inputs": []
    }, 
    {
      "op": "null", 
      "name": "seresx3_conv3_bn_moving_mean", 
      "attrs": {
        "__init__": "[\"zero\", {}]", 
        "eps": "1e-05", 
        "fix_gamma": "False", 
        "use_global_stats": "True"
      }, 
      "inputs": []
    }, 
    {
      "op": "null", 
      "name": "seresx3_conv3_bn_moving_var", 
      "attrs": {
        "__init__": "[\"one\", {}]", 
        "eps": "1e-05", 
        "fix_gamma": "False", 
        "use_global_stats": "True"
      }, 
      "inputs": []
    }, 
    {
      "op": "BatchNorm", 
      "name": "seresx3_conv3_bn", 
      "attrs": {
        "eps": "1e-05", 
        "fix_gamma": "False", 
        "use_global_stats": "True"
      }, 
      "inputs": [[122, 0, 0], [123, 0, 0], [124, 0, 0], [125, 0, 1], [126, 0, 1]]
    }, 
    {
      "op": "Pooling", 
      "name": "seresx3_global_pool", 
      "attrs": {
        "global_pool": "True", 
        "kernel": "(7, 7)", 
        "pool_type": "avg", 
        "pooling_convention": "full"
      }, 
      "inputs": [[127, 0, 0]]
    }, 
    {
      "op": "null", 
      "name": "seresx3_down_weight", 
      "attrs": {
        "kernel": "(1, 1)", 
        "no_bias": "False", 
        "num_filter": "16", 
        "pad": "(0, 0)", 
        "stride": "(1, 1)"
      }, 
      "inputs": []
    }, 
    {
      "op": "null", 
      "name": "seresx3_down_bias", 
      "attrs": {
        "kernel": "(1, 1)", 
        "no_bias": "False", 
        "num_filter": "16", 
        "pad": "(0, 0)", 
        "stride": "(1, 1)"
      }, 
      "inputs": []
    }, 
    {
      "op": "Convolution", 
      "name": "seresx3_down", 
      "attrs": {
        "kernel": "(1, 1)", 
        "no_bias": "False", 
        "num_filter": "16", 
        "pad": "(0, 0)", 
        "stride": "(1, 1)"
      }, 
      "inputs": [[128, 0, 0], [129, 0, 0], [130, 0, 0]]
    }, 
    {
      "op": "Activation", 
      "name": "seresx3_down_relu", 
      "attrs": {"act_type": "relu"}, 
      "inputs": [[131, 0, 0]]
    }, 
    {
      "op": "null", 
      "name": "seresx3_up_weight", 
      "attrs": {
        "kernel": "(1, 1)", 
        "no_bias": "False", 
        "num_filter": "256", 
        "pad": "(0, 0)", 
        "stride": "(1, 1)"
      }, 
      "inputs": []
    }, 
    {
      "op": "null", 
      "name": "seresx3_up_bias", 
      "attrs": {
        "kernel": "(1, 1)", 
        "no_bias": "False", 
        "num_filter": "256", 
        "pad": "(0, 0)", 
        "stride": "(1, 1)"
      }, 
      "inputs": []
    }, 
    {
      "op": "Convolution", 
      "name": "seresx3_up", 
      "attrs": {
        "kernel": "(1, 1)", 
        "no_bias": "False", 
        "num_filter": "256", 
        "pad": "(0, 0)", 
        "stride": "(1, 1)"
      }, 
      "inputs": [[132, 0, 0], [133, 0, 0], [134, 0, 0]]
    }, 
    {
      "op": "Activation", 
      "name": "seresx3_up_sigmoid", 
      "attrs": {"act_type": "sigmoid"}, 
      "inputs": [[135, 0, 0]]
    }, 
    {
      "op": "Reshape", 
      "name": "reshape2", 
      "attrs": {"shape": "(-1, 256, 1, 1)"}, 
      "inputs": [[136, 0, 0]]
    }, 
    {
      "op": "broadcast_mul", 
      "name": "broadcast_mul2", 
      "inputs": [[127, 0, 0], [137, 0, 0]]
    }, 
    {
      "op": "broadcast_add", 
      "name": "seresx3", 
      "inputs": [[104, 0, 0], [138, 0, 0]]
    }, 
    {
      "op": "Activation", 
      "name": "seresx3_relu", 
      "attrs": {"act_type": "relu"}, 
      "inputs": [[139, 0, 0]]
    }, 
    {
      "op": "null", 
      "name": "seresx4_conv1_weight", 
      "attrs": {
        "kernel": "(1, 1)", 
        "no_bias": "True", 
        "num_filter": "256", 
        "num_group": "1", 
        "pad": "(0, 0)", 
        "stride": "(1, 1)"
      }, 
      "inputs": []
    }, 
    {
      "op": "Convolution", 
      "name": "seresx4_conv1", 
      "attrs": {
        "kernel": "(1, 1)", 
        "no_bias": "True", 
        "num_filter": "256", 
        "num_group": "1", 
        "pad": "(0, 0)", 
        "stride": "(1, 1)"
      }, 
      "inputs": [[140, 0, 0], [141, 0, 0]]
    }, 
    {
      "op": "null", 
      "name": "seresx4_conv1_bn_gamma", 
      "attrs": {
        "eps": "0.0001", 
        "fix_gamma": "False", 
        "use_global_stats": "True"
      }, 
      "inputs": []
    }, 
    {
      "op": "null", 
      "name": "seresx4_conv1_bn_beta", 
      "attrs": {
        "eps": "0.0001", 
        "fix_gamma": "False", 
        "use_global_stats": "True"
      }, 
      "inputs": []
    }, 
    {
      "op": "null", 
      "name": "seresx4_conv1_bn_moving_mean", 
      "attrs": {
        "__init__": "[\"zero\", {}]", 
        "eps": "0.0001", 
        "fix_gamma": "False", 
        "use_global_stats": "True"
      }, 
      "inputs": []
    }, 
    {
      "op": "null", 
      "name": "seresx4_conv1_bn_moving_var", 
      "attrs": {
        "__init__": "[\"one\", {}]", 
        "eps": "0.0001", 
        "fix_gamma": "False", 
        "use_global_stats": "True"
      }, 
      "inputs": []
    }, 
    {
      "op": "BatchNorm", 
      "name": "seresx4_conv1_bn", 
      "attrs": {
        "eps": "0.0001", 
        "fix_gamma": "False", 
        "use_global_stats": "True"
      }, 
      "inputs": [[142, 0, 0], [143, 0, 0], [144, 0, 0], [145, 0, 1], [146, 0, 1]]
    }, 
    {
      "op": "Activation", 
      "name": "seresx4_conv1_relu", 
      "attrs": {"act_type": "relu"}, 
      "inputs": [[147, 0, 0]]
    }, 
    {
      "op": "null", 
      "name": "seresx4_conv2_weight", 
      "attrs": {
        "kernel": "(3, 3)", 
        "no_bias": "True", 
        "num_filter": "512", 
        "num_group": "64", 
        "pad": "(1, 1)", 
        "stride": "(2, 2)"
      }, 
      "inputs": []
    }, 
    {
      "op": "Convolution", 
      "name": "seresx4_conv2", 
      "attrs": {
        "kernel": "(3, 3)", 
        "no_bias": "True", 
        "num_filter": "512", 
        "num_group": "64", 
        "pad": "(1, 1)", 
        "stride": "(2, 2)"
      }, 
      "inputs": [[148, 0, 0], [149, 0, 0]]
    }, 
    {
      "op": "null", 
      "name": "seresx4_conv2_bn_gamma", 
      "attrs": {
        "eps": "0.0001", 
        "fix_gamma": "False", 
        "use_global_stats": "True"
      }, 
      "inputs": []
    }, 
    {
      "op": "null", 
      "name": "seresx4_conv2_bn_beta", 
      "attrs": {
        "eps": "0.0001", 
        "fix_gamma": "False", 
        "use_global_stats": "True"
      }, 
      "inputs": []
    }, 
    {
      "op": "null", 
      "name": "seresx4_conv2_bn_moving_mean", 
      "attrs": {
        "__init__": "[\"zero\", {}]", 
        "eps": "0.0001", 
        "fix_gamma": "False", 
        "use_global_stats": "True"
      }, 
      "inputs": []
    }, 
    {
      "op": "null", 
      "name": "seresx4_conv2_bn_moving_var", 
      "attrs": {
        "__init__": "[\"one\", {}]", 
        "eps": "0.0001", 
        "fix_gamma": "False", 
        "use_global_stats": "True"
      }, 
      "inputs": []
    }, 
    {
      "op": "BatchNorm", 
      "name": "seresx4_conv2_bn", 
      "attrs": {
        "eps": "0.0001", 
        "fix_gamma": "False", 
        "use_global_stats": "True"
      }, 
      "inputs": [[150, 0, 0], [151, 0, 0], [152, 0, 0], [153, 0, 1], [154, 0, 1]]
    }, 
    {
      "op": "Activation", 
      "name": "seresx4_conv2_relu", 
      "attrs": {"act_type": "relu"}, 
      "inputs": [[155, 0, 0]]
    }, 
    {
      "op": "null", 
      "name": "seresx4_conv3_weight", 
      "attrs": {
        "kernel": "(1, 1)", 
        "no_bias": "True", 
        "num_filter": "512", 
        "pad": "(0, 0)", 
        "stride": "(1, 1)"
      }, 
      "inputs": []
    }, 
    {
      "op": "Convolution", 
      "name": "seresx4_conv3", 
      "attrs": {
        "kernel": "(1, 1)", 
        "no_bias": "True", 
        "num_filter": "512", 
        "pad": "(0, 0)", 
        "stride": "(1, 1)"
      }, 
      "inputs": [[156, 0, 0], [157, 0, 0]]
    }, 
    {
      "op": "null", 
      "name": "seresx4_conv3_bn_gamma", 
      "attrs": {
        "eps": "1e-05", 
        "fix_gamma": "False", 
        "use_global_stats": "True"
      }, 
      "inputs": []
    }, 
    {
      "op": "null", 
      "name": "seresx4_conv3_bn_beta", 
      "attrs": {
        "eps": "1e-05", 
        "fix_gamma": "False", 
        "use_global_stats": "True"
      }, 
      "inputs": []
    }, 
    {
      "op": "null", 
      "name": "seresx4_conv3_bn_moving_mean", 
      "attrs": {
        "__init__": "[\"zero\", {}]", 
        "eps": "1e-05", 
        "fix_gamma": "False", 
        "use_global_stats": "True"
      }, 
      "inputs": []
    }, 
    {
      "op": "null", 
      "name": "seresx4_conv3_bn_moving_var", 
      "attrs": {
        "__init__": "[\"one\", {}]", 
        "eps": "1e-05", 
        "fix_gamma": "False", 
        "use_global_stats": "True"
      }, 
      "inputs": []
    }, 
    {
      "op": "BatchNorm", 
      "name": "seresx4_conv3_bn", 
      "attrs": {
        "eps": "1e-05", 
        "fix_gamma": "False", 
        "use_global_stats": "True"
      }, 
      "inputs": [[158, 0, 0], [159, 0, 0], [160, 0, 0], [161, 0, 1], [162, 0, 1]]
    }, 
    {
      "op": "Pooling", 
      "name": "seresx4_global_pool", 
      "attrs": {
        "global_pool": "True", 
        "kernel": "(7, 7)", 
        "pool_type": "avg", 
        "pooling_convention": "full"
      }, 
      "inputs": [[163, 0, 0]]
    }, 
    {
      "op": "null", 
      "name": "seresx4_down_weight", 
      "attrs": {
        "kernel": "(1, 1)", 
        "no_bias": "False", 
        "num_filter": "32", 
        "pad": "(0, 0)", 
        "stride": "(1, 1)"
      }, 
      "inputs": []
    }, 
    {
      "op": "null", 
      "name": "seresx4_down_bias", 
      "attrs": {
        "kernel": "(1, 1)", 
        "no_bias": "False", 
        "num_filter": "32", 
        "pad": "(0, 0)", 
        "stride": "(1, 1)"
      }, 
      "inputs": []
    }, 
    {
      "op": "Convolution", 
      "name": "seresx4_down", 
      "attrs": {
        "kernel": "(1, 1)", 
        "no_bias": "False", 
        "num_filter": "32", 
        "pad": "(0, 0)", 
        "stride": "(1, 1)"
      }, 
      "inputs": [[164, 0, 0], [165, 0, 0], [166, 0, 0]]
    }, 
    {
      "op": "Activation", 
      "name": "seresx4_down_relu", 
      "attrs": {"act_type": "relu"}, 
      "inputs": [[167, 0, 0]]
    }, 
    {
      "op": "null", 
      "name": "seresx4_up_weight", 
      "attrs": {
        "kernel": "(1, 1)", 
        "no_bias": "False", 
        "num_filter": "512", 
        "pad": "(0, 0)", 
        "stride": "(1, 1)"
      }, 
      "inputs": []
    }, 
    {
      "op": "null", 
      "name": "seresx4_up_bias", 
      "attrs": {
        "kernel": "(1, 1)", 
        "no_bias": "False", 
        "num_filter": "512", 
        "pad": "(0, 0)", 
        "stride": "(1, 1)"
      }, 
      "inputs": []
    }, 
    {
      "op": "Convolution", 
      "name": "seresx4_up", 
      "attrs": {
        "kernel": "(1, 1)", 
        "no_bias": "False", 
        "num_filter": "512", 
        "pad": "(0, 0)", 
        "stride": "(1, 1)"
      }, 
      "inputs": [[168, 0, 0], [169, 0, 0], [170, 0, 0]]
    }, 
    {
      "op": "Activation", 
      "name": "seresx4_up_sigmoid", 
      "attrs": {"act_type": "sigmoid"}, 
      "inputs": [[171, 0, 0]]
    }, 
    {
      "op": "Reshape", 
      "name": "reshape3", 
      "attrs": {"shape": "(-1, 512, 1, 1)"}, 
      "inputs": [[172, 0, 0]]
    }, 
    {
      "op": "broadcast_mul", 
      "name": "broadcast_mul3", 
      "inputs": [[163, 0, 0], [173, 0, 0]]
    }, 
    {
      "op": "null", 
      "name": "seresx4_match_conv_weight", 
      "attrs": {
        "kernel": "(3, 3)", 
        "no_bias": "True", 
        "num_filter": "512", 
        "pad": "(1, 1)", 
        "stride": "(2, 2)"
      }, 
      "inputs": []
    }, 
    {
      "op": "Convolution", 
      "name": "seresx4_match_conv", 
      "attrs": {
        "kernel": "(3, 3)", 
        "no_bias": "True", 
        "num_filter": "512", 
        "pad": "(1, 1)", 
        "stride": "(2, 2)"
      }, 
      "inputs": [[140, 0, 0], [175, 0, 0]]
    }, 
    {
      "op": "null", 
      "name": "seresx4_match_conv_bn_gamma", 
      "attrs": {
        "eps": "1e-05", 
        "fix_gamma": "False", 
        "use_global_stats": "True"
      }, 
      "inputs": []
    }, 
    {
      "op": "null", 
      "name": "seresx4_match_conv_bn_beta", 
      "attrs": {
        "eps": "1e-05", 
        "fix_gamma": "False", 
        "use_global_stats": "True"
      }, 
      "inputs": []
    }, 
    {
      "op": "null", 
      "name": "seresx4_match_conv_bn_moving_mean", 
      "attrs": {
        "__init__": "[\"zero\", {}]", 
        "eps": "1e-05", 
        "fix_gamma": "False", 
        "use_global_stats": "True"
      }, 
      "inputs": []
    }, 
    {
      "op": "null", 
      "name": "seresx4_match_conv_bn_moving_var", 
      "attrs": {
        "__init__": "[\"one\", {}]", 
        "eps": "1e-05", 
        "fix_gamma": "False", 
        "use_global_stats": "True"
      }, 
      "inputs": []
    }, 
    {
      "op": "BatchNorm", 
      "name": "seresx4_match_conv_bn", 
      "attrs": {
        "eps": "1e-05", 
        "fix_gamma": "False", 
        "use_global_stats": "True"
      }, 
      "inputs": [[176, 0, 0], [177, 0, 0], [178, 0, 0], [179, 0, 1], [180, 0, 1]]
    }, 
    {
      "op": "broadcast_add", 
      "name": "seresx4", 
      "inputs": [[174, 0, 0], [181, 0, 0]]
    }, 
    {
      "op": "Activation", 
      "name": "seresx4_relu", 
      "attrs": {"act_type": "relu"}, 
      "inputs": [[182, 0, 0]]
    }, 
    {
      "op": "null", 
      "name": "seresx5_conv1_weight", 
      "attrs": {
        "kernel": "(1, 1)", 
        "no_bias": "True", 
        "num_filter": "256", 
        "num_group": "1", 
        "pad": "(0, 0)", 
        "stride": "(1, 1)"
      }, 
      "inputs": []
    }, 
    {
      "op": "Convolution", 
      "name": "seresx5_conv1", 
      "attrs": {
        "kernel": "(1, 1)", 
        "no_bias": "True", 
        "num_filter": "256", 
        "num_group": "1", 
        "pad": "(0, 0)", 
        "stride": "(1, 1)"
      }, 
      "inputs": [[183, 0, 0], [184, 0, 0]]
    }, 
    {
      "op": "null", 
      "name": "seresx5_conv1_bn_gamma", 
      "attrs": {
        "eps": "0.0001", 
        "fix_gamma": "False", 
        "use_global_stats": "True"
      }, 
      "inputs": []
    }, 
    {
      "op": "null", 
      "name": "seresx5_conv1_bn_beta", 
      "attrs": {
        "eps": "0.0001", 
        "fix_gamma": "False", 
        "use_global_stats": "True"
      }, 
      "inputs": []
    }, 
    {
      "op": "null", 
      "name": "seresx5_conv1_bn_moving_mean", 
      "attrs": {
        "__init__": "[\"zero\", {}]", 
        "eps": "0.0001", 
        "fix_gamma": "False", 
        "use_global_stats": "True"
      }, 
      "inputs": []
    }, 
    {
      "op": "null", 
      "name": "seresx5_conv1_bn_moving_var", 
      "attrs": {
        "__init__": "[\"one\", {}]", 
        "eps": "0.0001", 
        "fix_gamma": "False", 
        "use_global_stats": "True"
      }, 
      "inputs": []
    }, 
    {
      "op": "BatchNorm", 
      "name": "seresx5_conv1_bn", 
      "attrs": {
        "eps": "0.0001", 
        "fix_gamma": "False", 
        "use_global_stats": "True"
      }, 
      "inputs": [[185, 0, 0], [186, 0, 0], [187, 0, 0], [188, 0, 1], [189, 0, 1]]
    }, 
    {
      "op": "Activation", 
      "name": "seresx5_conv1_relu", 
      "attrs": {"act_type": "relu"}, 
      "inputs": [[190, 0, 0]]
    }, 
    {
      "op": "null", 
      "name": "seresx5_conv2_weight", 
      "attrs": {
        "kernel": "(3, 3)", 
        "no_bias": "True", 
        "num_filter": "512", 
        "num_group": "64", 
        "pad": "(1, 1)", 
        "stride": "(1, 1)"
      }, 
      "inputs": []
    }, 
    {
      "op": "Convolution", 
      "name": "seresx5_conv2", 
      "attrs": {
        "kernel": "(3, 3)", 
        "no_bias": "True", 
        "num_filter": "512", 
        "num_group": "64", 
        "pad": "(1, 1)", 
        "stride": "(1, 1)"
      }, 
      "inputs": [[191, 0, 0], [192, 0, 0]]
    }, 
    {
      "op": "null", 
      "name": "seresx5_conv2_bn_gamma", 
      "attrs": {
        "eps": "0.0001", 
        "fix_gamma": "False", 
        "use_global_stats": "True"
      }, 
      "inputs": []
    }, 
    {
      "op": "null", 
      "name": "seresx5_conv2_bn_beta", 
      "attrs": {
        "eps": "0.0001", 
        "fix_gamma": "False", 
        "use_global_stats": "True"
      }, 
      "inputs": []
    }, 
    {
      "op": "null", 
      "name": "seresx5_conv2_bn_moving_mean", 
      "attrs": {
        "__init__": "[\"zero\", {}]", 
        "eps": "0.0001", 
        "fix_gamma": "False", 
        "use_global_stats": "True"
      }, 
      "inputs": []
    }, 
    {
      "op": "null", 
      "name": "seresx5_conv2_bn_moving_var", 
      "attrs": {
        "__init__": "[\"one\", {}]", 
        "eps": "0.0001", 
        "fix_gamma": "False", 
        "use_global_stats": "True"
      }, 
      "inputs": []
    }, 
    {
      "op": "BatchNorm", 
      "name": "seresx5_conv2_bn", 
      "attrs": {
        "eps": "0.0001", 
        "fix_gamma": "False", 
        "use_global_stats": "True"
      }, 
      "inputs": [[193, 0, 0], [194, 0, 0], [195, 0, 0], [196, 0, 1], [197, 0, 1]]
    }, 
    {
      "op": "Activation", 
      "name": "seresx5_conv2_relu", 
      "attrs": {"act_type": "relu"}, 
      "inputs": [[198, 0, 0]]
    }, 
    {
      "op": "null", 
      "name": "seresx5_conv3_weight", 
      "attrs": {
        "kernel": "(1, 1)", 
        "no_bias": "True", 
        "num_filter": "512", 
        "pad": "(0, 0)", 
        "stride": "(1, 1)"
      }, 
      "inputs": []
    }, 
    {
      "op": "Convolution", 
      "name": "seresx5_conv3", 
      "attrs": {
        "kernel": "(1, 1)", 
        "no_bias": "True", 
        "num_filter": "512", 
        "pad": "(0, 0)", 
        "stride": "(1, 1)"
      }, 
      "inputs": [[199, 0, 0], [200, 0, 0]]
    }, 
    {
      "op": "null", 
      "name": "seresx5_conv3_bn_gamma", 
      "attrs": {
        "eps": "1e-05", 
        "fix_gamma": "False", 
        "use_global_stats": "True"
      }, 
      "inputs": []
    }, 
    {
      "op": "null", 
      "name": "seresx5_conv3_bn_beta", 
      "attrs": {
        "eps": "1e-05", 
        "fix_gamma": "False", 
        "use_global_stats": "True"
      }, 
      "inputs": []
    }, 
    {
      "op": "null", 
      "name": "seresx5_conv3_bn_moving_mean", 
      "attrs": {
        "__init__": "[\"zero\", {}]", 
        "eps": "1e-05", 
        "fix_gamma": "False", 
        "use_global_stats": "True"
      }, 
      "inputs": []
    }, 
    {
      "op": "null", 
      "name": "seresx5_conv3_bn_moving_var", 
      "attrs": {
        "__init__": "[\"one\", {}]", 
        "eps": "1e-05", 
        "fix_gamma": "False", 
        "use_global_stats": "True"
      }, 
      "inputs": []
    }, 
    {
      "op": "BatchNorm", 
      "name": "seresx5_conv3_bn", 
      "attrs": {
        "eps": "1e-05", 
        "fix_gamma": "False", 
        "use_global_stats": "True"
      }, 
      "inputs": [[201, 0, 0], [202, 0, 0], [203, 0, 0], [204, 0, 1], [205, 0, 1]]
    }, 
    {
      "op": "Pooling", 
      "name": "seresx5_global_pool", 
      "attrs": {
        "global_pool": "True", 
        "kernel": "(7, 7)", 
        "pool_type": "avg", 
        "pooling_convention": "full"
      }, 
      "inputs": [[206, 0, 0]]
    }, 
    {
      "op": "null", 
      "name": "seresx5_down_weight", 
      "attrs": {
        "kernel": "(1, 1)", 
        "no_bias": "False", 
        "num_filter": "32", 
        "pad": "(0, 0)", 
        "stride": "(1, 1)"
      }, 
      "inputs": []
    }, 
    {
      "op": "null", 
      "name": "seresx5_down_bias", 
      "attrs": {
        "kernel": "(1, 1)", 
        "no_bias": "False", 
        "num_filter": "32", 
        "pad": "(0, 0)", 
        "stride": "(1, 1)"
      }, 
      "inputs": []
    }, 
    {
      "op": "Convolution", 
      "name": "seresx5_down", 
      "attrs": {
        "kernel": "(1, 1)", 
        "no_bias": "False", 
        "num_filter": "32", 
        "pad": "(0, 0)", 
        "stride": "(1, 1)"
      }, 
      "inputs": [[207, 0, 0], [208, 0, 0], [209, 0, 0]]
    }, 
    {
      "op": "Activation", 
      "name": "seresx5_down_relu", 
      "attrs": {"act_type": "relu"}, 
      "inputs": [[210, 0, 0]]
    }, 
    {
      "op": "null", 
      "name": "seresx5_up_weight", 
      "attrs": {
        "kernel": "(1, 1)", 
        "no_bias": "False", 
        "num_filter": "512", 
        "pad": "(0, 0)", 
        "stride": "(1, 1)"
      }, 
      "inputs": []
    }, 
    {
      "op": "null", 
      "name": "seresx5_up_bias", 
      "attrs": {
        "kernel": "(1, 1)", 
        "no_bias": "False", 
        "num_filter": "512", 
        "pad": "(0, 0)", 
        "stride": "(1, 1)"
      }, 
      "inputs": []
    }, 
    {
      "op": "Convolution", 
      "name": "seresx5_up", 
      "attrs": {
        "kernel": "(1, 1)", 
        "no_bias": "False", 
        "num_filter": "512", 
        "pad": "(0, 0)", 
        "stride": "(1, 1)"
      }, 
      "inputs": [[211, 0, 0], [212, 0, 0], [213, 0, 0]]
    }, 
    {
      "op": "Activation", 
      "name": "seresx5_up_sigmoid", 
      "attrs": {"act_type": "sigmoid"}, 
      "inputs": [[214, 0, 0]]
    }, 
    {
      "op": "Reshape", 
      "name": "reshape4", 
      "attrs": {"shape": "(-1, 512, 1, 1)"}, 
      "inputs": [[215, 0, 0]]
    }, 
    {
      "op": "broadcast_mul", 
      "name": "broadcast_mul4", 
      "inputs": [[206, 0, 0], [216, 0, 0]]
    }, 
    {
      "op": "broadcast_add", 
      "name": "seresx5", 
      "inputs": [[183, 0, 0], [217, 0, 0]]
    }, 
    {
      "op": "Activation", 
      "name": "seresx5_relu", 
      "attrs": {"act_type": "relu"}, 
      "inputs": [[218, 0, 0]]
    }, 
    {
      "op": "null", 
      "name": "seresx6_conv1_weight", 
      "attrs": {
        "kernel": "(1, 1)", 
        "no_bias": "True", 
        "num_filter": "256", 
        "num_group": "1", 
        "pad": "(0, 0)", 
        "stride": "(1, 1)"
      }, 
      "inputs": []
    }, 
    {
      "op": "Convolution", 
      "name": "seresx6_conv1", 
      "attrs": {
        "kernel": "(1, 1)", 
        "no_bias": "True", 
        "num_filter": "256", 
        "num_group": "1", 
        "pad": "(0, 0)", 
        "stride": "(1, 1)"
      }, 
      "inputs": [[219, 0, 0], [220, 0, 0]]
    }, 
    {
      "op": "null", 
      "name": "seresx6_conv1_bn_gamma", 
      "attrs": {
        "eps": "0.0001", 
        "fix_gamma": "False", 
        "use_global_stats": "True"
      }, 
      "inputs": []
    }, 
    {
      "op": "null", 
      "name": "seresx6_conv1_bn_beta", 
      "attrs": {
        "eps": "0.0001", 
        "fix_gamma": "False", 
        "use_global_stats": "True"
      }, 
      "inputs": []
    }, 
    {
      "op": "null", 
      "name": "seresx6_conv1_bn_moving_mean", 
      "attrs": {
        "__init__": "[\"zero\", {}]", 
        "eps": "0.0001", 
        "fix_gamma": "False", 
        "use_global_stats": "True"
      }, 
      "inputs": []
    }, 
    {
      "op": "null", 
      "name": "seresx6_conv1_bn_moving_var", 
      "attrs": {
        "__init__": "[\"one\", {}]", 
        "eps": "0.0001", 
        "fix_gamma": "False", 
        "use_global_stats": "True"
      }, 
      "inputs": []
    }, 
    {
      "op": "BatchNorm", 
      "name": "seresx6_conv1_bn", 
      "attrs": {
        "eps": "0.0001", 
        "fix_gamma": "False", 
        "use_global_stats": "True"
      }, 
      "inputs": [[221, 0, 0], [222, 0, 0], [223, 0, 0], [224, 0, 1], [225, 0, 1]]
    }, 
    {
      "op": "Activation", 
      "name": "seresx6_conv1_relu", 
      "attrs": {"act_type": "relu"}, 
      "inputs": [[226, 0, 0]]
    }, 
    {
      "op": "null", 
      "name": "seresx6_conv2_weight", 
      "attrs": {
        "kernel": "(3, 3)", 
        "no_bias": "True", 
        "num_filter": "512", 
        "num_group": "64", 
        "pad": "(1, 1)", 
        "stride": "(1, 1)"
      }, 
      "inputs": []
    }, 
    {
      "op": "Convolution", 
      "name": "seresx6_conv2", 
      "attrs": {
        "kernel": "(3, 3)", 
        "no_bias": "True", 
        "num_filter": "512", 
        "num_group": "64", 
        "pad": "(1, 1)", 
        "stride": "(1, 1)"
      }, 
      "inputs": [[227, 0, 0], [228, 0, 0]]
    }, 
    {
      "op": "null", 
      "name": "seresx6_conv2_bn_gamma", 
      "attrs": {
        "eps": "0.0001", 
        "fix_gamma": "False", 
        "use_global_stats": "True"
      }, 
      "inputs": []
    }, 
    {
      "op": "null", 
      "name": "seresx6_conv2_bn_beta", 
      "attrs": {
        "eps": "0.0001", 
        "fix_gamma": "False", 
        "use_global_stats": "True"
      }, 
      "inputs": []
    }, 
    {
      "op": "null", 
      "name": "seresx6_conv2_bn_moving_mean", 
      "attrs": {
        "__init__": "[\"zero\", {}]", 
        "eps": "0.0001", 
        "fix_gamma": "False", 
        "use_global_stats": "True"
      }, 
      "inputs": []
    }, 
    {
      "op": "null", 
      "name": "seresx6_conv2_bn_moving_var", 
      "attrs": {
        "__init__": "[\"one\", {}]", 
        "eps": "0.0001", 
        "fix_gamma": "False", 
        "use_global_stats": "True"
      }, 
      "inputs": []
    }, 
    {
      "op": "BatchNorm", 
      "name": "seresx6_conv2_bn", 
      "attrs": {
        "eps": "0.0001", 
        "fix_gamma": "False", 
        "use_global_stats": "True"
      }, 
      "inputs": [[229, 0, 0], [230, 0, 0], [231, 0, 0], [232, 0, 1], [233, 0, 1]]
    }, 
    {
      "op": "Activation", 
      "name": "seresx6_conv2_relu", 
      "attrs": {"act_type": "relu"}, 
      "inputs": [[234, 0, 0]]
    }, 
    {
      "op": "null", 
      "name": "seresx6_conv3_weight", 
      "attrs": {
        "kernel": "(1, 1)", 
        "no_bias": "True", 
        "num_filter": "512", 
        "pad": "(0, 0)", 
        "stride": "(1, 1)"
      }, 
      "inputs": []
    }, 
    {
      "op": "Convolution", 
      "name": "seresx6_conv3", 
      "attrs": {
        "kernel": "(1, 1)", 
        "no_bias": "True", 
        "num_filter": "512", 
        "pad": "(0, 0)", 
        "stride": "(1, 1)"
      }, 
      "inputs": [[235, 0, 0], [236, 0, 0]]
    }, 
    {
      "op": "null", 
      "name": "seresx6_conv3_bn_gamma", 
      "attrs": {
        "eps": "1e-05", 
        "fix_gamma": "False", 
        "use_global_stats": "True"
      }, 
      "inputs": []
    }, 
    {
      "op": "null", 
      "name": "seresx6_conv3_bn_beta", 
      "attrs": {
        "eps": "1e-05", 
        "fix_gamma": "False", 
        "use_global_stats": "True"
      }, 
      "inputs": []
    }, 
    {
      "op": "null", 
      "name": "seresx6_conv3_bn_moving_mean", 
      "attrs": {
        "__init__": "[\"zero\", {}]", 
        "eps": "1e-05", 
        "fix_gamma": "False", 
        "use_global_stats": "True"
      }, 
      "inputs": []
    }, 
    {
      "op": "null", 
      "name": "seresx6_conv3_bn_moving_var", 
      "attrs": {
        "__init__": "[\"one\", {}]", 
        "eps": "1e-05", 
        "fix_gamma": "False", 
        "use_global_stats": "True"
      }, 
      "inputs": []
    }, 
    {
      "op": "BatchNorm", 
      "name": "seresx6_conv3_bn", 
      "attrs": {
        "eps": "1e-05", 
        "fix_gamma": "False", 
        "use_global_stats": "True"
      }, 
      "inputs": [[237, 0, 0], [238, 0, 0], [239, 0, 0], [240, 0, 1], [241, 0, 1]]
    }, 
    {
      "op": "Pooling", 
      "name": "seresx6_global_pool", 
      "attrs": {
        "global_pool": "True", 
        "kernel": "(7, 7)", 
        "pool_type": "avg", 
        "pooling_convention": "full"
      }, 
      "inputs": [[242, 0, 0]]
    }, 
    {
      "op": "null", 
      "name": "seresx6_down_weight", 
      "attrs": {
        "kernel": "(1, 1)", 
        "no_bias": "False", 
        "num_filter": "32", 
        "pad": "(0, 0)", 
        "stride": "(1, 1)"
      }, 
      "inputs": []
    }, 
    {
      "op": "null", 
      "name": "seresx6_down_bias", 
      "attrs": {
        "kernel": "(1, 1)", 
        "no_bias": "False", 
        "num_filter": "32", 
        "pad": "(0, 0)", 
        "stride": "(1, 1)"
      }, 
      "inputs": []
    }, 
    {
      "op": "Convolution", 
      "name": "seresx6_down", 
      "attrs": {
        "kernel": "(1, 1)", 
        "no_bias": "False", 
        "num_filter": "32", 
        "pad": "(0, 0)", 
        "stride": "(1, 1)"
      }, 
      "inputs": [[243, 0, 0], [244, 0, 0], [245, 0, 0]]
    }, 
    {
      "op": "Activation", 
      "name": "seresx6_down_relu", 
      "attrs": {"act_type": "relu"}, 
      "inputs": [[246, 0, 0]]
    }, 
    {
      "op": "null", 
      "name": "seresx6_up_weight", 
      "attrs": {
        "kernel": "(1, 1)", 
        "no_bias": "False", 
        "num_filter": "512", 
        "pad": "(0, 0)", 
        "stride": "(1, 1)"
      }, 
      "inputs": []
    }, 
    {
      "op": "null", 
      "name": "seresx6_up_bias", 
      "attrs": {
        "kernel": "(1, 1)", 
        "no_bias": "False", 
        "num_filter": "512", 
        "pad": "(0, 0)", 
        "stride": "(1, 1)"
      }, 
      "inputs": []
    }, 
    {
      "op": "Convolution", 
      "name": "seresx6_up", 
      "attrs": {
        "kernel": "(1, 1)", 
        "no_bias": "False", 
        "num_filter": "512", 
        "pad": "(0, 0)", 
        "stride": "(1, 1)"
      }, 
      "inputs": [[247, 0, 0], [248, 0, 0], [249, 0, 0]]
    }, 
    {
      "op": "Activation", 
      "name": "seresx6_up_sigmoid", 
      "attrs": {"act_type": "sigmoid"}, 
      "inputs": [[250, 0, 0]]
    }, 
    {
      "op": "Reshape", 
      "name": "reshape5", 
      "attrs": {"shape": "(-1, 512, 1, 1)"}, 
      "inputs": [[251, 0, 0]]
    }, 
    {
      "op": "broadcast_mul", 
      "name": "broadcast_mul5", 
      "inputs": [[242, 0, 0], [252, 0, 0]]
    }, 
    {
      "op": "broadcast_add", 
      "name": "seresx6", 
      "inputs": [[219, 0, 0], [253, 0, 0]]
    }, 
    {
      "op": "Activation", 
      "name": "seresx6_relu", 
      "attrs": {"act_type": "relu"}, 
      "inputs": [[254, 0, 0]]
    }, 
    {
      "op": "null", 
      "name": "seresx7_conv1_weight", 
      "attrs": {
        "kernel": "(1, 1)", 
        "no_bias": "True", 
        "num_filter": "256", 
        "num_group": "1", 
        "pad": "(0, 0)", 
        "stride": "(1, 1)"
      }, 
      "inputs": []
    }, 
    {
      "op": "Convolution", 
      "name": "seresx7_conv1", 
      "attrs": {
        "kernel": "(1, 1)", 
        "no_bias": "True", 
        "num_filter": "256", 
        "num_group": "1", 
        "pad": "(0, 0)", 
        "stride": "(1, 1)"
      }, 
      "inputs": [[255, 0, 0], [256, 0, 0]]
    }, 
    {
      "op": "null", 
      "name": "seresx7_conv1_bn_gamma", 
      "attrs": {
        "eps": "0.0001", 
        "fix_gamma": "False", 
        "use_global_stats": "True"
      }, 
      "inputs": []
    }, 
    {
      "op": "null", 
      "name": "seresx7_conv1_bn_beta", 
      "attrs": {
        "eps": "0.0001", 
        "fix_gamma": "False", 
        "use_global_stats": "True"
      }, 
      "inputs": []
    }, 
    {
      "op": "null", 
      "name": "seresx7_conv1_bn_moving_mean", 
      "attrs": {
        "__init__": "[\"zero\", {}]", 
        "eps": "0.0001", 
        "fix_gamma": "False", 
        "use_global_stats": "True"
      }, 
      "inputs": []
    }, 
    {
      "op": "null", 
      "name": "seresx7_conv1_bn_moving_var", 
      "attrs": {
        "__init__": "[\"one\", {}]", 
        "eps": "0.0001", 
        "fix_gamma": "False", 
        "use_global_stats": "True"
      }, 
      "inputs": []
    }, 
    {
      "op": "BatchNorm", 
      "name": "seresx7_conv1_bn", 
      "attrs": {
        "eps": "0.0001", 
        "fix_gamma": "False", 
        "use_global_stats": "True"
      }, 
      "inputs": [[257, 0, 0], [258, 0, 0], [259, 0, 0], [260, 0, 1], [261, 0, 1]]
    }, 
    {
      "op": "Activation", 
      "name": "seresx7_conv1_relu", 
      "attrs": {"act_type": "relu"}, 
      "inputs": [[262, 0, 0]]
    }, 
    {
      "op": "null", 
      "name": "seresx7_conv2_weight", 
      "attrs": {
        "kernel": "(3, 3)", 
        "no_bias": "True", 
        "num_filter": "512", 
        "num_group": "64", 
        "pad": "(1, 1)", 
        "stride": "(1, 1)"
      }, 
      "inputs": []
    }, 
    {
      "op": "Convolution", 
      "name": "seresx7_conv2", 
      "attrs": {
        "kernel": "(3, 3)", 
        "no_bias": "True", 
        "num_filter": "512", 
        "num_group": "64", 
        "pad": "(1, 1)", 
        "stride": "(1, 1)"
      }, 
      "inputs": [[263, 0, 0], [264, 0, 0]]
    }, 
    {
      "op": "null", 
      "name": "seresx7_conv2_bn_gamma", 
      "attrs": {
        "eps": "0.0001", 
        "fix_gamma": "False", 
        "use_global_stats": "True"
      }, 
      "inputs": []
    }, 
    {
      "op": "null", 
      "name": "seresx7_conv2_bn_beta", 
      "attrs": {
        "eps": "0.0001", 
        "fix_gamma": "False", 
        "use_global_stats": "True"
      }, 
      "inputs": []
    }, 
    {
      "op": "null", 
      "name": "seresx7_conv2_bn_moving_mean", 
      "attrs": {
        "__init__": "[\"zero\", {}]", 
        "eps": "0.0001", 
        "fix_gamma": "False", 
        "use_global_stats": "True"
      }, 
      "inputs": []
    }, 
    {
      "op": "null", 
      "name": "seresx7_conv2_bn_moving_var", 
      "attrs": {
        "__init__": "[\"one\", {}]", 
        "eps": "0.0001", 
        "fix_gamma": "False", 
        "use_global_stats": "True"
      }, 
      "inputs": []
    }, 
    {
      "op": "BatchNorm", 
      "name": "seresx7_conv2_bn", 
      "attrs": {
        "eps": "0.0001", 
        "fix_gamma": "False", 
        "use_global_stats": "True"
      }, 
      "inputs": [[265, 0, 0], [266, 0, 0], [267, 0, 0], [268, 0, 1], [269, 0, 1]]
    }, 
    {
      "op": "Activation", 
      "name": "seresx7_conv2_relu", 
      "attrs": {"act_type": "relu"}, 
      "inputs": [[270, 0, 0]]
    }, 
    {
      "op": "null", 
      "name": "seresx7_conv3_weight", 
      "attrs": {
        "kernel": "(1, 1)", 
        "no_bias": "True", 
        "num_filter": "512", 
        "pad": "(0, 0)", 
        "stride": "(1, 1)"
      }, 
      "inputs": []
    }, 
    {
      "op": "Convolution", 
      "name": "seresx7_conv3", 
      "attrs": {
        "kernel": "(1, 1)", 
        "no_bias": "True", 
        "num_filter": "512", 
        "pad": "(0, 0)", 
        "stride": "(1, 1)"
      }, 
      "inputs": [[271, 0, 0], [272, 0, 0]]
    }, 
    {
      "op": "null", 
      "name": "seresx7_conv3_bn_gamma", 
      "attrs": {
        "eps": "1e-05", 
        "fix_gamma": "False", 
        "use_global_stats": "True"
      }, 
      "inputs": []
    }, 
    {
      "op": "null", 
      "name": "seresx7_conv3_bn_beta", 
      "attrs": {
        "eps": "1e-05", 
        "fix_gamma": "False", 
        "use_global_stats": "True"
      }, 
      "inputs": []
    }, 
    {
      "op": "null", 
      "name": "seresx7_conv3_bn_moving_mean", 
      "attrs": {
        "__init__": "[\"zero\", {}]", 
        "eps": "1e-05", 
        "fix_gamma": "False", 
        "use_global_stats": "True"
      }, 
      "inputs": []
    }, 
    {
      "op": "null", 
      "name": "seresx7_conv3_bn_moving_var", 
      "attrs": {
        "__init__": "[\"one\", {}]", 
        "eps": "1e-05", 
        "fix_gamma": "False", 
        "use_global_stats": "True"
      }, 
      "inputs": []
    }, 
    {
      "op": "BatchNorm", 
      "name": "seresx7_conv3_bn", 
      "attrs": {
        "eps": "1e-05", 
        "fix_gamma": "False", 
        "use_global_stats": "True"
      }, 
      "inputs": [[273, 0, 0], [274, 0, 0], [275, 0, 0], [276, 0, 1], [277, 0, 1]]
    }, 
    {
      "op": "Pooling", 
      "name": "seresx7_global_pool", 
      "attrs": {
        "global_pool": "True", 
        "kernel": "(7, 7)", 
        "pool_type": "avg", 
        "pooling_convention": "full"
      }, 
      "inputs": [[278, 0, 0]]
    }, 
    {
      "op": "null", 
      "name": "seresx7_down_weight", 
      "attrs": {
        "kernel": "(1, 1)", 
        "no_bias": "False", 
        "num_filter": "32", 
        "pad": "(0, 0)", 
        "stride": "(1, 1)"
      }, 
      "inputs": []
    }, 
    {
      "op": "null", 
      "name": "seresx7_down_bias", 
      "attrs": {
        "kernel": "(1, 1)", 
        "no_bias": "False", 
        "num_filter": "32", 
        "pad": "(0, 0)", 
        "stride": "(1, 1)"
      }, 
      "inputs": []
    }, 
    {
      "op": "Convolution", 
      "name": "seresx7_down", 
      "attrs": {
        "kernel": "(1, 1)", 
        "no_bias": "False", 
        "num_filter": "32", 
        "pad": "(0, 0)", 
        "stride": "(1, 1)"
      }, 
      "inputs": [[279, 0, 0], [280, 0, 0], [281, 0, 0]]
    }, 
    {
      "op": "Activation", 
      "name": "seresx7_down_relu", 
      "attrs": {"act_type": "relu"}, 
      "inputs": [[282, 0, 0]]
    }, 
    {
      "op": "null", 
      "name": "seresx7_up_weight", 
      "attrs": {
        "kernel": "(1, 1)", 
        "no_bias": "False", 
        "num_filter": "512", 
        "pad": "(0, 0)", 
        "stride": "(1, 1)"
      }, 
      "inputs": []
    }, 
    {
      "op": "null", 
      "name": "seresx7_up_bias", 
      "attrs": {
        "kernel": "(1, 1)", 
        "no_bias": "False", 
        "num_filter": "512", 
        "pad": "(0, 0)", 
        "stride": "(1, 1)"
      }, 
      "inputs": []
    }, 
    {
      "op": "Convolution", 
      "name": "seresx7_up", 
      "attrs": {
        "kernel": "(1, 1)", 
        "no_bias": "False", 
        "num_filter": "512", 
        "pad": "(0, 0)", 
        "stride": "(1, 1)"
      }, 
      "inputs": [[283, 0, 0], [284, 0, 0], [285, 0, 0]]
    }, 
    {
      "op": "Activation", 
      "name": "seresx7_up_sigmoid", 
      "attrs": {"act_type": "sigmoid"}, 
      "inputs": [[286, 0, 0]]
    }, 
    {
      "op": "Reshape", 
      "name": "reshape6", 
      "attrs": {"shape": "(-1, 512, 1, 1)"}, 
      "inputs": [[287, 0, 0]]
    }, 
    {
      "op": "broadcast_mul", 
      "name": "broadcast_mul6", 
      "inputs": [[278, 0, 0], [288, 0, 0]]
    }, 
    {
      "op": "broadcast_add", 
      "name": "seresx7", 
      "inputs": [[255, 0, 0], [289, 0, 0]]
    }, 
    {
      "op": "Activation", 
      "name": "seresx7_relu", 
      "attrs": {"act_type": "relu"}, 
      "inputs": [[290, 0, 0]]
    }, 
    {
      "op": "null", 
      "name": "seresx8_conv1_weight", 
      "attrs": {
        "kernel": "(1, 1)", 
        "no_bias": "True", 
        "num_filter": "256", 
        "num_group": "1", 
        "pad": "(0, 0)", 
        "stride": "(1, 1)"
      }, 
      "inputs": []
    }, 
    {
      "op": "Convolution", 
      "name": "seresx8_conv1", 
      "attrs": {
        "kernel": "(1, 1)", 
        "no_bias": "True", 
        "num_filter": "256", 
        "num_group": "1", 
        "pad": "(0, 0)", 
        "stride": "(1, 1)"
      }, 
      "inputs": [[291, 0, 0], [292, 0, 0]]
    }, 
    {
      "op": "null", 
      "name": "seresx8_conv1_bn_gamma", 
      "attrs": {
        "eps": "0.0001", 
        "fix_gamma": "False", 
        "use_global_stats": "True"
      }, 
      "inputs": []
    }, 
    {
      "op": "null", 
      "name": "seresx8_conv1_bn_beta", 
      "attrs": {
        "eps": "0.0001", 
        "fix_gamma": "False", 
        "use_global_stats": "True"
      }, 
      "inputs": []
    }, 
    {
      "op": "null", 
      "name": "seresx8_conv1_bn_moving_mean", 
      "attrs": {
        "__init__": "[\"zero\", {}]", 
        "eps": "0.0001", 
        "fix_gamma": "False", 
        "use_global_stats": "True"
      }, 
      "inputs": []
    }, 
    {
      "op": "null", 
      "name": "seresx8_conv1_bn_moving_var", 
      "attrs": {
        "__init__": "[\"one\", {}]", 
        "eps": "0.0001", 
        "fix_gamma": "False", 
        "use_global_stats": "True"
      }, 
      "inputs": []
    }, 
    {
      "op": "BatchNorm", 
      "name": "seresx8_conv1_bn", 
      "attrs": {
        "eps": "0.0001", 
        "fix_gamma": "False", 
        "use_global_stats": "True"
      }, 
      "inputs": [[293, 0, 0], [294, 0, 0], [295, 0, 0], [296, 0, 1], [297, 0, 1]]
    }, 
    {
      "op": "Activation", 
      "name": "seresx8_conv1_relu", 
      "attrs": {"act_type": "relu"}, 
      "inputs": [[298, 0, 0]]
    }, 
    {
      "op": "null", 
      "name": "seresx8_conv2_weight", 
      "attrs": {
        "kernel": "(3, 3)", 
        "no_bias": "True", 
        "num_filter": "512", 
        "num_group": "64", 
        "pad": "(1, 1)", 
        "stride": "(1, 1)"
      }, 
      "inputs": []
    }, 
    {
      "op": "Convolution", 
      "name": "seresx8_conv2", 
      "attrs": {
        "kernel": "(3, 3)", 
        "no_bias": "True", 
        "num_filter": "512", 
        "num_group": "64", 
        "pad": "(1, 1)", 
        "stride": "(1, 1)"
      }, 
      "inputs": [[299, 0, 0], [300, 0, 0]]
    }, 
    {
      "op": "null", 
      "name": "seresx8_conv2_bn_gamma", 
      "attrs": {
        "eps": "0.0001", 
        "fix_gamma": "False", 
        "use_global_stats": "True"
      }, 
      "inputs": []
    }, 
    {
      "op": "null", 
      "name": "seresx8_conv2_bn_beta", 
      "attrs": {
        "eps": "0.0001", 
        "fix_gamma": "False", 
        "use_global_stats": "True"
      }, 
      "inputs": []
    }, 
    {
      "op": "null", 
      "name": "seresx8_conv2_bn_moving_mean", 
      "attrs": {
        "__init__": "[\"zero\", {}]", 
        "eps": "0.0001", 
        "fix_gamma": "False", 
        "use_global_stats": "True"
      }, 
      "inputs": []
    }, 
    {
      "op": "null", 
      "name": "seresx8_conv2_bn_moving_var", 
      "attrs": {
        "__init__": "[\"one\", {}]", 
        "eps": "0.0001", 
        "fix_gamma": "False", 
        "use_global_stats": "True"
      }, 
      "inputs": []
    }, 
    {
      "op": "BatchNorm", 
      "name": "seresx8_conv2_bn", 
      "attrs": {
        "eps": "0.0001", 
        "fix_gamma": "False", 
        "use_global_stats": "True"
      }, 
      "inputs": [[301, 0, 0], [302, 0, 0], [303, 0, 0], [304, 0, 1], [305, 0, 1]]
    }, 
    {
      "op": "Activation", 
      "name": "seresx8_conv2_relu", 
      "attrs": {"act_type": "relu"}, 
      "inputs": [[306, 0, 0]]
    }, 
    {
      "op": "null", 
      "name": "seresx8_conv3_weight", 
      "attrs": {
        "kernel": "(1, 1)", 
        "no_bias": "True", 
        "num_filter": "512", 
        "pad": "(0, 0)", 
        "stride": "(1, 1)"
      }, 
      "inputs": []
    }, 
    {
      "op": "Convolution", 
      "name": "seresx8_conv3", 
      "attrs": {
        "kernel": "(1, 1)", 
        "no_bias": "True", 
        "num_filter": "512", 
        "pad": "(0, 0)", 
        "stride": "(1, 1)"
      }, 
      "inputs": [[307, 0, 0], [308, 0, 0]]
    }, 
    {
      "op": "null", 
      "name": "seresx8_conv3_bn_gamma", 
      "attrs": {
        "eps": "1e-05", 
        "fix_gamma": "False", 
        "use_global_stats": "True"
      }, 
      "inputs": []
    }, 
    {
      "op": "null", 
      "name": "seresx8_conv3_bn_beta", 
      "attrs": {
        "eps": "1e-05", 
        "fix_gamma": "False", 
        "use_global_stats": "True"
      }, 
      "inputs": []
    }, 
    {
      "op": "null", 
      "name": "seresx8_conv3_bn_moving_mean", 
      "attrs": {
        "__init__": "[\"zero\", {}]", 
        "eps": "1e-05", 
        "fix_gamma": "False", 
        "use_global_stats": "True"
      }, 
      "inputs": []
    }, 
    {
      "op": "null", 
      "name": "seresx8_conv3_bn_moving_var", 
      "attrs": {
        "__init__": "[\"one\", {}]", 
        "eps": "1e-05", 
        "fix_gamma": "False", 
        "use_global_stats": "True"
      }, 
      "inputs": []
    }, 
    {
      "op": "BatchNorm", 
      "name": "seresx8_conv3_bn", 
      "attrs": {
        "eps": "1e-05", 
        "fix_gamma": "False", 
        "use_global_stats": "True"
      }, 
      "inputs": [[309, 0, 0], [310, 0, 0], [311, 0, 0], [312, 0, 1], [313, 0, 1]]
    }, 
    {
      "op": "Pooling", 
      "name": "seresx8_global_pool", 
      "attrs": {
        "global_pool": "True", 
        "kernel": "(7, 7)", 
        "pool_type": "avg", 
        "pooling_convention": "full"
      }, 
      "inputs": [[314, 0, 0]]
    }, 
    {
      "op": "null", 
      "name": "seresx8_down_weight", 
      "attrs": {
        "kernel": "(1, 1)", 
        "no_bias": "False", 
        "num_filter": "32", 
        "pad": "(0, 0)", 
        "stride": "(1, 1)"
      }, 
      "inputs": []
    }, 
    {
      "op": "null", 
      "name": "seresx8_down_bias", 
      "attrs": {
        "kernel": "(1, 1)", 
        "no_bias": "False", 
        "num_filter": "32", 
        "pad": "(0, 0)", 
        "stride": "(1, 1)"
      }, 
      "inputs": []
    }, 
    {
      "op": "Convolution", 
      "name": "seresx8_down", 
      "attrs": {
        "kernel": "(1, 1)", 
        "no_bias": "False", 
        "num_filter": "32", 
        "pad": "(0, 0)", 
        "stride": "(1, 1)"
      }, 
      "inputs": [[315, 0, 0], [316, 0, 0], [317, 0, 0]]
    }, 
    {
      "op": "Activation", 
      "name": "seresx8_down_relu", 
      "attrs": {"act_type": "relu"}, 
      "inputs": [[318, 0, 0]]
    }, 
    {
      "op": "null", 
      "name": "seresx8_up_weight", 
      "attrs": {
        "kernel": "(1, 1)", 
        "no_bias": "False", 
        "num_filter": "512", 
        "pad": "(0, 0)", 
        "stride": "(1, 1)"
      }, 
      "inputs": []
    }, 
    {
      "op": "null", 
      "name": "seresx8_up_bias", 
      "attrs": {
        "kernel": "(1, 1)", 
        "no_bias": "False", 
        "num_filter": "512", 
        "pad": "(0, 0)", 
        "stride": "(1, 1)"
      }, 
      "inputs": []
    }, 
    {
      "op": "Convolution", 
      "name": "seresx8_up", 
      "attrs": {
        "kernel": "(1, 1)", 
        "no_bias": "False", 
        "num_filter": "512", 
        "pad": "(0, 0)", 
        "stride": "(1, 1)"
      }, 
      "inputs": [[319, 0, 0], [320, 0, 0], [321, 0, 0]]
    }, 
    {
      "op": "Activation", 
      "name": "seresx8_up_sigmoid", 
      "attrs": {"act_type": "sigmoid"}, 
      "inputs": [[322, 0, 0]]
    }, 
    {
      "op": "Reshape", 
      "name": "reshape7", 
      "attrs": {"shape": "(-1, 512, 1, 1)"}, 
      "inputs": [[323, 0, 0]]
    }, 
    {
      "op": "broadcast_mul", 
      "name": "broadcast_mul7", 
      "inputs": [[314, 0, 0], [324, 0, 0]]
    }, 
    {
      "op": "broadcast_add", 
      "name": "seresx8", 
      "inputs": [[291, 0, 0], [325, 0, 0]]
    }, 
    {
      "op": "Activation", 
      "name": "seresx8_relu", 
      "attrs": {"act_type": "relu"}, 
      "inputs": [[326, 0, 0]]
    }, 
    {
      "op": "null", 
      "name": "seresx9_conv1_weight", 
      "attrs": {
        "kernel": "(1, 1)", 
        "no_bias": "True", 
        "num_filter": "256", 
        "num_group": "1", 
        "pad": "(0, 0)", 
        "stride": "(1, 1)"
      }, 
      "inputs": []
    }, 
    {
      "op": "Convolution", 
      "name": "seresx9_conv1", 
      "attrs": {
        "kernel": "(1, 1)", 
        "no_bias": "True", 
        "num_filter": "256", 
        "num_group": "1", 
        "pad": "(0, 0)", 
        "stride": "(1, 1)"
      }, 
      "inputs": [[327, 0, 0], [328, 0, 0]]
    }, 
    {
      "op": "null", 
      "name": "seresx9_conv1_bn_gamma", 
      "attrs": {
        "eps": "0.0001", 
        "fix_gamma": "False", 
        "use_global_stats": "True"
      }, 
      "inputs": []
    }, 
    {
      "op": "null", 
      "name": "seresx9_conv1_bn_beta", 
      "attrs": {
        "eps": "0.0001", 
        "fix_gamma": "False", 
        "use_global_stats": "True"
      }, 
      "inputs": []
    }, 
    {
      "op": "null", 
      "name": "seresx9_conv1_bn_moving_mean", 
      "attrs": {
        "__init__": "[\"zero\", {}]", 
        "eps": "0.0001", 
        "fix_gamma": "False", 
        "use_global_stats": "True"
      }, 
      "inputs": []
    }, 
    {
      "op": "null", 
      "name": "seresx9_conv1_bn_moving_var", 
      "attrs": {
        "__init__": "[\"one\", {}]", 
        "eps": "0.0001", 
        "fix_gamma": "False", 
        "use_global_stats": "True"
      }, 
      "inputs": []
    }, 
    {
      "op": "BatchNorm", 
      "name": "seresx9_conv1_bn", 
      "attrs": {
        "eps": "0.0001", 
        "fix_gamma": "False", 
        "use_global_stats": "True"
      }, 
      "inputs": [[329, 0, 0], [330, 0, 0], [331, 0, 0], [332, 0, 1], [333, 0, 1]]
    }, 
    {
      "op": "Activation", 
      "name": "seresx9_conv1_relu", 
      "attrs": {"act_type": "relu"}, 
      "inputs": [[334, 0, 0]]
    }, 
    {
      "op": "null", 
      "name": "seresx9_conv2_weight", 
      "attrs": {
        "kernel": "(3, 3)", 
        "no_bias": "True", 
        "num_filter": "512", 
        "num_group": "64", 
        "pad": "(1, 1)", 
        "stride": "(1, 1)"
      }, 
      "inputs": []
    }, 
    {
      "op": "Convolution", 
      "name": "seresx9_conv2", 
      "attrs": {
        "kernel": "(3, 3)", 
        "no_bias": "True", 
        "num_filter": "512", 
        "num_group": "64", 
        "pad": "(1, 1)", 
        "stride": "(1, 1)"
      }, 
      "inputs": [[335, 0, 0], [336, 0, 0]]
    }, 
    {
      "op": "null", 
      "name": "seresx9_conv2_bn_gamma", 
      "attrs": {
        "eps": "0.0001", 
        "fix_gamma": "False", 
        "use_global_stats": "True"
      }, 
      "inputs": []
    }, 
    {
      "op": "null", 
      "name": "seresx9_conv2_bn_beta", 
      "attrs": {
        "eps": "0.0001", 
        "fix_gamma": "False", 
        "use_global_stats": "True"
      }, 
      "inputs": []
    }, 
    {
      "op": "null", 
      "name": "seresx9_conv2_bn_moving_mean", 
      "attrs": {
        "__init__": "[\"zero\", {}]", 
        "eps": "0.0001", 
        "fix_gamma": "False", 
        "use_global_stats": "True"
      }, 
      "inputs": []
    }, 
    {
      "op": "null", 
      "name": "seresx9_conv2_bn_moving_var", 
      "attrs": {
        "__init__": "[\"one\", {}]", 
        "eps": "0.0001", 
        "fix_gamma": "False", 
        "use_global_stats": "True"
      }, 
      "inputs": []
    }, 
    {
      "op": "BatchNorm", 
      "name": "seresx9_conv2_bn", 
      "attrs": {
        "eps": "0.0001", 
        "fix_gamma": "False", 
        "use_global_stats": "True"
      }, 
      "inputs": [[337, 0, 0], [338, 0, 0], [339, 0, 0], [340, 0, 1], [341, 0, 1]]
    }, 
    {
      "op": "Activation", 
      "name": "seresx9_conv2_relu", 
      "attrs": {"act_type": "relu"}, 
      "inputs": [[342, 0, 0]]
    }, 
    {
      "op": "null", 
      "name": "seresx9_conv3_weight", 
      "attrs": {
        "kernel": "(1, 1)", 
        "no_bias": "True", 
        "num_filter": "512", 
        "pad": "(0, 0)", 
        "stride": "(1, 1)"
      }, 
      "inputs": []
    }, 
    {
      "op": "Convolution", 
      "name": "seresx9_conv3", 
      "attrs": {
        "kernel": "(1, 1)", 
        "no_bias": "True", 
        "num_filter": "512", 
        "pad": "(0, 0)", 
        "stride": "(1, 1)"
      }, 
      "inputs": [[343, 0, 0], [344, 0, 0]]
    }, 
    {
      "op": "null", 
      "name": "seresx9_conv3_bn_gamma", 
      "attrs": {
        "eps": "1e-05", 
        "fix_gamma": "False", 
        "use_global_stats": "True"
      }, 
      "inputs": []
    }, 
    {
      "op": "null", 
      "name": "seresx9_conv3_bn_beta", 
      "attrs": {
        "eps": "1e-05", 
        "fix_gamma": "False", 
        "use_global_stats": "True"
      }, 
      "inputs": []
    }, 
    {
      "op": "null", 
      "name": "seresx9_conv3_bn_moving_mean", 
      "attrs": {
        "__init__": "[\"zero\", {}]", 
        "eps": "1e-05", 
        "fix_gamma": "False", 
        "use_global_stats": "True"
      }, 
      "inputs": []
    }, 
    {
      "op": "null", 
      "name": "seresx9_conv3_bn_moving_var", 
      "attrs": {
        "__init__": "[\"one\", {}]", 
        "eps": "1e-05", 
        "fix_gamma": "False", 
        "use_global_stats": "True"
      }, 
      "inputs": []
    }, 
    {
      "op": "BatchNorm", 
      "name": "seresx9_conv3_bn", 
      "attrs": {
        "eps": "1e-05", 
        "fix_gamma": "False", 
        "use_global_stats": "True"
      }, 
      "inputs": [[345, 0, 0], [346, 0, 0], [347, 0, 0], [348, 0, 1], [349, 0, 1]]
    }, 
    {
      "op": "Pooling", 
      "name": "seresx9_global_pool", 
      "attrs": {
        "global_pool": "True", 
        "kernel": "(7, 7)", 
        "pool_type": "avg", 
        "pooling_convention": "full"
      }, 
      "inputs": [[350, 0, 0]]
    }, 
    {
      "op": "null", 
      "name": "seresx9_down_weight", 
      "attrs": {
        "kernel": "(1, 1)", 
        "no_bias": "False", 
        "num_filter": "32", 
        "pad": "(0, 0)", 
        "stride": "(1, 1)"
      }, 
      "inputs": []
    }, 
    {
      "op": "null", 
      "name": "seresx9_down_bias", 
      "attrs": {
        "kernel": "(1, 1)", 
        "no_bias": "False", 
        "num_filter": "32", 
        "pad": "(0, 0)", 
        "stride": "(1, 1)"
      }, 
      "inputs": []
    }, 
    {
      "op": "Convolution", 
      "name": "seresx9_down", 
      "attrs": {
        "kernel": "(1, 1)", 
        "no_bias": "False", 
        "num_filter": "32", 
        "pad": "(0, 0)", 
        "stride": "(1, 1)"
      }, 
      "inputs": [[351, 0, 0], [352, 0, 0], [353, 0, 0]]
    }, 
    {
      "op": "Activation", 
      "name": "seresx9_down_relu", 
      "attrs": {"act_type": "relu"}, 
      "inputs": [[354, 0, 0]]
    }, 
    {
      "op": "null", 
      "name": "seresx9_up_weight", 
      "attrs": {
        "kernel": "(1, 1)", 
        "no_bias": "False", 
        "num_filter": "512", 
        "pad": "(0, 0)", 
        "stride": "(1, 1)"
      }, 
      "inputs": []
    }, 
    {
      "op": "null", 
      "name": "seresx9_up_bias", 
      "attrs": {
        "kernel": "(1, 1)", 
        "no_bias": "False", 
        "num_filter": "512", 
        "pad": "(0, 0)", 
        "stride": "(1, 1)"
      }, 
      "inputs": []
    }, 
    {
      "op": "Convolution", 
      "name": "seresx9_up", 
      "attrs": {
        "kernel": "(1, 1)", 
        "no_bias": "False", 
        "num_filter": "512", 
        "pad": "(0, 0)", 
        "stride": "(1, 1)"
      }, 
      "inputs": [[355, 0, 0], [356, 0, 0], [357, 0, 0]]
    }, 
    {
      "op": "Activation", 
      "name": "seresx9_up_sigmoid", 
      "attrs": {"act_type": "sigmoid"}, 
      "inputs": [[358, 0, 0]]
    }, 
    {
      "op": "Reshape", 
      "name": "reshape8", 
      "attrs": {"shape": "(-1, 512, 1, 1)"}, 
      "inputs": [[359, 0, 0]]
    }, 
    {
      "op": "broadcast_mul", 
      "name": "broadcast_mul8", 
      "inputs": [[350, 0, 0], [360, 0, 0]]
    }, 
    {
      "op": "broadcast_add", 
      "name": "seresx9", 
      "inputs": [[327, 0, 0], [361, 0, 0]]
    }, 
    {
      "op": "Activation", 
      "name": "seresx9_relu", 
      "attrs": {"act_type": "relu"}, 
      "inputs": [[362, 0, 0]]
    }, 
    {
      "op": "null", 
      "name": "seresx10_conv1_weight", 
      "attrs": {
        "kernel": "(1, 1)", 
        "no_bias": "True", 
        "num_filter": "256", 
        "num_group": "1", 
        "pad": "(0, 0)", 
        "stride": "(1, 1)"
      }, 
      "inputs": []
    }, 
    {
      "op": "Convolution", 
      "name": "seresx10_conv1", 
      "attrs": {
        "kernel": "(1, 1)", 
        "no_bias": "True", 
        "num_filter": "256", 
        "num_group": "1", 
        "pad": "(0, 0)", 
        "stride": "(1, 1)"
      }, 
      "inputs": [[363, 0, 0], [364, 0, 0]]
    }, 
    {
      "op": "null", 
      "name": "seresx10_conv1_bn_gamma", 
      "attrs": {
        "eps": "0.0001", 
        "fix_gamma": "False", 
        "use_global_stats": "True"
      }, 
      "inputs": []
    }, 
    {
      "op": "null", 
      "name": "seresx10_conv1_bn_beta", 
      "attrs": {
        "eps": "0.0001", 
        "fix_gamma": "False", 
        "use_global_stats": "True"
      }, 
      "inputs": []
    }, 
    {
      "op": "null", 
      "name": "seresx10_conv1_bn_moving_mean", 
      "attrs": {
        "__init__": "[\"zero\", {}]", 
        "eps": "0.0001", 
        "fix_gamma": "False", 
        "use_global_stats": "True"
      }, 
      "inputs": []
    }, 
    {
      "op": "null", 
      "name": "seresx10_conv1_bn_moving_var", 
      "attrs": {
        "__init__": "[\"one\", {}]", 
        "eps": "0.0001", 
        "fix_gamma": "False", 
        "use_global_stats": "True"
      }, 
      "inputs": []
    }, 
    {
      "op": "BatchNorm", 
      "name": "seresx10_conv1_bn", 
      "attrs": {
        "eps": "0.0001", 
        "fix_gamma": "False", 
        "use_global_stats": "True"
      }, 
      "inputs": [[365, 0, 0], [366, 0, 0], [367, 0, 0], [368, 0, 1], [369, 0, 1]]
    }, 
    {
      "op": "Activation", 
      "name": "seresx10_conv1_relu", 
      "attrs": {"act_type": "relu"}, 
      "inputs": [[370, 0, 0]]
    }, 
    {
      "op": "null", 
      "name": "seresx10_conv2_weight", 
      "attrs": {
        "kernel": "(3, 3)", 
        "no_bias": "True", 
        "num_filter": "512", 
        "num_group": "64", 
        "pad": "(1, 1)", 
        "stride": "(1, 1)"
      }, 
      "inputs": []
    }, 
    {
      "op": "Convolution", 
      "name": "seresx10_conv2", 
      "attrs": {
        "kernel": "(3, 3)", 
        "no_bias": "True", 
        "num_filter": "512", 
        "num_group": "64", 
        "pad": "(1, 1)", 
        "stride": "(1, 1)"
      }, 
      "inputs": [[371, 0, 0], [372, 0, 0]]
    }, 
    {
      "op": "null", 
      "name": "seresx10_conv2_bn_gamma", 
      "attrs": {
        "eps": "0.0001", 
        "fix_gamma": "False", 
        "use_global_stats": "True"
      }, 
      "inputs": []
    }, 
    {
      "op": "null", 
      "name": "seresx10_conv2_bn_beta", 
      "attrs": {
        "eps": "0.0001", 
        "fix_gamma": "False", 
        "use_global_stats": "True"
      }, 
      "inputs": []
    }, 
    {
      "op": "null", 
      "name": "seresx10_conv2_bn_moving_mean", 
      "attrs": {
        "__init__": "[\"zero\", {}]", 
        "eps": "0.0001", 
        "fix_gamma": "False", 
        "use_global_stats": "True"
      }, 
      "inputs": []
    }, 
    {
      "op": "null", 
      "name": "seresx10_conv2_bn_moving_var", 
      "attrs": {
        "__init__": "[\"one\", {}]", 
        "eps": "0.0001", 
        "fix_gamma": "False", 
        "use_global_stats": "True"
      }, 
      "inputs": []
    }, 
    {
      "op": "BatchNorm", 
      "name": "seresx10_conv2_bn", 
      "attrs": {
        "eps": "0.0001", 
        "fix_gamma": "False", 
        "use_global_stats": "True"
      }, 
      "inputs": [[373, 0, 0], [374, 0, 0], [375, 0, 0], [376, 0, 1], [377, 0, 1]]
    }, 
    {
      "op": "Activation", 
      "name": "seresx10_conv2_relu", 
      "attrs": {"act_type": "relu"}, 
      "inputs": [[378, 0, 0]]
    }, 
    {
      "op": "null", 
      "name": "seresx10_conv3_weight", 
      "attrs": {
        "kernel": "(1, 1)", 
        "no_bias": "True", 
        "num_filter": "512", 
        "pad": "(0, 0)", 
        "stride": "(1, 1)"
      }, 
      "inputs": []
    }, 
    {
      "op": "Convolution", 
      "name": "seresx10_conv3", 
      "attrs": {
        "kernel": "(1, 1)", 
        "no_bias": "True", 
        "num_filter": "512", 
        "pad": "(0, 0)", 
        "stride": "(1, 1)"
      }, 
      "inputs": [[379, 0, 0], [380, 0, 0]]
    }, 
    {
      "op": "null", 
      "name": "seresx10_conv3_bn_gamma", 
      "attrs": {
        "eps": "1e-05", 
        "fix_gamma": "False", 
        "use_global_stats": "True"
      }, 
      "inputs": []
    }, 
    {
      "op": "null", 
      "name": "seresx10_conv3_bn_beta", 
      "attrs": {
        "eps": "1e-05", 
        "fix_gamma": "False", 
        "use_global_stats": "True"
      }, 
      "inputs": []
    }, 
    {
      "op": "null", 
      "name": "seresx10_conv3_bn_moving_mean", 
      "attrs": {
        "__init__": "[\"zero\", {}]", 
        "eps": "1e-05", 
        "fix_gamma": "False", 
        "use_global_stats": "True"
      }, 
      "inputs": []
    }, 
    {
      "op": "null", 
      "name": "seresx10_conv3_bn_moving_var", 
      "attrs": {
        "__init__": "[\"one\", {}]", 
        "eps": "1e-05", 
        "fix_gamma": "False", 
        "use_global_stats": "True"
      }, 
      "inputs": []
    }, 
    {
      "op": "BatchNorm", 
      "name": "seresx10_conv3_bn", 
      "attrs": {
        "eps": "1e-05", 
        "fix_gamma": "False", 
        "use_global_stats": "True"
      }, 
      "inputs": [[381, 0, 0], [382, 0, 0], [383, 0, 0], [384, 0, 1], [385, 0, 1]]
    }, 
    {
      "op": "Pooling", 
      "name": "seresx10_global_pool", 
      "attrs": {
        "global_pool": "True", 
        "kernel": "(7, 7)", 
        "pool_type": "avg", 
        "pooling_convention": "full"
      }, 
      "inputs": [[386, 0, 0]]
    }, 
    {
      "op": "null", 
      "name": "seresx10_down_weight", 
      "attrs": {
        "kernel": "(1, 1)", 
        "no_bias": "False", 
        "num_filter": "32", 
        "pad": "(0, 0)", 
        "stride": "(1, 1)"
      }, 
      "inputs": []
    }, 
    {
      "op": "null", 
      "name": "seresx10_down_bias", 
      "attrs": {
        "kernel": "(1, 1)", 
        "no_bias": "False", 
        "num_filter": "32", 
        "pad": "(0, 0)", 
        "stride": "(1, 1)"
      }, 
      "inputs": []
    }, 
    {
      "op": "Convolution", 
      "name": "seresx10_down", 
      "attrs": {
        "kernel": "(1, 1)", 
        "no_bias": "False", 
        "num_filter": "32", 
        "pad": "(0, 0)", 
        "stride": "(1, 1)"
      }, 
      "inputs": [[387, 0, 0], [388, 0, 0], [389, 0, 0]]
    }, 
    {
      "op": "Activation", 
      "name": "seresx10_down_relu", 
      "attrs": {"act_type": "relu"}, 
      "inputs": [[390, 0, 0]]
    }, 
    {
      "op": "null", 
      "name": "seresx10_up_weight", 
      "attrs": {
        "kernel": "(1, 1)", 
        "no_bias": "False", 
        "num_filter": "512", 
        "pad": "(0, 0)", 
        "stride": "(1, 1)"
      }, 
      "inputs": []
    }, 
    {
      "op": "null", 
      "name": "seresx10_up_bias", 
      "attrs": {
        "kernel": "(1, 1)", 
        "no_bias": "False", 
        "num_filter": "512", 
        "pad": "(0, 0)", 
        "stride": "(1, 1)"
      }, 
      "inputs": []
    }, 
    {
      "op": "Convolution", 
      "name": "seresx10_up", 
      "attrs": {
        "kernel": "(1, 1)", 
        "no_bias": "False", 
        "num_filter": "512", 
        "pad": "(0, 0)", 
        "stride": "(1, 1)"
      }, 
      "inputs": [[391, 0, 0], [392, 0, 0], [393, 0, 0]]
    }, 
    {
      "op": "Activation", 
      "name": "seresx10_up_sigmoid", 
      "attrs": {"act_type": "sigmoid"}, 
      "inputs": [[394, 0, 0]]
    }, 
    {
      "op": "Reshape", 
      "name": "reshape9", 
      "attrs": {"shape": "(-1, 512, 1, 1)"}, 
      "inputs": [[395, 0, 0]]
    }, 
    {
      "op": "broadcast_mul", 
      "name": "broadcast_mul9", 
      "inputs": [[386, 0, 0], [396, 0, 0]]
    }, 
    {
      "op": "broadcast_add", 
      "name": "seresx10", 
      "inputs": [[363, 0, 0], [397, 0, 0]]
    }, 
    {
      "op": "Activation", 
      "name": "seresx10_relu", 
      "attrs": {"act_type": "relu"}, 
      "inputs": [[398, 0, 0]]
    }, 
    {
      "op": "null", 
      "name": "seresx11_conv1_weight", 
      "attrs": {
        "kernel": "(1, 1)", 
        "no_bias": "True", 
        "num_filter": "256", 
        "num_group": "1", 
        "pad": "(0, 0)", 
        "stride": "(1, 1)"
      }, 
      "inputs": []
    }, 
    {
      "op": "Convolution", 
      "name": "seresx11_conv1", 
      "attrs": {
        "kernel": "(1, 1)", 
        "no_bias": "True", 
        "num_filter": "256", 
        "num_group": "1", 
        "pad": "(0, 0)", 
        "stride": "(1, 1)"
      }, 
      "inputs": [[399, 0, 0], [400, 0, 0]]
    }, 
    {
      "op": "null", 
      "name": "seresx11_conv1_bn_gamma", 
      "attrs": {
        "eps": "0.0001", 
        "fix_gamma": "False", 
        "use_global_stats": "True"
      }, 
      "inputs": []
    }, 
    {
      "op": "null", 
      "name": "seresx11_conv1_bn_beta", 
      "attrs": {
        "eps": "0.0001", 
        "fix_gamma": "False", 
        "use_global_stats": "True"
      }, 
      "inputs": []
    }, 
    {
      "op": "null", 
      "name": "seresx11_conv1_bn_moving_mean", 
      "attrs": {
        "__init__": "[\"zero\", {}]", 
        "eps": "0.0001", 
        "fix_gamma": "False", 
        "use_global_stats": "True"
      }, 
      "inputs": []
    }, 
    {
      "op": "null", 
      "name": "seresx11_conv1_bn_moving_var", 
      "attrs": {
        "__init__": "[\"one\", {}]", 
        "eps": "0.0001", 
        "fix_gamma": "False", 
        "use_global_stats": "True"
      }, 
      "inputs": []
    }, 
    {
      "op": "BatchNorm", 
      "name": "seresx11_conv1_bn", 
      "attrs": {
        "eps": "0.0001", 
        "fix_gamma": "False", 
        "use_global_stats": "True"
      }, 
      "inputs": [[401, 0, 0], [402, 0, 0], [403, 0, 0], [404, 0, 1], [405, 0, 1]]
    }, 
    {
      "op": "Activation", 
      "name": "seresx11_conv1_relu", 
      "attrs": {"act_type": "relu"}, 
      "inputs": [[406, 0, 0]]
    }, 
    {
      "op": "null", 
      "name": "seresx11_conv2_weight", 
      "attrs": {
        "kernel": "(3, 3)", 
        "no_bias": "True", 
        "num_filter": "512", 
        "num_group": "64", 
        "pad": "(1, 1)", 
        "stride": "(1, 1)"
      }, 
      "inputs": []
    }, 
    {
      "op": "Convolution", 
      "name": "seresx11_conv2", 
      "attrs": {
        "kernel": "(3, 3)", 
        "no_bias": "True", 
        "num_filter": "512", 
        "num_group": "64", 
        "pad": "(1, 1)", 
        "stride": "(1, 1)"
      }, 
      "inputs": [[407, 0, 0], [408, 0, 0]]
    }, 
    {
      "op": "null", 
      "name": "seresx11_conv2_bn_gamma", 
      "attrs": {
        "eps": "0.0001", 
        "fix_gamma": "False", 
        "use_global_stats": "True"
      }, 
      "inputs": []
    }, 
    {
      "op": "null", 
      "name": "seresx11_conv2_bn_beta", 
      "attrs": {
        "eps": "0.0001", 
        "fix_gamma": "False", 
        "use_global_stats": "True"
      }, 
      "inputs": []
    }, 
    {
      "op": "null", 
      "name": "seresx11_conv2_bn_moving_mean", 
      "attrs": {
        "__init__": "[\"zero\", {}]", 
        "eps": "0.0001", 
        "fix_gamma": "False", 
        "use_global_stats": "True"
      }, 
      "inputs": []
    }, 
    {
      "op": "null", 
      "name": "seresx11_conv2_bn_moving_var", 
      "attrs": {
        "__init__": "[\"one\", {}]", 
        "eps": "0.0001", 
        "fix_gamma": "False", 
        "use_global_stats": "True"
      }, 
      "inputs": []
    }, 
    {
      "op": "BatchNorm", 
      "name": "seresx11_conv2_bn", 
      "attrs": {
        "eps": "0.0001", 
        "fix_gamma": "False", 
        "use_global_stats": "True"
      }, 
      "inputs": [[409, 0, 0], [410, 0, 0], [411, 0, 0], [412, 0, 1], [413, 0, 1]]
    }, 
    {
      "op": "Activation", 
      "name": "seresx11_conv2_relu", 
      "attrs": {"act_type": "relu"}, 
      "inputs": [[414, 0, 0]]
    }, 
    {
      "op": "null", 
      "name": "seresx11_conv3_weight", 
      "attrs": {
        "kernel": "(1, 1)", 
        "no_bias": "True", 
        "num_filter": "512", 
        "pad": "(0, 0)", 
        "stride": "(1, 1)"
      }, 
      "inputs": []
    }, 
    {
      "op": "Convolution", 
      "name": "seresx11_conv3", 
      "attrs": {
        "kernel": "(1, 1)", 
        "no_bias": "True", 
        "num_filter": "512", 
        "pad": "(0, 0)", 
        "stride": "(1, 1)"
      }, 
      "inputs": [[415, 0, 0], [416, 0, 0]]
    }, 
    {
      "op": "null", 
      "name": "seresx11_conv3_bn_gamma", 
      "attrs": {
        "eps": "1e-05", 
        "fix_gamma": "False", 
        "use_global_stats": "True"
      }, 
      "inputs": []
    }, 
    {
      "op": "null", 
      "name": "seresx11_conv3_bn_beta", 
      "attrs": {
        "eps": "1e-05", 
        "fix_gamma": "False", 
        "use_global_stats": "True"
      }, 
      "inputs": []
    }, 
    {
      "op": "null", 
      "name": "seresx11_conv3_bn_moving_mean", 
      "attrs": {
        "__init__": "[\"zero\", {}]", 
        "eps": "1e-05", 
        "fix_gamma": "False", 
        "use_global_stats": "True"
      }, 
      "inputs": []
    }, 
    {
      "op": "null", 
      "name": "seresx11_conv3_bn_moving_var", 
      "attrs": {
        "__init__": "[\"one\", {}]", 
        "eps": "1e-05", 
        "fix_gamma": "False", 
        "use_global_stats": "True"
      }, 
      "inputs": []
    }, 
    {
      "op": "BatchNorm", 
      "name": "seresx11_conv3_bn", 
      "attrs": {
        "eps": "1e-05", 
        "fix_gamma": "False", 
        "use_global_stats": "True"
      }, 
      "inputs": [[417, 0, 0], [418, 0, 0], [419, 0, 0], [420, 0, 1], [421, 0, 1]]
    }, 
    {
      "op": "Pooling", 
      "name": "seresx11_global_pool", 
      "attrs": {
        "global_pool": "True", 
        "kernel": "(7, 7)", 
        "pool_type": "avg", 
        "pooling_convention": "full"
      }, 
      "inputs": [[422, 0, 0]]
    }, 
    {
      "op": "null", 
      "name": "seresx11_down_weight", 
      "attrs": {
        "kernel": "(1, 1)", 
        "no_bias": "False", 
        "num_filter": "32", 
        "pad": "(0, 0)", 
        "stride": "(1, 1)"
      }, 
      "inputs": []
    }, 
    {
      "op": "null", 
      "name": "seresx11_down_bias", 
      "attrs": {
        "kernel": "(1, 1)", 
        "no_bias": "False", 
        "num_filter": "32", 
        "pad": "(0, 0)", 
        "stride": "(1, 1)"
      }, 
      "inputs": []
    }, 
    {
      "op": "Convolution", 
      "name": "seresx11_down", 
      "attrs": {
        "kernel": "(1, 1)", 
        "no_bias": "False", 
        "num_filter": "32", 
        "pad": "(0, 0)", 
        "stride": "(1, 1)"
      }, 
      "inputs": [[423, 0, 0], [424, 0, 0], [425, 0, 0]]
    }, 
    {
      "op": "Activation", 
      "name": "seresx11_down_relu", 
      "attrs": {"act_type": "relu"}, 
      "inputs": [[426, 0, 0]]
    }, 
    {
      "op": "null", 
      "name": "seresx11_up_weight", 
      "attrs": {
        "kernel": "(1, 1)", 
        "no_bias": "False", 
        "num_filter": "512", 
        "pad": "(0, 0)", 
        "stride": "(1, 1)"
      }, 
      "inputs": []
    }, 
    {
      "op": "null", 
      "name": "seresx11_up_bias", 
      "attrs": {
        "kernel": "(1, 1)", 
        "no_bias": "False", 
        "num_filter": "512", 
        "pad": "(0, 0)", 
        "stride": "(1, 1)"
      }, 
      "inputs": []
    }, 
    {
      "op": "Convolution", 
      "name": "seresx11_up", 
      "attrs": {
        "kernel": "(1, 1)", 
        "no_bias": "False", 
        "num_filter": "512", 
        "pad": "(0, 0)", 
        "stride": "(1, 1)"
      }, 
      "inputs": [[427, 0, 0], [428, 0, 0], [429, 0, 0]]
    }, 
    {
      "op": "Activation", 
      "name": "seresx11_up_sigmoid", 
      "attrs": {"act_type": "sigmoid"}, 
      "inputs": [[430, 0, 0]]
    }, 
    {
      "op": "Reshape", 
      "name": "reshape10", 
      "attrs": {"shape": "(-1, 512, 1, 1)"}, 
      "inputs": [[431, 0, 0]]
    }, 
    {
      "op": "broadcast_mul", 
      "name": "broadcast_mul10", 
      "inputs": [[422, 0, 0], [432, 0, 0]]
    }, 
    {
      "op": "broadcast_add", 
      "name": "seresx11", 
      "inputs": [[399, 0, 0], [433, 0, 0]]
    }, 
    {
      "op": "Activation", 
      "name": "seresx11_relu", 
      "attrs": {"act_type": "relu"}, 
      "inputs": [[434, 0, 0]]
    }, 
    {
      "op": "null", 
      "name": "seresx12_conv1_weight", 
      "attrs": {
        "kernel": "(1, 1)", 
        "no_bias": "True", 
        "num_filter": "512", 
        "num_group": "1", 
        "pad": "(0, 0)", 
        "stride": "(1, 1)"
      }, 
      "inputs": []
    }, 
    {
      "op": "Convolution", 
      "name": "seresx12_conv1", 
      "attrs": {
        "kernel": "(1, 1)", 
        "no_bias": "True", 
        "num_filter": "512", 
        "num_group": "1", 
        "pad": "(0, 0)", 
        "stride": "(1, 1)"
      }, 
      "inputs": [[435, 0, 0], [436, 0, 0]]
    }, 
    {
      "op": "null", 
      "name": "seresx12_conv1_bn_gamma", 
      "attrs": {
        "eps": "0.0001", 
        "fix_gamma": "False", 
        "use_global_stats": "True"
      }, 
      "inputs": []
    }, 
    {
      "op": "null", 
      "name": "seresx12_conv1_bn_beta", 
      "attrs": {
        "eps": "0.0001", 
        "fix_gamma": "False", 
        "use_global_stats": "True"
      }, 
      "inputs": []
    }, 
    {
      "op": "null", 
      "name": "seresx12_conv1_bn_moving_mean", 
      "attrs": {
        "__init__": "[\"zero\", {}]", 
        "eps": "0.0001", 
        "fix_gamma": "False", 
        "use_global_stats": "True"
      }, 
      "inputs": []
    }, 
    {
      "op": "null", 
      "name": "seresx12_conv1_bn_moving_var", 
      "attrs": {
        "__init__": "[\"one\", {}]", 
        "eps": "0.0001", 
        "fix_gamma": "False", 
        "use_global_stats": "True"
      }, 
      "inputs": []
    }, 
    {
      "op": "BatchNorm", 
      "name": "seresx12_conv1_bn", 
      "attrs": {
        "eps": "0.0001", 
        "fix_gamma": "False", 
        "use_global_stats": "True"
      }, 
      "inputs": [[437, 0, 0], [438, 0, 0], [439, 0, 0], [440, 0, 1], [441, 0, 1]]
    }, 
    {
      "op": "Activation", 
      "name": "seresx12_conv1_relu", 
      "attrs": {"act_type": "relu"}, 
      "inputs": [[442, 0, 0]]
    }, 
    {
      "op": "null", 
      "name": "seresx12_conv2_weight", 
      "attrs": {
        "kernel": "(3, 3)", 
        "no_bias": "True", 
        "num_filter": "1024", 
        "num_group": "64", 
        "pad": "(1, 1)", 
        "stride": "(2, 2)"
      }, 
      "inputs": []
    }, 
    {
      "op": "Convolution", 
      "name": "seresx12_conv2", 
      "attrs": {
        "kernel": "(3, 3)", 
        "no_bias": "True", 
        "num_filter": "1024", 
        "num_group": "64", 
        "pad": "(1, 1)", 
        "stride": "(2, 2)"
      }, 
      "inputs": [[443, 0, 0], [444, 0, 0]]
    }, 
    {
      "op": "null", 
      "name": "seresx12_conv2_bn_gamma", 
      "attrs": {
        "eps": "0.0001", 
        "fix_gamma": "False", 
        "use_global_stats": "True"
      }, 
      "inputs": []
    }, 
    {
      "op": "null", 
      "name": "seresx12_conv2_bn_beta", 
      "attrs": {
        "eps": "0.0001", 
        "fix_gamma": "False", 
        "use_global_stats": "True"
      }, 
      "inputs": []
    }, 
    {
      "op": "null", 
      "name": "seresx12_conv2_bn_moving_mean", 
      "attrs": {
        "__init__": "[\"zero\", {}]", 
        "eps": "0.0001", 
        "fix_gamma": "False", 
        "use_global_stats": "True"
      }, 
      "inputs": []
    }, 
    {
      "op": "null", 
      "name": "seresx12_conv2_bn_moving_var", 
      "attrs": {
        "__init__": "[\"one\", {}]", 
        "eps": "0.0001", 
        "fix_gamma": "False", 
        "use_global_stats": "True"
      }, 
      "inputs": []
    }, 
    {
      "op": "BatchNorm", 
      "name": "seresx12_conv2_bn", 
      "attrs": {
        "eps": "0.0001", 
        "fix_gamma": "False", 
        "use_global_stats": "True"
      }, 
      "inputs": [[445, 0, 0], [446, 0, 0], [447, 0, 0], [448, 0, 1], [449, 0, 1]]
    }, 
    {
      "op": "Activation", 
      "name": "seresx12_conv2_relu", 
      "attrs": {"act_type": "relu"}, 
      "inputs": [[450, 0, 0]]
    }, 
    {
      "op": "null", 
      "name": "seresx12_conv3_weight", 
      "attrs": {
        "kernel": "(1, 1)", 
        "no_bias": "True", 
        "num_filter": "1024", 
        "pad": "(0, 0)", 
        "stride": "(1, 1)"
      }, 
      "inputs": []
    }, 
    {
      "op": "Convolution", 
      "name": "seresx12_conv3", 
      "attrs": {
        "kernel": "(1, 1)", 
        "no_bias": "True", 
        "num_filter": "1024", 
        "pad": "(0, 0)", 
        "stride": "(1, 1)"
      }, 
      "inputs": [[451, 0, 0], [452, 0, 0]]
    }, 
    {
      "op": "null", 
      "name": "seresx12_conv3_bn_gamma", 
      "attrs": {
        "eps": "1e-05", 
        "fix_gamma": "False", 
        "use_global_stats": "True"
      }, 
      "inputs": []
    }, 
    {
      "op": "null", 
      "name": "seresx12_conv3_bn_beta", 
      "attrs": {
        "eps": "1e-05", 
        "fix_gamma": "False", 
        "use_global_stats": "True"
      }, 
      "inputs": []
    }, 
    {
      "op": "null", 
      "name": "seresx12_conv3_bn_moving_mean", 
      "attrs": {
        "__init__": "[\"zero\", {}]", 
        "eps": "1e-05", 
        "fix_gamma": "False", 
        "use_global_stats": "True"
      }, 
      "inputs": []
    }, 
    {
      "op": "null", 
      "name": "seresx12_conv3_bn_moving_var", 
      "attrs": {
        "__init__": "[\"one\", {}]", 
        "eps": "1e-05", 
        "fix_gamma": "False", 
        "use_global_stats": "True"
      }, 
      "inputs": []
    }, 
    {
      "op": "BatchNorm", 
      "name": "seresx12_conv3_bn", 
      "attrs": {
        "eps": "1e-05", 
        "fix_gamma": "False", 
        "use_global_stats": "True"
      }, 
      "inputs": [[453, 0, 0], [454, 0, 0], [455, 0, 0], [456, 0, 1], [457, 0, 1]]
    }, 
    {
      "op": "Pooling", 
      "name": "seresx12_global_pool", 
      "attrs": {
        "global_pool": "True", 
        "kernel": "(7, 7)", 
        "pool_type": "avg", 
        "pooling_convention": "full"
      }, 
      "inputs": [[458, 0, 0]]
    }, 
    {
      "op": "null", 
      "name": "seresx12_down_weight", 
      "attrs": {
        "kernel": "(1, 1)", 
        "no_bias": "False", 
        "num_filter": "64", 
        "pad": "(0, 0)", 
        "stride": "(1, 1)"
      }, 
      "inputs": []
    }, 
    {
      "op": "null", 
      "name": "seresx12_down_bias", 
      "attrs": {
        "kernel": "(1, 1)", 
        "no_bias": "False", 
        "num_filter": "64", 
        "pad": "(0, 0)", 
        "stride": "(1, 1)"
      }, 
      "inputs": []
    }, 
    {
      "op": "Convolution", 
      "name": "seresx12_down", 
      "attrs": {
        "kernel": "(1, 1)", 
        "no_bias": "False", 
        "num_filter": "64", 
        "pad": "(0, 0)", 
        "stride": "(1, 1)"
      }, 
      "inputs": [[459, 0, 0], [460, 0, 0], [461, 0, 0]]
    }, 
    {
      "op": "Activation", 
      "name": "seresx12_down_relu", 
      "attrs": {"act_type": "relu"}, 
      "inputs": [[462, 0, 0]]
    }, 
    {
      "op": "null", 
      "name": "seresx12_up_weight", 
      "attrs": {
        "kernel": "(1, 1)", 
        "no_bias": "False", 
        "num_filter": "1024", 
        "pad": "(0, 0)", 
        "stride": "(1, 1)"
      }, 
      "inputs": []
    }, 
    {
      "op": "null", 
      "name": "seresx12_up_bias", 
      "attrs": {
        "kernel": "(1, 1)", 
        "no_bias": "False", 
        "num_filter": "1024", 
        "pad": "(0, 0)", 
        "stride": "(1, 1)"
      }, 
      "inputs": []
    }, 
    {
      "op": "Convolution", 
      "name": "seresx12_up", 
      "attrs": {
        "kernel": "(1, 1)", 
        "no_bias": "False", 
        "num_filter": "1024", 
        "pad": "(0, 0)", 
        "stride": "(1, 1)"
      }, 
      "inputs": [[463, 0, 0], [464, 0, 0], [465, 0, 0]]
    }, 
    {
      "op": "Activation", 
      "name": "seresx12_up_sigmoid", 
      "attrs": {"act_type": "sigmoid"}, 
      "inputs": [[466, 0, 0]]
    }, 
    {
      "op": "Reshape", 
      "name": "reshape11", 
      "attrs": {"shape": "(-1, 1024, 1, 1)"}, 
      "inputs": [[467, 0, 0]]
    }, 
    {
      "op": "broadcast_mul", 
      "name": "broadcast_mul11", 
      "inputs": [[458, 0, 0], [468, 0, 0]]
    }, 
    {
      "op": "null", 
      "name": "seresx12_match_conv_weight", 
      "attrs": {
        "kernel": "(3, 3)", 
        "no_bias": "True", 
        "num_filter": "1024", 
        "pad": "(1, 1)", 
        "stride": "(2, 2)"
      }, 
      "inputs": []
    }, 
    {
      "op": "Convolution", 
      "name": "seresx12_match_conv", 
      "attrs": {
        "kernel": "(3, 3)", 
        "no_bias": "True", 
        "num_filter": "1024", 
        "pad": "(1, 1)", 
        "stride": "(2, 2)"
      }, 
      "inputs": [[435, 0, 0], [470, 0, 0]]
    }, 
    {
      "op": "null", 
      "name": "seresx12_match_conv_bn_gamma", 
      "attrs": {
        "eps": "1e-05", 
        "fix_gamma": "False", 
        "use_global_stats": "True"
      }, 
      "inputs": []
    }, 
    {
      "op": "null", 
      "name": "seresx12_match_conv_bn_beta", 
      "attrs": {
        "eps": "1e-05", 
        "fix_gamma": "False", 
        "use_global_stats": "True"
      }, 
      "inputs": []
    }, 
    {
      "op": "null", 
      "name": "seresx12_match_conv_bn_moving_mean", 
      "attrs": {
        "__init__": "[\"zero\", {}]", 
        "eps": "1e-05", 
        "fix_gamma": "False", 
        "use_global_stats": "True"
      }, 
      "inputs": []
    }, 
    {
      "op": "null", 
      "name": "seresx12_match_conv_bn_moving_var", 
      "attrs": {
        "__init__": "[\"one\", {}]", 
        "eps": "1e-05", 
        "fix_gamma": "False", 
        "use_global_stats": "True"
      }, 
      "inputs": []
    }, 
    {
      "op": "BatchNorm", 
      "name": "seresx12_match_conv_bn", 
      "attrs": {
        "eps": "1e-05", 
        "fix_gamma": "False", 
        "use_global_stats": "True"
      }, 
      "inputs": [[471, 0, 0], [472, 0, 0], [473, 0, 0], [474, 0, 1], [475, 0, 1]]
    }, 
    {
      "op": "broadcast_add", 
      "name": "seresx12", 
      "inputs": [[469, 0, 0], [476, 0, 0]]
    }, 
    {
      "op": "Activation", 
      "name": "seresx12_relu", 
      "attrs": {"act_type": "relu"}, 
      "inputs": [[477, 0, 0]]
    }, 
    {
      "op": "null", 
      "name": "seresx13_conv1_weight", 
      "attrs": {
        "kernel": "(1, 1)", 
        "no_bias": "True", 
        "num_filter": "512", 
        "num_group": "1", 
        "pad": "(0, 0)", 
        "stride": "(1, 1)"
      }, 
      "inputs": []
    }, 
    {
      "op": "Convolution", 
      "name": "seresx13_conv1", 
      "attrs": {
        "kernel": "(1, 1)", 
        "no_bias": "True", 
        "num_filter": "512", 
        "num_group": "1", 
        "pad": "(0, 0)", 
        "stride": "(1, 1)"
      }, 
      "inputs": [[478, 0, 0], [479, 0, 0]]
    }, 
    {
      "op": "null", 
      "name": "seresx13_conv1_bn_gamma", 
      "attrs": {
        "eps": "0.0001", 
        "fix_gamma": "False", 
        "use_global_stats": "True"
      }, 
      "inputs": []
    }, 
    {
      "op": "null", 
      "name": "seresx13_conv1_bn_beta", 
      "attrs": {
        "eps": "0.0001", 
        "fix_gamma": "False", 
        "use_global_stats": "True"
      }, 
      "inputs": []
    }, 
    {
      "op": "null", 
      "name": "seresx13_conv1_bn_moving_mean", 
      "attrs": {
        "__init__": "[\"zero\", {}]", 
        "eps": "0.0001", 
        "fix_gamma": "False", 
        "use_global_stats": "True"
      }, 
      "inputs": []
    }, 
    {
      "op": "null", 
      "name": "seresx13_conv1_bn_moving_var", 
      "attrs": {
        "__init__": "[\"one\", {}]", 
        "eps": "0.0001", 
        "fix_gamma": "False", 
        "use_global_stats": "True"
      }, 
      "inputs": []
    }, 
    {
      "op": "BatchNorm", 
      "name": "seresx13_conv1_bn", 
      "attrs": {
        "eps": "0.0001", 
        "fix_gamma": "False", 
        "use_global_stats": "True"
      }, 
      "inputs": [[480, 0, 0], [481, 0, 0], [482, 0, 0], [483, 0, 1], [484, 0, 1]]
    }, 
    {
      "op": "Activation", 
      "name": "seresx13_conv1_relu", 
      "attrs": {"act_type": "relu"}, 
      "inputs": [[485, 0, 0]]
    }, 
    {
      "op": "null", 
      "name": "seresx13_conv2_weight", 
      "attrs": {
        "kernel": "(3, 3)", 
        "no_bias": "True", 
        "num_filter": "1024", 
        "num_group": "64", 
        "pad": "(1, 1)", 
        "stride": "(1, 1)"
      }, 
      "inputs": []
    }, 
    {
      "op": "Convolution", 
      "name": "seresx13_conv2", 
      "attrs": {
        "kernel": "(3, 3)", 
        "no_bias": "True", 
        "num_filter": "1024", 
        "num_group": "64", 
        "pad": "(1, 1)", 
        "stride": "(1, 1)"
      }, 
      "inputs": [[486, 0, 0], [487, 0, 0]]
    }, 
    {
      "op": "null", 
      "name": "seresx13_conv2_bn_gamma", 
      "attrs": {
        "eps": "0.0001", 
        "fix_gamma": "False", 
        "use_global_stats": "True"
      }, 
      "inputs": []
    }, 
    {
      "op": "null", 
      "name": "seresx13_conv2_bn_beta", 
      "attrs": {
        "eps": "0.0001", 
        "fix_gamma": "False", 
        "use_global_stats": "True"
      }, 
      "inputs": []
    }, 
    {
      "op": "null", 
      "name": "seresx13_conv2_bn_moving_mean", 
      "attrs": {
        "__init__": "[\"zero\", {}]", 
        "eps": "0.0001", 
        "fix_gamma": "False", 
        "use_global_stats": "True"
      }, 
      "inputs": []
    }, 
    {
      "op": "null", 
      "name": "seresx13_conv2_bn_moving_var", 
      "attrs": {
        "__init__": "[\"one\", {}]", 
        "eps": "0.0001", 
        "fix_gamma": "False", 
        "use_global_stats": "True"
      }, 
      "inputs": []
    }, 
    {
      "op": "BatchNorm", 
      "name": "seresx13_conv2_bn", 
      "attrs": {
        "eps": "0.0001", 
        "fix_gamma": "False", 
        "use_global_stats": "True"
      }, 
      "inputs": [[488, 0, 0], [489, 0, 0], [490, 0, 0], [491, 0, 1], [492, 0, 1]]
    }, 
    {
      "op": "Activation", 
      "name": "seresx13_conv2_relu", 
      "attrs": {"act_type": "relu"}, 
      "inputs": [[493, 0, 0]]
    }, 
    {
      "op": "null", 
      "name": "seresx13_conv3_weight", 
      "attrs": {
        "kernel": "(1, 1)", 
        "no_bias": "True", 
        "num_filter": "1024", 
        "pad": "(0, 0)", 
        "stride": "(1, 1)"
      }, 
      "inputs": []
    }, 
    {
      "op": "Convolution", 
      "name": "seresx13_conv3", 
      "attrs": {
        "kernel": "(1, 1)", 
        "no_bias": "True", 
        "num_filter": "1024", 
        "pad": "(0, 0)", 
        "stride": "(1, 1)"
      }, 
      "inputs": [[494, 0, 0], [495, 0, 0]]
    }, 
    {
      "op": "null", 
      "name": "seresx13_conv3_bn_gamma", 
      "attrs": {
        "eps": "1e-05", 
        "fix_gamma": "False", 
        "use_global_stats": "True"
      }, 
      "inputs": []
    }, 
    {
      "op": "null", 
      "name": "seresx13_conv3_bn_beta", 
      "attrs": {
        "eps": "1e-05", 
        "fix_gamma": "False", 
        "use_global_stats": "True"
      }, 
      "inputs": []
    }, 
    {
      "op": "null", 
      "name": "seresx13_conv3_bn_moving_mean", 
      "attrs": {
        "__init__": "[\"zero\", {}]", 
        "eps": "1e-05", 
        "fix_gamma": "False", 
        "use_global_stats": "True"
      }, 
      "inputs": []
    }, 
    {
      "op": "null", 
      "name": "seresx13_conv3_bn_moving_var", 
      "attrs": {
        "__init__": "[\"one\", {}]", 
        "eps": "1e-05", 
        "fix_gamma": "False", 
        "use_global_stats": "True"
      }, 
      "inputs": []
    }, 
    {
      "op": "BatchNorm", 
      "name": "seresx13_conv3_bn", 
      "attrs": {
        "eps": "1e-05", 
        "fix_gamma": "False", 
        "use_global_stats": "True"
      }, 
      "inputs": [[496, 0, 0], [497, 0, 0], [498, 0, 0], [499, 0, 1], [500, 0, 1]]
    }, 
    {
      "op": "Pooling", 
      "name": "seresx13_global_pool", 
      "attrs": {
        "global_pool": "True", 
        "kernel": "(7, 7)", 
        "pool_type": "avg", 
        "pooling_convention": "full"
      }, 
      "inputs": [[501, 0, 0]]
    }, 
    {
      "op": "null", 
      "name": "seresx13_down_weight", 
      "attrs": {
        "kernel": "(1, 1)", 
        "no_bias": "False", 
        "num_filter": "64", 
        "pad": "(0, 0)", 
        "stride": "(1, 1)"
      }, 
      "inputs": []
    }, 
    {
      "op": "null", 
      "name": "seresx13_down_bias", 
      "attrs": {
        "kernel": "(1, 1)", 
        "no_bias": "False", 
        "num_filter": "64", 
        "pad": "(0, 0)", 
        "stride": "(1, 1)"
      }, 
      "inputs": []
    }, 
    {
      "op": "Convolution", 
      "name": "seresx13_down", 
      "attrs": {
        "kernel": "(1, 1)", 
        "no_bias": "False", 
        "num_filter": "64", 
        "pad": "(0, 0)", 
        "stride": "(1, 1)"
      }, 
      "inputs": [[502, 0, 0], [503, 0, 0], [504, 0, 0]]
    }, 
    {
      "op": "Activation", 
      "name": "seresx13_down_relu", 
      "attrs": {"act_type": "relu"}, 
      "inputs": [[505, 0, 0]]
    }, 
    {
      "op": "null", 
      "name": "seresx13_up_weight", 
      "attrs": {
        "kernel": "(1, 1)", 
        "no_bias": "False", 
        "num_filter": "1024", 
        "pad": "(0, 0)", 
        "stride": "(1, 1)"
      }, 
      "inputs": []
    }, 
    {
      "op": "null", 
      "name": "seresx13_up_bias", 
      "attrs": {
        "kernel": "(1, 1)", 
        "no_bias": "False", 
        "num_filter": "1024", 
        "pad": "(0, 0)", 
        "stride": "(1, 1)"
      }, 
      "inputs": []
    }, 
    {
      "op": "Convolution", 
      "name": "seresx13_up", 
      "attrs": {
        "kernel": "(1, 1)", 
        "no_bias": "False", 
        "num_filter": "1024", 
        "pad": "(0, 0)", 
        "stride": "(1, 1)"
      }, 
      "inputs": [[506, 0, 0], [507, 0, 0], [508, 0, 0]]
    }, 
    {
      "op": "Activation", 
      "name": "seresx13_up_sigmoid", 
      "attrs": {"act_type": "sigmoid"}, 
      "inputs": [[509, 0, 0]]
    }, 
    {
      "op": "Reshape", 
      "name": "reshape12", 
      "attrs": {"shape": "(-1, 1024, 1, 1)"}, 
      "inputs": [[510, 0, 0]]
    }, 
    {
      "op": "broadcast_mul", 
      "name": "broadcast_mul12", 
      "inputs": [[501, 0, 0], [511, 0, 0]]
    }, 
    {
      "op": "broadcast_add", 
      "name": "seresx13", 
      "inputs": [[478, 0, 0], [512, 0, 0]]
    }, 
    {
      "op": "Activation", 
      "name": "seresx13_relu", 
      "attrs": {"act_type": "relu"}, 
      "inputs": [[513, 0, 0]]
    }, 
    {
      "op": "null", 
      "name": "seresx14_conv1_weight", 
      "attrs": {
        "kernel": "(1, 1)", 
        "no_bias": "True", 
        "num_filter": "512", 
        "num_group": "1", 
        "pad": "(0, 0)", 
        "stride": "(1, 1)"
      }, 
      "inputs": []
    }, 
    {
      "op": "Convolution", 
      "name": "seresx14_conv1", 
      "attrs": {
        "kernel": "(1, 1)", 
        "no_bias": "True", 
        "num_filter": "512", 
        "num_group": "1", 
        "pad": "(0, 0)", 
        "stride": "(1, 1)"
      }, 
      "inputs": [[514, 0, 0], [515, 0, 0]]
    }, 
    {
      "op": "null", 
      "name": "seresx14_conv1_bn_gamma", 
      "attrs": {
        "eps": "0.0001", 
        "fix_gamma": "False", 
        "use_global_stats": "True"
      }, 
      "inputs": []
    }, 
    {
      "op": "null", 
      "name": "seresx14_conv1_bn_beta", 
      "attrs": {
        "eps": "0.0001", 
        "fix_gamma": "False", 
        "use_global_stats": "True"
      }, 
      "inputs": []
    }, 
    {
      "op": "null", 
      "name": "seresx14_conv1_bn_moving_mean", 
      "attrs": {
        "__init__": "[\"zero\", {}]", 
        "eps": "0.0001", 
        "fix_gamma": "False", 
        "use_global_stats": "True"
      }, 
      "inputs": []
    }, 
    {
      "op": "null", 
      "name": "seresx14_conv1_bn_moving_var", 
      "attrs": {
        "__init__": "[\"one\", {}]", 
        "eps": "0.0001", 
        "fix_gamma": "False", 
        "use_global_stats": "True"
      }, 
      "inputs": []
    }, 
    {
      "op": "BatchNorm", 
      "name": "seresx14_conv1_bn", 
      "attrs": {
        "eps": "0.0001", 
        "fix_gamma": "False", 
        "use_global_stats": "True"
      }, 
      "inputs": [[516, 0, 0], [517, 0, 0], [518, 0, 0], [519, 0, 1], [520, 0, 1]]
    }, 
    {
      "op": "Activation", 
      "name": "seresx14_conv1_relu", 
      "attrs": {"act_type": "relu"}, 
      "inputs": [[521, 0, 0]]
    }, 
    {
      "op": "null", 
      "name": "seresx14_conv2_weight", 
      "attrs": {
        "kernel": "(3, 3)", 
        "no_bias": "True", 
        "num_filter": "1024", 
        "num_group": "64", 
        "pad": "(1, 1)", 
        "stride": "(1, 1)"
      }, 
      "inputs": []
    }, 
    {
      "op": "Convolution", 
      "name": "seresx14_conv2", 
      "attrs": {
        "kernel": "(3, 3)", 
        "no_bias": "True", 
        "num_filter": "1024", 
        "num_group": "64", 
        "pad": "(1, 1)", 
        "stride": "(1, 1)"
      }, 
      "inputs": [[522, 0, 0], [523, 0, 0]]
    }, 
    {
      "op": "null", 
      "name": "seresx14_conv2_bn_gamma", 
      "attrs": {
        "eps": "0.0001", 
        "fix_gamma": "False", 
        "use_global_stats": "True"
      }, 
      "inputs": []
    }, 
    {
      "op": "null", 
      "name": "seresx14_conv2_bn_beta", 
      "attrs": {
        "eps": "0.0001", 
        "fix_gamma": "False", 
        "use_global_stats": "True"
      }, 
      "inputs": []
    }, 
    {
      "op": "null", 
      "name": "seresx14_conv2_bn_moving_mean", 
      "attrs": {
        "__init__": "[\"zero\", {}]", 
        "eps": "0.0001", 
        "fix_gamma": "False", 
        "use_global_stats": "True"
      }, 
      "inputs": []
    }, 
    {
      "op": "null", 
      "name": "seresx14_conv2_bn_moving_var", 
      "attrs": {
        "__init__": "[\"one\", {}]", 
        "eps": "0.0001", 
        "fix_gamma": "False", 
        "use_global_stats": "True"
      }, 
      "inputs": []
    }, 
    {
      "op": "BatchNorm", 
      "name": "seresx14_conv2_bn", 
      "attrs": {
        "eps": "0.0001", 
        "fix_gamma": "False", 
        "use_global_stats": "True"
      }, 
      "inputs": [[524, 0, 0], [525, 0, 0], [526, 0, 0], [527, 0, 1], [528, 0, 1]]
    }, 
    {
      "op": "Activation", 
      "name": "seresx14_conv2_relu", 
      "attrs": {"act_type": "relu"}, 
      "inputs": [[529, 0, 0]]
    }, 
    {
      "op": "null", 
      "name": "seresx14_conv3_weight", 
      "attrs": {
        "kernel": "(1, 1)", 
        "no_bias": "True", 
        "num_filter": "1024", 
        "pad": "(0, 0)", 
        "stride": "(1, 1)"
      }, 
      "inputs": []
    }, 
    {
      "op": "Convolution", 
      "name": "seresx14_conv3", 
      "attrs": {
        "kernel": "(1, 1)", 
        "no_bias": "True", 
        "num_filter": "1024", 
        "pad": "(0, 0)", 
        "stride": "(1, 1)"
      }, 
      "inputs": [[530, 0, 0], [531, 0, 0]]
    }, 
    {
      "op": "null", 
      "name": "seresx14_conv3_bn_gamma", 
      "attrs": {
        "eps": "1e-05", 
        "fix_gamma": "False", 
        "use_global_stats": "True"
      }, 
      "inputs": []
    }, 
    {
      "op": "null", 
      "name": "seresx14_conv3_bn_beta", 
      "attrs": {
        "eps": "1e-05", 
        "fix_gamma": "False", 
        "use_global_stats": "True"
      }, 
      "inputs": []
    }, 
    {
      "op": "null", 
      "name": "seresx14_conv3_bn_moving_mean", 
      "attrs": {
        "__init__": "[\"zero\", {}]", 
        "eps": "1e-05", 
        "fix_gamma": "False", 
        "use_global_stats": "True"
      }, 
      "inputs": []
    }, 
    {
      "op": "null", 
      "name": "seresx14_conv3_bn_moving_var", 
      "attrs": {
        "__init__": "[\"one\", {}]", 
        "eps": "1e-05", 
        "fix_gamma": "False", 
        "use_global_stats": "True"
      }, 
      "inputs": []
    }, 
    {
      "op": "BatchNorm", 
      "name": "seresx14_conv3_bn", 
      "attrs": {
        "eps": "1e-05", 
        "fix_gamma": "False", 
        "use_global_stats": "True"
      }, 
      "inputs": [[532, 0, 0], [533, 0, 0], [534, 0, 0], [535, 0, 1], [536, 0, 1]]
    }, 
    {
      "op": "Pooling", 
      "name": "seresx14_global_pool", 
      "attrs": {
        "global_pool": "True", 
        "kernel": "(7, 7)", 
        "pool_type": "avg", 
        "pooling_convention": "full"
      }, 
      "inputs": [[537, 0, 0]]
    }, 
    {
      "op": "null", 
      "name": "seresx14_down_weight", 
      "attrs": {
        "kernel": "(1, 1)", 
        "no_bias": "False", 
        "num_filter": "64", 
        "pad": "(0, 0)", 
        "stride": "(1, 1)"
      }, 
      "inputs": []
    }, 
    {
      "op": "null", 
      "name": "seresx14_down_bias", 
      "attrs": {
        "kernel": "(1, 1)", 
        "no_bias": "False", 
        "num_filter": "64", 
        "pad": "(0, 0)", 
        "stride": "(1, 1)"
      }, 
      "inputs": []
    }, 
    {
      "op": "Convolution", 
      "name": "seresx14_down", 
      "attrs": {
        "kernel": "(1, 1)", 
        "no_bias": "False", 
        "num_filter": "64", 
        "pad": "(0, 0)", 
        "stride": "(1, 1)"
      }, 
      "inputs": [[538, 0, 0], [539, 0, 0], [540, 0, 0]]
    }, 
    {
      "op": "Activation", 
      "name": "seresx14_down_relu", 
      "attrs": {"act_type": "relu"}, 
      "inputs": [[541, 0, 0]]
    }, 
    {
      "op": "null", 
      "name": "seresx14_up_weight", 
      "attrs": {
        "kernel": "(1, 1)", 
        "no_bias": "False", 
        "num_filter": "1024", 
        "pad": "(0, 0)", 
        "stride": "(1, 1)"
      }, 
      "inputs": []
    }, 
    {
      "op": "null", 
      "name": "seresx14_up_bias", 
      "attrs": {
        "kernel": "(1, 1)", 
        "no_bias": "False", 
        "num_filter": "1024", 
        "pad": "(0, 0)", 
        "stride": "(1, 1)"
      }, 
      "inputs": []
    }, 
    {
      "op": "Convolution", 
      "name": "seresx14_up", 
      "attrs": {
        "kernel": "(1, 1)", 
        "no_bias": "False", 
        "num_filter": "1024", 
        "pad": "(0, 0)", 
        "stride": "(1, 1)"
      }, 
      "inputs": [[542, 0, 0], [543, 0, 0], [544, 0, 0]]
    }, 
    {
      "op": "Activation", 
      "name": "seresx14_up_sigmoid", 
      "attrs": {"act_type": "sigmoid"}, 
      "inputs": [[545, 0, 0]]
    }, 
    {
      "op": "Reshape", 
      "name": "reshape13", 
      "attrs": {"shape": "(-1, 1024, 1, 1)"}, 
      "inputs": [[546, 0, 0]]
    }, 
    {
      "op": "broadcast_mul", 
      "name": "broadcast_mul13", 
      "inputs": [[537, 0, 0], [547, 0, 0]]
    }, 
    {
      "op": "broadcast_add", 
      "name": "seresx14", 
      "inputs": [[514, 0, 0], [548, 0, 0]]
    }, 
    {
      "op": "Activation", 
      "name": "seresx14_relu", 
      "attrs": {"act_type": "relu"}, 
      "inputs": [[549, 0, 0]]
    }, 
    {
      "op": "null", 
      "name": "seresx15_conv1_weight", 
      "attrs": {
        "kernel": "(1, 1)", 
        "no_bias": "True", 
        "num_filter": "512", 
        "num_group": "1", 
        "pad": "(0, 0)", 
        "stride": "(1, 1)"
      }, 
      "inputs": []
    }, 
    {
      "op": "Convolution", 
      "name": "seresx15_conv1", 
      "attrs": {
        "kernel": "(1, 1)", 
        "no_bias": "True", 
        "num_filter": "512", 
        "num_group": "1", 
        "pad": "(0, 0)", 
        "stride": "(1, 1)"
      }, 
      "inputs": [[550, 0, 0], [551, 0, 0]]
    }, 
    {
      "op": "null", 
      "name": "seresx15_conv1_bn_gamma", 
      "attrs": {
        "eps": "0.0001", 
        "fix_gamma": "False", 
        "use_global_stats": "True"
      }, 
      "inputs": []
    }, 
    {
      "op": "null", 
      "name": "seresx15_conv1_bn_beta", 
      "attrs": {
        "eps": "0.0001", 
        "fix_gamma": "False", 
        "use_global_stats": "True"
      }, 
      "inputs": []
    }, 
    {
      "op": "null", 
      "name": "seresx15_conv1_bn_moving_mean", 
      "attrs": {
        "__init__": "[\"zero\", {}]", 
        "eps": "0.0001", 
        "fix_gamma": "False", 
        "use_global_stats": "True"
      }, 
      "inputs": []
    }, 
    {
      "op": "null", 
      "name": "seresx15_conv1_bn_moving_var", 
      "attrs": {
        "__init__": "[\"one\", {}]", 
        "eps": "0.0001", 
        "fix_gamma": "False", 
        "use_global_stats": "True"
      }, 
      "inputs": []
    }, 
    {
      "op": "BatchNorm", 
      "name": "seresx15_conv1_bn", 
      "attrs": {
        "eps": "0.0001", 
        "fix_gamma": "False", 
        "use_global_stats": "True"
      }, 
      "inputs": [[552, 0, 0], [553, 0, 0], [554, 0, 0], [555, 0, 1], [556, 0, 1]]
    }, 
    {
      "op": "Activation", 
      "name": "seresx15_conv1_relu", 
      "attrs": {"act_type": "relu"}, 
      "inputs": [[557, 0, 0]]
    }, 
    {
      "op": "null", 
      "name": "seresx15_conv2_weight", 
      "attrs": {
        "kernel": "(3, 3)", 
        "no_bias": "True", 
        "num_filter": "1024", 
        "num_group": "64", 
        "pad": "(1, 1)", 
        "stride": "(1, 1)"
      }, 
      "inputs": []
    }, 
    {
      "op": "Convolution", 
      "name": "seresx15_conv2", 
      "attrs": {
        "kernel": "(3, 3)", 
        "no_bias": "True", 
        "num_filter": "1024", 
        "num_group": "64", 
        "pad": "(1, 1)", 
        "stride": "(1, 1)"
      }, 
      "inputs": [[558, 0, 0], [559, 0, 0]]
    }, 
    {
      "op": "null", 
      "name": "seresx15_conv2_bn_gamma", 
      "attrs": {
        "eps": "0.0001", 
        "fix_gamma": "False", 
        "use_global_stats": "True"
      }, 
      "inputs": []
    }, 
    {
      "op": "null", 
      "name": "seresx15_conv2_bn_beta", 
      "attrs": {
        "eps": "0.0001", 
        "fix_gamma": "False", 
        "use_global_stats": "True"
      }, 
      "inputs": []
    }, 
    {
      "op": "null", 
      "name": "seresx15_conv2_bn_moving_mean", 
      "attrs": {
        "__init__": "[\"zero\", {}]", 
        "eps": "0.0001", 
        "fix_gamma": "False", 
        "use_global_stats": "True"
      }, 
      "inputs": []
    }, 
    {
      "op": "null", 
      "name": "seresx15_conv2_bn_moving_var", 
      "attrs": {
        "__init__": "[\"one\", {}]", 
        "eps": "0.0001", 
        "fix_gamma": "False", 
        "use_global_stats": "True"
      }, 
      "inputs": []
    }, 
    {
      "op": "BatchNorm", 
      "name": "seresx15_conv2_bn", 
      "attrs": {
        "eps": "0.0001", 
        "fix_gamma": "False", 
        "use_global_stats": "True"
      }, 
      "inputs": [[560, 0, 0], [561, 0, 0], [562, 0, 0], [563, 0, 1], [564, 0, 1]]
    }, 
    {
      "op": "Activation", 
      "name": "seresx15_conv2_relu", 
      "attrs": {"act_type": "relu"}, 
      "inputs": [[565, 0, 0]]
    }, 
    {
      "op": "null", 
      "name": "seresx15_conv3_weight", 
      "attrs": {
        "kernel": "(1, 1)", 
        "no_bias": "True", 
        "num_filter": "1024", 
        "pad": "(0, 0)", 
        "stride": "(1, 1)"
      }, 
      "inputs": []
    }, 
    {
      "op": "Convolution", 
      "name": "seresx15_conv3", 
      "attrs": {
        "kernel": "(1, 1)", 
        "no_bias": "True", 
        "num_filter": "1024", 
        "pad": "(0, 0)", 
        "stride": "(1, 1)"
      }, 
      "inputs": [[566, 0, 0], [567, 0, 0]]
    }, 
    {
      "op": "null", 
      "name": "seresx15_conv3_bn_gamma", 
      "attrs": {
        "eps": "1e-05", 
        "fix_gamma": "False", 
        "use_global_stats": "True"
      }, 
      "inputs": []
    }, 
    {
      "op": "null", 
      "name": "seresx15_conv3_bn_beta", 
      "attrs": {
        "eps": "1e-05", 
        "fix_gamma": "False", 
        "use_global_stats": "True"
      }, 
      "inputs": []
    }, 
    {
      "op": "null", 
      "name": "seresx15_conv3_bn_moving_mean", 
      "attrs": {
        "__init__": "[\"zero\", {}]", 
        "eps": "1e-05", 
        "fix_gamma": "False", 
        "use_global_stats": "True"
      }, 
      "inputs": []
    }, 
    {
      "op": "null", 
      "name": "seresx15_conv3_bn_moving_var", 
      "attrs": {
        "__init__": "[\"one\", {}]", 
        "eps": "1e-05", 
        "fix_gamma": "False", 
        "use_global_stats": "True"
      }, 
      "inputs": []
    }, 
    {
      "op": "BatchNorm", 
      "name": "seresx15_conv3_bn", 
      "attrs": {
        "eps": "1e-05", 
        "fix_gamma": "False", 
        "use_global_stats": "True"
      }, 
      "inputs": [[568, 0, 0], [569, 0, 0], [570, 0, 0], [571, 0, 1], [572, 0, 1]]
    }, 
    {
      "op": "Pooling", 
      "name": "seresx15_global_pool", 
      "attrs": {
        "global_pool": "True", 
        "kernel": "(7, 7)", 
        "pool_type": "avg", 
        "pooling_convention": "full"
      }, 
      "inputs": [[573, 0, 0]]
    }, 
    {
      "op": "null", 
      "name": "seresx15_down_weight", 
      "attrs": {
        "kernel": "(1, 1)", 
        "no_bias": "False", 
        "num_filter": "64", 
        "pad": "(0, 0)", 
        "stride": "(1, 1)"
      }, 
      "inputs": []
    }, 
    {
      "op": "null", 
      "name": "seresx15_down_bias", 
      "attrs": {
        "kernel": "(1, 1)", 
        "no_bias": "False", 
        "num_filter": "64", 
        "pad": "(0, 0)", 
        "stride": "(1, 1)"
      }, 
      "inputs": []
    }, 
    {
      "op": "Convolution", 
      "name": "seresx15_down", 
      "attrs": {
        "kernel": "(1, 1)", 
        "no_bias": "False", 
        "num_filter": "64", 
        "pad": "(0, 0)", 
        "stride": "(1, 1)"
      }, 
      "inputs": [[574, 0, 0], [575, 0, 0], [576, 0, 0]]
    }, 
    {
      "op": "Activation", 
      "name": "seresx15_down_relu", 
      "attrs": {"act_type": "relu"}, 
      "inputs": [[577, 0, 0]]
    }, 
    {
      "op": "null", 
      "name": "seresx15_up_weight", 
      "attrs": {
        "kernel": "(1, 1)", 
        "no_bias": "False", 
        "num_filter": "1024", 
        "pad": "(0, 0)", 
        "stride": "(1, 1)"
      }, 
      "inputs": []
    }, 
    {
      "op": "null", 
      "name": "seresx15_up_bias", 
      "attrs": {
        "kernel": "(1, 1)", 
        "no_bias": "False", 
        "num_filter": "1024", 
        "pad": "(0, 0)", 
        "stride": "(1, 1)"
      }, 
      "inputs": []
    }, 
    {
      "op": "Convolution", 
      "name": "seresx15_up", 
      "attrs": {
        "kernel": "(1, 1)", 
        "no_bias": "False", 
        "num_filter": "1024", 
        "pad": "(0, 0)", 
        "stride": "(1, 1)"
      }, 
      "inputs": [[578, 0, 0], [579, 0, 0], [580, 0, 0]]
    }, 
    {
      "op": "Activation", 
      "name": "seresx15_up_sigmoid", 
      "attrs": {"act_type": "sigmoid"}, 
      "inputs": [[581, 0, 0]]
    }, 
    {
      "op": "Reshape", 
      "name": "reshape14", 
      "attrs": {"shape": "(-1, 1024, 1, 1)"}, 
      "inputs": [[582, 0, 0]]
    }, 
    {
      "op": "broadcast_mul", 
      "name": "broadcast_mul14", 
      "inputs": [[573, 0, 0], [583, 0, 0]]
    }, 
    {
      "op": "broadcast_add", 
      "name": "seresx15", 
      "inputs": [[550, 0, 0], [584, 0, 0]]
    }, 
    {
      "op": "Activation", 
      "name": "seresx15_relu", 
      "attrs": {"act_type": "relu"}, 
      "inputs": [[585, 0, 0]]
    }, 
    {
      "op": "null", 
      "name": "seresx16_conv1_weight", 
      "attrs": {
        "kernel": "(1, 1)", 
        "no_bias": "True", 
        "num_filter": "512", 
        "num_group": "1", 
        "pad": "(0, 0)", 
        "stride": "(1, 1)"
      }, 
      "inputs": []
    }, 
    {
      "op": "Convolution", 
      "name": "seresx16_conv1", 
      "attrs": {
        "kernel": "(1, 1)", 
        "no_bias": "True", 
        "num_filter": "512", 
        "num_group": "1", 
        "pad": "(0, 0)", 
        "stride": "(1, 1)"
      }, 
      "inputs": [[586, 0, 0], [587, 0, 0]]
    }, 
    {
      "op": "null", 
      "name": "seresx16_conv1_bn_gamma", 
      "attrs": {
        "eps": "0.0001", 
        "fix_gamma": "False", 
        "use_global_stats": "True"
      }, 
      "inputs": []
    }, 
    {
      "op": "null", 
      "name": "seresx16_conv1_bn_beta", 
      "attrs": {
        "eps": "0.0001", 
        "fix_gamma": "False", 
        "use_global_stats": "True"
      }, 
      "inputs": []
    }, 
    {
      "op": "null", 
      "name": "seresx16_conv1_bn_moving_mean", 
      "attrs": {
        "__init__": "[\"zero\", {}]", 
        "eps": "0.0001", 
        "fix_gamma": "False", 
        "use_global_stats": "True"
      }, 
      "inputs": []
    }, 
    {
      "op": "null", 
      "name": "seresx16_conv1_bn_moving_var", 
      "attrs": {
        "__init__": "[\"one\", {}]", 
        "eps": "0.0001", 
        "fix_gamma": "False", 
        "use_global_stats": "True"
      }, 
      "inputs": []
    }, 
    {
      "op": "BatchNorm", 
      "name": "seresx16_conv1_bn", 
      "attrs": {
        "eps": "0.0001", 
        "fix_gamma": "False", 
        "use_global_stats": "True"
      }, 
      "inputs": [[588, 0, 0], [589, 0, 0], [590, 0, 0], [591, 0, 1], [592, 0, 1]]
    }, 
    {
      "op": "Activation", 
      "name": "seresx16_conv1_relu", 
      "attrs": {"act_type": "relu"}, 
      "inputs": [[593, 0, 0]]
    }, 
    {
      "op": "null", 
      "name": "seresx16_conv2_weight", 
      "attrs": {
        "kernel": "(3, 3)", 
        "no_bias": "True", 
        "num_filter": "1024", 
        "num_group": "64", 
        "pad": "(1, 1)", 
        "stride": "(1, 1)"
      }, 
      "inputs": []
    }, 
    {
      "op": "Convolution", 
      "name": "seresx16_conv2", 
      "attrs": {
        "kernel": "(3, 3)", 
        "no_bias": "True", 
        "num_filter": "1024", 
        "num_group": "64", 
        "pad": "(1, 1)", 
        "stride": "(1, 1)"
      }, 
      "inputs": [[594, 0, 0], [595, 0, 0]]
    }, 
    {
      "op": "null", 
      "name": "seresx16_conv2_bn_gamma", 
      "attrs": {
        "eps": "0.0001", 
        "fix_gamma": "False", 
        "use_global_stats": "True"
      }, 
      "inputs": []
    }, 
    {
      "op": "null", 
      "name": "seresx16_conv2_bn_beta", 
      "attrs": {
        "eps": "0.0001", 
        "fix_gamma": "False", 
        "use_global_stats": "True"
      }, 
      "inputs": []
    }, 
    {
      "op": "null", 
      "name": "seresx16_conv2_bn_moving_mean", 
      "attrs": {
        "__init__": "[\"zero\", {}]", 
        "eps": "0.0001", 
        "fix_gamma": "False", 
        "use_global_stats": "True"
      }, 
      "inputs": []
    }, 
    {
      "op": "null", 
      "name": "seresx16_conv2_bn_moving_var", 
      "attrs": {
        "__init__": "[\"one\", {}]", 
        "eps": "0.0001", 
        "fix_gamma": "False", 
        "use_global_stats": "True"
      }, 
      "inputs": []
    }, 
    {
      "op": "BatchNorm", 
      "name": "seresx16_conv2_bn", 
      "attrs": {
        "eps": "0.0001", 
        "fix_gamma": "False", 
        "use_global_stats": "True"
      }, 
      "inputs": [[596, 0, 0], [597, 0, 0], [598, 0, 0], [599, 0, 1], [600, 0, 1]]
    }, 
    {
      "op": "Activation", 
      "name": "seresx16_conv2_relu", 
      "attrs": {"act_type": "relu"}, 
      "inputs": [[601, 0, 0]]
    }, 
    {
      "op": "null", 
      "name": "seresx16_conv3_weight", 
      "attrs": {
        "kernel": "(1, 1)", 
        "no_bias": "True", 
        "num_filter": "1024", 
        "pad": "(0, 0)", 
        "stride": "(1, 1)"
      }, 
      "inputs": []
    }, 
    {
      "op": "Convolution", 
      "name": "seresx16_conv3", 
      "attrs": {
        "kernel": "(1, 1)", 
        "no_bias": "True", 
        "num_filter": "1024", 
        "pad": "(0, 0)", 
        "stride": "(1, 1)"
      }, 
      "inputs": [[602, 0, 0], [603, 0, 0]]
    }, 
    {
      "op": "null", 
      "name": "seresx16_conv3_bn_gamma", 
      "attrs": {
        "eps": "1e-05", 
        "fix_gamma": "False", 
        "use_global_stats": "True"
      }, 
      "inputs": []
    }, 
    {
      "op": "null", 
      "name": "seresx16_conv3_bn_beta", 
      "attrs": {
        "eps": "1e-05", 
        "fix_gamma": "False", 
        "use_global_stats": "True"
      }, 
      "inputs": []
    }, 
    {
      "op": "null", 
      "name": "seresx16_conv3_bn_moving_mean", 
      "attrs": {
        "__init__": "[\"zero\", {}]", 
        "eps": "1e-05", 
        "fix_gamma": "False", 
        "use_global_stats": "True"
      }, 
      "inputs": []
    }, 
    {
      "op": "null", 
      "name": "seresx16_conv3_bn_moving_var", 
      "attrs": {
        "__init__": "[\"one\", {}]", 
        "eps": "1e-05", 
        "fix_gamma": "False", 
        "use_global_stats": "True"
      }, 
      "inputs": []
    }, 
    {
      "op": "BatchNorm", 
      "name": "seresx16_conv3_bn", 
      "attrs": {
        "eps": "1e-05", 
        "fix_gamma": "False", 
        "use_global_stats": "True"
      }, 
      "inputs": [[604, 0, 0], [605, 0, 0], [606, 0, 0], [607, 0, 1], [608, 0, 1]]
    }, 
    {
      "op": "Pooling", 
      "name": "seresx16_global_pool", 
      "attrs": {
        "global_pool": "True", 
        "kernel": "(7, 7)", 
        "pool_type": "avg", 
        "pooling_convention": "full"
      }, 
      "inputs": [[609, 0, 0]]
    }, 
    {
      "op": "null", 
      "name": "seresx16_down_weight", 
      "attrs": {
        "kernel": "(1, 1)", 
        "no_bias": "False", 
        "num_filter": "64", 
        "pad": "(0, 0)", 
        "stride": "(1, 1)"
      }, 
      "inputs": []
    }, 
    {
      "op": "null", 
      "name": "seresx16_down_bias", 
      "attrs": {
        "kernel": "(1, 1)", 
        "no_bias": "False", 
        "num_filter": "64", 
        "pad": "(0, 0)", 
        "stride": "(1, 1)"
      }, 
      "inputs": []
    }, 
    {
      "op": "Convolution", 
      "name": "seresx16_down", 
      "attrs": {
        "kernel": "(1, 1)", 
        "no_bias": "False", 
        "num_filter": "64", 
        "pad": "(0, 0)", 
        "stride": "(1, 1)"
      }, 
      "inputs": [[610, 0, 0], [611, 0, 0], [612, 0, 0]]
    }, 
    {
      "op": "Activation", 
      "name": "seresx16_down_relu", 
      "attrs": {"act_type": "relu"}, 
      "inputs": [[613, 0, 0]]
    }, 
    {
      "op": "null", 
      "name": "seresx16_up_weight", 
      "attrs": {
        "kernel": "(1, 1)", 
        "no_bias": "False", 
        "num_filter": "1024", 
        "pad": "(0, 0)", 
        "stride": "(1, 1)"
      }, 
      "inputs": []
    }, 
    {
      "op": "null", 
      "name": "seresx16_up_bias", 
      "attrs": {
        "kernel": "(1, 1)", 
        "no_bias": "False", 
        "num_filter": "1024", 
        "pad": "(0, 0)", 
        "stride": "(1, 1)"
      }, 
      "inputs": []
    }, 
    {
      "op": "Convolution", 
      "name": "seresx16_up", 
      "attrs": {
        "kernel": "(1, 1)", 
        "no_bias": "False", 
        "num_filter": "1024", 
        "pad": "(0, 0)", 
        "stride": "(1, 1)"
      }, 
      "inputs": [[614, 0, 0], [615, 0, 0], [616, 0, 0]]
    }, 
    {
      "op": "Activation", 
      "name": "seresx16_up_sigmoid", 
      "attrs": {"act_type": "sigmoid"}, 
      "inputs": [[617, 0, 0]]
    }, 
    {
      "op": "Reshape", 
      "name": "reshape15", 
      "attrs": {"shape": "(-1, 1024, 1, 1)"}, 
      "inputs": [[618, 0, 0]]
    }, 
    {
      "op": "broadcast_mul", 
      "name": "broadcast_mul15", 
      "inputs": [[609, 0, 0], [619, 0, 0]]
    }, 
    {
      "op": "broadcast_add", 
      "name": "seresx16", 
      "inputs": [[586, 0, 0], [620, 0, 0]]
    }, 
    {
      "op": "Activation", 
      "name": "seresx16_relu", 
      "attrs": {"act_type": "relu"}, 
      "inputs": [[621, 0, 0]]
    }, 
    {
      "op": "null", 
      "name": "seresx17_conv1_weight", 
      "attrs": {
        "kernel": "(1, 1)", 
        "no_bias": "True", 
        "num_filter": "512", 
        "num_group": "1", 
        "pad": "(0, 0)", 
        "stride": "(1, 1)"
      }, 
      "inputs": []
    }, 
    {
      "op": "Convolution", 
      "name": "seresx17_conv1", 
      "attrs": {
        "kernel": "(1, 1)", 
        "no_bias": "True", 
        "num_filter": "512", 
        "num_group": "1", 
        "pad": "(0, 0)", 
        "stride": "(1, 1)"
      }, 
      "inputs": [[622, 0, 0], [623, 0, 0]]
    }, 
    {
      "op": "null", 
      "name": "seresx17_conv1_bn_gamma", 
      "attrs": {
        "eps": "0.0001", 
        "fix_gamma": "False", 
        "use_global_stats": "True"
      }, 
      "inputs": []
    }, 
    {
      "op": "null", 
      "name": "seresx17_conv1_bn_beta", 
      "attrs": {
        "eps": "0.0001", 
        "fix_gamma": "False", 
        "use_global_stats": "True"
      }, 
      "inputs": []
    }, 
    {
      "op": "null", 
      "name": "seresx17_conv1_bn_moving_mean", 
      "attrs": {
        "__init__": "[\"zero\", {}]", 
        "eps": "0.0001", 
        "fix_gamma": "False", 
        "use_global_stats": "True"
      }, 
      "inputs": []
    }, 
    {
      "op": "null", 
      "name": "seresx17_conv1_bn_moving_var", 
      "attrs": {
        "__init__": "[\"one\", {}]", 
        "eps": "0.0001", 
        "fix_gamma": "False", 
        "use_global_stats": "True"
      }, 
      "inputs": []
    }, 
    {
      "op": "BatchNorm", 
      "name": "seresx17_conv1_bn", 
      "attrs": {
        "eps": "0.0001", 
        "fix_gamma": "False", 
        "use_global_stats": "True"
      }, 
      "inputs": [[624, 0, 0], [625, 0, 0], [626, 0, 0], [627, 0, 1], [628, 0, 1]]
    }, 
    {
      "op": "Activation", 
      "name": "seresx17_conv1_relu", 
      "attrs": {"act_type": "relu"}, 
      "inputs": [[629, 0, 0]]
    }, 
    {
      "op": "null", 
      "name": "seresx17_conv2_weight", 
      "attrs": {
        "kernel": "(3, 3)", 
        "no_bias": "True", 
        "num_filter": "1024", 
        "num_group": "64", 
        "pad": "(1, 1)", 
        "stride": "(1, 1)"
      }, 
      "inputs": []
    }, 
    {
      "op": "Convolution", 
      "name": "seresx17_conv2", 
      "attrs": {
        "kernel": "(3, 3)", 
        "no_bias": "True", 
        "num_filter": "1024", 
        "num_group": "64", 
        "pad": "(1, 1)", 
        "stride": "(1, 1)"
      }, 
      "inputs": [[630, 0, 0], [631, 0, 0]]
    }, 
    {
      "op": "null", 
      "name": "seresx17_conv2_bn_gamma", 
      "attrs": {
        "eps": "0.0001", 
        "fix_gamma": "False", 
        "use_global_stats": "True"
      }, 
      "inputs": []
    }, 
    {
      "op": "null", 
      "name": "seresx17_conv2_bn_beta", 
      "attrs": {
        "eps": "0.0001", 
        "fix_gamma": "False", 
        "use_global_stats": "True"
      }, 
      "inputs": []
    }, 
    {
      "op": "null", 
      "name": "seresx17_conv2_bn_moving_mean", 
      "attrs": {
        "__init__": "[\"zero\", {}]", 
        "eps": "0.0001", 
        "fix_gamma": "False", 
        "use_global_stats": "True"
      }, 
      "inputs": []
    }, 
    {
      "op": "null", 
      "name": "seresx17_conv2_bn_moving_var", 
      "attrs": {
        "__init__": "[\"one\", {}]", 
        "eps": "0.0001", 
        "fix_gamma": "False", 
        "use_global_stats": "True"
      }, 
      "inputs": []
    }, 
    {
      "op": "BatchNorm", 
      "name": "seresx17_conv2_bn", 
      "attrs": {
        "eps": "0.0001", 
        "fix_gamma": "False", 
        "use_global_stats": "True"
      }, 
      "inputs": [[632, 0, 0], [633, 0, 0], [634, 0, 0], [635, 0, 1], [636, 0, 1]]
    }, 
    {
      "op": "Activation", 
      "name": "seresx17_conv2_relu", 
      "attrs": {"act_type": "relu"}, 
      "inputs": [[637, 0, 0]]
    }, 
    {
      "op": "null", 
      "name": "seresx17_conv3_weight", 
      "attrs": {
        "kernel": "(1, 1)", 
        "no_bias": "True", 
        "num_filter": "1024", 
        "pad": "(0, 0)", 
        "stride": "(1, 1)"
      }, 
      "inputs": []
    }, 
    {
      "op": "Convolution", 
      "name": "seresx17_conv3", 
      "attrs": {
        "kernel": "(1, 1)", 
…
        "kernel": "(3, 3)", 
        "no_bias": "True", 
        "num_filter": "2048", 
        "pad": "(1, 1)", 
        "stride": "(2, 2)"
      }, 
      "inputs": []
    }, 
    {
      "op": "Convolution", 
      "name": "seresx48_match_conv", 
      "attrs": {
        "kernel": "(3, 3)", 
        "no_bias": "True", 
        "num_filter": "2048", 
        "pad": "(1, 1)", 
        "stride": "(2, 2)"
      }, 
      "inputs": [[1738, 0, 0], [1773, 0, 0]]
    }, 
    {
      "op": "null", 
      "name": "seresx48_match_conv_bn_gamma", 
      "attrs": {
        "eps": "1e-05", 
        "fix_gamma": "False", 
        "use_global_stats": "True"
      }, 
      "inputs": []
    }, 
    {
      "op": "null", 
      "name": "seresx48_match_conv_bn_beta", 
      "attrs": {
        "eps": "1e-05", 
        "fix_gamma": "False", 
        "use_global_stats": "True"
      }, 
      "inputs": []
    }, 
    {
      "op": "null", 
      "name": "seresx48_match_conv_bn_moving_mean", 
      "attrs": {
        "__init__": "[\"zero\", {}]", 
        "eps": "1e-05", 
        "fix_gamma": "False", 
        "use_global_stats": "True"
      }, 
      "inputs": []
    }, 
    {
      "op": "null", 
      "name": "seresx48_match_conv_bn_moving_var", 
      "attrs": {
        "__init__": "[\"one\", {}]", 
        "eps": "1e-05", 
        "fix_gamma": "False", 
        "use_global_stats": "True"
      }, 
      "inputs": []
    }, 
    {
      "op": "BatchNorm", 
      "name": "seresx48_match_conv_bn", 
      "attrs": {
        "eps": "1e-05", 
        "fix_gamma": "False", 
        "use_global_stats": "True"
      }, 
      "inputs": [[1774, 0, 0], [1775, 0, 0], [1776, 0, 0], [1777, 0, 1], [1778, 0, 1]]
    }, 
    {
      "op": "broadcast_add", 
      "name": "seresx48", 
      "inputs": [[1772, 0, 0], [1779, 0, 0]]
    }, 
    {
      "op": "Activation", 
      "name": "seresx48_relu", 
      "attrs": {"act_type": "relu"}, 
      "inputs": [[1780, 0, 0]]
    }, 
    {
      "op": "null", 
      "name": "seresx49_conv1_weight", 
      "attrs": {
        "kernel": "(1, 1)", 
        "no_bias": "True", 
        "num_filter": "1024", 
        "num_group": "1", 
        "pad": "(0, 0)", 
        "stride": "(1, 1)"
      }, 
      "inputs": []
    }, 
    {
      "op": "Convolution", 
      "name": "seresx49_conv1", 
      "attrs": {
        "kernel": "(1, 1)", 
        "no_bias": "True", 
        "num_filter": "1024", 
        "num_group": "1", 
        "pad": "(0, 0)", 
        "stride": "(1, 1)"
      }, 
      "inputs": [[1781, 0, 0], [1782, 0, 0]]
    }, 
    {
      "op": "null", 
      "name": "seresx49_conv1_bn_gamma", 
      "attrs": {
        "eps": "0.0001", 
        "fix_gamma": "False", 
        "use_global_stats": "True"
      }, 
      "inputs": []
    }, 
    {
      "op": "null", 
      "name": "seresx49_conv1_bn_beta", 
      "attrs": {
        "eps": "0.0001", 
        "fix_gamma": "False", 
        "use_global_stats": "True"
      }, 
      "inputs": []
    }, 
    {
      "op": "null", 
      "name": "seresx49_conv1_bn_moving_mean", 
      "attrs": {
        "__init__": "[\"zero\", {}]", 
        "eps": "0.0001", 
        "fix_gamma": "False", 
        "use_global_stats": "True"
      }, 
      "inputs": []
    }, 
    {
      "op": "null", 
      "name": "seresx49_conv1_bn_moving_var", 
      "attrs": {
        "__init__": "[\"one\", {}]", 
        "eps": "0.0001", 
        "fix_gamma": "False", 
        "use_global_stats": "True"
      }, 
      "inputs": []
    }, 
    {
      "op": "BatchNorm", 
      "name": "seresx49_conv1_bn", 
      "attrs": {
        "eps": "0.0001", 
        "fix_gamma": "False", 
        "use_global_stats": "True"
      }, 
      "inputs": [[1783, 0, 0], [1784, 0, 0], [1785, 0, 0], [1786, 0, 1], [1787, 0, 1]]
    }, 
    {
      "op": "Activation", 
      "name": "seresx49_conv1_relu", 
      "attrs": {"act_type": "relu"}, 
      "inputs": [[1788, 0, 0]]
    }, 
    {
      "op": "null", 
      "name": "seresx49_conv2_weight", 
      "attrs": {
        "kernel": "(3, 3)", 
        "no_bias": "True", 
        "num_filter": "2048", 
        "num_group": "64", 
        "pad": "(1, 1)", 
        "stride": "(1, 1)"
      }, 
      "inputs": []
    }, 
    {
      "op": "Convolution", 
      "name": "seresx49_conv2", 
      "attrs": {
        "kernel": "(3, 3)", 
        "no_bias": "True", 
        "num_filter": "2048", 
        "num_group": "64", 
        "pad": "(1, 1)", 
        "stride": "(1, 1)"
      }, 
      "inputs": [[1789, 0, 0], [1790, 0, 0]]
    }, 
    {
      "op": "null", 
      "name": "seresx49_conv2_bn_gamma", 
      "attrs": {
        "eps": "0.0001", 
        "fix_gamma": "False", 
        "use_global_stats": "True"
      }, 
      "inputs": []
    }, 
    {
      "op": "null", 
      "name": "seresx49_conv2_bn_beta", 
      "attrs": {
        "eps": "0.0001", 
        "fix_gamma": "False", 
        "use_global_stats": "True"
      }, 
      "inputs": []
    }, 
    {
      "op": "null", 
      "name": "seresx49_conv2_bn_moving_mean", 
      "attrs": {
        "__init__": "[\"zero\", {}]", 
        "eps": "0.0001", 
        "fix_gamma": "False", 
        "use_global_stats": "True"
      }, 
      "inputs": []
    }, 
    {
      "op": "null", 
      "name": "seresx49_conv2_bn_moving_var", 
      "attrs": {
        "__init__": "[\"one\", {}]", 
        "eps": "0.0001", 
        "fix_gamma": "False", 
        "use_global_stats": "True"
      }, 
      "inputs": []
    }, 
    {
      "op": "BatchNorm", 
      "name": "seresx49_conv2_bn", 
      "attrs": {
        "eps": "0.0001", 
        "fix_gamma": "False", 
        "use_global_stats": "True"
      }, 
      "inputs": [[1791, 0, 0], [1792, 0, 0], [1793, 0, 0], [1794, 0, 1], [1795, 0, 1]]
    }, 
    {
      "op": "Activation", 
      "name": "seresx49_conv2_relu", 
      "attrs": {"act_type": "relu"}, 
      "inputs": [[1796, 0, 0]]
    }, 
    {
      "op": "null", 
      "name": "seresx49_conv3_weight", 
      "attrs": {
        "kernel": "(1, 1)", 
        "no_bias": "True", 
        "num_filter": "2048", 
        "pad": "(0, 0)", 
        "stride": "(1, 1)"
      }, 
      "inputs": []
    }, 
    {
      "op": "Convolution", 
      "name": "seresx49_conv3", 
      "attrs": {
        "kernel": "(1, 1)", 
        "no_bias": "True", 
        "num_filter": "2048", 
        "pad": "(0, 0)", 
        "stride": "(1, 1)"
      }, 
      "inputs": [[1797, 0, 0], [1798, 0, 0]]
    }, 
    {
      "op": "null", 
      "name": "seresx49_conv3_bn_gamma", 
      "attrs": {
        "eps": "1e-05", 
        "fix_gamma": "False", 
        "use_global_stats": "True"
      }, 
      "inputs": []
    }, 
    {
      "op": "null", 
      "name": "seresx49_conv3_bn_beta", 
      "attrs": {
        "eps": "1e-05", 
        "fix_gamma": "False", 
        "use_global_stats": "True"
      }, 
      "inputs": []
    }, 
    {
      "op": "null", 
      "name": "seresx49_conv3_bn_moving_mean", 
      "attrs": {
        "__init__": "[\"zero\", {}]", 
        "eps": "1e-05", 
        "fix_gamma": "False", 
        "use_global_stats": "True"
      }, 
      "inputs": []
    }, 
    {
      "op": "null", 
      "name": "seresx49_conv3_bn_moving_var", 
      "attrs": {
        "__init__": "[\"one\", {}]", 
        "eps": "1e-05", 
        "fix_gamma": "False", 
        "use_global_stats": "True"
      }, 
      "inputs": []
    }, 
    {
      "op": "BatchNorm", 
      "name": "seresx49_conv3_bn", 
      "attrs": {
        "eps": "1e-05", 
        "fix_gamma": "False", 
        "use_global_stats": "True"
      }, 
      "inputs": [[1799, 0, 0], [1800, 0, 0], [1801, 0, 0], [1802, 0, 1], [1803, 0, 1]]
    }, 
    {
      "op": "Pooling", 
      "name": "seresx49_global_pool", 
      "attrs": {
        "global_pool": "True", 
        "kernel": "(7, 7)", 
        "pool_type": "avg", 
        "pooling_convention": "full"
      }, 
      "inputs": [[1804, 0, 0]]
    }, 
    {
      "op": "null", 
      "name": "seresx49_down_weight", 
      "attrs": {
        "kernel": "(1, 1)", 
        "no_bias": "False", 
        "num_filter": "128", 
        "pad": "(0, 0)", 
        "stride": "(1, 1)"
      }, 
      "inputs": []
    }, 
    {
      "op": "null", 
      "name": "seresx49_down_bias", 
      "attrs": {
        "kernel": "(1, 1)", 
        "no_bias": "False", 
        "num_filter": "128", 
        "pad": "(0, 0)", 
        "stride": "(1, 1)"
      }, 
      "inputs": []
    }, 
    {
      "op": "Convolution", 
      "name": "seresx49_down", 
      "attrs": {
        "kernel": "(1, 1)", 
        "no_bias": "False", 
        "num_filter": "128", 
        "pad": "(0, 0)", 
        "stride": "(1, 1)"
      }, 
      "inputs": [[1805, 0, 0], [1806, 0, 0], [1807, 0, 0]]
    }, 
    {
      "op": "Activation", 
      "name": "seresx49_down_relu", 
      "attrs": {"act_type": "relu"}, 
      "inputs": [[1808, 0, 0]]
    }, 
    {
      "op": "null", 
      "name": "seresx49_up_weight", 
      "attrs": {
        "kernel": "(1, 1)", 
        "no_bias": "False", 
        "num_filter": "2048", 
        "pad": "(0, 0)", 
        "stride": "(1, 1)"
      }, 
      "inputs": []
    }, 
    {
      "op": "null", 
      "name": "seresx49_up_bias", 
      "attrs": {
        "kernel": "(1, 1)", 
        "no_bias": "False", 
        "num_filter": "2048", 
        "pad": "(0, 0)", 
        "stride": "(1, 1)"
      }, 
      "inputs": []
    }, 
    {
      "op": "Convolution", 
      "name": "seresx49_up", 
      "attrs": {
        "kernel": "(1, 1)", 
        "no_bias": "False", 
        "num_filter": "2048", 
        "pad": "(0, 0)", 
        "stride": "(1, 1)"
      }, 
      "inputs": [[1809, 0, 0], [1810, 0, 0], [1811, 0, 0]]
    }, 
    {
      "op": "Activation", 
      "name": "seresx49_up_sigmoid", 
      "attrs": {"act_type": "sigmoid"}, 
      "inputs": [[1812, 0, 0]]
    }, 
    {
      "op": "Reshape", 
      "name": "reshape48", 
      "attrs": {"shape": "(-1, 2048, 1, 1)"}, 
      "inputs": [[1813, 0, 0]]
    }, 
    {
      "op": "broadcast_mul", 
      "name": "broadcast_mul48", 
      "inputs": [[1804, 0, 0], [1814, 0, 0]]
    }, 
    {
      "op": "broadcast_add", 
      "name": "seresx49", 
      "inputs": [[1781, 0, 0], [1815, 0, 0]]
    }, 
    {
      "op": "Activation", 
      "name": "seresx49_relu", 
      "attrs": {"act_type": "relu"}, 
      "inputs": [[1816, 0, 0]]
    }, 
    {
      "op": "null", 
      "name": "seresx50_conv1_weight", 
      "attrs": {
        "kernel": "(1, 1)", 
        "no_bias": "True", 
        "num_filter": "1024", 
        "num_group": "1", 
        "pad": "(0, 0)", 
        "stride": "(1, 1)"
      }, 
      "inputs": []
    }, 
    {
      "op": "Convolution", 
      "name": "seresx50_conv1", 
      "attrs": {
        "kernel": "(1, 1)", 
        "no_bias": "True", 
        "num_filter": "1024", 
        "num_group": "1", 
        "pad": "(0, 0)", 
        "stride": "(1, 1)"
      }, 
      "inputs": [[1817, 0, 0], [1818, 0, 0]]
    }, 
    {
      "op": "null", 
      "name": "seresx50_conv1_bn_gamma", 
      "attrs": {
        "eps": "0.0001", 
        "fix_gamma": "False", 
        "use_global_stats": "True"
      }, 
      "inputs": []
    }, 
    {
      "op": "null", 
      "name": "seresx50_conv1_bn_beta", 
      "attrs": {
        "eps": "0.0001", 
        "fix_gamma": "False", 
        "use_global_stats": "True"
      }, 
      "inputs": []
    }, 
    {
      "op": "null", 
      "name": "seresx50_conv1_bn_moving_mean", 
      "attrs": {
        "__init__": "[\"zero\", {}]", 
        "eps": "0.0001", 
        "fix_gamma": "False", 
        "use_global_stats": "True"
      }, 
      "inputs": []
    }, 
    {
      "op": "null", 
      "name": "seresx50_conv1_bn_moving_var", 
      "attrs": {
        "__init__": "[\"one\", {}]", 
        "eps": "0.0001", 
        "fix_gamma": "False", 
        "use_global_stats": "True"
      }, 
      "inputs": []
    }, 
    {
      "op": "BatchNorm", 
      "name": "seresx50_conv1_bn", 
      "attrs": {
        "eps": "0.0001", 
        "fix_gamma": "False", 
        "use_global_stats": "True"
      }, 
      "inputs": [[1819, 0, 0], [1820, 0, 0], [1821, 0, 0], [1822, 0, 1], [1823, 0, 1]]
    }, 
    {
      "op": "Activation", 
      "name": "seresx50_conv1_relu", 
      "attrs": {"act_type": "relu"}, 
      "inputs": [[1824, 0, 0]]
    }, 
    {
      "op": "null", 
      "name": "seresx50_conv2_weight", 
      "attrs": {
        "kernel": "(3, 3)", 
        "no_bias": "True", 
        "num_filter": "2048", 
        "num_group": "64", 
        "pad": "(1, 1)", 
        "stride": "(1, 1)"
      }, 
      "inputs": []
    }, 
    {
      "op": "Convolution", 
      "name": "seresx50_conv2", 
      "attrs": {
        "kernel": "(3, 3)", 
        "no_bias": "True", 
        "num_filter": "2048", 
        "num_group": "64", 
        "pad": "(1, 1)", 
        "stride": "(1, 1)"
      }, 
      "inputs": [[1825, 0, 0], [1826, 0, 0]]
    }, 
    {
      "op": "null", 
      "name": "seresx50_conv2_bn_gamma", 
      "attrs": {
        "eps": "0.0001", 
        "fix_gamma": "False", 
        "use_global_stats": "True"
      }, 
      "inputs": []
    }, 
    {
      "op": "null", 
      "name": "seresx50_conv2_bn_beta", 
      "attrs": {
        "eps": "0.0001", 
        "fix_gamma": "False", 
        "use_global_stats": "True"
      }, 
      "inputs": []
    }, 
    {
      "op": "null", 
      "name": "seresx50_conv2_bn_moving_mean", 
      "attrs": {
        "__init__": "[\"zero\", {}]", 
        "eps": "0.0001", 
        "fix_gamma": "False", 
        "use_global_stats": "True"
      }, 
      "inputs": []
    }, 
    {
      "op": "null", 
      "name": "seresx50_conv2_bn_moving_var", 
      "attrs": {
        "__init__": "[\"one\", {}]", 
        "eps": "0.0001", 
        "fix_gamma": "False", 
        "use_global_stats": "True"
      }, 
      "inputs": []
    }, 
    {
      "op": "BatchNorm", 
      "name": "seresx50_conv2_bn", 
      "attrs": {
        "eps": "0.0001", 
        "fix_gamma": "False", 
        "use_global_stats": "True"
      }, 
      "inputs": [[1827, 0, 0], [1828, 0, 0], [1829, 0, 0], [1830, 0, 1], [1831, 0, 1]]
    }, 
    {
      "op": "Activation", 
      "name": "seresx50_conv2_relu", 
      "attrs": {"act_type": "relu"}, 
      "inputs": [[1832, 0, 0]]
    }, 
    {
      "op": "null", 
      "name": "seresx50_conv3_weight", 
      "attrs": {
        "kernel": "(1, 1)", 
        "no_bias": "True", 
        "num_filter": "2048", 
        "pad": "(0, 0)", 
        "stride": "(1, 1)"
      }, 
      "inputs": []
    }, 
    {
      "op": "Convolution", 
      "name": "seresx50_conv3", 
      "attrs": {
        "kernel": "(1, 1)", 
        "no_bias": "True", 
        "num_filter": "2048", 
        "pad": "(0, 0)", 
        "stride": "(1, 1)"
      }, 
      "inputs": [[1833, 0, 0], [1834, 0, 0]]
    }, 
    {
      "op": "null", 
      "name": "seresx50_conv3_bn_gamma", 
      "attrs": {
        "eps": "1e-05", 
        "fix_gamma": "False", 
        "use_global_stats": "True"
      }, 
      "inputs": []
    }, 
    {
      "op": "null", 
      "name": "seresx50_conv3_bn_beta", 
      "attrs": {
        "eps": "1e-05", 
        "fix_gamma": "False", 
        "use_global_stats": "True"
      }, 
      "inputs": []
    }, 
    {
      "op": "null", 
      "name": "seresx50_conv3_bn_moving_mean", 
      "attrs": {
        "__init__": "[\"zero\", {}]", 
        "eps": "1e-05", 
        "fix_gamma": "False", 
        "use_global_stats": "True"
      }, 
      "inputs": []
    }, 
    {
      "op": "null", 
      "name": "seresx50_conv3_bn_moving_var", 
      "attrs": {
        "__init__": "[\"one\", {}]", 
        "eps": "1e-05", 
        "fix_gamma": "False", 
        "use_global_stats": "True"
      }, 
      "inputs": []
    }, 
    {
      "op": "BatchNorm", 
      "name": "seresx50_conv3_bn", 
      "attrs": {
        "eps": "1e-05", 
        "fix_gamma": "False", 
        "use_global_stats": "True"
      }, 
      "inputs": [[1835, 0, 0], [1836, 0, 0], [1837, 0, 0], [1838, 0, 1], [1839, 0, 1]]
    }, 
    {
      "op": "Pooling", 
      "name": "seresx50_global_pool", 
      "attrs": {
        "global_pool": "True", 
        "kernel": "(7, 7)", 
        "pool_type": "avg", 
        "pooling_convention": "full"
      }, 
      "inputs": [[1840, 0, 0]]
    }, 
    {
      "op": "null", 
      "name": "seresx50_down_weight", 
      "attrs": {
        "kernel": "(1, 1)", 
        "no_bias": "False", 
        "num_filter": "128", 
        "pad": "(0, 0)", 
        "stride": "(1, 1)"
      }, 
      "inputs": []
    }, 
    {
      "op": "null", 
      "name": "seresx50_down_bias", 
      "attrs": {
        "kernel": "(1, 1)", 
        "no_bias": "False", 
        "num_filter": "128", 
        "pad": "(0, 0)", 
        "stride": "(1, 1)"
      }, 
      "inputs": []
    }, 
    {
      "op": "Convolution", 
      "name": "seresx50_down", 
      "attrs": {
        "kernel": "(1, 1)", 
        "no_bias": "False", 
        "num_filter": "128", 
        "pad": "(0, 0)", 
        "stride": "(1, 1)"
      }, 
      "inputs": [[1841, 0, 0], [1842, 0, 0], [1843, 0, 0]]
    }, 
    {
      "op": "Activation", 
      "name": "seresx50_down_relu", 
      "attrs": {"act_type": "relu"}, 
      "inputs": [[1844, 0, 0]]
    }, 
    {
      "op": "null", 
      "name": "seresx50_up_weight", 
      "attrs": {
        "kernel": "(1, 1)", 
        "no_bias": "False", 
        "num_filter": "2048", 
        "pad": "(0, 0)", 
        "stride": "(1, 1)"
      }, 
      "inputs": []
    }, 
    {
      "op": "null", 
      "name": "seresx50_up_bias", 
      "attrs": {
        "kernel": "(1, 1)", 
        "no_bias": "False", 
        "num_filter": "2048", 
        "pad": "(0, 0)", 
        "stride": "(1, 1)"
      }, 
      "inputs": []
    }, 
    {
      "op": "Convolution", 
      "name": "seresx50_up", 
      "attrs": {
        "kernel": "(1, 1)", 
        "no_bias": "False", 
        "num_filter": "2048", 
        "pad": "(0, 0)", 
        "stride": "(1, 1)"
      }, 
      "inputs": [[1845, 0, 0], [1846, 0, 0], [1847, 0, 0]]
    }, 
    {
      "op": "Activation", 
      "name": "seresx50_up_sigmoid", 
      "attrs": {"act_type": "sigmoid"}, 
      "inputs": [[1848, 0, 0]]
    }, 
    {
      "op": "Reshape", 
      "name": "reshape49", 
      "attrs": {"shape": "(-1, 2048, 1, 1)"}, 
      "inputs": [[1849, 0, 0]]
    }, 
    {
      "op": "broadcast_mul", 
      "name": "broadcast_mul49", 
      "inputs": [[1840, 0, 0], [1850, 0, 0]]
    }, 
    {
      "op": "broadcast_add", 
      "name": "seresx50", 
      "inputs": [[1817, 0, 0], [1851, 0, 0]]
    }, 
    {
      "op": "Activation", 
      "name": "seresx50_relu", 
      "attrs": {"act_type": "relu"}, 
      "inputs": [[1852, 0, 0]]
    }, 
    {
      "op": "Pooling", 
      "name": "avg_pool", 
      "attrs": {
        "cudnn_off": "False", 
        "global_pool": "True", 
        "kernel": "(7, 7)", 
        "pool_type": "avg", 
        "pooling_convention": "valid", 
        "stride": "(1, 1)"
      }, 
      "inputs": [[1853, 0, 0]]
    }, 
    {
      "op": "Dropout", 
      "name": "dropout0", 
      "attrs": {"p": "0.2"}, 
      "inputs": [[1854, 0, 0]]
    }, 
    {
      "op": "Flatten", 
      "name": "flatten", 
      "inputs": [[1855, 0, 0]]
    }, 
    {
      "op": "null", 
      "name": "classifier_weight", 
      "attrs": {"num_hidden": "1000"}, 
      "inputs": []
    }, 
    {
      "op": "null", 
      "name": "classifier_bias", 
      "attrs": {"num_hidden": "1000"}, 
      "inputs": []
    }, 
    {
      "op": "FullyConnected", 
      "name": "classifier", 
      "attrs": {"num_hidden": "1000"}, 
      "inputs": [[1856, 0, 0], [1857, 0, 0], [1858, 0, 0]]
    }, 
    {
      "op": "null", 
      "name": "softmax_label", 
      "inputs": []
    }, 
    {
      "op": "SoftmaxOutput", 
      "name": "softmax", 
      "inputs": [[1859, 0, 0], [1860, 0, 0]]
    }
  ], 
  "arg_nodes": [
    0, 
    1, 
    3, 
    4, 
    5, 
    6, 
    9, 
    11, 
    12, 
    13, 
    14, 
    17, 
    19, 
    20, 
    21, 
    22, 
    26, 
    28, 
    29, 
    30, 
    31, 
    34, 
    36, 
    37, 
    38, 
    39, 
    42, 
    44, 
    45, 
    46, 
    47, 
    50, 
    51, 
    54, 
    55, 
    60, 
    62, 
    63, 
    64, 
    65, 
    69, 
    71, 
    72, 
    73, 
    74, 
    77, 
    79, 
    80, 
    81, 
    82, 
    85, 
    87, 
    88, 
    89, 
    90, 
    93, 
    94, 
    97, 
    98, 
    105, 
    107, 
    108, 
    109, 
    110, 
    113, 
    115, 
    116, 
    117, 
    118, 
    121, 
    123, 
    124, 
    125, 
    126, 
    129, 
    130, 
    133, 
    134, 
    141, 
    143, 
    144, 
    145, 
    146, 
    149, 
    151, 
    152, 
    153, 
    154, 
    157, 
    159, 
    160, 
    161, 
    162, 
    165, 
    166, 
    169, 
    170, 
    175, 
    177, 
    178, 
    179, 
    180, 
    184, 
    186, 
    187, 
    188, 
    189, 
    192, 
    194, 
    195, 
    196, 
    197, 
    200, 
    202, 
    203, 
    204, 
    205, 
    208, 
    209, 
    212, 
    213, 
    220, 
    222, 
    223, 
    224, 
    225, 
    228, 
    230, 
    231, 
    232, 
    233, 
    236, 
    238, 
    239, 
    240, 
    241, 
    244, 
    245, 
    248, 
    249, 
    256, 
    258, 
    259, 
    260, 
    261, 
    264, 
    266, 
    267, 
    268, 
    269, 
    272, 
    274, 
    275, 
    276, 
    277, 
    280, 
    281, 
    284, 
    285, 
    292, 
    294, 
    295, 
    296, 
    297, 
    300, 
    302, 
    303, 
    304, 
    305, 
    308, 
    310, 
    311, 
    312, 
    313, 
    316, 
    317, 
    320, 
    321, 
    328, 
    330, 
    331, 
    332, 
    333, 
    336, 
    338, 
    339, 
    340, 
    341, 
    344, 
    346, 
    347, 
    348, 
    349, 
    352, 
    353, 
    356, 
    357, 
    364, 
    366, 
    367, 
    368, 
    369, 
    372, 
    374, 
    375, 
    376, 
    377, 
    380, 
    382, 
    383, 
    384, 
    385, 
    388, 
    389, 
    392, 
    393, 
    400, 
    402, 
    403, 
    404, 
    405, 
    408, 
    410, 
    411, 
    412, 
    413, 
    416, 
    418, 
    419, 
    420, 
    421, 
    424, 
    425, 
    428, 
    429, 
    436, 
    438, 
    439, 
    440, 
    441, 
    444, 
    446, 
    447, 
    448, 
    449, 
    452, 
    454, 
    455, 
    456, 
    457, 
    460, 
    461, 
    464, 
    465, 
    470, 
    472, 
    473, 
    474, 
    475, 
    479, 
    481, 
    482, 
    483, 
    484, 
    487, 
    489, 
    490, 
    491, 
    492, 
    495, 
    497, 
    498, 
    499, 
    500, 
    503, 
    504, 
    507, 
    508, 
    515, 
    517, 
    518, 
    519, 
    520, 
    523, 
    525, 
    526, 
    527, 
    528, 
    531, 
    533, 
    534, 
    535, 
    536, 
    539, 
    540, 
    543, 
    544, 
    551, 
    553, 
    554, 
    555, 
    556, 
    559, 
    561, 
    562, 
    563, 
    564, 
    567, 
    569, 
    570, 
    571, 
    572, 
    575, 
    576, 
    579, 
    580, 
    587, 
    589, 
    590, 
    591, 
    592, 
    595, 
    597, 
    598, 
    599, 
    600, 
    603, 
    605, 
    606, 
    607, 
    608, 
    611, 
    612, 
    615, 
    616, 
    623, 
    625, 
    626, 
    627, 
    628, 
    631, 
    633, 
    634, 
    635, 
    636, 
    639, 
    641, 
    642, 
    643, 
    644, 
    647, 
    648, 
    651, 
    652, 
    659, 
    661, 
    662, 
    663, 
    664, 
    667, 
    669, 
    670, 
    671, 
    672, 
    675, 
    677, 
    678, 
    679, 
    680, 
    683, 
    684, 
    687, 
    688, 
    695, 
    697, 
    698, 
    699, 
    700, 
    703, 
    705, 
    706, 
    707, 
    708, 
    711, 
    713, 
    714, 
    715, 
    716, 
    719, 
    720, 
    723, 
    724, 
    731, 
    733, 
    734, 
    735, 
    736, 
    739, 
    741, 
    742, 
    743, 
    744, 
    747, 
    749, 
    750, 
    751, 
    752, 
    755, 
    756, 
    759, 
    760, 
    767, 
    769, 
    770, 
    771, 
    772, 
    775, 
    777, 
    778, 
    779, 
    780, 
    783, 
    785, 
    786, 
    787, 
    788, 
    791, 
    792, 
    795, 
    796, 
    803, 
    805, 
    806, 
    807, 
    808, 
    811, 
    813, 
    814, 
    815, 
    816, 
    819, 
    821, 
    822, 
    823, 
    824, 
    827, 
    828, 
    831, 
    832, 
    839, 
    841, 
    842, 
    843, 
    844, 
    847, 
    849, 
    850, 
    851, 
    852, 
    855, 
    857, 
    858, 
    859, 
    860, 
    863, 
    864, 
    867, 
    868, 
    875, 
    877, 
    878, 
    879, 
    880, 
    883, 
    885, 
    886, 
    887, 
    888, 
    891, 
    893, 
    894, 
    895, 
    896, 
    899, 
    900, 
    903, 
    904, 
    911, 
    913, 
    914, 
    915, 
    916, 
    919, 
    921, 
    922, 
    923, 
    924, 
    927, 
    929, 
    930, 
    931, 
    932, 
    935, 
    936, 
    939, 
    940, 
    947, 
    949, 
    950, 
    951, 
    952, 
    955, 
    957, 
    958, 
    959, 
    960, 
    963, 
    965, 
    966, 
    967, 
    968, 
    971, 
    972, 
    975, 
    976, 
    983, 
    985, 
    986, 
    987, 
    988, 
    991, 
    993, 
    994, 
    995, 
    996, 
    999, 
    1001, 
    1002, 
    1003, 
    1004, 
    1007, 
    1008, 
    1011, 
    1012, 
    1019, 
    1021, 
    1022, 
    1023, 
    1024, 
    1027, 
    1029, 
    1030, 
    1031, 
    1032, 
    1035, 
    1037, 
    1038, 
    1039, 
    1040, 
    1043, 
    1044, 
    1047, 
    1048, 
    1055, 
    1057, 
    1058, 
    1059, 
    1060, 
    1063, 
    1065, 
    1066, 
    1067, 
    1068, 
    1071, 
    1073, 
    1074, 
    1075, 
    1076, 
    1079, 
    1080, 
    1083, 
    1084, 
    1091, 
    1093, 
    1094, 
    1095, 
    1096, 
    1099, 
    1101, 
    1102, 
    1103, 
    1104, 
    1107, 
    1109, 
    1110, 
    1111, 
    1112, 
    1115, 
    1116, 
    1119, 
    1120, 
    1127, 
    1129, 
    1130, 
    1131, 
    1132, 
    1135, 
    1137, 
    1138, 
    1139, 
    1140, 
    1143, 
    1145, 
    1146, 
    1147, 
    1148, 
    1151, 
    1152, 
    1155, 
    1156, 
    1163, 
    1165, 
    1166, 
    1167, 
    1168, 
    1171, 
    1173, 
    1174, 
    1175, 
    1176, 
    1179, 
    1181, 
    1182, 
    1183, 
    1184, 
    1187, 
    1188, 
    1191, 
    1192, 
    1199, 
    1201, 
    1202, 
    1203, 
    1204, 
    1207, 
    1209, 
    1210, 
    1211, 
    1212, 
    1215, 
    1217, 
    1218, 
    1219, 
    1220, 
    1223, 
    1224, 
    1227, 
    1228, 
    1235, 
    1237, 
    1238, 
    1239, 
    1240, 
    1243, 
    1245, 
    1246, 
    1247, 
    1248, 
    1251, 
    1253, 
    1254, 
    1255, 
    1256, 
    1259, 
    1260, 
    1263, 
    1264, 
    1271, 
    1273, 
    1274, 
    1275, 
    1276, 
    1279, 
    1281, 
    1282, 
    1283, 
    1284, 
    1287, 
    1289, 
    1290, 
    1291, 
    1292, 
    1295, 
    1296, 
    1299, 
    1300, 
    1307, 
    1309, 
    1310, 
    1311, 
    1312, 
    1315, 
    1317, 
    1318, 
    1319, 
    1320, 
    1323, 
    1325, 
    1326, 
    1327, 
    1328, 
    1331, 
    1332, 
    1335, 
    1336, 
    1343, 
    1345, 
    1346, 
    1347, 
    1348, 
    1351, 
    1353, 
    1354, 
    1355, 
    1356, 
    1359, 
    1361, 
    1362, 
    1363, 
    1364, 
    1367, 
    1368, 
    1371, 
    1372, 
    1379, 
    1381, 
    1382, 
    1383, 
    1384, 
    1387, 
    1389, 
    1390, 
    1391, 
    1392, 
    1395, 
    1397, 
    1398, 
    1399, 
    1400, 
    1403, 
    1404, 
    1407, 
    1408, 
    1415, 
    1417, 
    1418, 
    1419, 
    1420, 
    1423, 
    1425, 
    1426, 
    1427, 
    1428, 
    1431, 
    1433, 
    1434, 
    1435, 
    1436, 
    1439, 
    1440, 
    1443, 
    1444, 
    1451, 
    1453, 
    1454, 
    1455, 
    1456, 
    1459, 
    1461, 
    1462, 
    1463, 
    1464, 
    1467, 
    1469, 
    1470, 
    1471, 
    1472, 
    1475, 
    1476, 
    1479, 
    1480, 
    1487, 
    1489, 
    1490, 
    1491, 
    1492, 
    1495, 
    1497, 
    1498, 
    1499, 
    1500, 
    1503, 
    1505, 
    1506, 
    1507, 
    1508, 
    1511, 
    1512, 
    1515, 
    1516, 
    1523, 
    1525, 
    1526, 
    1527, 
    1528, 
    1531, 
    1533, 
    1534, 
    1535, 
    1536, 
    1539, 
    1541, 
    1542, 
    1543, 
    1544, 
    1547, 
    1548, 
    1551, 
    1552, 
    1559, 
    1561, 
    1562, 
    1563, 
    1564, 
    1567, 
    1569, 
    1570, 
    1571, 
    1572, 
    1575, 
    1577, 
    1578, 
    1579, 
    1580, 
    1583, 
    1584, 
    1587, 
    1588, 
    1595, 
    1597, 
    1598, 
    1599, 
    1600, 
    1603, 
    1605, 
    1606, 
    1607, 
    1608, 
    1611, 
    1613, 
    1614, 
    1615, 
    1616, 
    1619, 
    1620, 
    1623, 
    1624, 
    1631, 
    1633, 
    1634, 
    1635, 
    1636, 
    1639, 
    1641, 
    1642, 
    1643, 
    1644, 
    1647, 
    1649, 
    1650, 
    1651, 
    1652, 
    1655, 
    1656, 
    1659, 
    1660, 
    1667, 
    1669, 
    1670, 
    1671, 
    1672, 
    1675, 
    1677, 
    1678, 
    1679, 
    1680, 
    1683, 
    1685, 
    1686, 
    1687, 
    1688, 
    1691, 
    1692, 
    1695, 
    1696, 
    1703, 
    1705, 
    1706, 
    1707, 
    1708, 
    1711, 
    1713, 
    1714, 
    1715, 
    1716, 
    1719, 
    1721, 
    1722, 
    1723, 
    1724, 
    1727, 
    1728, 
    1731, 
    1732, 
    1739, 
    1741, 
    1742, 
    1743, 
    1744, 
    1747, 
    1749, 
    1750, 
    1751, 
    1752, 
    1755, 
    1757, 
    1758, 
    1759, 
    1760, 
    1763, 
    1764, 
    1767, 
    1768, 
    1773, 
    1775, 
    1776, 
    1777, 
    1778, 
    1782, 
    1784, 
    1785, 
    1786, 
    1787, 
    1790, 
    1792, 
    1793, 
    1794, 
    1795, 
    1798, 
    1800, 
    1801, 
    1802, 
    1803, 
    1806, 
    1807, 
    1810, 
    1811, 
    1818, 
    1820, 
    1821, 
    1822, 
    1823, 
    1826, 
    1828, 
    1829, 
    1830, 
    1831, 
    1834, 
    1836, 
    1837, 
    1838, 
    1839, 
    1842, 
    1843, 
    1846, 
    1847, 
    1857, 
    1858, 
    1860
  ], 
  "node_row_ptr": [
    0, 
    1, 
    2, 
    3, 
    4, 
    5, 
    6, 
    7, 
    10, 
    11, 
    12, 
    13, 
    14, 
    15, 
    16, 
    17, 
    20, 
    21, 
    22, 
    23, 
    24, 
    25, 
    26, 
    27, 
    30, 
    31, 
    32, 
    33, 
    34, 
    35, 
    36, 
    37, 
    38, 
    41, 
    42, 
    43, 
    44, 
    45, 
    46, 
    47, 
    48, 
    51, 
    52, 
    53, 
    54, 
    55, 
    56, 
    57, 
    58, 
    61, 
    62, 
    63, 
    64, 
    65, 
    66, 
    67, 
    68, 
    69, 
    70, 
    71, 
    72, 
    73, 
    74, 
    75, 
    76, 
    77, 
    78, 
    81, 
    82, 
    83, 
    84, 
    85, 
    86, 
    87, 
    88, 
    89, 
    92, 
    93, 
    94, 
    95, 
    96, 
    97, 
    98, 
    99, 
    102, 
    103, 
    104, 
    105, 
    106, 
    107, 
    108, 
    109, 
    112, 
    113, 
    114, 
    115, 
    116, 
    117, 
    118, 
    119, 
    120, 
    121, 
    122, 
    123, 
    124, 
    125, 
    126, 
    127, 
    128, 
    129, 
    130, 
    131, 
    134, 
    135, 
    136, 
    137, 
    138, 
    139, 
    140, 
    141, 
    144, 
    145, 
    146, 
    147, 
    148, 
    149, 
    150, 
    151, 
    154, 
    155, 
    156, 
    157, 
    158, 
    159, 
    160, 
    161, 
    162, 
    163, 
    164, 
    165, 
    166, 
    167, 
    168, 
    169, 
    170, 
    171, 
    172, 
    173, 
    176, 
    177, 
    178, 
    179, 
    180, 
    181, 
    182, 
    183, 
    186, 
    187, 
    188, 
    189, 
    190, 
    191, 
    192, 
    193, 
    196, 
    197, 
    198, 
    199, 
    200, 
    201, 
    202, 
    203, 
    204, 
    205, 
    206, 
    207, 
    208, 
    209, 
    210, 
    211, 
    212, 
    213, 
    216, 
    217, 
    218, 
    219, 
    220, 
    221, 
    222, 
    223, 
    224, 
    227, 
    228, 
    229, 
    230, 
    231, 
    232, 
    233, 
    234, 
    237, 
    238, 
    239, 
    240, 
    241, 
    242, 
    243, 
    244, 
    247, 
    248, 
    249, 
    250, 
    251, 
    252, 
    253, 
    254, 
    255, 
    256, 
    257, 
    258, 
    259, 
    260, 
    261, 
    262, 
    263, 
    264, 
    265, 
    266, 
    269, 
    270, 
    271, 
    272, 
    273, 
    274, 
    275, 
    276, 
    279, 
    280, 
    281, 
    282, 
    283, 
    284, 
    285, 
    286, 
    289, 
    290, 
    291, 
    292, 
    293, 
    294, 
    295, 
    296, 
    297, 
    298, 
    299, 
    300, 
    301, 
    302, 
    303, 
    304, 
    305, 
    306, 
    307, 
    308, 
    311, 
    312, 
    313, 
    314, 
    315, 
    316, 
    317, 
    318, 
    321, 
    322, 
    323, 
    324, 
    325, 
    326, 
    327, 
    328, 
    331, 
    332, 
    333, 
    334, 
    335, 
    336, 
    337, 
    338, 
    339, 
    340, 
    341, 
    342, 
    343, 
    344, 
    345, 
    346, 
    347, 
    348, 
    349, 
    350, 
    353, 
    354, 
    355, 
    356, 
    357, 
    358, 
    359, 
    360, 
    363, 
    364, 
    365, 
    366, 
    367, 
    368, 
    369, 
    370, 
    373, 
    374, 
    375, 
    376, 
    377, 
    378, 
    379, 
    380, 
    381, 
    382, 
    383, 
    384, 
    385, 
    386, 
    387, 
    388, 
    389, 
    390, 
    391, 
    392, 
    395, 
    396, 
    397, 
    398, 
    399, 
    400, 
    401, 
    402, 
    405, 
    406, 
    407, 
    408, 
    409, 
    410, 
    411, 
    412, 
    415, 
    416, 
    417, 
    418, 
    419, 
    420, 
    421, 
    422, 
    423, 
    424, 
    425, 
    426, 
    427, 
    428, 
    429, 
    430, 
    431, 
    432, 
    433, 
    434, 
    437, 
    438, 
    439, 
    440, 
    441, 
    442, 
    443, 
    444, 
    447, 
    448, 
    449, 
    450, 
    451, 
    452, 
    453, 
    454, 
    457, 
    458, 
    459, 
    460, 
    461, 
    462, 
    463, 
    464, 
    465, 
    466, 
    467, 
    468, 
    469, 
    470, 
    471, 
    472, 
    473, 
    474, 
    475, 
    476, 
    479, 
    480, 
    481, 
    482, 
    483, 
    484, 
    485, 
    486, 
    489, 
    490, 
    491, 
    492, 
    493, 
    494, 
    495, 
    496, 
    499, 
    500, 
    501, 
    502, 
    503, 
    504, 
    505, 
    506, 
    507, 
    508, 
    509, 
    510, 
    511, 
    512, 
    513, 
    514, 
    515, 
    516, 
    517, 
    518, 
    521, 
    522, 
    523, 
    524, 
    525, 
    526, 
    527, 
    528, 
    531, 
    532, 
    533, 
    534, 
    535, 
    536, 
    537, 
    538, 
    541, 
    542, 
    543, 
    544, 
    545, 
    546, 
    547, 
    548, 
    549, 
    550, 
    551, 
    552, 
    553, 
    554, 
    555, 
    556, 
    557, 
    558, 
    561, 
    562, 
    563, 
    564, 
    565, 
    566, 
    567, 
    568, 
    569, 
    572, 
    573, 
    574, 
    575, 
    576, 
    577, 
    578, 
    579, 
    582, 
    583, 
    584, 
    585, 
    586, 
    587, 
    588, 
    589, 
    592, 
    593, 
    594, 
    595, 
    596, 
    597, 
    598, 
    599, 
    600, 
    601, 
    602, 
    603, 
    604, 
    605, 
    606, 
    607, 
    608, 
    609, 
    610, 
    611, 
    614, 
    615, 
    616, 
    617, 
    618, 
    619, 
    620, 
    621, 
    624, 
    625, 
    626, 
    627, 
    628, 
    629, 
    630, 
    631, 
    634, 
    635, 
    636, 
    637, 
    638, 
    639, 
    640, 
    641, 
    642, 
    643, 
    644, 
    645, 
    646, 
    647, 
    648, 
    649, 
    650, 
    651, 
    652, 
    653, 
    656, 
    657, 
    658, 
    659, 
    660, 
    661, 
    662, 
    663, 
    666, 
    667, 
    668, 
    669, 
    670, 
    671, 
    672, 
    673, 
    676, 
    677, 
    678, 
    679, 
    680, 
    681, 
    682, 
    683, 
    684, 
    685, 
    686, 
    687, 
    688, 
    689, 
    690, 
    691, 
    692, 
    693, 
    694, 
    695, 
    698, 
    699, 
    700, 
    701, 
    702, 
    703, 
    704, 
    705, 
    708, 
    709, 
    710, 
    711, 
    712, 
    713, 
    714, 
    715, 
    718, 
    719, 
    720, 
    721, 
    722, 
    723, 
    724, 
    725, 
    726, 
    727, 
    728, 
    729, 
    730, 
    731, 
    732, 
    733, 
    734, 
    735, 
    736, 
    737, 
    740, 
    741, 
    742, 
    743, 
    744, 
    745, 
    746, 
    747, 
    750, 
    751, 
    752, 
    753, 
    754, 
    755, 
    756, 
    757, 
    760, 
    761, 
    762, 
    763, 
    764, 
    765, 
    766, 
    767, 
    768, 
    769, 
    770, 
    771, 
    772, 
    773, 
    774, 
    775, 
    776, 
    777, 
    778, 
    779, 
    782, 
    783, 
    784, 
    785, 
    786, 
    787, 
    788, 
    789, 
    792, 
    793, 
    794, 
    795, 
    796, 
    797, 
    798, 
    799, 
    802, 
    803, 
    804, 
    805, 
    806, 
    807, 
    808, 
    809, 
    810, 
    811, 
    812, 
    813, 
    814, 
    815, 
    816, 
    817, 
    818, 
    819, 
    820, 
    821, 
    824, 
    825, 
    826, 
    827, 
    828, 
    829, 
    830, 
    831, 
    834, 
    835, 
    836, 
    837, 
    838, 
    839, 
    840, 
    841, 
    844, 
    845, 
    846, 
    847, 
    848, 
    849, 
    850, 
    851, 
    852, 
    853, 
    854, 
    855, 
    856, 
    857, 
    858, 
    859, 
    860, 
    861, 
    862, 
    863, 
    866, 
    867, 
    868, 
    869, 
    870, 
    871, 
    872, 
    873, 
    876, 
    877, 
    878, 
    879, 
    880, 
    881, 
    882, 
    883, 
    886, 
    887, 
    888, 
    889, 
    890, 
    891, 
    892, 
    893, 
    894, 
    895, 
    896, 
    897, 
    898, 
    899, 
    900, 
    901, 
    902, 
    903, 
    904, 
    905, 
    908, 
    909, 
    910, 
    911, 
    912, 
    913, 
    914, 
    915, 
    918, 
    919, 
    920, 
    921, 
    922, 
    923, 
    924, 
    925, 
    928, 
    929, 
    930, 
    931, 
    932, 
    933, 
    934, 
    935, 
    936, 
    937, 
    938, 
    939, 
    940, 
    941, 
    942, 
    943, 
    944, 
    945, 
    946, 
    947, 
    950, 
    951, 
    952, 
    953, 
    954, 
    955, 
    956, 
    957, 
    960, 
    961, 
    962, 
    963, 
    964, 
    965, 
    966, 
    967, 
    970, 
    971, 
    972, 
    973, 
    974, 
    975, 
    976, 
    977, 
    978, 
    979, 
    980, 
    981, 
    982, 
    983, 
    984, 
    985, 
    986, 
    987, 
    988, 
    989, 
    992, 
    993, 
    994, 
    995, 
    996, 
    997, 
    998, 
    999, 
    1002, 
    1003, 
    1004, 
    1005, 
    1006, 
    1007, 
    1008, 
    1009, 
    1012, 
    1013, 
    1014, 
    1015, 
    1016, 
    1017, 
    1018, 
    1019, 
    1020, 
    1021, 
    1022, 
    1023, 
    1024, 
    1025, 
    1026, 
    1027, 
    1028, 
    1029, 
    1030, 
    1031, 
    1034, 
    1035, 
    1036, 
    1037, 
    1038, 
    1039, 
    1040, 
    1041, 
    1044, 
    1045, 
    1046, 
    1047, 
    1048, 
    1049, 
    1050, 
    1051, 
    1054, 
    1055, 
    1056, 
    1057, 
    1058, 
    1059, 
    1060, 
    1061, 
    1062, 
    1063, 
    1064, 
    1065, 
    1066, 
    1067, 
    1068, 
    1069, 
    1070, 
    1071, 
    1072, 
    1073, 
    1076, 
    1077, 
    1078, 
    1079, 
    1080, 
    1081, 
    1082, 
    1083, 
    1086, 
    1087, 
    1088, 
    1089, 
    1090, 
    1091, 
    1092, 
    1093, 
    1096, 
    1097, 
    1098, 
    1099, 
    1100, 
    1101, 
    1102, 
    1103, 
    1104, 
    1105, 
    1106, 
    1107, 
    1108, 
    1109, 
    1110, 
    1111, 
    1112, 
    1113, 
    1114, 
    1115, 
    1118, 
    1119, 
    1120, 
    1121, 
    1122, 
    1123, 
    1124, 
    1125, 
    1128, 
    1129, 
    1130, 
    1131, 
    1132, 
    1133, 
    1134, 
    1135, 
    1138, 
    1139, 
    1140, 
    1141, 
    1142, 
    1143, 
    1144, 
    1145, 
    1146, 
    1147, 
    1148, 
    1149, 
    1150, 
    1151, 
    1152, 
    1153, 
    1154, 
    1155, 
    1156, 
    1157, 
    1160, 
    1161, 
    1162, 
    1163, 
    1164, 
    1165, 
    1166, 
    1167, 
    1170, 
    1171, 
    1172, 
    1173, 
    1174, 
    1175, 
    1176, 
    1177, 
    1180, 
    1181, 
    1182, 
    1183, 
    1184, 
    1185, 
    1186, 
    1187, 
    1188, 
    1189, 
    1190, 
    1191, 
    1192, 
    1193, 
    1194, 
    1195, 
    1196, 
    1197, 
    1198, 
    1199, 
    1202, 
    1203, 
    1204, 
    1205, 
    1206, 
    1207, 
    1208, 
    1209, 
    1212, 
    1213, 
    1214, 
    1215, 
    1216, 
    1217, 
    1218, 
    1219, 
    1222, 
    1223, 
    1224, 
    1225, 
    1226, 
    1227, 
    1228, 
    1229, 
    1230, 
    1231, 
    1232, 
    1233, 
    1234, 
    1235, 
    1236, 
    1237, 
    1238, 
    1239, 
    1240, 
    1241, 
    1244, 
    1245, 
    1246, 
    1247, 
    1248, 
    1249, 
    1250, 
    1251, 
    1254, 
    1255, 
    1256, 
    1257, 
    1258, 
    1259, 
    1260, 
    1261, 
    1264, 
    1265, 
    1266, 
    1267, 
    1268, 
    1269, 
    1270, 
    1271, 
    1272, 
    1273, 
    1274, 
    1275, 
    1276, 
    1277, 
    1278, 
    1279, 
    1280, 
    1281, 
    1282, 
    1283, 
    1286, 
    1287, 
    1288, 
    1289, 
    1290, 
    1291, 
    1292, 
    1293, 
    1296, 
    1297, 
    1298, 
    1299, 
    1300, 
    1301, 
    1302, 
    1303, 
    1306, 
    1307, 
    1308, 
    1309, 
    1310, 
    1311, 
    1312, 
    1313, 
    1314, 
    1315, 
    1316, 
    1317, 
    1318, 
    1319, 
    1320, 
    1321, 
    1322, 
    1323, 
    1324, 
    1325, 
    1328, 
    1329, 
    1330, 
    1331, 
    1332, 
    1333, 
    1334, 
    1335, 
    1338, 
    1339, 
    1340, 
    1341, 
    1342, 
    1343, 
    1344, 
    1345, 
    1348, 
    1349, 
    1350, 
    1351, 
    1352, 
    1353, 
    1354, 
    1355, 
    1356, 
    1357, 
    1358, 
    1359, 
    1360, 
    1361, 
    1362, 
    1363, 
    1364, 
    1365, 
    1366, 
    1367, 
    1370, 
    1371, 
    1372, 
    1373, 
    1374, 
    1375, 
    1376, 
    1377, 
    1380, 
    1381, 
    1382, 
    1383, 
    1384, 
    1385, 
    1386, 
    1387, 
    1390, 
    1391, 
    1392, 
    1393, 
    1394, 
    1395, 
    1396, 
    1397, 
    1398, 
    1399, 
    1400, 
    1401, 
    1402, 
    1403, 
    1404, 
    1405, 
    1406, 
    1407, 
    1408, 
    1409, 
    1412, 
    1413, 
    1414, 
    1415, 
    1416, 
    1417, 
    1418, 
    1419, 
    1422, 
    1423, 
    1424, 
    1425, 
    1426, 
    1427, 
    1428, 
    1429, 
    1432, 
    1433, 
    1434, 
    1435, 
    1436, 
    1437, 
    1438, 
    1439, 
    1440, 
    1441, 
    1442, 
    1443, 
    1444, 
    1445, 
    1446, 
    1447, 
    1448, 
    1449, 
    1450, 
    1451, 
    1454, 
    1455, 
    1456, 
    1457, 
    1458, 
    1459, 
    1460, 
    1461, 
    1464, 
    1465, 
    1466, 
    1467, 
    1468, 
    1469, 
    1470, 
    1471, 
    1474, 
    1475, 
    1476, 
    1477, 
    1478, 
    1479, 
    1480, 
    1481, 
    1482, 
    1483, 
    1484, 
    1485, 
    1486, 
    1487, 
    1488, 
    1489, 
    1490, 
    1491, 
    1492, 
    1493, 
    1496, 
    1497, 
    1498, 
    1499, 
    1500, 
    1501, 
    1502, 
    1503, 
    1506, 
    1507, 
    1508, 
    1509, 
    1510, 
    1511, 
    1512, 
    1513, 
    1516, 
    1517, 
    1518, 
    1519, 
    1520, 
    1521, 
    1522, 
    1523, 
    1524, 
    1525, 
    1526, 
    1527, 
    1528, 
    1529, 
    1530, 
    1531, 
    1532, 
    1533, 
    1534, 
    1535, 
    1538, 
    1539, 
    1540, 
    1541, 
    1542, 
    1543, 
    1544, 
    1545, 
    1548, 
    1549, 
    1550, 
    1551, 
    1552, 
    1553, 
    1554, 
    1555, 
    1558, 
    1559, 
    1560, 
    1561, 
    1562, 
    1563, 
    1564, 
    1565, 
    1566, 
    1567, 
    1568, 
    1569, 
    1570, 
    1571, 
    1572, 
    1573, 
    1574, 
    1575, 
    1576, 
    1577, 
    1580, 
    1581, 
    1582, 
    1583, 
    1584, 
    1585, 
    1586, 
    1587, 
    1590, 
    1591, 
    1592, 
    1593, 
    1594, 
    1595, 
    1596, 
    1597, 
    1600, 
    1601, 
    1602, 
    1603, 
    1604, 
    1605, 
    1606, 
    1607, 
    1608, 
    1609, 
    1610, 
    1611, 
    1612, 
    1613, 
    1614, 
    1615, 
    1616, 
    1617, 
    1618, 
    1619, 
    1622, 
    1623, 
    1624, 
    1625, 
    1626, 
    1627, 
    1628, 
    1629, 
    1632, 
    1633, 
    1634, 
    1635, 
    1636, 
    1637, 
    1638, 
    1639, 
    1642, 
    1643, 
    1644, 
    1645, 
    1646, 
    1647, 
    1648, 
    1649, 
    1650, 
    1651, 
    1652, 
    1653, 
    1654, 
    1655, 
    1656, 
    1657, 
    1658, 
    1659, 
    1660, 
    1661, 
    1664, 
    1665, 
    1666, 
    1667, 
    1668, 
    1669, 
    1670, 
    1671, 
    1674, 
    1675, 
    1676, 
    1677, 
    1678, 
    1679, 
    1680, 
    1681, 
    1684, 
    1685, 
    1686, 
    1687, 
    1688, 
    1689, 
    1690, 
    1691, 
    1692, 
    1693, 
    1694, 
    1695, 
    1696, 
    1697, 
    1698, 
    1699, 
    1700, 
    1701, 
    1702, 
    1703, 
    1706, 
    1707, 
    1708, 
    1709, 
    1710, 
    1711, 
    1712, 
    1713, 
    1716, 
    1717, 
    1718, 
    1719, 
    1720, 
    1721, 
    1722, 
    1723, 
    1726, 
    1727, 
    1728, 
    1729, 
    1730, 
    1731, 
    1732, 
    1733, 
    1734, 
    1735, 
    1736, 
    1737, 
    1738, 
    1739, 
    1740, 
    1741, 
    1742, 
    1743, 
    1744, 
    1745, 
    1748, 
    1749, 
    1750, 
    1751, 
    1752, 
    1753, 
    1754, 
    1755, 
    1758, 
    1759, 
    1760, 
    1761, 
    1762, 
    1763, 
    1764, 
    1765, 
    1768, 
    1769, 
    1770, 
    1771, 
    1772, 
    1773, 
    1774, 
    1775, 
    1776, 
    1777, 
    1778, 
    1779, 
    1780, 
    1781, 
    1782, 
    1783, 
    1784, 
    1785, 
    1786, 
    1787, 
    1790, 
    1791, 
    1792, 
    1793, 
    1794, 
    1795, 
    1796, 
    1797, 
    1800, 
    1801, 
    1802, 
    1803, 
    1804, 
    1805, 
    1806, 
    1807, 
    1810, 
    1811, 
    1812, 
    1813, 
    1814, 
    1815, 
    1816, 
    1817, 
    1818, 
    1819, 
    1820, 
    1821, 
    1822, 
    1823, 
    1824, 
    1825, 
    1826, 
    1827, 
    1828, 
    1829, 
    1832, 
    1833, 
    1834, 
    1835, 
    1836, 
    1837, 
    1838, 
    1839, 
    1842, 
    1843, 
    1844, 
    1845, 
    1846, 
    1847, 
    1848, 
    1849, 
    1852, 
    1853, 
    1854, 
    1855, 
    1856, 
    1857, 
    1858, 
    1859, 
    1860, 
    1861, 
    1862, 
    1863, 
    1864, 
    1865, 
    1866, 
    1867, 
    1868, 
    1869, 
    1870, 
    1871, 
    1874, 
    1875, 
    1876, 
    1877, 
    1878, 
    1879, 
    1880, 
    1881, 
    1884, 
    1885, 
    1886, 
    1887, 
    1888, 
    1889, 
    1890, 
    1891, 
    1894, 
    1895, 
    1896, 
    1897, 
    1898, 
    1899, 
    1900, 
    1901, 
    1902, 
    1903, 
    1904, 
    1905, 
    1906, 
    1907, 
    1908, 
    1909, 
    1910, 
    1911, 
    1912, 
    1913, 
    1916, 
    1917, 
    1918, 
    1919, 
    1920, 
    1921, 
    1922, 
    1923, 
    1926, 
    1927, 
    1928, 
    1929, 
    1930, 
    1931, 
    1932, 
    1933, 
    1936, 
    1937, 
    1938, 
    1939, 
    1940, 
    1941, 
    1942, 
    1943, 
    1944, 
    1945, 
    1946, 
    1947, 
    1948, 
    1949, 
    1950, 
    1951, 
    1952, 
    1953, 
    1954, 
    1955, 
    1958, 
    1959, 
    1960, 
    1961, 
    1962, 
    1963, 
    1964, 
    1965, 
    1968, 
    1969, 
    1970, 
    1971, 
    1972, 
    1973, 
    1974, 
    1975, 
    1978, 
    1979, 
    1980, 
    1981, 
    1982, 
    1983, 
    1984, 
    1985, 
    1986, 
    1987, 
    1988, 
    1989, 
    1990, 
    1991, 
    1992, 
    1993, 
    1994, 
    1995, 
    1996, 
    1997, 
    2000, 
    2001, 
    2002, 
    2003, 
    2004, 
    2005, 
    2006, 
    2007, 
    2010, 
    2011, 
    2012, 
    2013, 
    2014, 
    2015, 
    2016, 
    2017, 
    2020, 
    2021, 
    2022, 
    2023, 
    2024, 
    2025, 
    2026, 
    2027, 
    2028, 
    2029, 
    2030, 
    2031, 
    2032, 
    2033, 
    2034, 
    2035, 
    2036, 
    2037, 
    2038, 
    2039, 
    2042, 
    2043, 
    2044, 
    2045, 
    2046, 
    2047, 
    2048, 
    2049, 
    2052, 
    2053, 
    2054, 
    2055, 
    2056, 
    2057, 
    2058, 
    2059, 
    2062, 
    2063, 
    2064, 
    2065, 
    2066, 
    2067, 
    2068, 
    2069, 
    2070, 
    2071, 
    2072, 
    2073, 
    2074, 
    2075, 
    2076, 
    2077, 
    2078, 
    2079, 
    2082, 
    2083, 
    2084, 
    2085, 
    2086, 
    2087, 
    2088, 
    2089, 
    2090, 
    2093, 
    2094, 
    2095, 
    2096, 
    2097, 
    2098, 
    2099, 
    2100, 
    2103, 
    2104, 
    2105, 
    2106, 
    2107, 
    2108, 
    2109, 
    2110, 
    2113, 
    2114, 
    2115, 
    2116, 
    2117, 
    2118, 
    2119, 
    2120, 
    2121, 
    2122, 
    2123, 
    2124, 
    2125, 
    2126, 
    2127, 
    2128, 
    2129, 
    2130, 
    2131, 
    2132, 
    2135, 
    2136, 
    2137, 
    2138, 
    2139, 
    2140, 
    2141, 
    2142, 
    2145, 
    2146, 
    2147, 
    2148, 
    2149, 
    2150, 
    2151, 
    2152, 
    2155, 
    2156, 
    2157, 
    2158, 
    2159, 
    2160, 
    2161, 
    2162, 
    2163, 
    2164, 
    2165, 
    2166, 
    2167, 
    2168, 
    2169, 
    2171, 
    2172, 
    2173, 
    2174, 
    2175, 
    2176, 
    2177
  ], 
  "heads": [[1861, 0, 0]], 
  "attrs": {"mxnet_version": ["int", 10001]}
}