{
  "nodes": [
    {
      "op": "null", 
      "name": "data", 
      "inputs": []
    }, 
    {
      "op": "null", 
      "name": "conv1_7x7_weight", 
      "attr": {
        "kernel": "(7, 7)", 
        "no_bias": "True", 
        "num_filter": "64", 
        "pad": "(3, 3)", 
        "stride": "(2, 2)"
      }, 
      "inputs": []
    }, 
    {
      "op": "Convolution", 
      "name": "conv1_7x7", 
      "attr": {
        "kernel": "(7, 7)", 
        "no_bias": "True", 
        "num_filter": "64", 
        "pad": "(3, 3)", 
        "stride": "(2, 2)"
      }, 
      "inputs": [[0, 0, 0], [1, 0, 0]]
    }, 
    {
      "op": "null", 
      "name": "conv1_7x7_bn_gamma", 
      "attr": {
        "eps": "1e-05", 
        "fix_gamma": "False", 
        "use_global_stats": "True"
      }, 
      "inputs": []
    }, 
    {
      "op": "null", 
      "name": "conv1_7x7_bn_beta", 
      "attr": {
        "eps": "1e-05", 
        "fix_gamma": "False", 
        "use_global_stats": "True"
      }, 
      "inputs": []
    }, 
    {
      "op": "null", 
      "name": "conv1_7x7_bn_moving_mean", 
      "attr": {
        "__init__": "[\"zero\", {}]", 
        "eps": "1e-05", 
        "fix_gamma": "False", 
        "use_global_stats": "True"
      }, 
      "inputs": []
    }, 
    {
      "op": "null", 
      "name": "conv1_7x7_bn_moving_var", 
      "attr": {
        "__init__": "[\"one\", {}]", 
        "eps": "1e-05", 
        "fix_gamma": "False", 
        "use_global_stats": "True"
      }, 
      "inputs": []
    }, 
    {
      "op": "BatchNorm", 
      "name": "conv1_7x7_bn", 
      "attr": {
        "eps": "1e-05", 
        "fix_gamma": "False", 
        "use_global_stats": "True"
      }, 
      "inputs": [[2, 0, 0], [3, 0, 0], [4, 0, 0], [5, 0, 1], [6, 0, 1]]
    }, 
    {
      "op": "Activation", 
      "name": "conv1_7x7_relu", 
      "attr": {"act_type": "relu"}, 
      "inputs": [[7, 0, 0]]
    }, 
    {
      "op": "Pooling", 
      "name": "pool1", 
      "attr": {
        "cudnn_off": "False", 
        "global_pool": "False", 
        "kernel": "(3, 3)", 
        "pool_type": "max", 
        "pooling_convention": "full", 
        "stride": "(2, 2)"
      }, 
      "inputs": [[8, 0, 0]]
    }, 
    {
      "op": "null", 
      "name": "seres1_1x1_reduce_weight", 
      "attr": {
        "kernel": "(1, 1)", 
        "no_bias": "True", 
        "num_filter": "64", 
        "pad": "(0, 0)", 
        "stride": "(1, 1)"
      }, 
      "inputs": []
    }, 
    {
      "op": "Convolution", 
      "name": "seres1_1x1_reduce", 
      "attr": {
        "kernel": "(1, 1)", 
        "no_bias": "True", 
        "num_filter": "64", 
        "pad": "(0, 0)", 
        "stride": "(1, 1)"
      }, 
      "inputs": [[9, 0, 0], [10, 0, 0]]
    }, 
    {
      "op": "null", 
      "name": "seres1_1x1_reduce_bn_gamma", 
      "attr": {
        "eps": "1e-05", 
        "fix_gamma": "False", 
        "use_global_stats": "True"
      }, 
      "inputs": []
    }, 
    {
      "op": "null", 
      "name": "seres1_1x1_reduce_bn_beta", 
      "attr": {
        "eps": "1e-05", 
        "fix_gamma": "False", 
        "use_global_stats": "True"
      }, 
      "inputs": []
    }, 
    {
      "op": "null", 
      "name": "seres1_1x1_reduce_bn_moving_mean", 
      "attr": {
        "__init__": "[\"zero\", {}]", 
        "eps": "1e-05", 
        "fix_gamma": "False", 
        "use_global_stats": "True"
      }, 
      "inputs": []
    }, 
    {
      "op": "null", 
      "name": "seres1_1x1_reduce_bn_moving_var", 
      "attr": {
        "__init__": "[\"one\", {}]", 
        "eps": "1e-05", 
        "fix_gamma": "False", 
        "use_global_stats": "True"
      }, 
      "inputs": []
    }, 
    {
      "op": "BatchNorm", 
      "name": "seres1_1x1_reduce_bn", 
      "attr": {
        "eps": "1e-05", 
        "fix_gamma": "False", 
        "use_global_stats": "True"
      }, 
      "inputs": [[11, 0, 0], [12, 0, 0], [13, 0, 0], [14, 0, 1], [15, 0, 1]]
    }, 
    {
      "op": "Activation", 
      "name": "seres1_1x1_reduce_relu", 
      "attr": {"act_type": "relu"}, 
      "inputs": [[16, 0, 0]]
    }, 
    {
      "op": "null", 
      "name": "seres1_3x3_weight", 
      "attr": {
        "kernel": "(3, 3)", 
        "no_bias": "True", 
        "num_filter": "64", 
        "pad": "(1, 1)", 
        "stride": "(1, 1)"
      }, 
      "inputs": []
    }, 
    {
      "op": "Convolution", 
      "name": "seres1_3x3", 
      "attr": {
        "kernel": "(3, 3)", 
        "no_bias": "True", 
        "num_filter": "64", 
        "pad": "(1, 1)", 
        "stride": "(1, 1)"
      }, 
      "inputs": [[17, 0, 0], [18, 0, 0]]
    }, 
    {
      "op": "null", 
      "name": "seres1_3x3_bn_gamma", 
      "attr": {
        "eps": "1e-05", 
        "fix_gamma": "False", 
        "use_global_stats": "True"
      }, 
      "inputs": []
    }, 
    {
      "op": "null", 
      "name": "seres1_3x3_bn_beta", 
      "attr": {
        "eps": "1e-05", 
        "fix_gamma": "False", 
        "use_global_stats": "True"
      }, 
      "inputs": []
    }, 
    {
      "op": "null", 
      "name": "seres1_3x3_bn_moving_mean", 
      "attr": {
        "__init__": "[\"zero\", {}]", 
        "eps": "1e-05", 
        "fix_gamma": "False", 
        "use_global_stats": "True"
      }, 
      "inputs": []
    }, 
    {
      "op": "null", 
      "name": "seres1_3x3_bn_moving_var", 
      "attr": {
        "__init__": "[\"one\", {}]", 
        "eps": "1e-05", 
        "fix_gamma": "False", 
        "use_global_stats": "True"
      }, 
      "inputs": []
    }, 
    {
      "op": "BatchNorm", 
      "name": "seres1_3x3_bn", 
      "attr": {
        "eps": "1e-05", 
        "fix_gamma": "False", 
        "use_global_stats": "True"
      }, 
      "inputs": [[19, 0, 0], [20, 0, 0], [21, 0, 0], [22, 0, 1], [23, 0, 1]]
    }, 
    {
      "op": "Activation", 
      "name": "seres1_3x3_relu", 
      "attr": {"act_type": "relu"}, 
      "inputs": [[24, 0, 0]]
    }, 
    {
      "op": "null", 
      "name": "seres1_1x1_increase_weight", 
      "attr": {
        "kernel": "(1, 1)", 
        "no_bias": "True", 
        "num_filter": "256", 
        "pad": "(0, 0)", 
        "stride": "(1, 1)"
      }, 
      "inputs": []
    }, 
    {
      "op": "Convolution", 
      "name": "seres1_1x1_increase", 
      "attr": {
        "kernel": "(1, 1)", 
        "no_bias": "True", 
        "num_filter": "256", 
        "pad": "(0, 0)", 
        "stride": "(1, 1)"
      }, 
      "inputs": [[25, 0, 0], [26, 0, 0]]
    }, 
    {
      "op": "null", 
      "name": "seres1_1x1_increase_bn_gamma", 
      "attr": {
        "eps": "1e-05", 
        "fix_gamma": "False", 
        "use_global_stats": "True"
      }, 
      "inputs": []
    }, 
    {
      "op": "null", 
      "name": "seres1_1x1_increase_bn_beta", 
      "attr": {
        "eps": "1e-05", 
        "fix_gamma": "False", 
        "use_global_stats": "True"
      }, 
      "inputs": []
    }, 
    {
      "op": "null", 
      "name": "seres1_1x1_increase_bn_moving_mean", 
      "attr": {
        "__init__": "[\"zero\", {}]", 
        "eps": "1e-05", 
        "fix_gamma": "False", 
        "use_global_stats": "True"
      }, 
      "inputs": []
    }, 
    {
      "op": "null", 
      "name": "seres1_1x1_increase_bn_moving_var", 
      "attr": {
        "__init__": "[\"one\", {}]", 
        "eps": "1e-05", 
        "fix_gamma": "False", 
        "use_global_stats": "True"
      }, 
      "inputs": []
    }, 
    {
      "op": "BatchNorm", 
      "name": "seres1_1x1_increase_bn", 
      "attr": {
        "eps": "1e-05", 
        "fix_gamma": "False", 
        "use_global_stats": "True"
      }, 
      "inputs": [[27, 0, 0], [28, 0, 0], [29, 0, 0], [30, 0, 1], [31, 0, 1]]
    }, 
    {
      "op": "Pooling", 
      "name": "seres1_global_pool", 
      "attr": {
        "global_pool": "True", 
        "kernel": "(7, 7)", 
        "pool_type": "avg", 
        "pooling_convention": "full"
      }, 
      "inputs": [[32, 0, 0]]
    }, 
    {
      "op": "null", 
      "name": "seres1_1x1_down_weight", 
      "attr": {
        "kernel": "(1, 1)", 
        "no_bias": "False", 
        "num_filter": "16", 
        "stride": "(1, 1)"
      }, 
      "inputs": []
    }, 
    {
      "op": "null", 
      "name": "seres1_1x1_down_bias", 
      "attr": {
        "kernel": "(1, 1)", 
        "no_bias": "False", 
        "num_filter": "16", 
        "stride": "(1, 1)"
      }, 
      "inputs": []
    }, 
    {
      "op": "Convolution", 
      "name": "seres1_1x1_down", 
      "attr": {
        "kernel": "(1, 1)", 
        "no_bias": "False", 
        "num_filter": "16", 
        "stride": "(1, 1)"
      }, 
      "inputs": [[33, 0, 0], [34, 0, 0], [35, 0, 0]]
    }, 
    {
      "op": "Activation", 
      "name": "seres1_1x1_down_relu", 
      "attr": {"act_type": "relu"}, 
      "inputs": [[36, 0, 0]]
    }, 
    {
      "op": "null", 
      "name": "seres1_1x1_up_weight", 
      "attr": {
        "kernel": "(1, 1)", 
        "no_bias": "False", 
        "num_filter": "256", 
        "pad": "(0, 0)", 
        "stride": "(1, 1)"
      }, 
      "inputs": []
    }, 
    {
      "op": "null", 
      "name": "seres1_1x1_up_bias", 
      "attr": {
        "kernel": "(1, 1)", 
        "no_bias": "False", 
        "num_filter": "256", 
        "pad": "(0, 0)", 
        "stride": "(1, 1)"
      }, 
      "inputs": []
    }, 
    {
      "op": "Convolution", 
      "name": "seres1_1x1_up", 
      "attr": {
        "kernel": "(1, 1)", 
        "no_bias": "False", 
        "num_filter": "256", 
        "pad": "(0, 0)", 
        "stride": "(1, 1)"
      }, 
      "inputs": [[37, 0, 0], [38, 0, 0], [39, 0, 0]]
    }, 
    {
      "op": "Activation", 
      "name": "seres1_1x1_up_prob", 
      "attr": {"act_type": "sigmoid"}, 
      "inputs": [[40, 0, 0]]
    }, 
    {
      "op": "Reshape", 
      "name": "reshape0", 
      "attr": {"shape": "(-1, 256, 1, 1)"}, 
      "inputs": [[41, 0, 0]]
    }, 
    {
      "op": "broadcast_mul", 
      "name": "broadcast_mul0", 
      "inputs": [[32, 0, 0], [42, 0, 0]]
    }, 
    {
      "op": "null", 
      "name": "seres1_1x1_proj_weight", 
      "attr": {
        "kernel": "(1, 1)", 
        "no_bias": "True", 
        "num_filter": "256", 
        "pad": "(0, 0)", 
        "stride": "(1, 1)"
      }, 
      "inputs": []
    }, 
    {
      "op": "Convolution", 
      "name": "seres1_1x1_proj", 
      "attr": {
        "kernel": "(1, 1)", 
        "no_bias": "True", 
        "num_filter": "256", 
        "pad": "(0, 0)", 
        "stride": "(1, 1)"
      }, 
      "inputs": [[9, 0, 0], [44, 0, 0]]
    }, 
    {
      "op": "null", 
      "name": "seres1_1x1_proj_bn_gamma", 
      "attr": {
        "eps": "1e-05", 
        "fix_gamma": "False", 
        "use_global_stats": "True"
      }, 
      "inputs": []
    }, 
    {
      "op": "null", 
      "name": "seres1_1x1_proj_bn_beta", 
      "attr": {
        "eps": "1e-05", 
        "fix_gamma": "False", 
        "use_global_stats": "True"
      }, 
      "inputs": []
    }, 
    {
      "op": "null", 
      "name": "seres1_1x1_proj_bn_moving_mean", 
      "attr": {
        "__init__": "[\"zero\", {}]", 
        "eps": "1e-05", 
        "fix_gamma": "False", 
        "use_global_stats": "True"
      }, 
      "inputs": []
    }, 
    {
      "op": "null", 
      "name": "seres1_1x1_proj_bn_moving_var", 
      "attr": {
        "__init__": "[\"one\", {}]", 
        "eps": "1e-05", 
        "fix_gamma": "False", 
        "use_global_stats": "True"
      }, 
      "inputs": []
    }, 
    {
      "op": "BatchNorm", 
      "name": "seres1_1x1_proj_bn", 
      "attr": {
        "eps": "1e-05", 
        "fix_gamma": "False", 
        "use_global_stats": "True"
      }, 
      "inputs": [[45, 0, 0], [46, 0, 0], [47, 0, 0], [48, 0, 1], [49, 0, 1]]
    }, 
    {
      "op": "broadcast_add", 
      "name": "seres1", 
      "inputs": [[43, 0, 0], [50, 0, 0]]
    }, 
    {
      "op": "Activation", 
      "name": "seres1_relu", 
      "attr": {"act_type": "relu"}, 
      "inputs": [[51, 0, 0]]
    }, 
    {
      "op": "null", 
      "name": "seres2_1x1_reduce_weight", 
      "attr": {
        "kernel": "(1, 1)", 
        "no_bias": "True", 
        "num_filter": "64", 
        "pad": "(0, 0)", 
        "stride": "(1, 1)"
      }, 
      "inputs": []
    }, 
    {
      "op": "Convolution", 
      "name": "seres2_1x1_reduce", 
      "attr": {
        "kernel": "(1, 1)", 
        "no_bias": "True", 
        "num_filter": "64", 
        "pad": "(0, 0)", 
        "stride": "(1, 1)"
      }, 
      "inputs": [[52, 0, 0], [53, 0, 0]]
    }, 
    {
      "op": "null", 
      "name": "seres2_1x1_reduce_bn_gamma", 
      "attr": {
        "eps": "1e-05", 
        "fix_gamma": "False", 
        "use_global_stats": "True"
      }, 
      "inputs": []
    }, 
    {
      "op": "null", 
      "name": "seres2_1x1_reduce_bn_beta", 
      "attr": {
        "eps": "1e-05", 
        "fix_gamma": "False", 
        "use_global_stats": "True"
      }, 
      "inputs": []
    }, 
    {
      "op": "null", 
      "name": "seres2_1x1_reduce_bn_moving_mean", 
      "attr": {
        "__init__": "[\"zero\", {}]", 
        "eps": "1e-05", 
        "fix_gamma": "False", 
        "use_global_stats": "True"
      }, 
      "inputs": []
    }, 
    {
      "op": "null", 
      "name": "seres2_1x1_reduce_bn_moving_var", 
      "attr": {
        "__init__": "[\"one\", {}]", 
        "eps": "1e-05", 
        "fix_gamma": "False", 
        "use_global_stats": "True"
      }, 
      "inputs": []
    }, 
    {
      "op": "BatchNorm", 
      "name": "seres2_1x1_reduce_bn", 
      "attr": {
        "eps": "1e-05", 
        "fix_gamma": "False", 
        "use_global_stats": "True"
      }, 
      "inputs": [[54, 0, 0], [55, 0, 0], [56, 0, 0], [57, 0, 1], [58, 0, 1]]
    }, 
    {
      "op": "Activation", 
      "name": "seres2_1x1_reduce_relu", 
      "attr": {"act_type": "relu"}, 
      "inputs": [[59, 0, 0]]
    }, 
    {
      "op": "null", 
      "name": "seres2_3x3_weight", 
      "attr": {
        "kernel": "(3, 3)", 
        "no_bias": "True", 
        "num_filter": "64", 
        "pad": "(1, 1)", 
        "stride": "(1, 1)"
      }, 
      "inputs": []
    }, 
    {
      "op": "Convolution", 
      "name": "seres2_3x3", 
      "attr": {
        "kernel": "(3, 3)", 
        "no_bias": "True", 
        "num_filter": "64", 
        "pad": "(1, 1)", 
        "stride": "(1, 1)"
      }, 
      "inputs": [[60, 0, 0], [61, 0, 0]]
    }, 
    {
      "op": "null", 
      "name": "seres2_3x3_bn_gamma", 
      "attr": {
        "eps": "1e-05", 
        "fix_gamma": "False", 
        "use_global_stats": "True"
      }, 
      "inputs": []
    }, 
    {
      "op": "null", 
      "name": "seres2_3x3_bn_beta", 
      "attr": {
        "eps": "1e-05", 
        "fix_gamma": "False", 
        "use_global_stats": "True"
      }, 
      "inputs": []
    }, 
    {
      "op": "null", 
      "name": "seres2_3x3_bn_moving_mean", 
      "attr": {
        "__init__": "[\"zero\", {}]", 
        "eps": "1e-05", 
        "fix_gamma": "False", 
        "use_global_stats": "True"
      }, 
      "inputs": []
    }, 
    {
      "op": "null", 
      "name": "seres2_3x3_bn_moving_var", 
      "attr": {
        "__init__": "[\"one\", {}]", 
        "eps": "1e-05", 
        "fix_gamma": "False", 
        "use_global_stats": "True"
      }, 
      "inputs": []
    }, 
    {
      "op": "BatchNorm", 
      "name": "seres2_3x3_bn", 
      "attr": {
        "eps": "1e-05", 
        "fix_gamma": "False", 
        "use_global_stats": "True"
      }, 
      "inputs": [[62, 0, 0], [63, 0, 0], [64, 0, 0], [65, 0, 1], [66, 0, 1]]
    }, 
    {
      "op": "Activation", 
      "name": "seres2_3x3_relu", 
      "attr": {"act_type": "relu"}, 
      "inputs": [[67, 0, 0]]
    }, 
    {
      "op": "null", 
      "name": "seres2_1x1_increase_weight", 
      "attr": {
        "kernel": "(1, 1)", 
        "no_bias": "True", 
        "num_filter": "256", 
        "pad": "(0, 0)", 
        "stride": "(1, 1)"
      }, 
      "inputs": []
    }, 
    {
      "op": "Convolution", 
      "name": "seres2_1x1_increase", 
      "attr": {
        "kernel": "(1, 1)", 
        "no_bias": "True", 
        "num_filter": "256", 
        "pad": "(0, 0)", 
        "stride": "(1, 1)"
      }, 
      "inputs": [[68, 0, 0], [69, 0, 0]]
    }, 
    {
      "op": "null", 
      "name": "seres2_1x1_increase_bn_gamma", 
      "attr": {
        "eps": "1e-05", 
        "fix_gamma": "False", 
        "use_global_stats": "True"
      }, 
      "inputs": []
    }, 
    {
      "op": "null", 
      "name": "seres2_1x1_increase_bn_beta", 
      "attr": {
        "eps": "1e-05", 
        "fix_gamma": "False", 
        "use_global_stats": "True"
      }, 
      "inputs": []
    }, 
    {
      "op": "null", 
      "name": "seres2_1x1_increase_bn_moving_mean", 
      "attr": {
        "__init__": "[\"zero\", {}]", 
        "eps": "1e-05", 
        "fix_gamma": "False", 
        "use_global_stats": "True"
      }, 
      "inputs": []
    }, 
    {
      "op": "null", 
      "name": "seres2_1x1_increase_bn_moving_var", 
      "attr": {
        "__init__": "[\"one\", {}]", 
        "eps": "1e-05", 
        "fix_gamma": "False", 
        "use_global_stats": "True"
      }, 
      "inputs": []
    }, 
    {
      "op": "BatchNorm", 
      "name": "seres2_1x1_increase_bn", 
      "attr": {
        "eps": "1e-05", 
        "fix_gamma": "False", 
        "use_global_stats": "True"
      }, 
      "inputs": [[70, 0, 0], [71, 0, 0], [72, 0, 0], [73, 0, 1], [74, 0, 1]]
    }, 
    {
      "op": "Pooling", 
      "name": "seres2_global_pool", 
      "attr": {
        "global_pool": "True", 
        "kernel": "(7, 7)", 
        "pool_type": "avg", 
        "pooling_convention": "full"
      }, 
      "inputs": [[75, 0, 0]]
    }, 
    {
      "op": "null", 
      "name": "seres2_1x1_down_weight", 
      "attr": {
        "kernel": "(1, 1)", 
        "no_bias": "False", 
        "num_filter": "16", 
        "stride": "(1, 1)"
      }, 
      "inputs": []
    }, 
    {
      "op": "null", 
      "name": "seres2_1x1_down_bias", 
      "attr": {
        "kernel": "(1, 1)", 
        "no_bias": "False", 
        "num_filter": "16", 
        "stride": "(1, 1)"
      }, 
      "inputs": []
    }, 
    {
      "op": "Convolution", 
      "name": "seres2_1x1_down", 
      "attr": {
        "kernel": "(1, 1)", 
        "no_bias": "False", 
        "num_filter": "16", 
        "stride": "(1, 1)"
      }, 
      "inputs": [[76, 0, 0], [77, 0, 0], [78, 0, 0]]
    }, 
    {
      "op": "Activation", 
      "name": "seres2_1x1_down_relu", 
      "attr": {"act_type": "relu"}, 
      "inputs": [[79, 0, 0]]
    }, 
    {
      "op": "null", 
      "name": "seres2_1x1_up_weight", 
      "attr": {
        "kernel": "(1, 1)", 
        "no_bias": "False", 
        "num_filter": "256", 
        "pad": "(0, 0)", 
        "stride": "(1, 1)"
      }, 
      "inputs": []
    }, 
    {
      "op": "null", 
      "name": "seres2_1x1_up_bias", 
      "attr": {
        "kernel": "(1, 1)", 
        "no_bias": "False", 
        "num_filter": "256", 
        "pad": "(0, 0)", 
        "stride": "(1, 1)"
      }, 
      "inputs": []
    }, 
    {
      "op": "Convolution", 
      "name": "seres2_1x1_up", 
      "attr": {
        "kernel": "(1, 1)", 
        "no_bias": "False", 
        "num_filter": "256", 
        "pad": "(0, 0)", 
        "stride": "(1, 1)"
      }, 
      "inputs": [[80, 0, 0], [81, 0, 0], [82, 0, 0]]
    }, 
    {
      "op": "Activation", 
      "name": "seres2_1x1_up_prob", 
      "attr": {"act_type": "sigmoid"}, 
      "inputs": [[83, 0, 0]]
    }, 
    {
      "op": "Reshape", 
      "name": "reshape1", 
      "attr": {"shape": "(-1, 256, 1, 1)"}, 
      "inputs": [[84, 0, 0]]
    }, 
    {
      "op": "broadcast_mul", 
      "name": "broadcast_mul1", 
      "inputs": [[75, 0, 0], [85, 0, 0]]
    }, 
    {
      "op": "broadcast_add", 
      "name": "seres2", 
      "inputs": [[52, 0, 0], [86, 0, 0]]
    }, 
    {
      "op": "Activation", 
      "name": "seres2_relu", 
      "attr": {"act_type": "relu"}, 
      "inputs": [[87, 0, 0]]
    }, 
    {
      "op": "null", 
      "name": "seres3_1x1_reduce_weight", 
      "attr": {
        "kernel": "(1, 1)", 
        "no_bias": "True", 
        "num_filter": "64", 
        "pad": "(0, 0)", 
        "stride": "(1, 1)"
      }, 
      "inputs": []
    }, 
    {
      "op": "Convolution", 
      "name": "seres3_1x1_reduce", 
      "attr": {
        "kernel": "(1, 1)", 
        "no_bias": "True", 
        "num_filter": "64", 
        "pad": "(0, 0)", 
        "stride": "(1, 1)"
      }, 
      "inputs": [[88, 0, 0], [89, 0, 0]]
    }, 
    {
      "op": "null", 
      "name": "seres3_1x1_reduce_bn_gamma", 
      "attr": {
        "eps": "1e-05", 
        "fix_gamma": "False", 
        "use_global_stats": "True"
      }, 
      "inputs": []
    }, 
    {
      "op": "null", 
      "name": "seres3_1x1_reduce_bn_beta", 
      "attr": {
        "eps": "1e-05", 
        "fix_gamma": "False", 
        "use_global_stats": "True"
      }, 
      "inputs": []
    }, 
    {
      "op": "null", 
      "name": "seres3_1x1_reduce_bn_moving_mean", 
      "attr": {
        "__init__": "[\"zero\", {}]", 
        "eps": "1e-05", 
        "fix_gamma": "False", 
        "use_global_stats": "True"
      }, 
      "inputs": []
    }, 
    {
      "op": "null", 
      "name": "seres3_1x1_reduce_bn_moving_var", 
      "attr": {
        "__init__": "[\"one\", {}]", 
        "eps": "1e-05", 
        "fix_gamma": "False", 
        "use_global_stats": "True"
      }, 
      "inputs": []
    }, 
    {
      "op": "BatchNorm", 
      "name": "seres3_1x1_reduce_bn", 
      "attr": {
        "eps": "1e-05", 
        "fix_gamma": "False", 
        "use_global_stats": "True"
      }, 
      "inputs": [[90, 0, 0], [91, 0, 0], [92, 0, 0], [93, 0, 1], [94, 0, 1]]
    }, 
    {
      "op": "Activation", 
      "name": "seres3_1x1_reduce_relu", 
      "attr": {"act_type": "relu"}, 
      "inputs": [[95, 0, 0]]
    }, 
    {
      "op": "null", 
      "name": "seres3_3x3_weight", 
      "attr": {
        "kernel": "(3, 3)", 
        "no_bias": "True", 
        "num_filter": "64", 
        "pad": "(1, 1)", 
        "stride": "(1, 1)"
      }, 
      "inputs": []
    }, 
    {
      "op": "Convolution", 
      "name": "seres3_3x3", 
      "attr": {
        "kernel": "(3, 3)", 
        "no_bias": "True", 
        "num_filter": "64", 
        "pad": "(1, 1)", 
        "stride": "(1, 1)"
      }, 
      "inputs": [[96, 0, 0], [97, 0, 0]]
    }, 
    {
      "op": "null", 
      "name": "seres3_3x3_bn_gamma", 
      "attr": {
        "eps": "1e-05", 
        "fix_gamma": "False", 
        "use_global_stats": "True"
      }, 
      "inputs": []
    }, 
    {
      "op": "null", 
      "name": "seres3_3x3_bn_beta", 
      "attr": {
        "eps": "1e-05", 
        "fix_gamma": "False", 
        "use_global_stats": "True"
      }, 
      "inputs": []
    }, 
    {
      "op": "null", 
      "name": "seres3_3x3_bn_moving_mean", 
      "attr": {
        "__init__": "[\"zero\", {}]", 
        "eps": "1e-05", 
        "fix_gamma": "False", 
        "use_global_stats": "True"
      }, 
      "inputs": []
    }, 
    {
      "op": "null", 
      "name": "seres3_3x3_bn_moving_var", 
      "attr": {
        "__init__": "[\"one\", {}]", 
        "eps": "1e-05", 
        "fix_gamma": "False", 
        "use_global_stats": "True"
      }, 
      "inputs": []
    }, 
    {
      "op": "BatchNorm", 
      "name": "seres3_3x3_bn", 
      "attr": {
        "eps": "1e-05", 
        "fix_gamma": "False", 
        "use_global_stats": "True"
      }, 
      "inputs": [[98, 0, 0], [99, 0, 0], [100, 0, 0], [101, 0, 1], [102, 0, 1]]
    }, 
    {
      "op": "Activation", 
      "name": "seres3_3x3_relu", 
      "attr": {"act_type": "relu"}, 
      "inputs": [[103, 0, 0]]
    }, 
    {
      "op": "null", 
      "name": "seres3_1x1_increase_weight", 
      "attr": {
        "kernel": "(1, 1)", 
        "no_bias": "True", 
        "num_filter": "256", 
        "pad": "(0, 0)", 
        "stride": "(1, 1)"
      }, 
      "inputs": []
    }, 
    {
      "op": "Convolution", 
      "name": "seres3_1x1_increase", 
      "attr": {
        "kernel": "(1, 1)", 
        "no_bias": "True", 
        "num_filter": "256", 
        "pad": "(0, 0)", 
        "stride": "(1, 1)"
      }, 
      "inputs": [[104, 0, 0], [105, 0, 0]]
    }, 
    {
      "op": "null", 
      "name": "seres3_1x1_increase_bn_gamma", 
      "attr": {
        "eps": "1e-05", 
        "fix_gamma": "False", 
        "use_global_stats": "True"
      }, 
      "inputs": []
    }, 
    {
      "op": "null", 
      "name": "seres3_1x1_increase_bn_beta", 
      "attr": {
        "eps": "1e-05", 
        "fix_gamma": "False", 
        "use_global_stats": "True"
      }, 
      "inputs": []
    }, 
    {
      "op": "null", 
      "name": "seres3_1x1_increase_bn_moving_mean", 
      "attr": {
        "__init__": "[\"zero\", {}]", 
        "eps": "1e-05", 
        "fix_gamma": "False", 
        "use_global_stats": "True"
      }, 
      "inputs": []
    }, 
    {
      "op": "null", 
      "name": "seres3_1x1_increase_bn_moving_var", 
      "attr": {
        "__init__": "[\"one\", {}]", 
        "eps": "1e-05", 
        "fix_gamma": "False", 
        "use_global_stats": "True"
      }, 
      "inputs": []
    }, 
    {
      "op": "BatchNorm", 
      "name": "seres3_1x1_increase_bn", 
      "attr": {
        "eps": "1e-05", 
        "fix_gamma": "False", 
        "use_global_stats": "True"
      }, 
      "inputs": [[106, 0, 0], [107, 0, 0], [108, 0, 0], [109, 0, 1], [110, 0, 1]]
    }, 
    {
      "op": "Pooling", 
      "name": "seres3_global_pool", 
      "attr": {
        "global_pool": "True", 
        "kernel": "(7, 7)", 
        "pool_type": "avg", 
        "pooling_convention": "full"
      }, 
      "inputs": [[111, 0, 0]]
    }, 
    {
      "op": "null", 
      "name": "seres3_1x1_down_weight", 
      "attr": {
        "kernel": "(1, 1)", 
        "no_bias": "False", 
        "num_filter": "16", 
        "stride": "(1, 1)"
      }, 
      "inputs": []
    }, 
    {
      "op": "null", 
      "name": "seres3_1x1_down_bias", 
      "attr": {
        "kernel": "(1, 1)", 
        "no_bias": "False", 
        "num_filter": "16", 
        "stride": "(1, 1)"
      }, 
      "inputs": []
    }, 
    {
      "op": "Convolution", 
      "name": "seres3_1x1_down", 
      "attr": {
        "kernel": "(1, 1)", 
        "no_bias": "False", 
        "num_filter": "16", 
        "stride": "(1, 1)"
      }, 
      "inputs": [[112, 0, 0], [113, 0, 0], [114, 0, 0]]
    }, 
    {
      "op": "Activation", 
      "name": "seres3_1x1_down_relu", 
      "attr": {"act_type": "relu"}, 
      "inputs": [[115, 0, 0]]
    }, 
    {
      "op": "null", 
      "name": "seres3_1x1_up_weight", 
      "attr": {
        "kernel": "(1, 1)", 
        "no_bias": "False", 
        "num_filter": "256", 
        "pad": "(0, 0)", 
        "stride": "(1, 1)"
      }, 
      "inputs": []
    }, 
    {
      "op": "null", 
      "name": "seres3_1x1_up_bias", 
      "attr": {
        "kernel": "(1, 1)", 
        "no_bias": "False", 
        "num_filter": "256", 
        "pad": "(0, 0)", 
        "stride": "(1, 1)"
      }, 
      "inputs": []
    }, 
    {
      "op": "Convolution", 
      "name": "seres3_1x1_up", 
      "attr": {
        "kernel": "(1, 1)", 
        "no_bias": "False", 
        "num_filter": "256", 
        "pad": "(0, 0)", 
        "stride": "(1, 1)"
      }, 
      "inputs": [[116, 0, 0], [117, 0, 0], [118, 0, 0]]
    }, 
    {
      "op": "Activation", 
      "name": "seres3_1x1_up_prob", 
      "attr": {"act_type": "sigmoid"}, 
      "inputs": [[119, 0, 0]]
    }, 
    {
      "op": "Reshape", 
      "name": "reshape2", 
      "attr": {"shape": "(-1, 256, 1, 1)"}, 
      "inputs": [[120, 0, 0]]
    }, 
    {
      "op": "broadcast_mul", 
      "name": "broadcast_mul2", 
      "inputs": [[111, 0, 0], [121, 0, 0]]
    }, 
    {
      "op": "broadcast_add", 
      "name": "seres3", 
      "inputs": [[88, 0, 0], [122, 0, 0]]
    }, 
    {
      "op": "Activation", 
      "name": "seres3_relu", 
      "attr": {"act_type": "relu"}, 
      "inputs": [[123, 0, 0]]
    }, 
    {
      "op": "null", 
      "name": "seres4_1x1_reduce_weight", 
      "attr": {
        "kernel": "(1, 1)", 
        "no_bias": "True", 
        "num_filter": "128", 
        "pad": "(0, 0)", 
        "stride": "(2, 2)"
      }, 
      "inputs": []
    }, 
    {
      "op": "Convolution", 
      "name": "seres4_1x1_reduce", 
      "attr": {
        "kernel": "(1, 1)", 
        "no_bias": "True", 
        "num_filter": "128", 
        "pad": "(0, 0)", 
        "stride": "(2, 2)"
      }, 
      "inputs": [[124, 0, 0], [125, 0, 0]]
    }, 
    {
      "op": "null", 
      "name": "seres4_1x1_reduce_bn_gamma", 
      "attr": {
        "eps": "1e-05", 
        "fix_gamma": "False", 
        "use_global_stats": "True"
      }, 
      "inputs": []
    }, 
    {
      "op": "null", 
      "name": "seres4_1x1_reduce_bn_beta", 
      "attr": {
        "eps": "1e-05", 
        "fix_gamma": "False", 
        "use_global_stats": "True"
      }, 
      "inputs": []
    }, 
    {
      "op": "null", 
      "name": "seres4_1x1_reduce_bn_moving_mean", 
      "attr": {
        "__init__": "[\"zero\", {}]", 
        "eps": "1e-05", 
        "fix_gamma": "False", 
        "use_global_stats": "True"
      }, 
      "inputs": []
    }, 
    {
      "op": "null", 
      "name": "seres4_1x1_reduce_bn_moving_var", 
      "attr": {
        "__init__": "[\"one\", {}]", 
        "eps": "1e-05", 
        "fix_gamma": "False", 
        "use_global_stats": "True"
      }, 
      "inputs": []
    }, 
    {
      "op": "BatchNorm", 
      "name": "seres4_1x1_reduce_bn", 
      "attr": {
        "eps": "1e-05", 
        "fix_gamma": "False", 
        "use_global_stats": "True"
      }, 
      "inputs": [[126, 0, 0], [127, 0, 0], [128, 0, 0], [129, 0, 1], [130, 0, 1]]
    }, 
    {
      "op": "Activation", 
      "name": "seres4_1x1_reduce_relu", 
      "attr": {"act_type": "relu"}, 
      "inputs": [[131, 0, 0]]
    }, 
    {
      "op": "null", 
      "name": "seres4_3x3_weight", 
      "attr": {
        "kernel": "(3, 3)", 
        "no_bias": "True", 
        "num_filter": "128", 
        "pad": "(1, 1)", 
        "stride": "(1, 1)"
      }, 
      "inputs": []
    }, 
    {
      "op": "Convolution", 
      "name": "seres4_3x3", 
      "attr": {
        "kernel": "(3, 3)", 
        "no_bias": "True", 
        "num_filter": "128", 
        "pad": "(1, 1)", 
        "stride": "(1, 1)"
      }, 
      "inputs": [[132, 0, 0], [133, 0, 0]]
    }, 
    {
      "op": "null", 
      "name": "seres4_3x3_bn_gamma", 
      "attr": {
        "eps": "1e-05", 
        "fix_gamma": "False", 
        "use_global_stats": "True"
      }, 
      "inputs": []
    }, 
    {
      "op": "null", 
      "name": "seres4_3x3_bn_beta", 
      "attr": {
        "eps": "1e-05", 
        "fix_gamma": "False", 
        "use_global_stats": "True"
      }, 
      "inputs": []
    }, 
    {
      "op": "null", 
      "name": "seres4_3x3_bn_moving_mean", 
      "attr": {
        "__init__": "[\"zero\", {}]", 
        "eps": "1e-05", 
        "fix_gamma": "False", 
        "use_global_stats": "True"
      }, 
      "inputs": []
    }, 
    {
      "op": "null", 
      "name": "seres4_3x3_bn_moving_var", 
      "attr": {
        "__init__": "[\"one\", {}]", 
        "eps": "1e-05", 
        "fix_gamma": "False", 
        "use_global_stats": "True"
      }, 
      "inputs": []
    }, 
    {
      "op": "BatchNorm", 
      "name": "seres4_3x3_bn", 
      "attr": {
        "eps": "1e-05", 
        "fix_gamma": "False", 
        "use_global_stats": "True"
      }, 
      "inputs": [[134, 0, 0], [135, 0, 0], [136, 0, 0], [137, 0, 1], [138, 0, 1]]
    }, 
    {
      "op": "Activation", 
      "name": "seres4_3x3_relu", 
      "attr": {"act_type": "relu"}, 
      "inputs": [[139, 0, 0]]
    }, 
    {
      "op": "null", 
      "name": "seres4_1x1_increase_weight", 
      "attr": {
        "kernel": "(1, 1)", 
        "no_bias": "True", 
        "num_filter": "512", 
        "pad": "(0, 0)", 
        "stride": "(1, 1)"
      }, 
      "inputs": []
    }, 
    {
      "op": "Convolution", 
      "name": "seres4_1x1_increase", 
      "attr": {
        "kernel": "(1, 1)", 
        "no_bias": "True", 
        "num_filter": "512", 
        "pad": "(0, 0)", 
        "stride": "(1, 1)"
      }, 
      "inputs": [[140, 0, 0], [141, 0, 0]]
    }, 
    {
      "op": "null", 
      "name": "seres4_1x1_increase_bn_gamma", 
      "attr": {
        "eps": "1e-05", 
        "fix_gamma": "False", 
        "use_global_stats": "True"
      }, 
      "inputs": []
    }, 
    {
      "op": "null", 
      "name": "seres4_1x1_increase_bn_beta", 
      "attr": {
        "eps": "1e-05", 
        "fix_gamma": "False", 
        "use_global_stats": "True"
      }, 
      "inputs": []
    }, 
    {
      "op": "null", 
      "name": "seres4_1x1_increase_bn_moving_mean", 
      "attr": {
        "__init__": "[\"zero\", {}]", 
        "eps": "1e-05", 
        "fix_gamma": "False", 
        "use_global_stats": "True"
      }, 
      "inputs": []
    }, 
    {
      "op": "null", 
      "name": "seres4_1x1_increase_bn_moving_var", 
      "attr": {
        "__init__": "[\"one\", {}]", 
        "eps": "1e-05", 
        "fix_gamma": "False", 
        "use_global_stats": "True"
      }, 
      "inputs": []
    }, 
    {
      "op": "BatchNorm", 
      "name": "seres4_1x1_increase_bn", 
      "attr": {
        "eps": "1e-05", 
        "fix_gamma": "False", 
        "use_global_stats": "True"
      }, 
      "inputs": [[142, 0, 0], [143, 0, 0], [144, 0, 0], [145, 0, 1], [146, 0, 1]]
    }, 
    {
      "op": "Pooling", 
      "name": "seres4_global_pool", 
      "attr": {
        "global_pool": "True", 
        "kernel": "(7, 7)", 
        "pool_type": "avg", 
        "pooling_convention": "full"
      }, 
      "inputs": [[147, 0, 0]]
    }, 
    {
      "op": "null", 
      "name": "seres4_1x1_down_weight", 
      "attr": {
        "kernel": "(1, 1)", 
        "no_bias": "False", 
        "num_filter": "32", 
        "stride": "(1, 1)"
      }, 
      "inputs": []
    }, 
    {
      "op": "null", 
      "name": "seres4_1x1_down_bias", 
      "attr": {
        "kernel": "(1, 1)", 
        "no_bias": "False", 
        "num_filter": "32", 
        "stride": "(1, 1)"
      }, 
      "inputs": []
    }, 
    {
      "op": "Convolution", 
      "name": "seres4_1x1_down", 
      "attr": {
        "kernel": "(1, 1)", 
        "no_bias": "False", 
        "num_filter": "32", 
        "stride": "(1, 1)"
      }, 
      "inputs": [[148, 0, 0], [149, 0, 0], [150, 0, 0]]
    }, 
    {
      "op": "Activation", 
      "name": "seres4_1x1_down_relu", 
      "attr": {"act_type": "relu"}, 
      "inputs": [[151, 0, 0]]
    }, 
    {
      "op": "null", 
      "name": "seres4_1x1_up_weight", 
      "attr": {
        "kernel": "(1, 1)", 
        "no_bias": "False", 
        "num_filter": "512", 
        "pad": "(0, 0)", 
        "stride": "(1, 1)"
      }, 
      "inputs": []
    }, 
    {
      "op": "null", 
      "name": "seres4_1x1_up_bias", 
      "attr": {
        "kernel": "(1, 1)", 
        "no_bias": "False", 
        "num_filter": "512", 
        "pad": "(0, 0)", 
        "stride": "(1, 1)"
      }, 
      "inputs": []
    }, 
    {
      "op": "Convolution", 
      "name": "seres4_1x1_up", 
      "attr": {
        "kernel": "(1, 1)", 
        "no_bias": "False", 
        "num_filter": "512", 
        "pad": "(0, 0)", 
        "stride": "(1, 1)"
      }, 
      "inputs": [[152, 0, 0], [153, 0, 0], [154, 0, 0]]
    }, 
    {
      "op": "Activation", 
      "name": "seres4_1x1_up_prob", 
      "attr": {"act_type": "sigmoid"}, 
      "inputs": [[155, 0, 0]]
    }, 
    {
      "op": "Reshape", 
      "name": "reshape3", 
      "attr": {"shape": "(-1, 512, 1, 1)"}, 
      "inputs": [[156, 0, 0]]
    }, 
    {
      "op": "broadcast_mul", 
      "name": "broadcast_mul3", 
      "inputs": [[147, 0, 0], [157, 0, 0]]
    }, 
    {
      "op": "null", 
      "name": "seres4_1x1_proj_weight", 
      "attr": {
        "kernel": "(1, 1)", 
        "no_bias": "True", 
        "num_filter": "512", 
        "pad": "(0, 0)", 
        "stride": "(2, 2)"
      }, 
      "inputs": []
    }, 
    {
      "op": "Convolution", 
      "name": "seres4_1x1_proj", 
      "attr": {
        "kernel": "(1, 1)", 
        "no_bias": "True", 
        "num_filter": "512", 
        "pad": "(0, 0)", 
        "stride": "(2, 2)"
      }, 
      "inputs": [[124, 0, 0], [159, 0, 0]]
    }, 
    {
      "op": "null", 
      "name": "seres4_1x1_proj_bn_gamma", 
      "attr": {
        "eps": "1e-05", 
        "fix_gamma": "False", 
        "use_global_stats": "True"
      }, 
      "inputs": []
    }, 
    {
      "op": "null", 
      "name": "seres4_1x1_proj_bn_beta", 
      "attr": {
        "eps": "1e-05", 
        "fix_gamma": "False", 
        "use_global_stats": "True"
      }, 
      "inputs": []
    }, 
    {
      "op": "null", 
      "name": "seres4_1x1_proj_bn_moving_mean", 
      "attr": {
        "__init__": "[\"zero\", {}]", 
        "eps": "1e-05", 
        "fix_gamma": "False", 
        "use_global_stats": "True"
      }, 
      "inputs": []
    }, 
    {
      "op": "null", 
      "name": "seres4_1x1_proj_bn_moving_var", 
      "attr": {
        "__init__": "[\"one\", {}]", 
        "eps": "1e-05", 
        "fix_gamma": "False", 
        "use_global_stats": "True"
      }, 
      "inputs": []
    }, 
    {
      "op": "BatchNorm", 
      "name": "seres4_1x1_proj_bn", 
      "attr": {
        "eps": "1e-05", 
        "fix_gamma": "False", 
        "use_global_stats": "True"
      }, 
      "inputs": [[160, 0, 0], [161, 0, 0], [162, 0, 0], [163, 0, 1], [164, 0, 1]]
    }, 
    {
      "op": "broadcast_add", 
      "name": "seres4", 
      "inputs": [[158, 0, 0], [165, 0, 0]]
    }, 
    {
      "op": "Activation", 
      "name": "seres4_relu", 
      "attr": {"act_type": "relu"}, 
      "inputs": [[166, 0, 0]]
    }, 
    {
      "op": "null", 
      "name": "seres5_1x1_reduce_weight", 
      "attr": {
        "kernel": "(1, 1)", 
        "no_bias": "True", 
        "num_filter": "128", 
        "pad": "(0, 0)", 
        "stride": "(1, 1)"
      }, 
      "inputs": []
    }, 
    {
      "op": "Convolution", 
      "name": "seres5_1x1_reduce", 
      "attr": {
        "kernel": "(1, 1)", 
        "no_bias": "True", 
        "num_filter": "128", 
        "pad": "(0, 0)", 
        "stride": "(1, 1)"
      }, 
      "inputs": [[167, 0, 0], [168, 0, 0]]
    }, 
    {
      "op": "null", 
      "name": "seres5_1x1_reduce_bn_gamma", 
      "attr": {
        "eps": "1e-05", 
        "fix_gamma": "False", 
        "use_global_stats": "True"
      }, 
      "inputs": []
    }, 
    {
      "op": "null", 
      "name": "seres5_1x1_reduce_bn_beta", 
      "attr": {
        "eps": "1e-05", 
        "fix_gamma": "False", 
        "use_global_stats": "True"
      }, 
      "inputs": []
    }, 
    {
      "op": "null", 
      "name": "seres5_1x1_reduce_bn_moving_mean", 
      "attr": {
        "__init__": "[\"zero\", {}]", 
        "eps": "1e-05", 
        "fix_gamma": "False", 
        "use_global_stats": "True"
      }, 
      "inputs": []
    }, 
    {
      "op": "null", 
      "name": "seres5_1x1_reduce_bn_moving_var", 
      "attr": {
        "__init__": "[\"one\", {}]", 
        "eps": "1e-05", 
        "fix_gamma": "False", 
        "use_global_stats": "True"
      }, 
      "inputs": []
    }, 
    {
      "op": "BatchNorm", 
      "name": "seres5_1x1_reduce_bn", 
      "attr": {
        "eps": "1e-05", 
        "fix_gamma": "False", 
        "use_global_stats": "True"
      }, 
      "inputs": [[169, 0, 0], [170, 0, 0], [171, 0, 0], [172, 0, 1], [173, 0, 1]]
    }, 
    {
      "op": "Activation", 
      "name": "seres5_1x1_reduce_relu", 
      "attr": {"act_type": "relu"}, 
      "inputs": [[174, 0, 0]]
    }, 
    {
      "op": "null", 
      "name": "seres5_3x3_weight", 
      "attr": {
        "kernel": "(3, 3)", 
        "no_bias": "True", 
        "num_filter": "128", 
        "pad": "(1, 1)", 
        "stride": "(1, 1)"
      }, 
      "inputs": []
    }, 
    {
      "op": "Convolution", 
      "name": "seres5_3x3", 
      "attr": {
        "kernel": "(3, 3)", 
        "no_bias": "True", 
        "num_filter": "128", 
        "pad": "(1, 1)", 
        "stride": "(1, 1)"
      }, 
      "inputs": [[175, 0, 0], [176, 0, 0]]
    }, 
    {
      "op": "null", 
      "name": "seres5_3x3_bn_gamma", 
      "attr": {
        "eps": "1e-05", 
        "fix_gamma": "False", 
        "use_global_stats": "True"
      }, 
      "inputs": []
    }, 
    {
      "op": "null", 
      "name": "seres5_3x3_bn_beta", 
      "attr": {
        "eps": "1e-05", 
        "fix_gamma": "False", 
        "use_global_stats": "True"
      }, 
      "inputs": []
    }, 
    {
      "op": "null", 
      "name": "seres5_3x3_bn_moving_mean", 
      "attr": {
        "__init__": "[\"zero\", {}]", 
        "eps": "1e-05", 
        "fix_gamma": "False", 
        "use_global_stats": "True"
      }, 
      "inputs": []
    }, 
    {
      "op": "null", 
      "name": "seres5_3x3_bn_moving_var", 
      "attr": {
        "__init__": "[\"one\", {}]", 
        "eps": "1e-05", 
        "fix_gamma": "False", 
        "use_global_stats": "True"
      }, 
      "inputs": []
    }, 
    {
      "op": "BatchNorm", 
      "name": "seres5_3x3_bn", 
      "attr": {
        "eps": "1e-05", 
        "fix_gamma": "False", 
        "use_global_stats": "True"
      }, 
      "inputs": [[177, 0, 0], [178, 0, 0], [179, 0, 0], [180, 0, 1], [181, 0, 1]]
    }, 
    {
      "op": "Activation", 
      "name": "seres5_3x3_relu", 
      "attr": {"act_type": "relu"}, 
      "inputs": [[182, 0, 0]]
    }, 
    {
      "op": "null", 
      "name": "seres5_1x1_increase_weight", 
      "attr": {
        "kernel": "(1, 1)", 
        "no_bias": "True", 
        "num_filter": "512", 
        "pad": "(0, 0)", 
        "stride": "(1, 1)"
      }, 
      "inputs": []
    }, 
    {
      "op": "Convolution", 
      "name": "seres5_1x1_increase", 
      "attr": {
        "kernel": "(1, 1)", 
        "no_bias": "True", 
        "num_filter": "512", 
        "pad": "(0, 0)", 
        "stride": "(1, 1)"
      }, 
      "inputs": [[183, 0, 0], [184, 0, 0]]
    }, 
    {
      "op": "null", 
      "name": "seres5_1x1_increase_bn_gamma", 
      "attr": {
        "eps": "1e-05", 
        "fix_gamma": "False", 
        "use_global_stats": "True"
      }, 
      "inputs": []
    }, 
    {
      "op": "null", 
      "name": "seres5_1x1_increase_bn_beta", 
      "attr": {
        "eps": "1e-05", 
        "fix_gamma": "False", 
        "use_global_stats": "True"
      }, 
      "inputs": []
    }, 
    {
      "op": "null", 
      "name": "seres5_1x1_increase_bn_moving_mean", 
      "attr": {
        "__init__": "[\"zero\", {}]", 
        "eps": "1e-05", 
        "fix_gamma": "False", 
        "use_global_stats": "True"
      }, 
      "inputs": []
    }, 
    {
      "op": "null", 
      "name": "seres5_1x1_increase_bn_moving_var", 
      "attr": {
        "__init__": "[\"one\", {}]", 
        "eps": "1e-05", 
        "fix_gamma": "False", 
        "use_global_stats": "True"
      }, 
      "inputs": []
    }, 
    {
      "op": "BatchNorm", 
      "name": "seres5_1x1_increase_bn", 
      "attr": {
        "eps": "1e-05", 
        "fix_gamma": "False", 
        "use_global_stats": "True"
      }, 
      "inputs": [[185, 0, 0], [186, 0, 0], [187, 0, 0], [188, 0, 1], [189, 0, 1]]
    }, 
    {
      "op": "Pooling", 
      "name": "seres5_global_pool", 
      "attr": {
        "global_pool": "True", 
        "kernel": "(7, 7)", 
        "pool_type": "avg", 
        "pooling_convention": "full"
      }, 
      "inputs": [[190, 0, 0]]
    }, 
    {
      "op": "null", 
      "name": "seres5_1x1_down_weight", 
      "attr": {
        "kernel": "(1, 1)", 
        "no_bias": "False", 
        "num_filter": "32", 
        "stride": "(1, 1)"
      }, 
      "inputs": []
    }, 
    {
      "op": "null", 
      "name": "seres5_1x1_down_bias", 
      "attr": {
        "kernel": "(1, 1)", 
        "no_bias": "False", 
        "num_filter": "32", 
        "stride": "(1, 1)"
      }, 
      "inputs": []
    }, 
    {
      "op": "Convolution", 
      "name": "seres5_1x1_down", 
      "attr": {
        "kernel": "(1, 1)", 
        "no_bias": "False", 
        "num_filter": "32", 
        "stride": "(1, 1)"
      }, 
      "inputs": [[191, 0, 0], [192, 0, 0], [193, 0, 0]]
    }, 
    {
      "op": "Activation", 
      "name": "seres5_1x1_down_relu", 
      "attr": {"act_type": "relu"}, 
      "inputs": [[194, 0, 0]]
    }, 
    {
      "op": "null", 
      "name": "seres5_1x1_up_weight", 
      "attr": {
        "kernel": "(1, 1)", 
        "no_bias": "False", 
        "num_filter": "512", 
        "pad": "(0, 0)", 
        "stride": "(1, 1)"
      }, 
      "inputs": []
    }, 
    {
      "op": "null", 
      "name": "seres5_1x1_up_bias", 
      "attr": {
        "kernel": "(1, 1)", 
        "no_bias": "False", 
        "num_filter": "512", 
        "pad": "(0, 0)", 
        "stride": "(1, 1)"
      }, 
      "inputs": []
    }, 
    {
      "op": "Convolution", 
      "name": "seres5_1x1_up", 
      "attr": {
        "kernel": "(1, 1)", 
        "no_bias": "False", 
        "num_filter": "512", 
        "pad": "(0, 0)", 
        "stride": "(1, 1)"
      }, 
      "inputs": [[195, 0, 0], [196, 0, 0], [197, 0, 0]]
    }, 
    {
      "op": "Activation", 
      "name": "seres5_1x1_up_prob", 
      "attr": {"act_type": "sigmoid"}, 
      "inputs": [[198, 0, 0]]
    }, 
    {
      "op": "Reshape", 
      "name": "reshape4", 
      "attr": {"shape": "(-1, 512, 1, 1)"}, 
      "inputs": [[199, 0, 0]]
    }, 
    {
      "op": "broadcast_mul", 
      "name": "broadcast_mul4", 
      "inputs": [[190, 0, 0], [200, 0, 0]]
    }, 
    {
      "op": "broadcast_add", 
      "name": "seres5", 
      "inputs": [[167, 0, 0], [201, 0, 0]]
    }, 
    {
      "op": "Activation", 
      "name": "seres5_relu", 
      "attr": {"act_type": "relu"}, 
      "inputs": [[202, 0, 0]]
    }, 
    {
      "op": "null", 
      "name": "seres6_1x1_reduce_weight", 
      "attr": {
        "kernel": "(1, 1)", 
        "no_bias": "True", 
        "num_filter": "128", 
        "pad": "(0, 0)", 
        "stride": "(1, 1)"
      }, 
      "inputs": []
    }, 
    {
      "op": "Convolution", 
      "name": "seres6_1x1_reduce", 
      "attr": {
        "kernel": "(1, 1)", 
        "no_bias": "True", 
        "num_filter": "128", 
        "pad": "(0, 0)", 
        "stride": "(1, 1)"
      }, 
      "inputs": [[203, 0, 0], [204, 0, 0]]
    }, 
    {
      "op": "null", 
      "name": "seres6_1x1_reduce_bn_gamma", 
      "attr": {
        "eps": "1e-05", 
        "fix_gamma": "False", 
        "use_global_stats": "True"
      }, 
      "inputs": []
    }, 
    {
      "op": "null", 
      "name": "seres6_1x1_reduce_bn_beta", 
      "attr": {
        "eps": "1e-05", 
        "fix_gamma": "False", 
        "use_global_stats": "True"
      }, 
      "inputs": []
    }, 
    {
      "op": "null", 
      "name": "seres6_1x1_reduce_bn_moving_mean", 
      "attr": {
        "__init__": "[\"zero\", {}]", 
        "eps": "1e-05", 
        "fix_gamma": "False", 
        "use_global_stats": "True"
      }, 
      "inputs": []
    }, 
    {
      "op": "null", 
      "name": "seres6_1x1_reduce_bn_moving_var", 
      "attr": {
        "__init__": "[\"one\", {}]", 
        "eps": "1e-05", 
        "fix_gamma": "False", 
        "use_global_stats": "True"
      }, 
      "inputs": []
    }, 
    {
      "op": "BatchNorm", 
      "name": "seres6_1x1_reduce_bn", 
      "attr": {
        "eps": "1e-05", 
        "fix_gamma": "False", 
        "use_global_stats": "True"
      }, 
      "inputs": [[205, 0, 0], [206, 0, 0], [207, 0, 0], [208, 0, 1], [209, 0, 1]]
    }, 
    {
      "op": "Activation", 
      "name": "seres6_1x1_reduce_relu", 
      "attr": {"act_type": "relu"}, 
      "inputs": [[210, 0, 0]]
    }, 
    {
      "op": "null", 
      "name": "seres6_3x3_weight", 
      "attr": {
        "kernel": "(3, 3)", 
        "no_bias": "True", 
        "num_filter": "128", 
        "pad": "(1, 1)", 
        "stride": "(1, 1)"
      }, 
      "inputs": []
    }, 
    {
      "op": "Convolution", 
      "name": "seres6_3x3", 
      "attr": {
        "kernel": "(3, 3)", 
        "no_bias": "True", 
        "num_filter": "128", 
        "pad": "(1, 1)", 
        "stride": "(1, 1)"
      }, 
      "inputs": [[211, 0, 0], [212, 0, 0]]
    }, 
    {
      "op": "null", 
      "name": "seres6_3x3_bn_gamma", 
      "attr": {
        "eps": "1e-05", 
        "fix_gamma": "False", 
        "use_global_stats": "True"
      }, 
      "inputs": []
    }, 
    {
      "op": "null", 
      "name": "seres6_3x3_bn_beta", 
      "attr": {
        "eps": "1e-05", 
        "fix_gamma": "False", 
        "use_global_stats": "True"
      }, 
      "inputs": []
    }, 
    {
      "op": "null", 
      "name": "seres6_3x3_bn_moving_mean", 
      "attr": {
        "__init__": "[\"zero\", {}]", 
        "eps": "1e-05", 
        "fix_gamma": "False", 
        "use_global_stats": "True"
      }, 
      "inputs": []
    }, 
    {
      "op": "null", 
      "name": "seres6_3x3_bn_moving_var", 
      "attr": {
        "__init__": "[\"one\", {}]", 
        "eps": "1e-05", 
        "fix_gamma": "False", 
        "use_global_stats": "True"
      }, 
      "inputs": []
    }, 
    {
      "op": "BatchNorm", 
      "name": "seres6_3x3_bn", 
      "attr": {
        "eps": "1e-05", 
        "fix_gamma": "False", 
        "use_global_stats": "True"
      }, 
      "inputs": [[213, 0, 0], [214, 0, 0], [215, 0, 0], [216, 0, 1], [217, 0, 1]]
    }, 
    {
      "op": "Activation", 
      "name": "seres6_3x3_relu", 
      "attr": {"act_type": "relu"}, 
      "inputs": [[218, 0, 0]]
    }, 
    {
      "op": "null", 
      "name": "seres6_1x1_increase_weight", 
      "attr": {
        "kernel": "(1, 1)", 
        "no_bias": "True", 
        "num_filter": "512", 
        "pad": "(0, 0)", 
        "stride": "(1, 1)"
      }, 
      "inputs": []
    }, 
    {
      "op": "Convolution", 
      "name": "seres6_1x1_increase", 
      "attr": {
        "kernel": "(1, 1)", 
        "no_bias": "True", 
        "num_filter": "512", 
        "pad": "(0, 0)", 
        "stride": "(1, 1)"
      }, 
      "inputs": [[219, 0, 0], [220, 0, 0]]
    }, 
    {
      "op": "null", 
      "name": "seres6_1x1_increase_bn_gamma", 
      "attr": {
        "eps": "1e-05", 
        "fix_gamma": "False", 
        "use_global_stats": "True"
      }, 
      "inputs": []
    }, 
    {
      "op": "null", 
      "name": "seres6_1x1_increase_bn_beta", 
      "attr": {
        "eps": "1e-05", 
        "fix_gamma": "False", 
        "use_global_stats": "True"
      }, 
      "inputs": []
    }, 
    {
      "op": "null", 
      "name": "seres6_1x1_increase_bn_moving_mean", 
      "attr": {
        "__init__": "[\"zero\", {}]", 
        "eps": "1e-05", 
        "fix_gamma": "False", 
        "use_global_stats": "True"
      }, 
      "inputs": []
    }, 
    {
      "op": "null", 
      "name": "seres6_1x1_increase_bn_moving_var", 
      "attr": {
        "__init__": "[\"one\", {}]", 
        "eps": "1e-05", 
        "fix_gamma": "False", 
        "use_global_stats": "True"
      }, 
      "inputs": []
    }, 
    {
      "op": "BatchNorm", 
      "name": "seres6_1x1_increase_bn", 
      "attr": {
        "eps": "1e-05", 
        "fix_gamma": "False", 
        "use_global_stats": "True"
      }, 
      "inputs": [[221, 0, 0], [222, 0, 0], [223, 0, 0], [224, 0, 1], [225, 0, 1]]
    }, 
    {
      "op": "Pooling", 
      "name": "seres6_global_pool", 
      "attr": {
        "global_pool": "True", 
        "kernel": "(7, 7)", 
        "pool_type": "avg", 
        "pooling_convention": "full"
      }, 
      "inputs": [[226, 0, 0]]
    }, 
    {
      "op": "null", 
      "name": "seres6_1x1_down_weight", 
      "attr": {
        "kernel": "(1, 1)", 
        "no_bias": "False", 
        "num_filter": "32", 
        "stride": "(1, 1)"
      }, 
      "inputs": []
    }, 
    {
      "op": "null", 
      "name": "seres6_1x1_down_bias", 
      "attr": {
        "kernel": "(1, 1)", 
        "no_bias": "False", 
        "num_filter": "32", 
        "stride": "(1, 1)"
      }, 
      "inputs": []
    }, 
    {
      "op": "Convolution", 
      "name": "seres6_1x1_down", 
      "attr": {
        "kernel": "(1, 1)", 
        "no_bias": "False", 
        "num_filter": "32", 
        "stride": "(1, 1)"
      }, 
      "inputs": [[227, 0, 0], [228, 0, 0], [229, 0, 0]]
    }, 
    {
      "op": "Activation", 
      "name": "seres6_1x1_down_relu", 
      "attr": {"act_type": "relu"}, 
      "inputs": [[230, 0, 0]]
    }, 
    {
      "op": "null", 
      "name": "seres6_1x1_up_weight", 
      "attr": {
        "kernel": "(1, 1)", 
        "no_bias": "False", 
        "num_filter": "512", 
        "pad": "(0, 0)", 
        "stride": "(1, 1)"
      }, 
      "inputs": []
    }, 
    {
      "op": "null", 
      "name": "seres6_1x1_up_bias", 
      "attr": {
        "kernel": "(1, 1)", 
        "no_bias": "False", 
        "num_filter": "512", 
        "pad": "(0, 0)", 
        "stride": "(1, 1)"
      }, 
      "inputs": []
    }, 
    {
      "op": "Convolution", 
      "name": "seres6_1x1_up", 
      "attr": {
        "kernel": "(1, 1)", 
        "no_bias": "False", 
        "num_filter": "512", 
        "pad": "(0, 0)", 
        "stride": "(1, 1)"
      }, 
      "inputs": [[231, 0, 0], [232, 0, 0], [233, 0, 0]]
    }, 
    {
      "op": "Activation", 
      "name": "seres6_1x1_up_prob", 
      "attr": {"act_type": "sigmoid"}, 
      "inputs": [[234, 0, 0]]
    }, 
    {
      "op": "Reshape", 
      "name": "reshape5", 
      "attr": {"shape": "(-1, 512, 1, 1)"}, 
      "inputs": [[235, 0, 0]]
    }, 
    {
      "op": "broadcast_mul", 
      "name": "broadcast_mul5", 
      "inputs": [[226, 0, 0], [236, 0, 0]]
    }, 
    {
      "op": "broadcast_add", 
      "name": "seres6", 
      "inputs": [[203, 0, 0], [237, 0, 0]]
    }, 
    {
      "op": "Activation", 
      "name": "seres6_relu", 
      "attr": {"act_type": "relu"}, 
      "inputs": [[238, 0, 0]]
    }, 
    {
      "op": "null", 
      "name": "seres7_1x1_reduce_weight", 
      "attr": {
        "kernel": "(1, 1)", 
        "no_bias": "True", 
        "num_filter": "128", 
        "pad": "(0, 0)", 
        "stride": "(1, 1)"
      }, 
      "inputs": []
    }, 
    {
      "op": "Convolution", 
      "name": "seres7_1x1_reduce", 
      "attr": {
        "kernel": "(1, 1)", 
        "no_bias": "True", 
        "num_filter": "128", 
        "pad": "(0, 0)", 
        "stride": "(1, 1)"
      }, 
      "inputs": [[239, 0, 0], [240, 0, 0]]
    }, 
    {
      "op": "null", 
      "name": "seres7_1x1_reduce_bn_gamma", 
      "attr": {
        "eps": "1e-05", 
        "fix_gamma": "False", 
        "use_global_stats": "True"
      }, 
      "inputs": []
    }, 
    {
      "op": "null", 
      "name": "seres7_1x1_reduce_bn_beta", 
      "attr": {
        "eps": "1e-05", 
        "fix_gamma": "False", 
        "use_global_stats": "True"
      }, 
      "inputs": []
    }, 
    {
      "op": "null", 
      "name": "seres7_1x1_reduce_bn_moving_mean", 
      "attr": {
        "__init__": "[\"zero\", {}]", 
        "eps": "1e-05", 
        "fix_gamma": "False", 
        "use_global_stats": "True"
      }, 
      "inputs": []
    }, 
    {
      "op": "null", 
      "name": "seres7_1x1_reduce_bn_moving_var", 
      "attr": {
        "__init__": "[\"one\", {}]", 
        "eps": "1e-05", 
        "fix_gamma": "False", 
        "use_global_stats": "True"
      }, 
      "inputs": []
    }, 
    {
      "op": "BatchNorm", 
      "name": "seres7_1x1_reduce_bn", 
      "attr": {
        "eps": "1e-05", 
        "fix_gamma": "False", 
        "use_global_stats": "True"
      }, 
      "inputs": [[241, 0, 0], [242, 0, 0], [243, 0, 0], [244, 0, 1], [245, 0, 1]]
    }, 
    {
      "op": "Activation", 
      "name": "seres7_1x1_reduce_relu", 
      "attr": {"act_type": "relu"}, 
      "inputs": [[246, 0, 0]]
    }, 
    {
      "op": "null", 
      "name": "seres7_3x3_weight", 
      "attr": {
        "kernel": "(3, 3)", 
        "no_bias": "True", 
        "num_filter": "128", 
        "pad": "(1, 1)", 
        "stride": "(1, 1)"
      }, 
      "inputs": []
    }, 
    {
      "op": "Convolution", 
      "name": "seres7_3x3", 
      "attr": {
        "kernel": "(3, 3)", 
        "no_bias": "True", 
        "num_filter": "128", 
        "pad": "(1, 1)", 
        "stride": "(1, 1)"
      }, 
      "inputs": [[247, 0, 0], [248, 0, 0]]
    }, 
    {
      "op": "null", 
      "name": "seres7_3x3_bn_gamma", 
      "attr": {
        "eps": "1e-05", 
        "fix_gamma": "False", 
        "use_global_stats": "True"
      }, 
      "inputs": []
    }, 
    {
      "op": "null", 
      "name": "seres7_3x3_bn_beta", 
      "attr": {
        "eps": "1e-05", 
        "fix_gamma": "False", 
        "use_global_stats": "True"
      }, 
      "inputs": []
    }, 
    {
      "op": "null", 
      "name": "seres7_3x3_bn_moving_mean", 
      "attr": {
        "__init__": "[\"zero\", {}]", 
        "eps": "1e-05", 
        "fix_gamma": "False", 
        "use_global_stats": "True"
      }, 
      "inputs": []
    }, 
    {
      "op": "null", 
      "name": "seres7_3x3_bn_moving_var", 
      "attr": {
        "__init__": "[\"one\", {}]", 
        "eps": "1e-05", 
        "fix_gamma": "False", 
        "use_global_stats": "True"
      }, 
      "inputs": []
    }, 
    {
      "op": "BatchNorm", 
      "name": "seres7_3x3_bn", 
      "attr": {
        "eps": "1e-05", 
        "fix_gamma": "False", 
        "use_global_stats": "True"
      }, 
      "inputs": [[249, 0, 0], [250, 0, 0], [251, 0, 0], [252, 0, 1], [253, 0, 1]]
    }, 
    {
      "op": "Activation", 
      "name": "seres7_3x3_relu", 
      "attr": {"act_type": "relu"}, 
      "inputs": [[254, 0, 0]]
    }, 
    {
      "op": "null", 
      "name": "seres7_1x1_increase_weight", 
      "attr": {
        "kernel": "(1, 1)", 
        "no_bias": "True", 
        "num_filter": "512", 
        "pad": "(0, 0)", 
        "stride": "(1, 1)"
      }, 
      "inputs": []
    }, 
    {
      "op": "Convolution", 
      "name": "seres7_1x1_increase", 
      "attr": {
        "kernel": "(1, 1)", 
        "no_bias": "True", 
        "num_filter": "512", 
        "pad": "(0, 0)", 
        "stride": "(1, 1)"
      }, 
      "inputs": [[255, 0, 0], [256, 0, 0]]
    }, 
    {
      "op": "null", 
      "name": "seres7_1x1_increase_bn_gamma", 
      "attr": {
        "eps": "1e-05", 
        "fix_gamma": "False", 
        "use_global_stats": "True"
      }, 
      "inputs": []
    }, 
    {
      "op": "null", 
      "name": "seres7_1x1_increase_bn_beta", 
      "attr": {
        "eps": "1e-05", 
        "fix_gamma": "False", 
        "use_global_stats": "True"
      }, 
      "inputs": []
    }, 
    {
      "op": "null", 
      "name": "seres7_1x1_increase_bn_moving_mean", 
      "attr": {
        "__init__": "[\"zero\", {}]", 
        "eps": "1e-05", 
        "fix_gamma": "False", 
        "use_global_stats": "True"
      }, 
      "inputs": []
    }, 
    {
      "op": "null", 
      "name": "seres7_1x1_increase_bn_moving_var", 
      "attr": {
        "__init__": "[\"one\", {}]", 
        "eps": "1e-05", 
        "fix_gamma": "False", 
        "use_global_stats": "True"
      }, 
      "inputs": []
    }, 
    {
      "op": "BatchNorm", 
      "name": "seres7_1x1_increase_bn", 
      "attr": {
        "eps": "1e-05", 
        "fix_gamma": "False", 
        "use_global_stats": "True"
      }, 
      "inputs": [[257, 0, 0], [258, 0, 0], [259, 0, 0], [260, 0, 1], [261, 0, 1]]
    }, 
    {
      "op": "Pooling", 
      "name": "seres7_global_pool", 
      "attr": {
        "global_pool": "True", 
        "kernel": "(7, 7)", 
        "pool_type": "avg", 
        "pooling_convention": "full"
      }, 
      "inputs": [[262, 0, 0]]
    }, 
    {
      "op": "null", 
      "name": "seres7_1x1_down_weight", 
      "attr": {
        "kernel": "(1, 1)", 
        "no_bias": "False", 
        "num_filter": "32", 
        "stride": "(1, 1)"
      }, 
      "inputs": []
    }, 
    {
      "op": "null", 
      "name": "seres7_1x1_down_bias", 
      "attr": {
        "kernel": "(1, 1)", 
        "no_bias": "False", 
        "num_filter": "32", 
        "stride": "(1, 1)"
      }, 
      "inputs": []
    }, 
    {
      "op": "Convolution", 
      "name": "seres7_1x1_down", 
      "attr": {
        "kernel": "(1, 1)", 
        "no_bias": "False", 
        "num_filter": "32", 
        "stride": "(1, 1)"
      }, 
      "inputs": [[263, 0, 0], [264, 0, 0], [265, 0, 0]]
    }, 
    {
      "op": "Activation", 
      "name": "seres7_1x1_down_relu", 
      "attr": {"act_type": "relu"}, 
      "inputs": [[266, 0, 0]]
    }, 
    {
      "op": "null", 
      "name": "seres7_1x1_up_weight", 
      "attr": {
        "kernel": "(1, 1)", 
        "no_bias": "False", 
        "num_filter": "512", 
        "pad": "(0, 0)", 
        "stride": "(1, 1)"
      }, 
      "inputs": []
    }, 
    {
      "op": "null", 
      "name": "seres7_1x1_up_bias", 
      "attr": {
        "kernel": "(1, 1)", 
        "no_bias": "False", 
        "num_filter": "512", 
        "pad": "(0, 0)", 
        "stride": "(1, 1)"
      }, 
      "inputs": []
    }, 
    {
      "op": "Convolution", 
      "name": "seres7_1x1_up", 
      "attr": {
        "kernel": "(1, 1)", 
        "no_bias": "False", 
        "num_filter": "512", 
        "pad": "(0, 0)", 
        "stride": "(1, 1)"
      }, 
      "inputs": [[267, 0, 0], [268, 0, 0], [269, 0, 0]]
    }, 
    {
      "op": "Activation", 
      "name": "seres7_1x1_up_prob", 
      "attr": {"act_type": "sigmoid"}, 
      "inputs": [[270, 0, 0]]
    }, 
    {
      "op": "Reshape", 
      "name": "reshape6", 
      "attr": {"shape": "(-1, 512, 1, 1)"}, 
      "inputs": [[271, 0, 0]]
    }, 
    {
      "op": "broadcast_mul", 
      "name": "broadcast_mul6", 
      "inputs": [[262, 0, 0], [272, 0, 0]]
    }, 
    {
      "op": "broadcast_add", 
      "name": "seres7", 
      "inputs": [[239, 0, 0], [273, 0, 0]]
    }, 
    {
      "op": "Activation", 
      "name": "seres7_relu", 
      "attr": {"act_type": "relu"}, 
      "inputs": [[274, 0, 0]]
    }, 
    {
      "op": "null", 
      "name": "seres8_1x1_reduce_weight", 
      "attr": {
        "kernel": "(1, 1)", 
        "no_bias": "True", 
        "num_filter": "256", 
        "pad": "(0, 0)", 
        "stride": "(2, 2)"
      }, 
      "inputs": []
    }, 
    {
      "op": "Convolution", 
      "name": "seres8_1x1_reduce", 
      "attr": {
        "kernel": "(1, 1)", 
        "no_bias": "True", 
        "num_filter": "256", 
        "pad": "(0, 0)", 
        "stride": "(2, 2)"
      }, 
      "inputs": [[275, 0, 0], [276, 0, 0]]
    }, 
    {
      "op": "null", 
      "name": "seres8_1x1_reduce_bn_gamma", 
      "attr": {
        "eps": "1e-05", 
        "fix_gamma": "False", 
        "use_global_stats": "True"
      }, 
      "inputs": []
    }, 
    {
      "op": "null", 
      "name": "seres8_1x1_reduce_bn_beta", 
      "attr": {
        "eps": "1e-05", 
        "fix_gamma": "False", 
        "use_global_stats": "True"
      }, 
      "inputs": []
    }, 
    {
      "op": "null", 
      "name": "seres8_1x1_reduce_bn_moving_mean", 
      "attr": {
        "__init__": "[\"zero\", {}]", 
        "eps": "1e-05", 
        "fix_gamma": "False", 
        "use_global_stats": "True"
      }, 
      "inputs": []
    }, 
    {
      "op": "null", 
      "name": "seres8_1x1_reduce_bn_moving_var", 
      "attr": {
        "__init__": "[\"one\", {}]", 
        "eps": "1e-05", 
        "fix_gamma": "False", 
        "use_global_stats": "True"
      }, 
      "inputs": []
    }, 
    {
      "op": "BatchNorm", 
      "name": "seres8_1x1_reduce_bn", 
      "attr": {
        "eps": "1e-05", 
        "fix_gamma": "False", 
        "use_global_stats": "True"
      }, 
      "inputs": [[277, 0, 0], [278, 0, 0], [279, 0, 0], [280, 0, 1], [281, 0, 1]]
    }, 
    {
      "op": "Activation", 
      "name": "seres8_1x1_reduce_relu", 
      "attr": {"act_type": "relu"}, 
      "inputs": [[282, 0, 0]]
    }, 
    {
      "op": "null", 
      "name": "seres8_3x3_weight", 
      "attr": {
        "kernel": "(3, 3)", 
        "no_bias": "True", 
        "num_filter": "256", 
        "pad": "(1, 1)", 
        "stride": "(1, 1)"
      }, 
      "inputs": []
    }, 
    {
      "op": "Convolution", 
      "name": "seres8_3x3", 
      "attr": {
        "kernel": "(3, 3)", 
        "no_bias": "True", 
        "num_filter": "256", 
        "pad": "(1, 1)", 
        "stride": "(1, 1)"
      }, 
      "inputs": [[283, 0, 0], [284, 0, 0]]
    }, 
    {
      "op": "null", 
      "name": "seres8_3x3_bn_gamma", 
      "attr": {
        "eps": "1e-05", 
        "fix_gamma": "False", 
        "use_global_stats": "True"
      }, 
      "inputs": []
    }, 
    {
      "op": "null", 
      "name": "seres8_3x3_bn_beta", 
      "attr": {
        "eps": "1e-05", 
        "fix_gamma": "False", 
        "use_global_stats": "True"
      }, 
      "inputs": []
    }, 
    {
      "op": "null", 
      "name": "seres8_3x3_bn_moving_mean", 
      "attr": {
        "__init__": "[\"zero\", {}]", 
        "eps": "1e-05", 
        "fix_gamma": "False", 
        "use_global_stats": "True"
      }, 
      "inputs": []
    }, 
    {
      "op": "null", 
      "name": "seres8_3x3_bn_moving_var", 
      "attr": {
        "__init__": "[\"one\", {}]", 
        "eps": "1e-05", 
        "fix_gamma": "False", 
        "use_global_stats": "True"
      }, 
      "inputs": []
    }, 
    {
      "op": "BatchNorm", 
      "name": "seres8_3x3_bn", 
      "attr": {
        "eps": "1e-05", 
        "fix_gamma": "False", 
        "use_global_stats": "True"
      }, 
      "inputs": [[285, 0, 0], [286, 0, 0], [287, 0, 0], [288, 0, 1], [289, 0, 1]]
    }, 
    {
      "op": "Activation", 
      "name": "seres8_3x3_relu", 
      "attr": {"act_type": "relu"}, 
      "inputs": [[290, 0, 0]]
    }, 
    {
      "op": "null", 
      "name": "seres8_1x1_increase_weight", 
      "attr": {
        "kernel": "(1, 1)", 
        "no_bias": "True", 
        "num_filter": "1024", 
        "pad": "(0, 0)", 
        "stride": "(1, 1)"
      }, 
      "inputs": []
    }, 
    {
      "op": "Convolution", 
      "name": "seres8_1x1_increase", 
      "attr": {
        "kernel": "(1, 1)", 
        "no_bias": "True", 
        "num_filter": "1024", 
        "pad": "(0, 0)", 
        "stride": "(1, 1)"
      }, 
      "inputs": [[291, 0, 0], [292, 0, 0]]
    }, 
    {
      "op": "null", 
      "name": "seres8_1x1_increase_bn_gamma", 
      "attr": {
        "eps": "1e-05", 
        "fix_gamma": "False", 
        "use_global_stats": "True"
      }, 
      "inputs": []
    }, 
    {
      "op": "null", 
      "name": "seres8_1x1_increase_bn_beta", 
      "attr": {
        "eps": "1e-05", 
        "fix_gamma": "False", 
        "use_global_stats": "True"
      }, 
      "inputs": []
    }, 
    {
      "op": "null", 
      "name": "seres8_1x1_increase_bn_moving_mean", 
      "attr": {
        "__init__": "[\"zero\", {}]", 
        "eps": "1e-05", 
        "fix_gamma": "False", 
        "use_global_stats": "True"
      }, 
      "inputs": []
    }, 
    {
      "op": "null", 
      "name": "seres8_1x1_increase_bn_moving_var", 
      "attr": {
        "__init__": "[\"one\", {}]", 
        "eps": "1e-05", 
        "fix_gamma": "False", 
        "use_global_stats": "True"
      }, 
      "inputs": []
    }, 
    {
      "op": "BatchNorm", 
      "name": "seres8_1x1_increase_bn", 
      "attr": {
        "eps": "1e-05", 
        "fix_gamma": "False", 
        "use_global_stats": "True"
      }, 
      "inputs": [[293, 0, 0], [294, 0, 0], [295, 0, 0], [296, 0, 1], [297, 0, 1]]
    }, 
    {
      "op": "Pooling", 
      "name": "seres8_global_pool", 
      "attr": {
        "global_pool": "True", 
        "kernel": "(7, 7)", 
        "pool_type": "avg", 
        "pooling_convention": "full"
      }, 
      "inputs": [[298, 0, 0]]
    }, 
    {
      "op": "null", 
      "name": "seres8_1x1_down_weight", 
      "attr": {
        "kernel": "(1, 1)", 
        "no_bias": "False", 
        "num_filter": "64", 
        "stride": "(1, 1)"
      }, 
      "inputs": []
    }, 
    {
      "op": "null", 
      "name": "seres8_1x1_down_bias", 
      "attr": {
        "kernel": "(1, 1)", 
        "no_bias": "False", 
        "num_filter": "64", 
        "stride": "(1, 1)"
      }, 
      "inputs": []
    }, 
    {
      "op": "Convolution", 
      "name": "seres8_1x1_down", 
      "attr": {
        "kernel": "(1, 1)", 
        "no_bias": "False", 
        "num_filter": "64", 
        "stride": "(1, 1)"
      }, 
      "inputs": [[299, 0, 0], [300, 0, 0], [301, 0, 0]]
    }, 
    {
      "op": "Activation", 
      "name": "seres8_1x1_down_relu", 
      "attr": {"act_type": "relu"}, 
      "inputs": [[302, 0, 0]]
    }, 
    {
      "op": "null", 
      "name": "seres8_1x1_up_weight", 
      "attr": {
        "kernel": "(1, 1)", 
        "no_bias": "False", 
        "num_filter": "1024", 
        "pad": "(0, 0)", 
        "stride": "(1, 1)"
      }, 
      "inputs": []
    }, 
    {
      "op": "null", 
      "name": "seres8_1x1_up_bias", 
      "attr": {
        "kernel": "(1, 1)", 
        "no_bias": "False", 
        "num_filter": "1024", 
        "pad": "(0, 0)", 
        "stride": "(1, 1)"
      }, 
      "inputs": []
    }, 
    {
      "op": "Convolution", 
      "name": "seres8_1x1_up", 
      "attr": {
        "kernel": "(1, 1)", 
        "no_bias": "False", 
        "num_filter": "1024", 
        "pad": "(0, 0)", 
        "stride": "(1, 1)"
      }, 
      "inputs": [[303, 0, 0], [304, 0, 0], [305, 0, 0]]
    }, 
    {
      "op": "Activation", 
      "name": "seres8_1x1_up_prob", 
      "attr": {"act_type": "sigmoid"}, 
      "inputs": [[306, 0, 0]]
    }, 
    {
      "op": "Reshape", 
      "name": "reshape7", 
      "attr": {"shape": "(-1, 1024, 1, 1)"}, 
      "inputs": [[307, 0, 0]]
    }, 
    {
      "op": "broadcast_mul", 
      "name": "broadcast_mul7", 
      "inputs": [[298, 0, 0], [308, 0, 0]]
    }, 
    {
      "op": "null", 
      "name": "seres8_1x1_proj_weight", 
      "attr": {
        "kernel": "(1, 1)", 
        "no_bias": "True", 
        "num_filter": "1024", 
        "pad": "(0, 0)", 
        "stride": "(2, 2)"
      }, 
      "inputs": []
    }, 
    {
      "op": "Convolution", 
      "name": "seres8_1x1_proj", 
      "attr": {
        "kernel": "(1, 1)", 
        "no_bias": "True", 
        "num_filter": "1024", 
        "pad": "(0, 0)", 
        "stride": "(2, 2)"
      }, 
      "inputs": [[275, 0, 0], [310, 0, 0]]
    }, 
    {
      "op": "null", 
      "name": "seres8_1x1_proj_bn_gamma", 
      "attr": {
        "eps": "1e-05", 
        "fix_gamma": "False", 
        "use_global_stats": "True"
      }, 
      "inputs": []
    }, 
    {
      "op": "null", 
      "name": "seres8_1x1_proj_bn_beta", 
      "attr": {
        "eps": "1e-05", 
        "fix_gamma": "False", 
        "use_global_stats": "True"
      }, 
      "inputs": []
    }, 
    {
      "op": "null", 
      "name": "seres8_1x1_proj_bn_moving_mean", 
      "attr": {
        "__init__": "[\"zero\", {}]", 
        "eps": "1e-05", 
        "fix_gamma": "False", 
        "use_global_stats": "True"
      }, 
      "inputs": []
    }, 
    {
      "op": "null", 
      "name": "seres8_1x1_proj_bn_moving_var", 
      "attr": {
        "__init__": "[\"one\", {}]", 
        "eps": "1e-05", 
        "fix_gamma": "False", 
        "use_global_stats": "True"
      }, 
      "inputs": []
    }, 
    {
      "op": "BatchNorm", 
      "name": "seres8_1x1_proj_bn", 
      "attr": {
        "eps": "1e-05", 
        "fix_gamma": "False", 
        "use_global_stats": "True"
      }, 
      "inputs": [[311, 0, 0], [312, 0, 0], [313, 0, 0], [314, 0, 1], [315, 0, 1]]
    }, 
    {
      "op": "broadcast_add", 
      "name": "seres8", 
      "inputs": [[309, 0, 0], [316, 0, 0]]
    }, 
    {
      "op": "Activation", 
      "name": "seres8_relu", 
      "attr": {"act_type": "relu"}, 
      "inputs": [[317, 0, 0]]
    }, 
    {
      "op": "null", 
      "name": "seres9_1x1_reduce_weight", 
      "attr": {
        "kernel": "(1, 1)", 
        "no_bias": "True", 
        "num_filter": "256", 
        "pad": "(0, 0)", 
        "stride": "(1, 1)"
      }, 
      "inputs": []
    }, 
    {
      "op": "Convolution", 
      "name": "seres9_1x1_reduce", 
      "attr": {
        "kernel": "(1, 1)", 
        "no_bias": "True", 
        "num_filter": "256", 
        "pad": "(0, 0)", 
        "stride": "(1, 1)"
      }, 
      "inputs": [[318, 0, 0], [319, 0, 0]]
    }, 
    {
      "op": "null", 
      "name": "seres9_1x1_reduce_bn_gamma", 
      "attr": {
        "eps": "1e-05", 
        "fix_gamma": "False", 
        "use_global_stats": "True"
      }, 
      "inputs": []
    }, 
    {
      "op": "null", 
      "name": "seres9_1x1_reduce_bn_beta", 
      "attr": {
        "eps": "1e-05", 
        "fix_gamma": "False", 
        "use_global_stats": "True"
      }, 
      "inputs": []
    }, 
    {
      "op": "null", 
      "name": "seres9_1x1_reduce_bn_moving_mean", 
      "attr": {
        "__init__": "[\"zero\", {}]", 
        "eps": "1e-05", 
        "fix_gamma": "False", 
        "use_global_stats": "True"
      }, 
      "inputs": []
    }, 
    {
      "op": "null", 
      "name": "seres9_1x1_reduce_bn_moving_var", 
      "attr": {
        "__init__": "[\"one\", {}]", 
        "eps": "1e-05", 
        "fix_gamma": "False", 
        "use_global_stats": "True"
      }, 
      "inputs": []
    }, 
    {
      "op": "BatchNorm", 
      "name": "seres9_1x1_reduce_bn", 
      "attr": {
        "eps": "1e-05", 
        "fix_gamma": "False", 
        "use_global_stats": "True"
      }, 
      "inputs": [[320, 0, 0], [321, 0, 0], [322, 0, 0], [323, 0, 1], [324, 0, 1]]
    }, 
    {
      "op": "Activation", 
      "name": "seres9_1x1_reduce_relu", 
      "attr": {"act_type": "relu"}, 
      "inputs": [[325, 0, 0]]
    }, 
    {
      "op": "null", 
      "name": "seres9_3x3_weight", 
      "attr": {
        "kernel": "(3, 3)", 
        "no_bias": "True", 
        "num_filter": "256", 
        "pad": "(1, 1)", 
        "stride": "(1, 1)"
      }, 
      "inputs": []
    }, 
    {
      "op": "Convolution", 
      "name": "seres9_3x3", 
      "attr": {
        "kernel": "(3, 3)", 
        "no_bias": "True", 
        "num_filter": "256", 
        "pad": "(1, 1)", 
        "stride": "(1, 1)"
      }, 
      "inputs": [[326, 0, 0], [327, 0, 0]]
    }, 
    {
      "op": "null", 
      "name": "seres9_3x3_bn_gamma", 
      "attr": {
        "eps": "1e-05", 
        "fix_gamma": "False", 
        "use_global_stats": "True"
      }, 
      "inputs": []
    }, 
    {
      "op": "null", 
      "name": "seres9_3x3_bn_beta", 
      "attr": {
        "eps": "1e-05", 
        "fix_gamma": "False", 
        "use_global_stats": "True"
      }, 
      "inputs": []
    }, 
    {
      "op": "null", 
      "name": "seres9_3x3_bn_moving_mean", 
      "attr": {
        "__init__": "[\"zero\", {}]", 
        "eps": "1e-05", 
        "fix_gamma": "False", 
        "use_global_stats": "True"
      }, 
      "inputs": []
    }, 
    {
      "op": "null", 
      "name": "seres9_3x3_bn_moving_var", 
      "attr": {
        "__init__": "[\"one\", {}]", 
        "eps": "1e-05", 
        "fix_gamma": "False", 
        "use_global_stats": "True"
      }, 
      "inputs": []
    }, 
    {
      "op": "BatchNorm", 
      "name": "seres9_3x3_bn", 
      "attr": {
        "eps": "1e-05", 
        "fix_gamma": "False", 
        "use_global_stats": "True"
      }, 
      "inputs": [[328, 0, 0], [329, 0, 0], [330, 0, 0], [331, 0, 1], [332, 0, 1]]
    }, 
    {
      "op": "Activation", 
      "name": "seres9_3x3_relu", 
      "attr": {"act_type": "relu"}, 
      "inputs": [[333, 0, 0]]
    }, 
    {
      "op": "null", 
      "name": "seres9_1x1_increase_weight", 
      "attr": {
        "kernel": "(1, 1)", 
        "no_bias": "True", 
        "num_filter": "1024", 
        "pad": "(0, 0)", 
        "stride": "(1, 1)"
      }, 
      "inputs": []
    }, 
    {
      "op": "Convolution", 
      "name": "seres9_1x1_increase", 
      "attr": {
        "kernel": "(1, 1)", 
        "no_bias": "True", 
        "num_filter": "1024", 
        "pad": "(0, 0)", 
        "stride": "(1, 1)"
      }, 
      "inputs": [[334, 0, 0], [335, 0, 0]]
    }, 
    {
      "op": "null", 
      "name": "seres9_1x1_increase_bn_gamma", 
      "attr": {
        "eps": "1e-05", 
        "fix_gamma": "False", 
        "use_global_stats": "True"
      }, 
      "inputs": []
    }, 
    {
      "op": "null", 
      "name": "seres9_1x1_increase_bn_beta", 
      "attr": {
        "eps": "1e-05", 
        "fix_gamma": "False", 
        "use_global_stats": "True"
      }, 
      "inputs": []
    }, 
    {
      "op": "null", 
      "name": "seres9_1x1_increase_bn_moving_mean", 
      "attr": {
        "__init__": "[\"zero\", {}]", 
        "eps": "1e-05", 
        "fix_gamma": "False", 
        "use_global_stats": "True"
      }, 
      "inputs": []
    }, 
    {
      "op": "null", 
      "name": "seres9_1x1_increase_bn_moving_var", 
      "attr": {
        "__init__": "[\"one\", {}]", 
        "eps": "1e-05", 
        "fix_gamma": "False", 
        "use_global_stats": "True"
      }, 
      "inputs": []
    }, 
    {
      "op": "BatchNorm", 
      "name": "seres9_1x1_increase_bn", 
      "attr": {
        "eps": "1e-05", 
        "fix_gamma": "False", 
        "use_global_stats": "True"
      }, 
      "inputs": [[336, 0, 0], [337, 0, 0], [338, 0, 0], [339, 0, 1], [340, 0, 1]]
    }, 
    {
      "op": "Pooling", 
      "name": "seres9_global_pool", 
      "attr": {
        "global_pool": "True", 
        "kernel": "(7, 7)", 
        "pool_type": "avg", 
        "pooling_convention": "full"
      }, 
      "inputs": [[341, 0, 0]]
    }, 
    {
      "op": "null", 
      "name": "seres9_1x1_down_weight", 
      "attr": {
        "kernel": "(1, 1)", 
        "no_bias": "False", 
        "num_filter": "64", 
        "stride": "(1, 1)"
      }, 
      "inputs": []
    }, 
    {
      "op": "null", 
      "name": "seres9_1x1_down_bias", 
      "attr": {
        "kernel": "(1, 1)", 
        "no_bias": "False", 
        "num_filter": "64", 
        "stride": "(1, 1)"
      }, 
      "inputs": []
    }, 
    {
      "op": "Convolution", 
      "name": "seres9_1x1_down", 
      "attr": {
        "kernel": "(1, 1)", 
        "no_bias": "False", 
        "num_filter": "64", 
        "stride": "(1, 1)"
      }, 
      "inputs": [[342, 0, 0], [343, 0, 0], [344, 0, 0]]
    }, 
    {
      "op": "Activation", 
      "name": "seres9_1x1_down_relu", 
      "attr": {"act_type": "relu"}, 
      "inputs": [[345, 0, 0]]
    }, 
    {
      "op": "null", 
      "name": "seres9_1x1_up_weight", 
      "attr": {
        "kernel": "(1, 1)", 
        "no_bias": "False", 
        "num_filter": "1024", 
        "pad": "(0, 0)", 
        "stride": "(1, 1)"
      }, 
      "inputs": []
    }, 
    {
      "op": "null", 
      "name": "seres9_1x1_up_bias", 
      "attr": {
        "kernel": "(1, 1)", 
        "no_bias": "False", 
        "num_filter": "1024", 
        "pad": "(0, 0)", 
        "stride": "(1, 1)"
      }, 
      "inputs": []
    }, 
    {
      "op": "Convolution", 
      "name": "seres9_1x1_up", 
      "attr": {
        "kernel": "(1, 1)", 
        "no_bias": "False", 
        "num_filter": "1024", 
        "pad": "(0, 0)", 
        "stride": "(1, 1)"
      }, 
      "inputs": [[346, 0, 0], [347, 0, 0], [348, 0, 0]]
    }, 
    {
      "op": "Activation", 
      "name": "seres9_1x1_up_prob", 
      "attr": {"act_type": "sigmoid"}, 
      "inputs": [[349, 0, 0]]
    }, 
    {
      "op": "Reshape", 
      "name": "reshape8", 
      "attr": {"shape": "(-1, 1024, 1, 1)"}, 
      "inputs": [[350, 0, 0]]
    }, 
    {
      "op": "broadcast_mul", 
      "name": "broadcast_mul8", 
      "inputs": [[341, 0, 0], [351, 0, 0]]
    }, 
    {
      "op": "broadcast_add", 
      "name": "seres9", 
      "inputs": [[318, 0, 0], [352, 0, 0]]
    }, 
    {
      "op": "Activation", 
      "name": "seres9_relu", 
      "attr": {"act_type": "relu"}, 
      "inputs": [[353, 0, 0]]
    }, 
    {
      "op": "null", 
      "name": "seres10_1x1_reduce_weight", 
      "attr": {
        "kernel": "(1, 1)", 
        "no_bias": "True", 
        "num_filter": "256", 
        "pad": "(0, 0)", 
        "stride": "(1, 1)"
      }, 
      "inputs": []
    }, 
    {
      "op": "Convolution", 
      "name": "seres10_1x1_reduce", 
      "attr": {
        "kernel": "(1, 1)", 
        "no_bias": "True", 
        "num_filter": "256", 
        "pad": "(0, 0)", 
        "stride": "(1, 1)"
      }, 
      "inputs": [[354, 0, 0], [355, 0, 0]]
    }, 
    {
      "op": "null", 
      "name": "seres10_1x1_reduce_bn_gamma", 
      "attr": {
        "eps": "1e-05", 
        "fix_gamma": "False", 
        "use_global_stats": "True"
      }, 
      "inputs": []
    }, 
    {
      "op": "null", 
      "name": "seres10_1x1_reduce_bn_beta", 
      "attr": {
        "eps": "1e-05", 
        "fix_gamma": "False", 
        "use_global_stats": "True"
      }, 
      "inputs": []
    }, 
    {
      "op": "null", 
      "name": "seres10_1x1_reduce_bn_moving_mean", 
      "attr": {
        "__init__": "[\"zero\", {}]", 
        "eps": "1e-05", 
        "fix_gamma": "False", 
        "use_global_stats": "True"
      }, 
      "inputs": []
    }, 
    {
      "op": "null", 
      "name": "seres10_1x1_reduce_bn_moving_var", 
      "attr": {
        "__init__": "[\"one\", {}]", 
        "eps": "1e-05", 
        "fix_gamma": "False", 
        "use_global_stats": "True"
      }, 
      "inputs": []
    }, 
    {
      "op": "BatchNorm", 
      "name": "seres10_1x1_reduce_bn", 
      "attr": {
        "eps": "1e-05", 
        "fix_gamma": "False", 
        "use_global_stats": "True"
      }, 
      "inputs": [[356, 0, 0], [357, 0, 0], [358, 0, 0], [359, 0, 1], [360, 0, 1]]
    }, 
    {
      "op": "Activation", 
      "name": "seres10_1x1_reduce_relu", 
      "attr": {"act_type": "relu"}, 
      "inputs": [[361, 0, 0]]
    }, 
    {
      "op": "null", 
      "name": "seres10_3x3_weight", 
      "attr": {
        "kernel": "(3, 3)", 
        "no_bias": "True", 
        "num_filter": "256", 
        "pad": "(1, 1)", 
        "stride": "(1, 1)"
      }, 
      "inputs": []
    }, 
    {
      "op": "Convolution", 
      "name": "seres10_3x3", 
      "attr": {
        "kernel": "(3, 3)", 
        "no_bias": "True", 
        "num_filter": "256", 
        "pad": "(1, 1)", 
        "stride": "(1, 1)"
      }, 
      "inputs": [[362, 0, 0], [363, 0, 0]]
    }, 
    {
      "op": "null", 
      "name": "seres10_3x3_bn_gamma", 
      "attr": {
        "eps": "1e-05", 
        "fix_gamma": "False", 
        "use_global_stats": "True"
      }, 
      "inputs": []
    }, 
    {
      "op": "null", 
      "name": "seres10_3x3_bn_beta", 
      "attr": {
        "eps": "1e-05", 
        "fix_gamma": "False", 
        "use_global_stats": "True"
      }, 
      "inputs": []
    }, 
    {
      "op": "null", 
      "name": "seres10_3x3_bn_moving_mean", 
      "attr": {
        "__init__": "[\"zero\", {}]", 
        "eps": "1e-05", 
        "fix_gamma": "False", 
        "use_global_stats": "True"
      }, 
      "inputs": []
    }, 
    {
      "op": "null", 
      "name": "seres10_3x3_bn_moving_var", 
      "attr": {
        "__init__": "[\"one\", {}]", 
        "eps": "1e-05", 
        "fix_gamma": "False", 
        "use_global_stats": "True"
      }, 
      "inputs": []
    }, 
    {
      "op": "BatchNorm", 
      "name": "seres10_3x3_bn", 
      "attr": {
        "eps": "1e-05", 
        "fix_gamma": "False", 
        "use_global_stats": "True"
      }, 
      "inputs": [[364, 0, 0], [365, 0, 0], [366, 0, 0], [367, 0, 1], [368, 0, 1]]
    }, 
    {
      "op": "Activation", 
      "name": "seres10_3x3_relu", 
      "attr": {"act_type": "relu"}, 
      "inputs": [[369, 0, 0]]
    }, 
    {
      "op": "null", 
      "name": "seres10_1x1_increase_weight", 
      "attr": {
        "kernel": "(1, 1)", 
        "no_bias": "True", 
        "num_filter": "1024", 
        "pad": "(0, 0)", 
        "stride": "(1, 1)"
      }, 
      "inputs": []
    }, 
    {
      "op": "Convolution", 
      "name": "seres10_1x1_increase", 
      "attr": {
        "kernel": "(1, 1)", 
        "no_bias": "True", 
        "num_filter": "1024", 
        "pad": "(0, 0)", 
        "stride": "(1, 1)"
      }, 
      "inputs": [[370, 0, 0], [371, 0, 0]]
    }, 
    {
      "op": "null", 
      "name": "seres10_1x1_increase_bn_gamma", 
      "attr": {
        "eps": "1e-05", 
        "fix_gamma": "False", 
        "use_global_stats": "True"
      }, 
      "inputs": []
    }, 
    {
      "op": "null", 
      "name": "seres10_1x1_increase_bn_beta", 
      "attr": {
        "eps": "1e-05", 
        "fix_gamma": "False", 
        "use_global_stats": "True"
      }, 
      "inputs": []
    }, 
    {
      "op": "null", 
      "name": "seres10_1x1_increase_bn_moving_mean", 
      "attr": {
        "__init__": "[\"zero\", {}]", 
        "eps": "1e-05", 
        "fix_gamma": "False", 
        "use_global_stats": "True"
      }, 
      "inputs": []
    }, 
    {
      "op": "null", 
      "name": "seres10_1x1_increase_bn_moving_var", 
      "attr": {
        "__init__": "[\"one\", {}]", 
        "eps": "1e-05", 
        "fix_gamma": "False", 
        "use_global_stats": "True"
      }, 
      "inputs": []
    }, 
    {
      "op": "BatchNorm", 
      "name": "seres10_1x1_increase_bn", 
      "attr": {
        "eps": "1e-05", 
        "fix_gamma": "False", 
        "use_global_stats": "True"
      }, 
      "inputs": [[372, 0, 0], [373, 0, 0], [374, 0, 0], [375, 0, 1], [376, 0, 1]]
    }, 
    {
      "op": "Pooling", 
      "name": "seres10_global_pool", 
      "attr": {
        "global_pool": "True", 
        "kernel": "(7, 7)", 
        "pool_type": "avg", 
        "pooling_convention": "full"
      }, 
      "inputs": [[377, 0, 0]]
    }, 
    {
      "op": "null", 
      "name": "seres10_1x1_down_weight", 
      "attr": {
        "kernel": "(1, 1)", 
        "no_bias": "False", 
        "num_filter": "64", 
        "stride": "(1, 1)"
      }, 
      "inputs": []
    }, 
    {
      "op": "null", 
      "name": "seres10_1x1_down_bias", 
      "attr": {
        "kernel": "(1, 1)", 
        "no_bias": "False", 
        "num_filter": "64", 
        "stride": "(1, 1)"
      }, 
      "inputs": []
    }, 
    {
      "op": "Convolution", 
      "name": "seres10_1x1_down", 
      "attr": {
        "kernel": "(1, 1)", 
        "no_bias": "False", 
        "num_filter": "64", 
        "stride": "(1, 1)"
      }, 
      "inputs": [[378, 0, 0], [379, 0, 0], [380, 0, 0]]
    }, 
    {
      "op": "Activation", 
      "name": "seres10_1x1_down_relu", 
      "attr": {"act_type": "relu"}, 
      "inputs": [[381, 0, 0]]
    }, 
    {
      "op": "null", 
      "name": "seres10_1x1_up_weight", 
      "attr": {
        "kernel": "(1, 1)", 
        "no_bias": "False", 
        "num_filter": "1024", 
        "pad": "(0, 0)", 
        "stride": "(1, 1)"
      }, 
      "inputs": []
    }, 
    {
      "op": "null", 
      "name": "seres10_1x1_up_bias", 
      "attr": {
        "kernel": "(1, 1)", 
        "no_bias": "False", 
        "num_filter": "1024", 
        "pad": "(0, 0)", 
        "stride": "(1, 1)"
      }, 
      "inputs": []
    }, 
    {
      "op": "Convolution", 
      "name": "seres10_1x1_up", 
      "attr": {
        "kernel": "(1, 1)", 
        "no_bias": "False", 
        "num_filter": "1024", 
        "pad": "(0, 0)", 
        "stride": "(1, 1)"
      }, 
      "inputs": [[382, 0, 0], [383, 0, 0], [384, 0, 0]]
    }, 
    {
      "op": "Activation", 
      "name": "seres10_1x1_up_prob", 
      "attr": {"act_type": "sigmoid"}, 
      "inputs": [[385, 0, 0]]
    }, 
    {
      "op": "Reshape", 
      "name": "reshape9", 
      "attr": {"shape": "(-1, 1024, 1, 1)"}, 
      "inputs": [[386, 0, 0]]
    }, 
    {
      "op": "broadcast_mul", 
      "name": "broadcast_mul9", 
      "inputs": [[377, 0, 0], [387, 0, 0]]
    }, 
    {
      "op": "broadcast_add", 
      "name": "seres10", 
      "inputs": [[354, 0, 0], [388, 0, 0]]
    }, 
    {
      "op": "Activation", 
      "name": "seres10_relu", 
      "attr": {"act_type": "relu"}, 
      "inputs": [[389, 0, 0]]
    }, 
    {
      "op": "null", 
      "name": "seres11_1x1_reduce_weight", 
      "attr": {
        "kernel": "(1, 1)", 
        "no_bias": "True", 
        "num_filter": "256", 
        "pad": "(0, 0)", 
        "stride": "(1, 1)"
      }, 
      "inputs": []
    }, 
    {
      "op": "Convolution", 
      "name": "seres11_1x1_reduce", 
      "attr": {
        "kernel": "(1, 1)", 
        "no_bias": "True", 
        "num_filter": "256", 
        "pad": "(0, 0)", 
        "stride": "(1, 1)"
      }, 
      "inputs": [[390, 0, 0], [391, 0, 0]]
    }, 
    {
      "op": "null", 
      "name": "seres11_1x1_reduce_bn_gamma", 
      "attr": {
        "eps": "1e-05", 
        "fix_gamma": "False", 
        "use_global_stats": "True"
      }, 
      "inputs": []
    }, 
    {
      "op": "null", 
      "name": "seres11_1x1_reduce_bn_beta", 
      "attr": {
        "eps": "1e-05", 
        "fix_gamma": "False", 
        "use_global_stats": "True"
      }, 
      "inputs": []
    }, 
    {
      "op": "null", 
      "name": "seres11_1x1_reduce_bn_moving_mean", 
      "attr": {
        "__init__": "[\"zero\", {}]", 
        "eps": "1e-05", 
        "fix_gamma": "False", 
        "use_global_stats": "True"
      }, 
      "inputs": []
    }, 
    {
      "op": "null", 
      "name": "seres11_1x1_reduce_bn_moving_var", 
      "attr": {
        "__init__": "[\"one\", {}]", 
        "eps": "1e-05", 
        "fix_gamma": "False", 
        "use_global_stats": "True"
      }, 
      "inputs": []
    }, 
    {
      "op": "BatchNorm", 
      "name": "seres11_1x1_reduce_bn", 
      "attr": {
        "eps": "1e-05", 
        "fix_gamma": "False", 
        "use_global_stats": "True"
      }, 
      "inputs": [[392, 0, 0], [393, 0, 0], [394, 0, 0], [395, 0, 1], [396, 0, 1]]
    }, 
    {
      "op": "Activation", 
      "name": "seres11_1x1_reduce_relu", 
      "attr": {"act_type": "relu"}, 
      "inputs": [[397, 0, 0]]
    }, 
    {
      "op": "null", 
      "name": "seres11_3x3_weight", 
      "attr": {
        "kernel": "(3, 3)", 
        "no_bias": "True", 
        "num_filter": "256", 
        "pad": "(1, 1)", 
        "stride": "(1, 1)"
      }, 
      "inputs": []
    }, 
    {
      "op": "Convolution", 
      "name": "seres11_3x3", 
      "attr": {
        "kernel": "(3, 3)", 
        "no_bias": "True", 
        "num_filter": "256", 
        "pad": "(1, 1)", 
        "stride": "(1, 1)"
      }, 
      "inputs": [[398, 0, 0], [399, 0, 0]]
    }, 
    {
      "op": "null", 
      "name": "seres11_3x3_bn_gamma", 
      "attr": {
        "eps": "1e-05", 
        "fix_gamma": "False", 
        "use_global_stats": "True"
      }, 
      "inputs": []
    }, 
    {
      "op": "null", 
      "name": "seres11_3x3_bn_beta", 
      "attr": {
        "eps": "1e-05", 
        "fix_gamma": "False", 
        "use_global_stats": "True"
      }, 
      "inputs": []
    }, 
    {
      "op": "null", 
      "name": "seres11_3x3_bn_moving_mean", 
      "attr": {
        "__init__": "[\"zero\", {}]", 
        "eps": "1e-05", 
        "fix_gamma": "False", 
        "use_global_stats": "True"
      }, 
      "inputs": []
    }, 
    {
      "op": "null", 
      "name": "seres11_3x3_bn_moving_var", 
      "attr": {
        "__init__": "[\"one\", {}]", 
        "eps": "1e-05", 
        "fix_gamma": "False", 
        "use_global_stats": "True"
      }, 
      "inputs": []
    }, 
    {
      "op": "BatchNorm", 
      "name": "seres11_3x3_bn", 
      "attr": {
        "eps": "1e-05", 
        "fix_gamma": "False", 
        "use_global_stats": "True"
      }, 
      "inputs": [[400, 0, 0], [401, 0, 0], [402, 0, 0], [403, 0, 1], [404, 0, 1]]
    }, 
    {
      "op": "Activation", 
      "name": "seres11_3x3_relu", 
      "attr": {"act_type": "relu"}, 
      "inputs": [[405, 0, 0]]
    }, 
    {
      "op": "null", 
      "name": "seres11_1x1_increase_weight", 
      "attr": {
        "kernel": "(1, 1)", 
        "no_bias": "True", 
        "num_filter": "1024", 
        "pad": "(0, 0)", 
        "stride": "(1, 1)"
      }, 
      "inputs": []
    }, 
    {
      "op": "Convolution", 
      "name": "seres11_1x1_increase", 
      "attr": {
        "kernel": "(1, 1)", 
        "no_bias": "True", 
        "num_filter": "1024", 
        "pad": "(0, 0)", 
        "stride": "(1, 1)"
      }, 
      "inputs": [[406, 0, 0], [407, 0, 0]]
    }, 
    {
      "op": "null", 
      "name": "seres11_1x1_increase_bn_gamma", 
      "attr": {
        "eps": "1e-05", 
        "fix_gamma": "False", 
        "use_global_stats": "True"
      }, 
      "inputs": []
    }, 
    {
      "op": "null", 
      "name": "seres11_1x1_increase_bn_beta", 
      "attr": {
        "eps": "1e-05", 
        "fix_gamma": "False", 
        "use_global_stats": "True"
      }, 
      "inputs": []
    }, 
    {
      "op": "null", 
      "name": "seres11_1x1_increase_bn_moving_mean", 
      "attr": {
        "__init__": "[\"zero\", {}]", 
        "eps": "1e-05", 
        "fix_gamma": "False", 
        "use_global_stats": "True"
      }, 
      "inputs": []
    }, 
    {
      "op": "null", 
      "name": "seres11_1x1_increase_bn_moving_var", 
      "attr": {
        "__init__": "[\"one\", {}]", 
        "eps": "1e-05", 
        "fix_gamma": "False", 
        "use_global_stats": "True"
      }, 
      "inputs": []
    }, 
    {
      "op": "BatchNorm", 
      "name": "seres11_1x1_increase_bn", 
      "attr": {
        "eps": "1e-05", 
        "fix_gamma": "False", 
        "use_global_stats": "True"
      }, 
      "inputs": [[408, 0, 0], [409, 0, 0], [410, 0, 0], [411, 0, 1], [412, 0, 1]]
    }, 
    {
      "op": "Pooling", 
      "name": "seres11_global_pool", 
      "attr": {
        "global_pool": "True", 
        "kernel": "(7, 7)", 
        "pool_type": "avg", 
        "pooling_convention": "full"
      }, 
      "inputs": [[413, 0, 0]]
    }, 
    {
      "op": "null", 
      "name": "seres11_1x1_down_weight", 
      "attr": {
        "kernel": "(1, 1)", 
        "no_bias": "False", 
        "num_filter": "64", 
        "stride": "(1, 1)"
      }, 
      "inputs": []
    }, 
    {
      "op": "null", 
      "name": "seres11_1x1_down_bias", 
      "attr": {
        "kernel": "(1, 1)", 
        "no_bias": "False", 
        "num_filter": "64", 
        "stride": "(1, 1)"
      }, 
      "inputs": []
    }, 
    {
      "op": "Convolution", 
      "name": "seres11_1x1_down", 
      "attr": {
        "kernel": "(1, 1)", 
        "no_bias": "False", 
        "num_filter": "64", 
        "stride": "(1, 1)"
      }, 
      "inputs": [[414, 0, 0], [415, 0, 0], [416, 0, 0]]
    }, 
    {
      "op": "Activation", 
      "name": "seres11_1x1_down_relu", 
      "attr": {"act_type": "relu"}, 
      "inputs": [[417, 0, 0]]
    }, 
    {
      "op": "null", 
      "name": "seres11_1x1_up_weight", 
      "attr": {
        "kernel": "(1, 1)", 
        "no_bias": "False", 
        "num_filter": "1024", 
        "pad": "(0, 0)", 
        "stride": "(1, 1)"
      }, 
      "inputs": []
    }, 
    {
      "op": "null", 
      "name": "seres11_1x1_up_bias", 
      "attr": {
        "kernel": "(1, 1)", 
        "no_bias": "False", 
        "num_filter": "1024", 
        "pad": "(0, 0)", 
        "stride": "(1, 1)"
      }, 
      "inputs": []
    }, 
    {
      "op": "Convolution", 
      "name": "seres11_1x1_up", 
      "attr": {
        "kernel": "(1, 1)", 
        "no_bias": "False", 
        "num_filter": "1024", 
        "pad": "(0, 0)", 
        "stride": "(1, 1)"
      }, 
      "inputs": [[418, 0, 0], [419, 0, 0], [420, 0, 0]]
    }, 
    {
      "op": "Activation", 
      "name": "seres11_1x1_up_prob", 
      "attr": {"act_type": "sigmoid"}, 
      "inputs": [[421, 0, 0]]
    }, 
    {
      "op": "Reshape", 
      "name": "reshape10", 
      "attr": {"shape": "(-1, 1024, 1, 1)"}, 
      "inputs": [[422, 0, 0]]
    }, 
    {
      "op": "broadcast_mul", 
      "name": "broadcast_mul10", 
      "inputs": [[413, 0, 0], [423, 0, 0]]
    }, 
    {
      "op": "broadcast_add", 
      "name": "seres11", 
      "inputs": [[390, 0, 0], [424, 0, 0]]
    }, 
    {
      "op": "Activation", 
      "name": "seres11_relu", 
      "attr": {"act_type": "relu"}, 
      "inputs": [[425, 0, 0]]
    }, 
    {
      "op": "null", 
      "name": "seres12_1x1_reduce_weight", 
      "attr": {
        "kernel": "(1, 1)", 
        "no_bias": "True", 
        "num_filter": "256", 
        "pad": "(0, 0)", 
        "stride": "(1, 1)"
      }, 
      "inputs": []
    }, 
    {
      "op": "Convolution", 
      "name": "seres12_1x1_reduce", 
      "attr": {
        "kernel": "(1, 1)", 
        "no_bias": "True", 
        "num_filter": "256", 
        "pad": "(0, 0)", 
        "stride": "(1, 1)"
      }, 
      "inputs": [[426, 0, 0], [427, 0, 0]]
    }, 
    {
      "op": "null", 
      "name": "seres12_1x1_reduce_bn_gamma", 
      "attr": {
        "eps": "1e-05", 
        "fix_gamma": "False", 
        "use_global_stats": "True"
      }, 
      "inputs": []
    }, 
    {
      "op": "null", 
      "name": "seres12_1x1_reduce_bn_beta", 
      "attr": {
        "eps": "1e-05", 
        "fix_gamma": "False", 
        "use_global_stats": "True"
      }, 
      "inputs": []
    }, 
    {
      "op": "null", 
      "name": "seres12_1x1_reduce_bn_moving_mean", 
      "attr": {
        "__init__": "[\"zero\", {}]", 
        "eps": "1e-05", 
        "fix_gamma": "False", 
        "use_global_stats": "True"
      }, 
      "inputs": []
    }, 
    {
      "op": "null", 
      "name": "seres12_1x1_reduce_bn_moving_var", 
      "attr": {
        "__init__": "[\"one\", {}]", 
        "eps": "1e-05", 
        "fix_gamma": "False", 
        "use_global_stats": "True"
      }, 
      "inputs": []
    }, 
    {
      "op": "BatchNorm", 
      "name": "seres12_1x1_reduce_bn", 
      "attr": {
        "eps": "1e-05", 
        "fix_gamma": "False", 
        "use_global_stats": "True"
      }, 
      "inputs": [[428, 0, 0], [429, 0, 0], [430, 0, 0], [431, 0, 1], [432, 0, 1]]
    }, 
    {
      "op": "Activation", 
      "name": "seres12_1x1_reduce_relu", 
      "attr": {"act_type": "relu"}, 
      "inputs": [[433, 0, 0]]
    }, 
    {
      "op": "null", 
      "name": "seres12_3x3_weight", 
      "attr": {
        "kernel": "(3, 3)", 
        "no_bias": "True", 
        "num_filter": "256", 
        "pad": "(1, 1)", 
        "stride": "(1, 1)"
      }, 
      "inputs": []
    }, 
    {
      "op": "Convolution", 
      "name": "seres12_3x3", 
      "attr": {
        "kernel": "(3, 3)", 
        "no_bias": "True", 
        "num_filter": "256", 
        "pad": "(1, 1)", 
        "stride": "(1, 1)"
      }, 
      "inputs": [[434, 0, 0], [435, 0, 0]]
    }, 
    {
      "op": "null", 
      "name": "seres12_3x3_bn_gamma", 
      "attr": {
        "eps": "1e-05", 
        "fix_gamma": "False", 
        "use_global_stats": "True"
      }, 
      "inputs": []
    }, 
    {
      "op": "null", 
      "name": "seres12_3x3_bn_beta", 
      "attr": {
        "eps": "1e-05", 
        "fix_gamma": "False", 
        "use_global_stats": "True"
      }, 
      "inputs": []
    }, 
    {
      "op": "null", 
      "name": "seres12_3x3_bn_moving_mean", 
      "attr": {
        "__init__": "[\"zero\", {}]", 
        "eps": "1e-05", 
        "fix_gamma": "False", 
        "use_global_stats": "True"
      }, 
      "inputs": []
    }, 
    {
      "op": "null", 
      "name": "seres12_3x3_bn_moving_var", 
      "attr": {
        "__init__": "[\"one\", {}]", 
        "eps": "1e-05", 
        "fix_gamma": "False", 
        "use_global_stats": "True"
      }, 
      "inputs": []
    }, 
    {
      "op": "BatchNorm", 
      "name": "seres12_3x3_bn", 
      "attr": {
        "eps": "1e-05", 
        "fix_gamma": "False", 
        "use_global_stats": "True"
      }, 
      "inputs": [[436, 0, 0], [437, 0, 0], [438, 0, 0], [439, 0, 1], [440, 0, 1]]
    }, 
    {
      "op": "Activation", 
      "name": "seres12_3x3_relu", 
      "attr": {"act_type": "relu"}, 
      "inputs": [[441, 0, 0]]
    }, 
    {
      "op": "null", 
      "name": "seres12_1x1_increase_weight", 
      "attr": {
        "kernel": "(1, 1)", 
        "no_bias": "True", 
        "num_filter": "1024", 
        "pad": "(0, 0)", 
        "stride": "(1, 1)"
      }, 
      "inputs": []
    }, 
    {
      "op": "Convolution", 
      "name": "seres12_1x1_increase", 
      "attr": {
        "kernel": "(1, 1)", 
        "no_bias": "True", 
        "num_filter": "1024", 
        "pad": "(0, 0)", 
        "stride": "(1, 1)"
      }, 
      "inputs": [[442, 0, 0], [443, 0, 0]]
    }, 
    {
      "op": "null", 
      "name": "seres12_1x1_increase_bn_gamma", 
      "attr": {
        "eps": "1e-05", 
        "fix_gamma": "False", 
        "use_global_stats": "True"
      }, 
      "inputs": []
    }, 
    {
      "op": "null", 
      "name": "seres12_1x1_increase_bn_beta", 
      "attr": {
        "eps": "1e-05", 
        "fix_gamma": "False", 
        "use_global_stats": "True"
      }, 
      "inputs": []
    }, 
    {
      "op": "null", 
      "name": "seres12_1x1_increase_bn_moving_mean", 
      "attr": {
        "__init__": "[\"zero\", {}]", 
        "eps": "1e-05", 
        "fix_gamma": "False", 
        "use_global_stats": "True"
      }, 
      "inputs": []
    }, 
    {
      "op": "null", 
      "name": "seres12_1x1_increase_bn_moving_var", 
      "attr": {
        "__init__": "[\"one\", {}]", 
        "eps": "1e-05", 
        "fix_gamma": "False", 
        "use_global_stats": "True"
      }, 
      "inputs": []
    }, 
    {
      "op": "BatchNorm", 
      "name": "seres12_1x1_increase_bn", 
      "attr": {
        "eps": "1e-05", 
        "fix_gamma": "False", 
        "use_global_stats": "True"
      }, 
      "inputs": [[444, 0, 0], [445, 0, 0], [446, 0, 0], [447, 0, 1], [448, 0, 1]]
    }, 
    {
      "op": "Pooling", 
      "name": "seres12_global_pool", 
      "attr": {
        "global_pool": "True", 
        "kernel": "(7, 7)", 
        "pool_type": "avg", 
        "pooling_convention": "full"
      }, 
      "inputs": [[449, 0, 0]]
    }, 
    {
      "op": "null", 
      "name": "seres12_1x1_down_weight", 
      "attr": {
        "kernel": "(1, 1)", 
        "no_bias": "False", 
        "num_filter": "64", 
        "stride": "(1, 1)"
      }, 
      "inputs": []
    }, 
    {
      "op": "null", 
      "name": "seres12_1x1_down_bias", 
      "attr": {
        "kernel": "(1, 1)", 
        "no_bias": "False", 
        "num_filter": "64", 
        "stride": "(1, 1)"
      }, 
      "inputs": []
    }, 
    {
      "op": "Convolution", 
      "name": "seres12_1x1_down", 
      "attr": {
        "kernel": "(1, 1)", 
        "no_bias": "False", 
        "num_filter": "64", 
        "stride": "(1, 1)"
      }, 
      "inputs": [[450, 0, 0], [451, 0, 0], [452, 0, 0]]
    }, 
    {
      "op": "Activation", 
      "name": "seres12_1x1_down_relu", 
      "attr": {"act_type": "relu"}, 
      "inputs": [[453, 0, 0]]
    }, 
    {
      "op": "null", 
      "name": "seres12_1x1_up_weight", 
      "attr": {
        "kernel": "(1, 1)", 
        "no_bias": "False", 
        "num_filter": "1024", 
        "pad": "(0, 0)", 
        "stride": "(1, 1)"
      }, 
      "inputs": []
    }, 
    {
      "op": "null", 
      "name": "seres12_1x1_up_bias", 
      "attr": {
        "kernel": "(1, 1)", 
        "no_bias": "False", 
        "num_filter": "1024", 
        "pad": "(0, 0)", 
        "stride": "(1, 1)"
      }, 
      "inputs": []
    }, 
    {
      "op": "Convolution", 
      "name": "seres12_1x1_up", 
      "attr": {
        "kernel": "(1, 1)", 
        "no_bias": "False", 
        "num_filter": "1024", 
        "pad": "(0, 0)", 
        "stride": "(1, 1)"
      }, 
      "inputs": [[454, 0, 0], [455, 0, 0], [456, 0, 0]]
    }, 
    {
      "op": "Activation", 
      "name": "seres12_1x1_up_prob", 
      "attr": {"act_type": "sigmoid"}, 
      "inputs": [[457, 0, 0]]
    }, 
    {
      "op": "Reshape", 
      "name": "reshape11", 
      "attr": {"shape": "(-1, 1024, 1, 1)"}, 
      "inputs": [[458, 0, 0]]
    }, 
    {
      "op": "broadcast_mul", 
      "name": "broadcast_mul11", 
      "inputs": [[449, 0, 0], [459, 0, 0]]
    }, 
    {
      "op": "broadcast_add", 
      "name": "seres12", 
      "inputs": [[426, 0, 0], [460, 0, 0]]
    }, 
    {
      "op": "Activation", 
      "name": "seres12_relu", 
      "attr": {"act_type": "relu"}, 
      "inputs": [[461, 0, 0]]
    }, 
    {
      "op": "null", 
      "name": "seres13_1x1_reduce_weight", 
      "attr": {
        "kernel": "(1, 1)", 
        "no_bias": "True", 
        "num_filter": "256", 
        "pad": "(0, 0)", 
        "stride": "(1, 1)"
      }, 
      "inputs": []
    }, 
    {
      "op": "Convolution", 
      "name": "seres13_1x1_reduce", 
      "attr": {
        "kernel": "(1, 1)", 
        "no_bias": "True", 
        "num_filter": "256", 
        "pad": "(0, 0)", 
        "stride": "(1, 1)"
      }, 
      "inputs": [[462, 0, 0], [463, 0, 0]]
    }, 
    {
      "op": "null", 
      "name": "seres13_1x1_reduce_bn_gamma", 
      "attr": {
        "eps": "1e-05", 
        "fix_gamma": "False", 
        "use_global_stats": "True"
      }, 
      "inputs": []
    }, 
    {
      "op": "null", 
      "name": "seres13_1x1_reduce_bn_beta", 
      "attr": {
        "eps": "1e-05", 
        "fix_gamma": "False", 
        "use_global_stats": "True"
      }, 
      "inputs": []
    }, 
    {
      "op": "null", 
      "name": "seres13_1x1_reduce_bn_moving_mean", 
      "attr": {
        "__init__": "[\"zero\", {}]", 
        "eps": "1e-05", 
        "fix_gamma": "False", 
        "use_global_stats": "True"
      }, 
      "inputs": []
    }, 
    {
      "op": "null", 
      "name": "seres13_1x1_reduce_bn_moving_var", 
      "attr": {
        "__init__": "[\"one\", {}]", 
        "eps": "1e-05", 
        "fix_gamma": "False", 
        "use_global_stats": "True"
      }, 
      "inputs": []
    }, 
    {
      "op": "BatchNorm", 
      "name": "seres13_1x1_reduce_bn", 
      "attr": {
        "eps": "1e-05", 
        "fix_gamma": "False", 
        "use_global_stats": "True"
      }, 
      "inputs": [[464, 0, 0], [465, 0, 0], [466, 0, 0], [467, 0, 1], [468, 0, 1]]
    }, 
    {
      "op": "Activation", 
      "name": "seres13_1x1_reduce_relu", 
      "attr": {"act_type": "relu"}, 
      "inputs": [[469, 0, 0]]
    }, 
    {
      "op": "null", 
      "name": "seres13_3x3_weight", 
      "attr": {
        "kernel": "(3, 3)", 
        "no_bias": "True", 
        "num_filter": "256", 
        "pad": "(1, 1)", 
        "stride": "(1, 1)"
      }, 
      "inputs": []
    }, 
    {
      "op": "Convolution", 
      "name": "seres13_3x3", 
      "attr": {
        "kernel": "(3, 3)", 
        "no_bias": "True", 
        "num_filter": "256", 
        "pad": "(1, 1)", 
        "stride": "(1, 1)"
      }, 
      "inputs": [[470, 0, 0], [471, 0, 0]]
    }, 
    {
      "op": "null", 
      "name": "seres13_3x3_bn_gamma", 
      "attr": {
        "eps": "1e-05", 
        "fix_gamma": "False", 
        "use_global_stats": "True"
      }, 
      "inputs": []
    }, 
    {
      "op": "null", 
      "name": "seres13_3x3_bn_beta", 
      "attr": {
        "eps": "1e-05", 
        "fix_gamma": "False", 
        "use_global_stats": "True"
      }, 
      "inputs": []
    }, 
    {
      "op": "null", 
      "name": "seres13_3x3_bn_moving_mean", 
      "attr": {
        "__init__": "[\"zero\", {}]", 
        "eps": "1e-05", 
        "fix_gamma": "False", 
        "use_global_stats": "True"
      }, 
      "inputs": []
    }, 
    {
      "op": "null", 
      "name": "seres13_3x3_bn_moving_var", 
      "attr": {
        "__init__": "[\"one\", {}]", 
        "eps": "1e-05", 
        "fix_gamma": "False", 
        "use_global_stats": "True"
      }, 
      "inputs": []
    }, 
    {
      "op": "BatchNorm", 
      "name": "seres13_3x3_bn", 
      "attr": {
        "eps": "1e-05", 
        "fix_gamma": "False", 
        "use_global_stats": "True"
      }, 
      "inputs": [[472, 0, 0], [473, 0, 0], [474, 0, 0], [475, 0, 1], [476, 0, 1]]
    }, 
    {
      "op": "Activation", 
      "name": "seres13_3x3_relu", 
      "attr": {"act_type": "relu"}, 
      "inputs": [[477, 0, 0]]
    }, 
    {
      "op": "null", 
      "name": "seres13_1x1_increase_weight", 
      "attr": {
        "kernel": "(1, 1)", 
        "no_bias": "True", 
        "num_filter": "1024", 
        "pad": "(0, 0)", 
        "stride": "(1, 1)"
      }, 
      "inputs": []
    }, 
    {
      "op": "Convolution", 
      "name": "seres13_1x1_increase", 
      "attr": {
        "kernel": "(1, 1)", 
        "no_bias": "True", 
        "num_filter": "1024", 
        "pad": "(0, 0)", 
        "stride": "(1, 1)"
      }, 
      "inputs": [[478, 0, 0], [479, 0, 0]]
    }, 
    {
      "op": "null", 
      "name": "seres13_1x1_increase_bn_gamma", 
      "attr": {
        "eps": "1e-05", 
        "fix_gamma": "False", 
        "use_global_stats": "True"
      }, 
      "inputs": []
    }, 
    {
      "op": "null", 
      "name": "seres13_1x1_increase_bn_beta", 
      "attr": {
        "eps": "1e-05", 
        "fix_gamma": "False", 
        "use_global_stats": "True"
      }, 
      "inputs": []
    }, 
    {
      "op": "null", 
      "name": "seres13_1x1_increase_bn_moving_mean", 
      "attr": {
        "__init__": "[\"zero\", {}]", 
        "eps": "1e-05", 
        "fix_gamma": "False", 
        "use_global_stats": "True"
      }, 
      "inputs": []
    }, 
    {
      "op": "null", 
      "name": "seres13_1x1_increase_bn_moving_var", 
      "attr": {
        "__init__": "[\"one\", {}]", 
        "eps": "1e-05", 
        "fix_gamma": "False", 
        "use_global_stats": "True"
      }, 
      "inputs": []
    }, 
    {
      "op": "BatchNorm", 
      "name": "seres13_1x1_increase_bn", 
      "attr": {
        "eps": "1e-05", 
        "fix_gamma": "False", 
        "use_global_stats": "True"
      }, 
      "inputs": [[480, 0, 0], [481, 0, 0], [482, 0, 0], [483, 0, 1], [484, 0, 1]]
    }, 
    {
      "op": "Pooling", 
      "name": "seres13_global_pool", 
      "attr": {
        "global_pool": "True", 
        "kernel": "(7, 7)", 
        "pool_type": "avg", 
        "pooling_convention": "full"
      }, 
      "inputs": [[485, 0, 0]]
    }, 
    {
      "op": "null", 
      "name": "seres13_1x1_down_weight", 
      "attr": {
        "kernel": "(1, 1)", 
        "no_bias": "False", 
        "num_filter": "64", 
        "stride": "(1, 1)"
      }, 
      "inputs": []
    }, 
    {
      "op": "null", 
      "name": "seres13_1x1_down_bias", 
      "attr": {
        "kernel": "(1, 1)", 
        "no_bias": "False", 
        "num_filter": "64", 
        "stride": "(1, 1)"
      }, 
      "inputs": []
    }, 
    {
      "op": "Convolution", 
      "name": "seres13_1x1_down", 
      "attr": {
        "kernel": "(1, 1)", 
        "no_bias": "False", 
        "num_filter": "64", 
        "stride": "(1, 1)"
      }, 
      "inputs": [[486, 0, 0], [487, 0, 0], [488, 0, 0]]
    }, 
    {
      "op": "Activation", 
      "name": "seres13_1x1_down_relu", 
      "attr": {"act_type": "relu"}, 
      "inputs": [[489, 0, 0]]
    }, 
    {
      "op": "null", 
      "name": "seres13_1x1_up_weight", 
      "attr": {
        "kernel": "(1, 1)", 
        "no_bias": "False", 
        "num_filter": "1024", 
        "pad": "(0, 0)", 
        "stride": "(1, 1)"
      }, 
      "inputs": []
    }, 
    {
      "op": "null", 
      "name": "seres13_1x1_up_bias", 
      "attr": {
        "kernel": "(1, 1)", 
        "no_bias": "False", 
        "num_filter": "1024", 
        "pad": "(0, 0)", 
        "stride": "(1, 1)"
      }, 
      "inputs": []
    }, 
    {
      "op": "Convolution", 
      "name": "seres13_1x1_up", 
      "attr": {
        "kernel": "(1, 1)", 
        "no_bias": "False", 
        "num_filter": "1024", 
        "pad": "(0, 0)", 
        "stride": "(1, 1)"
      }, 
      "inputs": [[490, 0, 0], [491, 0, 0], [492, 0, 0]]
    }, 
    {
      "op": "Activation", 
      "name": "seres13_1x1_up_prob", 
      "attr": {"act_type": "sigmoid"}, 
      "inputs": [[493, 0, 0]]
    }, 
    {
      "op": "Reshape", 
      "name": "reshape12", 
      "attr": {"shape": "(-1, 1024, 1, 1)"}, 
      "inputs": [[494, 0, 0]]
    }, 
    {
      "op": "broadcast_mul", 
      "name": "broadcast_mul12", 
      "inputs": [[485, 0, 0], [495, 0, 0]]
    }, 
    {
      "op": "broadcast_add", 
      "name": "seres13", 
      "inputs": [[462, 0, 0], [496, 0, 0]]
    }, 
    {
      "op": "Activation", 
      "name": "seres13_relu", 
      "attr": {"act_type": "relu"}, 
      "inputs": [[497, 0, 0]]
    }, 
    {
      "op": "null", 
      "name": "seres14_1x1_reduce_weight", 
      "attr": {
        "kernel": "(1, 1)", 
        "no_bias": "True", 
        "num_filter": "512", 
        "pad": "(0, 0)", 
        "stride": "(2, 2)"
      }, 
      "inputs": []
    }, 
    {
      "op": "Convolution", 
      "name": "seres14_1x1_reduce", 
      "attr": {
        "kernel": "(1, 1)", 
        "no_bias": "True", 
        "num_filter": "512", 
        "pad": "(0, 0)", 
        "stride": "(2, 2)"
      }, 
      "inputs": [[498, 0, 0], [499, 0, 0]]
    }, 
    {
      "op": "null", 
      "name": "seres14_1x1_reduce_bn_gamma", 
      "attr": {
        "eps": "1e-05", 
        "fix_gamma": "False", 
        "use_global_stats": "True"
      }, 
      "inputs": []
    }, 
    {
      "op": "null", 
      "name": "seres14_1x1_reduce_bn_beta", 
      "attr": {
        "eps": "1e-05", 
        "fix_gamma": "False", 
        "use_global_stats": "True"
      }, 
      "inputs": []
    }, 
    {
      "op": "null", 
      "name": "seres14_1x1_reduce_bn_moving_mean", 
      "attr": {
        "__init__": "[\"zero\", {}]", 
        "eps": "1e-05", 
        "fix_gamma": "False", 
        "use_global_stats": "True"
      }, 
      "inputs": []
    }, 
    {
      "op": "null", 
      "name": "seres14_1x1_reduce_bn_moving_var", 
      "attr": {
        "__init__": "[\"one\", {}]", 
        "eps": "1e-05", 
        "fix_gamma": "False", 
        "use_global_stats": "True"
      }, 
      "inputs": []
    }, 
    {
      "op": "BatchNorm", 
      "name": "seres14_1x1_reduce_bn", 
      "attr": {
        "eps": "1e-05", 
        "fix_gamma": "False", 
        "use_global_stats": "True"
      }, 
      "inputs": [[500, 0, 0], [501, 0, 0], [502, 0, 0], [503, 0, 1], [504, 0, 1]]
    }, 
    {
      "op": "Activation", 
      "name": "seres14_1x1_reduce_relu", 
      "attr": {"act_type": "relu"}, 
      "inputs": [[505, 0, 0]]
    }, 
    {
      "op": "null", 
      "name": "seres14_3x3_weight", 
      "attr": {
        "kernel": "(3, 3)", 
        "no_bias": "True", 
        "num_filter": "512", 
        "pad": "(1, 1)", 
        "stride": "(1, 1)"
      }, 
      "inputs": []
    }, 
    {
      "op": "Convolution", 
      "name": "seres14_3x3", 
      "attr": {
        "kernel": "(3, 3)", 
        "no_bias": "True", 
        "num_filter": "512", 
        "pad": "(1, 1)", 
        "stride": "(1, 1)"
      }, 
      "inputs": [[506, 0, 0], [507, 0, 0]]
    }, 
    {
      "op": "null", 
      "name": "seres14_3x3_bn_gamma", 
      "attr": {
        "eps": "1e-05", 
        "fix_gamma": "False", 
        "use_global_stats": "True"
      }, 
      "inputs": []
    }, 
    {
      "op": "null", 
      "name": "seres14_3x3_bn_beta", 
      "attr": {
        "eps": "1e-05", 
        "fix_gamma": "False", 
        "use_global_stats": "True"
      }, 
      "inputs": []
    }, 
    {
      "op": "null", 
      "name": "seres14_3x3_bn_moving_mean", 
      "attr": {
        "__init__": "[\"zero\", {}]", 
        "eps": "1e-05", 
        "fix_gamma": "False", 
        "use_global_stats": "True"
      }, 
      "inputs": []
    }, 
    {
      "op": "null", 
      "name": "seres14_3x3_bn_moving_var", 
      "attr": {
        "__init__": "[\"one\", {}]", 
        "eps": "1e-05", 
        "fix_gamma": "False", 
        "use_global_stats": "True"
      }, 
      "inputs": []
    }, 
    {
      "op": "BatchNorm", 
      "name": "seres14_3x3_bn", 
      "attr": {
        "eps": "1e-05", 
        "fix_gamma": "False", 
        "use_global_stats": "True"
      }, 
      "inputs": [[508, 0, 0], [509, 0, 0], [510, 0, 0], [511, 0, 1], [512, 0, 1]]
    }, 
    {
      "op": "Activation", 
      "name": "seres14_3x3_relu", 
      "attr": {"act_type": "relu"}, 
      "inputs": [[513, 0, 0]]
    }, 
    {
      "op": "null", 
      "name": "seres14_1x1_increase_weight", 
      "attr": {
        "kernel": "(1, 1)", 
        "no_bias": "True", 
        "num_filter": "2048", 
        "pad": "(0, 0)", 
        "stride": "(1, 1)"
      }, 
      "inputs": []
    }, 
    {
      "op": "Convolution", 
      "name": "seres14_1x1_increase", 
      "attr": {
        "kernel": "(1, 1)", 
        "no_bias": "True", 
        "num_filter": "2048", 
        "pad": "(0, 0)", 
        "stride": "(1, 1)"
      }, 
      "inputs": [[514, 0, 0], [515, 0, 0]]
    }, 
    {
      "op": "null", 
      "name": "seres14_1x1_increase_bn_gamma", 
      "attr": {
        "eps": "1e-05", 
        "fix_gamma": "False", 
        "use_global_stats": "True"
      }, 
      "inputs": []
    }, 
    {
      "op": "null", 
      "name": "seres14_1x1_increase_bn_beta", 
      "attr": {
        "eps": "1e-05", 
        "fix_gamma": "False", 
        "use_global_stats": "True"
      }, 
      "inputs": []
    }, 
    {
      "op": "null", 
      "name": "seres14_1x1_increase_bn_moving_mean", 
      "attr": {
        "__init__": "[\"zero\", {}]", 
        "eps": "1e-05", 
        "fix_gamma": "False", 
        "use_global_stats": "True"
      }, 
      "inputs": []
    }, 
    {
      "op": "null", 
      "name": "seres14_1x1_increase_bn_moving_var", 
      "attr": {
        "__init__": "[\"one\", {}]", 
        "eps": "1e-05", 
        "fix_gamma": "False", 
        "use_global_stats": "True"
      }, 
      "inputs": []
    }, 
    {
      "op": "BatchNorm", 
      "name": "seres14_1x1_increase_bn", 
      "attr": {
        "eps": "1e-05", 
        "fix_gamma": "False", 
        "use_global_stats": "True"
      }, 
      "inputs": [[516, 0, 0], [517, 0, 0], [518, 0, 0], [519, 0, 1], [520, 0, 1]]
    }, 
    {
      "op": "Pooling", 
      "name": "seres14_global_pool", 
      "attr": {
        "global_pool": "True", 
        "kernel": "(7, 7)", 
        "pool_type": "avg", 
        "pooling_convention": "full"
      }, 
      "inputs": [[521, 0, 0]]
    }, 
    {
      "op": "null", 
      "name": "seres14_1x1_down_weight", 
      "attr": {
        "kernel": "(1, 1)", 
        "no_bias": "False", 
        "num_filter": "128", 
        "stride": "(1, 1)"
      }, 
      "inputs": []
    }, 
    {
      "op": "null", 
      "name": "seres14_1x1_down_bias", 
      "attr": {
        "kernel": "(1, 1)", 
        "no_bias": "False", 
        "num_filter": "128", 
        "stride": "(1, 1)"
      }, 
      "inputs": []
    }, 
    {
      "op": "Convolution", 
      "name": "seres14_1x1_down", 
      "attr": {
        "kernel": "(1, 1)", 
        "no_bias": "False", 
        "num_filter": "128", 
        "stride": "(1, 1)"
      }, 
      "inputs": [[522, 0, 0], [523, 0, 0], [524, 0, 0]]
    }, 
    {
      "op": "Activation", 
      "name": "seres14_1x1_down_relu", 
      "attr": {"act_type": "relu"}, 
      "inputs": [[525, 0, 0]]
    }, 
    {
      "op": "null", 
      "name": "seres14_1x1_up_weight", 
      "attr": {
        "kernel": "(1, 1)", 
        "no_bias": "False", 
        "num_filter": "2048", 
        "pad": "(0, 0)", 
        "stride": "(1, 1)"
      }, 
      "inputs": []
    }, 
    {
      "op": "null", 
      "name": "seres14_1x1_up_bias", 
      "attr": {
        "kernel": "(1, 1)", 
        "no_bias": "False", 
        "num_filter": "2048", 
        "pad": "(0, 0)", 
        "stride": "(1, 1)"
      }, 
      "inputs": []
    }, 
    {
      "op": "Convolution", 
      "name": "seres14_1x1_up", 
      "attr": {
        "kernel": "(1, 1)", 
        "no_bias": "False", 
        "num_filter": "2048", 
        "pad": "(0, 0)", 
        "stride": "(1, 1)"
      }, 
      "inputs": [[526, 0, 0], [527, 0, 0], [528, 0, 0]]
    }, 
    {
      "op": "Activation", 
      "name": "seres14_1x1_up_prob", 
      "attr": {"act_type": "sigmoid"}, 
      "inputs": [[529, 0, 0]]
    }, 
    {
      "op": "Reshape", 
      "name": "reshape13", 
      "attr": {"shape": "(-1, 2048, 1, 1)"}, 
      "inputs": [[530, 0, 0]]
    }, 
    {
      "op": "broadcast_mul", 
      "name": "broadcast_mul13", 
      "inputs": [[521, 0, 0], [531, 0, 0]]
    }, 
    {
      "op": "null", 
      "name": "seres14_1x1_proj_weight", 
      "attr": {
        "kernel": "(1, 1)", 
        "no_bias": "True", 
        "num_filter": "2048", 
        "pad": "(0, 0)", 
        "stride": "(2, 2)"
      }, 
      "inputs": []
    }, 
    {
      "op": "Convolution", 
      "name": "seres14_1x1_proj", 
      "attr": {
        "kernel": "(1, 1)", 
        "no_bias": "True", 
        "num_filter": "2048", 
        "pad": "(0, 0)", 
        "stride": "(2, 2)"
      }, 
      "inputs": [[498, 0, 0], [533, 0, 0]]
    }, 
    {
      "op": "null", 
      "name": "seres14_1x1_proj_bn_gamma", 
      "attr": {
        "eps": "1e-05", 
        "fix_gamma": "False", 
        "use_global_stats": "True"
      }, 
      "inputs": []
    }, 
    {
      "op": "null", 
      "name": "seres14_1x1_proj_bn_beta", 
      "attr": {
        "eps": "1e-05", 
        "fix_gamma": "False", 
        "use_global_stats": "True"
      }, 
      "inputs": []
    }, 
    {
      "op": "null", 
      "name": "seres14_1x1_proj_bn_moving_mean", 
      "attr": {
        "__init__": "[\"zero\", {}]", 
        "eps": "1e-05", 
        "fix_gamma": "False", 
        "use_global_stats": "True"
      }, 
      "inputs": []
    }, 
    {
      "op": "null", 
      "name": "seres14_1x1_proj_bn_moving_var", 
      "attr": {
        "__init__": "[\"one\", {}]", 
        "eps": "1e-05", 
        "fix_gamma": "False", 
        "use_global_stats": "True"
      }, 
      "inputs": []
    }, 
    {
      "op": "BatchNorm", 
      "name": "seres14_1x1_proj_bn", 
      "attr": {
        "eps": "1e-05", 
        "fix_gamma": "False", 
        "use_global_stats": "True"
      }, 
      "inputs": [[534, 0, 0], [535, 0, 0], [536, 0, 0], [537, 0, 1], [538, 0, 1]]
    }, 
    {
      "op": "broadcast_add", 
      "name": "seres14", 
      "inputs": [[532, 0, 0], [539, 0, 0]]
    }, 
    {
      "op": "Activation", 
      "name": "seres14_relu", 
      "attr": {"act_type": "relu"}, 
      "inputs": [[540, 0, 0]]
    }, 
    {
      "op": "null", 
      "name": "seres15_1x1_reduce_weight", 
      "attr": {
        "kernel": "(1, 1)", 
        "no_bias": "True", 
        "num_filter": "512", 
        "pad": "(0, 0)", 
        "stride": "(1, 1)"
      }, 
      "inputs": []
    }, 
    {
      "op": "Convolution", 
      "name": "seres15_1x1_reduce", 
      "attr": {
        "kernel": "(1, 1)", 
        "no_bias": "True", 
        "num_filter": "512", 
        "pad": "(0, 0)", 
        "stride": "(1, 1)"
      }, 
      "inputs": [[541, 0, 0], [542, 0, 0]]
    }, 
    {
      "op": "null", 
      "name": "seres15_1x1_reduce_bn_gamma", 
      "attr": {
        "eps": "1e-05", 
        "fix_gamma": "False", 
        "use_global_stats": "True"
      }, 
      "inputs": []
    }, 
    {
      "op": "null", 
      "name": "seres15_1x1_reduce_bn_beta", 
      "attr": {
        "eps": "1e-05", 
        "fix_gamma": "False", 
        "use_global_stats": "True"
      }, 
      "inputs": []
    }, 
    {
      "op": "null", 
      "name": "seres15_1x1_reduce_bn_moving_mean", 
      "attr": {
        "__init__": "[\"zero\", {}]", 
        "eps": "1e-05", 
        "fix_gamma": "False", 
        "use_global_stats": "True"
      }, 
      "inputs": []
    }, 
    {
      "op": "null", 
      "name": "seres15_1x1_reduce_bn_moving_var", 
      "attr": {
        "__init__": "[\"one\", {}]", 
        "eps": "1e-05", 
        "fix_gamma": "False", 
        "use_global_stats": "True"
      }, 
      "inputs": []
    }, 
    {
      "op": "BatchNorm", 
      "name": "seres15_1x1_reduce_bn", 
      "attr": {
        "eps": "1e-05", 
        "fix_gamma": "False", 
        "use_global_stats": "True"
      }, 
      "inputs": [[543, 0, 0], [544, 0, 0], [545, 0, 0], [546, 0, 1], [547, 0, 1]]
    }, 
    {
      "op": "Activation", 
      "name": "seres15_1x1_reduce_relu", 
      "attr": {"act_type": "relu"}, 
      "inputs": [[548, 0, 0]]
    }, 
    {
      "op": "null", 
      "name": "seres15_3x3_weight", 
      "attr": {
        "kernel": "(3, 3)", 
        "no_bias": "True", 
        "num_filter": "512", 
        "pad": "(1, 1)", 
        "stride": "(1, 1)"
      }, 
      "inputs": []
    }, 
    {
      "op": "Convolution", 
      "name": "seres15_3x3", 
      "attr": {
        "kernel": "(3, 3)", 
        "no_bias": "True", 
        "num_filter": "512", 
        "pad": "(1, 1)", 
        "stride": "(1, 1)"
      }, 
      "inputs": [[549, 0, 0], [550, 0, 0]]
    }, 
    {
      "op": "null", 
      "name": "seres15_3x3_bn_gamma", 
      "attr": {
        "eps": "1e-05", 
        "fix_gamma": "False", 
        "use_global_stats": "True"
      }, 
      "inputs": []
    }, 
    {
      "op": "null", 
      "name": "seres15_3x3_bn_beta", 
      "attr": {
        "eps": "1e-05", 
        "fix_gamma": "False", 
        "use_global_stats": "True"
      }, 
      "inputs": []
    }, 
    {
      "op": "null", 
      "name": "seres15_3x3_bn_moving_mean", 
      "attr": {
        "__init__": "[\"zero\", {}]", 
        "eps": "1e-05", 
        "fix_gamma": "False", 
        "use_global_stats": "True"
      }, 
      "inputs": []
    }, 
    {
      "op": "null", 
      "name": "seres15_3x3_bn_moving_var", 
      "attr": {
        "__init__": "[\"one\", {}]", 
        "eps": "1e-05", 
        "fix_gamma": "False", 
        "use_global_stats": "True"
      }, 
      "inputs": []
    }, 
    {
      "op": "BatchNorm", 
      "name": "seres15_3x3_bn", 
      "attr": {
        "eps": "1e-05", 
        "fix_gamma": "False", 
        "use_global_stats": "True"
      }, 
      "inputs": [[551, 0, 0], [552, 0, 0], [553, 0, 0], [554, 0, 1], [555, 0, 1]]
    }, 
    {
      "op": "Activation", 
      "name": "seres15_3x3_relu", 
      "attr": {"act_type": "relu"}, 
      "inputs": [[556, 0, 0]]
    }, 
    {
      "op": "null", 
      "name": "seres15_1x1_increase_weight", 
      "attr": {
        "kernel": "(1, 1)", 
        "no_bias": "True", 
        "num_filter": "2048", 
        "pad": "(0, 0)", 
        "stride": "(1, 1)"
      }, 
      "inputs": []
    }, 
    {
      "op": "Convolution", 
      "name": "seres15_1x1_increase", 
      "attr": {
        "kernel": "(1, 1)", 
        "no_bias": "True", 
        "num_filter": "2048", 
        "pad": "(0, 0)", 
        "stride": "(1, 1)"
      }, 
      "inputs": [[557, 0, 0], [558, 0, 0]]
    }, 
    {
      "op": "null", 
      "name": "seres15_1x1_increase_bn_gamma", 
      "attr": {
        "eps": "1e-05", 
        "fix_gamma": "False", 
        "use_global_stats": "True"
      }, 
      "inputs": []
    }, 
    {
      "op": "null", 
      "name": "seres15_1x1_increase_bn_beta", 
      "attr": {
        "eps": "1e-05", 
        "fix_gamma": "False", 
        "use_global_stats": "True"
      }, 
      "inputs": []
    }, 
    {
      "op": "null", 
      "name": "seres15_1x1_increase_bn_moving_mean", 
      "attr": {
        "__init__": "[\"zero\", {}]", 
        "eps": "1e-05", 
        "fix_gamma": "False", 
        "use_global_stats": "True"
      }, 
      "inputs": []
    }, 
    {
      "op": "null", 
      "name": "seres15_1x1_increase_bn_moving_var", 
      "attr": {
        "__init__": "[\"one\", {}]", 
        "eps": "1e-05", 
        "fix_gamma": "False", 
        "use_global_stats": "True"
      }, 
      "inputs": []
    }, 
    {
      "op": "BatchNorm", 
      "name": "seres15_1x1_increase_bn", 
      "attr": {
        "eps": "1e-05", 
        "fix_gamma": "False", 
        "use_global_stats": "True"
      }, 
      "inputs": [[559, 0, 0], [560, 0, 0], [561, 0, 0], [562, 0, 1], [563, 0, 1]]
    }, 
    {
      "op": "Pooling", 
      "name": "seres15_global_pool", 
      "attr": {
        "global_pool": "True", 
        "kernel": "(7, 7)", 
        "pool_type": "avg", 
        "pooling_convention": "full"
      }, 
      "inputs": [[564, 0, 0]]
    }, 
    {
      "op": "null", 
      "name": "seres15_1x1_down_weight", 
      "attr": {
        "kernel": "(1, 1)", 
        "no_bias": "False", 
        "num_filter": "128", 
        "stride": "(1, 1)"
      }, 
      "inputs": []
    }, 
    {
      "op": "null", 
      "name": "seres15_1x1_down_bias", 
      "attr": {
        "kernel": "(1, 1)", 
        "no_bias": "False", 
        "num_filter": "128", 
        "stride": "(1, 1)"
      }, 
      "inputs": []
    }, 
    {
      "op": "Convolution", 
      "name": "seres15_1x1_down", 
      "attr": {
        "kernel": "(1, 1)", 
        "no_bias": "False", 
        "num_filter": "128", 
        "stride": "(1, 1)"
      }, 
      "inputs": [[565, 0, 0], [566, 0, 0], [567, 0, 0]]
    }, 
    {
      "op": "Activation", 
      "name": "seres15_1x1_down_relu", 
      "attr": {"act_type": "relu"}, 
      "inputs": [[568, 0, 0]]
    }, 
    {
      "op": "null", 
      "name": "seres15_1x1_up_weight", 
      "attr": {
        "kernel": "(1, 1)", 
        "no_bias": "False", 
        "num_filter": "2048", 
        "pad": "(0, 0)", 
        "stride": "(1, 1)"
      }, 
      "inputs": []
    }, 
    {
      "op": "null", 
      "name": "seres15_1x1_up_bias", 
      "attr": {
        "kernel": "(1, 1)", 
        "no_bias": "False", 
        "num_filter": "2048", 
        "pad": "(0, 0)", 
        "stride": "(1, 1)"
      }, 
      "inputs": []
    }, 
    {
      "op": "Convolution", 
      "name": "seres15_1x1_up", 
      "attr": {
        "kernel": "(1, 1)", 
        "no_bias": "False", 
        "num_filter": "2048", 
        "pad": "(0, 0)", 
        "stride": "(1, 1)"
      }, 
      "inputs": [[569, 0, 0], [570, 0, 0], [571, 0, 0]]
    }, 
    {
      "op": "Activation", 
      "name": "seres15_1x1_up_prob", 
      "attr": {"act_type": "sigmoid"}, 
      "inputs": [[572, 0, 0]]
    }, 
    {
      "op": "Reshape", 
      "name": "reshape14", 
      "attr": {"shape": "(-1, 2048, 1, 1)"}, 
      "inputs": [[573, 0, 0]]
    }, 
    {
      "op": "broadcast_mul", 
      "name": "broadcast_mul14", 
      "inputs": [[564, 0, 0], [574, 0, 0]]
    }, 
    {
      "op": "broadcast_add", 
      "name": "seres15", 
      "inputs": [[541, 0, 0], [575, 0, 0]]
    }, 
    {
      "op": "Activation", 
      "name": "seres15_relu", 
      "attr": {"act_type": "relu"}, 
      "inputs": [[576, 0, 0]]
    }, 
    {
      "op": "null", 
      "name": "seres16_1x1_reduce_weight", 
      "attr": {
        "kernel": "(1, 1)", 
        "no_bias": "True", 
        "num_filter": "512", 
        "pad": "(0, 0)", 
        "stride": "(1, 1)"
      }, 
      "inputs": []
    }, 
    {
      "op": "Convolution", 
      "name": "seres16_1x1_reduce", 
      "attr": {
        "kernel": "(1, 1)", 
        "no_bias": "True", 
        "num_filter": "512", 
        "pad": "(0, 0)", 
        "stride": "(1, 1)"
      }, 
      "inputs": [[577, 0, 0], [578, 0, 0]]
    }, 
    {
      "op": "null", 
      "name": "seres16_1x1_reduce_bn_gamma", 
      "attr": {
        "eps": "1e-05", 
        "fix_gamma": "False", 
        "use_global_stats": "True"
      }, 
      "inputs": []
    }, 
    {
      "op": "null", 
      "name": "seres16_1x1_reduce_bn_beta", 
      "attr": {
        "eps": "1e-05", 
        "fix_gamma": "False", 
        "use_global_stats": "True"
      }, 
      "inputs": []
    }, 
    {
      "op": "null", 
      "name": "seres16_1x1_reduce_bn_moving_mean", 
      "attr": {
        "__init__": "[\"zero\", {}]", 
        "eps": "1e-05", 
        "fix_gamma": "False", 
        "use_global_stats": "True"
      }, 
      "inputs": []
    }, 
    {
      "op": "null", 
      "name": "seres16_1x1_reduce_bn_moving_var", 
      "attr": {
        "__init__": "[\"one\", {}]", 
        "eps": "1e-05", 
        "fix_gamma": "False", 
        "use_global_stats": "True"
      }, 
      "inputs": []
    }, 
    {
      "op": "BatchNorm", 
      "name": "seres16_1x1_reduce_bn", 
      "attr": {
        "eps": "1e-05", 
        "fix_gamma": "False", 
        "use_global_stats": "True"
      }, 
      "inputs": [[579, 0, 0], [580, 0, 0], [581, 0, 0], [582, 0, 1], [583, 0, 1]]
    }, 
    {
      "op": "Activation", 
      "name": "seres16_1x1_reduce_relu", 
      "attr": {"act_type": "relu"}, 
      "inputs": [[584, 0, 0]]
    }, 
    {
      "op": "null", 
      "name": "seres16_3x3_weight", 
      "attr": {
        "kernel": "(3, 3)", 
        "no_bias": "True", 
        "num_filter": "512", 
        "pad": "(1, 1)", 
        "stride": "(1, 1)"
      }, 
      "inputs": []
    }, 
    {
      "op": "Convolution", 
      "name": "seres16_3x3", 
      "attr": {
        "kernel": "(3, 3)", 
        "no_bias": "True", 
        "num_filter": "512", 
        "pad": "(1, 1)", 
        "stride": "(1, 1)"
      }, 
      "inputs": [[585, 0, 0], [586, 0, 0]]
    }, 
    {
      "op": "null", 
      "name": "seres16_3x3_bn_gamma", 
      "attr": {
        "eps": "1e-05", 
        "fix_gamma": "False", 
        "use_global_stats": "True"
      }, 
      "inputs": []
    }, 
    {
      "op": "null", 
      "name": "seres16_3x3_bn_beta", 
      "attr": {
        "eps": "1e-05", 
        "fix_gamma": "False", 
        "use_global_stats": "True"
      }, 
      "inputs": []
    }, 
    {
      "op": "null", 
      "name": "seres16_3x3_bn_moving_mean", 
      "attr": {
        "__init__": "[\"zero\", {}]", 
        "eps": "1e-05", 
        "fix_gamma": "False", 
        "use_global_stats": "True"
      }, 
      "inputs": []
    }, 
    {
      "op": "null", 
      "name": "seres16_3x3_bn_moving_var", 
      "attr": {
        "__init__": "[\"one\", {}]", 
        "eps": "1e-05", 
        "fix_gamma": "False", 
        "use_global_stats": "True"
      }, 
      "inputs": []
    }, 
    {
      "op": "BatchNorm", 
      "name": "seres16_3x3_bn", 
      "attr": {
        "eps": "1e-05", 
        "fix_gamma": "False", 
        "use_global_stats": "True"
      }, 
      "inputs": [[587, 0, 0], [588, 0, 0], [589, 0, 0], [590, 0, 1], [591, 0, 1]]
    }, 
    {
      "op": "Activation", 
      "name": "seres16_3x3_relu", 
      "attr": {"act_type": "relu"}, 
      "inputs": [[592, 0, 0]]
    }, 
    {
      "op": "null", 
      "name": "seres16_1x1_increase_weight", 
      "attr": {
        "kernel": "(1, 1)", 
        "no_bias": "True", 
        "num_filter": "2048", 
        "pad": "(0, 0)", 
        "stride": "(1, 1)"
      }, 
      "inputs": []
    }, 
    {
      "op": "Convolution", 
      "name": "seres16_1x1_increase", 
      "attr": {
        "kernel": "(1, 1)", 
        "no_bias": "True", 
        "num_filter": "2048", 
        "pad": "(0, 0)", 
        "stride": "(1, 1)"
      }, 
      "inputs": [[593, 0, 0], [594, 0, 0]]
    }, 
    {
      "op": "null", 
      "name": "seres16_1x1_increase_bn_gamma", 
      "attr": {
        "eps": "1e-05", 
        "fix_gamma": "False", 
        "use_global_stats": "True"
      }, 
      "inputs": []
    }, 
    {
      "op": "null", 
      "name": "seres16_1x1_increase_bn_beta", 
      "attr": {
        "eps": "1e-05", 
        "fix_gamma": "False", 
        "use_global_stats": "True"
      }, 
      "inputs": []
    }, 
    {
      "op": "null", 
      "name": "seres16_1x1_increase_bn_moving_mean", 
      "attr": {
        "__init__": "[\"zero\", {}]", 
        "eps": "1e-05", 
        "fix_gamma": "False", 
        "use_global_stats": "True"
      }, 
      "inputs": []
    }, 
    {
      "op": "null", 
      "name": "seres16_1x1_increase_bn_moving_var", 
      "attr": {
        "__init__": "[\"one\", {}]", 
        "eps": "1e-05", 
        "fix_gamma": "False", 
        "use_global_stats": "True"
      }, 
      "inputs": []
    }, 
    {
      "op": "BatchNorm", 
      "name": "seres16_1x1_increase_bn", 
      "attr": {
        "eps": "1e-05", 
        "fix_gamma": "False", 
        "use_global_stats": "True"
      }, 
      "inputs": [[595, 0, 0], [596, 0, 0], [597, 0, 0], [598, 0, 1], [599, 0, 1]]
    }, 
    {
      "op": "Pooling", 
      "name": "seres16_global_pool", 
      "attr": {
        "global_pool": "True", 
        "kernel": "(7, 7)", 
        "pool_type": "avg", 
        "pooling_convention": "full"
      }, 
      "inputs": [[600, 0, 0]]
    }, 
    {
      "op": "null", 
      "name": "seres16_1x1_down_weight", 
      "attr": {
        "kernel": "(1, 1)", 
        "no_bias": "False", 
        "num_filter": "128", 
        "stride": "(1, 1)"
      }, 
      "inputs": []
    }, 
    {
      "op": "null", 
      "name": "seres16_1x1_down_bias", 
      "attr": {
        "kernel": "(1, 1)", 
        "no_bias": "False", 
        "num_filter": "128", 
        "stride": "(1, 1)"
      }, 
      "inputs": []
    }, 
    {
      "op": "Convolution", 
      "name": "seres16_1x1_down", 
      "attr": {
        "kernel": "(1, 1)", 
        "no_bias": "False", 
        "num_filter": "128", 
        "stride": "(1, 1)"
      }, 
      "inputs": [[601, 0, 0], [602, 0, 0], [603, 0, 0]]
    }, 
    {
      "op": "Activation", 
      "name": "seres16_1x1_down_relu", 
      "attr": {"act_type": "relu"}, 
      "inputs": [[604, 0, 0]]
    }, 
    {
      "op": "null", 
      "name": "seres16_1x1_up_weight", 
      "attr": {
        "kernel": "(1, 1)", 
        "no_bias": "False", 
        "num_filter": "2048", 
        "pad": "(0, 0)", 
        "stride": "(1, 1)"
      }, 
      "inputs": []
    }, 
    {
      "op": "null", 
      "name": "seres16_1x1_up_bias", 
      "attr": {
        "kernel": "(1, 1)", 
        "no_bias": "False", 
        "num_filter": "2048", 
        "pad": "(0, 0)", 
        "stride": "(1, 1)"
      }, 
      "inputs": []
    }, 
    {
      "op": "Convolution", 
      "name": "seres16_1x1_up", 
      "attr": {
        "kernel": "(1, 1)", 
        "no_bias": "False", 
        "num_filter": "2048", 
        "pad": "(0, 0)", 
        "stride": "(1, 1)"
      }, 
      "inputs": [[605, 0, 0], [606, 0, 0], [607, 0, 0]]
    }, 
    {
      "op": "Activation", 
      "name": "seres16_1x1_up_prob", 
      "attr": {"act_type": "sigmoid"}, 
      "inputs": [[608, 0, 0]]
    }, 
    {
      "op": "Reshape", 
      "name": "reshape15", 
      "attr": {"shape": "(-1, 2048, 1, 1)"}, 
      "inputs": [[609, 0, 0]]
    }, 
    {
      "op": "broadcast_mul", 
      "name": "broadcast_mul15", 
      "inputs": [[600, 0, 0], [610, 0, 0]]
    }, 
    {
      "op": "broadcast_add", 
      "name": "seres16", 
      "inputs": [[577, 0, 0], [611, 0, 0]]
    }, 
    {
      "op": "Activation", 
      "name": "seres16_relu", 
      "attr": {"act_type": "relu"}, 
      "inputs": [[612, 0, 0]]
    }, 
    {
      "op": "Pooling", 
      "name": "avg_pool", 
      "attr": {
        "cudnn_off": "False", 
        "global_pool": "True", 
        "kernel": "(7, 7)", 
        "pool_type": "avg", 
        "pooling_convention": "valid", 
        "stride": "(1, 1)"
      }, 
      "inputs": [[613, 0, 0]]
    }, 
    {
      "op": "Flatten", 
      "name": "flatten", 
      "inputs": [[614, 0, 0]]
    }, 
    {
      "op": "null", 
      "name": "classifier_weight", 
      "attr": {"num_hidden": "1000"}, 
      "inputs": []
    }, 
    {
      "op": "null", 
      "name": "classifier_bias", 
      "attr": {"num_hidden": "1000"}, 
      "inputs": []
    }, 
    {
      "op": "FullyConnected", 
      "name": "classifier", 
      "attr": {"num_hidden": "1000"}, 
      "inputs": [[615, 0, 0], [616, 0, 0], [617, 0, 0]]
    }, 
    {
      "op": "null", 
      "name": "softmax_label", 
      "inputs": []
    }, 
    {
      "op": "SoftmaxOutput", 
      "name": "softmax", 
      "inputs": [[618, 0, 0], [619, 0, 0]]
    }
  ], 
  "arg_nodes": [
    0, 
    1, 
    3, 
    4, 
    5, 
    6, 
    10, 
    12, 
    13, 
    14, 
    15, 
    18, 
    20, 
    21, 
    22, 
    23, 
    26, 
    28, 
    29, 
    30, 
    31, 
    34, 
    35, 
    38, 
    39, 
    44, 
    46, 
    47, 
    48, 
    49, 
    53, 
    55, 
    56, 
    57, 
    58, 
    61, 
    63, 
    64, 
    65, 
    66, 
    69, 
    71, 
    72, 
    73, 
    74, 
    77, 
    78, 
    81, 
    82, 
    89, 
    91, 
    92, 
    93, 
    94, 
    97, 
    99, 
    100, 
    101, 
    102, 
    105, 
    107, 
    108, 
    109, 
    110, 
    113, 
    114, 
    117, 
    118, 
    125, 
    127, 
    128, 
    129, 
    130, 
    133, 
    135, 
    136, 
    137, 
    138, 
    141, 
    143, 
    144, 
    145, 
    146, 
    149, 
    150, 
    153, 
    154, 
    159, 
    161, 
    162, 
    163, 
    164, 
    168, 
    170, 
    171, 
    172, 
    173, 
    176, 
    178, 
    179, 
    180, 
    181, 
    184, 
    186, 
    187, 
    188, 
    189, 
    192, 
    193, 
    196, 
    197, 
    204, 
    206, 
    207, 
    208, 
    209, 
    212, 
    214, 
    215, 
    216, 
    217, 
    220, 
    222, 
    223, 
    224, 
    225, 
    228, 
    229, 
    232, 
    233, 
    240, 
    242, 
    243, 
    244, 
    245, 
    248, 
    250, 
    251, 
    252, 
    253, 
    256, 
    258, 
    259, 
    260, 
    261, 
    264, 
    265, 
    268, 
    269, 
    276, 
    278, 
    279, 
    280, 
    281, 
    284, 
    286, 
    287, 
    288, 
    289, 
    292, 
    294, 
    295, 
    296, 
    297, 
    300, 
    301, 
    304, 
    305, 
    310, 
    312, 
    313, 
    314, 
    315, 
    319, 
    321, 
    322, 
    323, 
    324, 
    327, 
    329, 
    330, 
    331, 
    332, 
    335, 
    337, 
    338, 
    339, 
    340, 
    343, 
    344, 
    347, 
    348, 
    355, 
    357, 
    358, 
    359, 
    360, 
    363, 
    365, 
    366, 
    367, 
    368, 
    371, 
    373, 
    374, 
    375, 
    376, 
    379, 
    380, 
    383, 
    384, 
    391, 
    393, 
    394, 
    395, 
    396, 
    399, 
    401, 
    402, 
    403, 
    404, 
    407, 
    409, 
    410, 
    411, 
    412, 
    415, 
    416, 
    419, 
    420, 
    427, 
    429, 
    430, 
    431, 
    432, 
    435, 
    437, 
    438, 
    439, 
    440, 
    443, 
    445, 
    446, 
    447, 
    448, 
    451, 
    452, 
    455, 
    456, 
    463, 
    465, 
    466, 
    467, 
    468, 
    471, 
    473, 
    474, 
    475, 
    476, 
    479, 
    481, 
    482, 
    483, 
    484, 
    487, 
    488, 
    491, 
    492, 
    499, 
    501, 
    502, 
    503, 
    504, 
    507, 
    509, 
    510, 
    511, 
    512, 
    515, 
    517, 
    518, 
    519, 
    520, 
    523, 
    524, 
    527, 
    528, 
    533, 
    535, 
    536, 
    537, 
    538, 
    542, 
    544, 
    545, 
    546, 
    547, 
    550, 
    552, 
    553, 
    554, 
    555, 
    558, 
    560, 
    561, 
    562, 
    563, 
    566, 
    567, 
    570, 
    571, 
    578, 
    580, 
    581, 
    582, 
    583, 
    586, 
    588, 
    589, 
    590, 
    591, 
    594, 
    596, 
    597, 
    598, 
    599, 
    602, 
    603, 
    606, 
    607, 
    616, 
    617, 
    619
  ], 
  "node_row_ptr": [
    0, 
    1, 
    2, 
    3, 
    4, 
    5, 
    6, 
    7, 
    10, 
    11, 
    12, 
    13, 
    14, 
    15, 
    16, 
    17, 
    18, 
    21, 
    22, 
    23, 
    24, 
    25, 
    26, 
    27, 
    28, 
    31, 
    32, 
    33, 
    34, 
    35, 
    36, 
    37, 
    38, 
    41, 
    42, 
    43, 
    44, 
    45, 
    46, 
    47, 
    48, 
    49, 
    50, 
    51, 
    52, 
    53, 
    54, 
    55, 
    56, 
    57, 
    58, 
    61, 
    62, 
    63, 
    64, 
    65, 
    66, 
    67, 
    68, 
    69, 
    72, 
    73, 
    74, 
    75, 
    76, 
    77, 
    78, 
    79, 
    82, 
    83, 
    84, 
    85, 
    86, 
    87, 
    88, 
    89, 
    92, 
    93, 
    94, 
    95, 
    96, 
    97, 
    98, 
    99, 
    100, 
    101, 
    102, 
    103, 
    104, 
    105, 
    106, 
    107, 
    108, 
    109, 
    110, 
    111, 
    114, 
    115, 
    116, 
    117, 
    118, 
    119, 
    120, 
    121, 
    124, 
    125, 
    126, 
    127, 
    128, 
    129, 
    130, 
    131, 
    134, 
    135, 
    136, 
    137, 
    138, 
    139, 
    140, 
    141, 
    142, 
    143, 
    144, 
    145, 
    146, 
    147, 
    148, 
    149, 
    150, 
    151, 
    152, 
    153, 
    156, 
    157, 
    158, 
    159, 
    160, 
    161, 
    162, 
    163, 
    166, 
    167, 
    168, 
    169, 
    170, 
    171, 
    172, 
    173, 
    176, 
    177, 
    178, 
    179, 
    180, 
    181, 
    182, 
    183, 
    184, 
    185, 
    186, 
    187, 
    188, 
    189, 
    190, 
    191, 
    192, 
    193, 
    196, 
    197, 
    198, 
    199, 
    200, 
    201, 
    202, 
    203, 
    204, 
    207, 
    208, 
    209, 
    210, 
    211, 
    212, 
    213, 
    214, 
    217, 
    218, 
    219, 
    220, 
    221, 
    222, 
    223, 
    224, 
    227, 
    228, 
    229, 
    230, 
    231, 
    232, 
    233, 
    234, 
    235, 
    236, 
    237, 
    238, 
    239, 
    240, 
    241, 
    242, 
    243, 
    244, 
    245, 
    246, 
    249, 
    250, 
    251, 
    252, 
    253, 
    254, 
    255, 
    256, 
    259, 
    260, 
    261, 
    262, 
    263, 
    264, 
    265, 
    266, 
    269, 
    270, 
    271, 
    272, 
    273, 
    274, 
    275, 
    276, 
    277, 
    278, 
    279, 
    280, 
    281, 
    282, 
    283, 
    284, 
    285, 
    286, 
    287, 
    288, 
    291, 
    292, 
    293, 
    294, 
    295, 
    296, 
    297, 
    298, 
    301, 
    302, 
    303, 
    304, 
    305, 
    306, 
    307, 
    308, 
    311, 
    312, 
    313, 
    314, 
    315, 
    316, 
    317, 
    318, 
    319, 
    320, 
    321, 
    322, 
    323, 
    324, 
    325, 
    326, 
    327, 
    328, 
    329, 
    330, 
    333, 
    334, 
    335, 
    336, 
    337, 
    338, 
    339, 
    340, 
    343, 
    344, 
    345, 
    346, 
    347, 
    348, 
    349, 
    350, 
    353, 
    354, 
    355, 
    356, 
    357, 
    358, 
    359, 
    360, 
    361, 
    362, 
    363, 
    364, 
    365, 
    366, 
    367, 
    368, 
    369, 
    370, 
    373, 
    374, 
    375, 
    376, 
    377, 
    378, 
    379, 
    380, 
    381, 
    384, 
    385, 
    386, 
    387, 
    388, 
    389, 
    390, 
    391, 
    394, 
    395, 
    396, 
    397, 
    398, 
    399, 
    400, 
    401, 
    404, 
    405, 
    406, 
    407, 
    408, 
    409, 
    410, 
    411, 
    412, 
    413, 
    414, 
    415, 
    416, 
    417, 
    418, 
    419, 
    420, 
    421, 
    422, 
    423, 
    426, 
    427, 
    428, 
    429, 
    430, 
    431, 
    432, 
    433, 
    436, 
    437, 
    438, 
    439, 
    440, 
    441, 
    442, 
    443, 
    446, 
    447, 
    448, 
    449, 
    450, 
    451, 
    452, 
    453, 
    454, 
    455, 
    456, 
    457, 
    458, 
    459, 
    460, 
    461, 
    462, 
    463, 
    464, 
    465, 
    468, 
    469, 
    470, 
    471, 
    472, 
    473, 
    474, 
    475, 
    478, 
    479, 
    480, 
    481, 
    482, 
    483, 
    484, 
    485, 
    488, 
    489, 
    490, 
    491, 
    492, 
    493, 
    494, 
    495, 
    496, 
    497, 
    498, 
    499, 
    500, 
    501, 
    502, 
    503, 
    504, 
    505, 
    506, 
    507, 
    510, 
    511, 
    512, 
    513, 
    514, 
    515, 
    516, 
    517, 
    520, 
    521, 
    522, 
    523, 
    524, 
    525, 
    526, 
    527, 
    530, 
    531, 
    532, 
    533, 
    534, 
    535, 
    536, 
    537, 
    538, 
    539, 
    540, 
    541, 
    542, 
    543, 
    544, 
    545, 
    546, 
    547, 
    548, 
    549, 
    552, 
    553, 
    554, 
    555, 
    556, 
    557, 
    558, 
    559, 
    562, 
    563, 
    564, 
    565, 
    566, 
    567, 
    568, 
    569, 
    572, 
    573, 
    574, 
    575, 
    576, 
    577, 
    578, 
    579, 
    580, 
    581, 
    582, 
    583, 
    584, 
    585, 
    586, 
    587, 
    588, 
    589, 
    590, 
    591, 
    594, 
    595, 
    596, 
    597, 
    598, 
    599, 
    600, 
    601, 
    604, 
    605, 
    606, 
    607, 
    608, 
    609, 
    610, 
    611, 
    614, 
    615, 
    616, 
    617, 
    618, 
    619, 
    620, 
    621, 
    622, 
    623, 
    624, 
    625, 
    626, 
    627, 
    628, 
    629, 
    630, 
    631, 
    634, 
    635, 
    636, 
    637, 
    638, 
    639, 
    640, 
    641, 
    642, 
    645, 
    646, 
    647, 
    648, 
    649, 
    650, 
    651, 
    652, 
    655, 
    656, 
    657, 
    658, 
    659, 
    660, 
    661, 
    662, 
    665, 
    666, 
    667, 
    668, 
    669, 
    670, 
    671, 
    672, 
    673, 
    674, 
    675, 
    676, 
    677, 
    678, 
    679, 
    680, 
    681, 
    682, 
    683, 
    684, 
    687, 
    688, 
    689, 
    690, 
    691, 
    692, 
    693, 
    694, 
    697, 
    698, 
    699, 
    700, 
    701, 
    702, 
    703, 
    704, 
    707, 
    708, 
    709, 
    710, 
    711, 
    712, 
    713, 
    714, 
    715, 
    716, 
    717, 
    718, 
    719, 
    720, 
    721, 
    722, 
    723, 
    724, 
    725, 
    726, 
    727
  ], 
  "heads": [[620, 0, 0]], 
  "attrs": {"mxnet_version": ["int", 1200]}
}