{
  "nodes": [
    {
      "op": "null", 
      "name": "data", 
      "inputs": []
    }, 
    {
      "op": "null", 
      "name": "conv1_weight", 
      "attr": {
        "kernel": "(7, 7)", 
        "no_bias": "True", 
        "num_filter": "64", 
        "pad": "(3, 3)", 
        "stride": "(2, 2)"
      }, 
      "inputs": []
    }, 
    {
      "op": "Convolution", 
      "name": "conv1", 
      "attr": {
        "kernel": "(7, 7)", 
        "no_bias": "True", 
        "num_filter": "64", 
        "pad": "(3, 3)", 
        "stride": "(2, 2)"
      }, 
      "inputs": [[0, 0, 0], [1, 0, 0]]
    }, 
    {
      "op": "null", 
      "name": "conv1_bn_gamma", 
      "attr": {
        "eps": "1e-05", 
        "fix_gamma": "False", 
        "use_global_stats": "True"
      }, 
      "inputs": []
    }, 
    {
      "op": "null", 
      "name": "conv1_bn_beta", 
      "attr": {
        "eps": "1e-05", 
        "fix_gamma": "False", 
        "use_global_stats": "True"
      }, 
      "inputs": []
    }, 
    {
      "op": "null", 
      "name": "conv1_bn_moving_mean", 
      "attr": {
        "__init__": "[\"zero\", {}]", 
        "eps": "1e-05", 
        "fix_gamma": "False", 
        "use_global_stats": "True"
      }, 
      "inputs": []
    }, 
    {
      "op": "null", 
      "name": "conv1_bn_moving_var", 
      "attr": {
        "__init__": "[\"one\", {}]", 
        "eps": "1e-05", 
        "fix_gamma": "False", 
        "use_global_stats": "True"
      }, 
      "inputs": []
    }, 
    {
      "op": "BatchNorm", 
      "name": "conv1_bn", 
      "attr": {
        "eps": "1e-05", 
        "fix_gamma": "False", 
        "use_global_stats": "True"
      }, 
      "inputs": [[2, 0, 0], [3, 0, 0], [4, 0, 0], [5, 0, 1], [6, 0, 1]]
    }, 
    {
      "op": "Activation", 
      "name": "conv1_relu", 
      "attr": {"act_type": "relu"}, 
      "inputs": [[7, 0, 0]]
    }, 
    {
      "op": "Pooling", 
      "name": "pool1", 
      "attr": {
        "cudnn_off": "False", 
        "global_pool": "False", 
        "kernel": "(3, 3)", 
        "pad": "(1, 1)", 
        "pool_type": "max", 
        "pooling_convention": "valid", 
        "stride": "(2, 2)"
      }, 
      "inputs": [[8, 0, 0]]
    }, 
    {
      "op": "null", 
      "name": "resx1_conv1_weight", 
      "attr": {
        "kernel": "(1, 1)", 
        "no_bias": "True", 
        "num_filter": "128", 
        "pad": "(0, 0)", 
        "stride": "(1, 1)"
      }, 
      "inputs": []
    }, 
    {
      "op": "Convolution", 
      "name": "resx1_conv1", 
      "attr": {
        "kernel": "(1, 1)", 
        "no_bias": "True", 
        "num_filter": "128", 
        "pad": "(0, 0)", 
        "stride": "(1, 1)"
      }, 
      "inputs": [[9, 0, 0], [10, 0, 0]]
    }, 
    {
      "op": "null", 
      "name": "resx1_conv1_bn_gamma", 
      "attr": {
        "eps": "1e-05", 
        "fix_gamma": "False", 
        "use_global_stats": "True"
      }, 
      "inputs": []
    }, 
    {
      "op": "null", 
      "name": "resx1_conv1_bn_beta", 
      "attr": {
        "eps": "1e-05", 
        "fix_gamma": "False", 
        "use_global_stats": "True"
      }, 
      "inputs": []
    }, 
    {
      "op": "null", 
      "name": "resx1_conv1_bn_moving_mean", 
      "attr": {
        "__init__": "[\"zero\", {}]", 
        "eps": "1e-05", 
        "fix_gamma": "False", 
        "use_global_stats": "True"
      }, 
      "inputs": []
    }, 
    {
      "op": "null", 
      "name": "resx1_conv1_bn_moving_var", 
      "attr": {
        "__init__": "[\"one\", {}]", 
        "eps": "1e-05", 
        "fix_gamma": "False", 
        "use_global_stats": "True"
      }, 
      "inputs": []
    }, 
    {
      "op": "BatchNorm", 
      "name": "resx1_conv1_bn", 
      "attr": {
        "eps": "1e-05", 
        "fix_gamma": "False", 
        "use_global_stats": "True"
      }, 
      "inputs": [[11, 0, 0], [12, 0, 0], [13, 0, 0], [14, 0, 1], [15, 0, 1]]
    }, 
    {
      "op": "Activation", 
      "name": "resx1_conv1_relu", 
      "attr": {"act_type": "relu"}, 
      "inputs": [[16, 0, 0]]
    }, 
    {
      "op": "null", 
      "name": "resx1_conv2_weight", 
      "attr": {
        "kernel": "(3, 3)", 
        "no_bias": "True", 
        "num_filter": "128", 
        "num_group": "32", 
        "pad": "(1, 1)", 
        "stride": "(1, 1)"
      }, 
      "inputs": []
    }, 
    {
      "op": "Convolution", 
      "name": "resx1_conv2", 
      "attr": {
        "kernel": "(3, 3)", 
        "no_bias": "True", 
        "num_filter": "128", 
        "num_group": "32", 
        "pad": "(1, 1)", 
        "stride": "(1, 1)"
      }, 
      "inputs": [[17, 0, 0], [18, 0, 0]]
    }, 
    {
      "op": "null", 
      "name": "resx1_conv2_bn_gamma", 
      "attr": {
        "eps": "1e-05", 
        "fix_gamma": "False", 
        "use_global_stats": "True"
      }, 
      "inputs": []
    }, 
    {
      "op": "null", 
      "name": "resx1_conv2_bn_beta", 
      "attr": {
        "eps": "1e-05", 
        "fix_gamma": "False", 
        "use_global_stats": "True"
      }, 
      "inputs": []
    }, 
    {
      "op": "null", 
      "name": "resx1_conv2_bn_moving_mean", 
      "attr": {
        "__init__": "[\"zero\", {}]", 
        "eps": "1e-05", 
        "fix_gamma": "False", 
        "use_global_stats": "True"
      }, 
      "inputs": []
    }, 
    {
      "op": "null", 
      "name": "resx1_conv2_bn_moving_var", 
      "attr": {
        "__init__": "[\"one\", {}]", 
        "eps": "1e-05", 
        "fix_gamma": "False", 
        "use_global_stats": "True"
      }, 
      "inputs": []
    }, 
    {
      "op": "BatchNorm", 
      "name": "resx1_conv2_bn", 
      "attr": {
        "eps": "1e-05", 
        "fix_gamma": "False", 
        "use_global_stats": "True"
      }, 
      "inputs": [[19, 0, 0], [20, 0, 0], [21, 0, 0], [22, 0, 1], [23, 0, 1]]
    }, 
    {
      "op": "Activation", 
      "name": "resx1_conv2_relu", 
      "attr": {"act_type": "relu"}, 
      "inputs": [[24, 0, 0]]
    }, 
    {
      "op": "null", 
      "name": "resx1_conv3_weight", 
      "attr": {
        "kernel": "(1, 1)", 
        "no_bias": "True", 
        "num_filter": "256", 
        "pad": "(0, 0)", 
        "stride": "(1, 1)"
      }, 
      "inputs": []
    }, 
    {
      "op": "Convolution", 
      "name": "resx1_conv3", 
      "attr": {
        "kernel": "(1, 1)", 
        "no_bias": "True", 
        "num_filter": "256", 
        "pad": "(0, 0)", 
        "stride": "(1, 1)"
      }, 
      "inputs": [[25, 0, 0], [26, 0, 0]]
    }, 
    {
      "op": "null", 
      "name": "resx1_conv3_bn_gamma", 
      "attr": {
        "eps": "1e-05", 
        "fix_gamma": "False", 
        "use_global_stats": "True"
      }, 
      "inputs": []
    }, 
    {
      "op": "null", 
      "name": "resx1_conv3_bn_beta", 
      "attr": {
        "eps": "1e-05", 
        "fix_gamma": "False", 
        "use_global_stats": "True"
      }, 
      "inputs": []
    }, 
    {
      "op": "null", 
      "name": "resx1_conv3_bn_moving_mean", 
      "attr": {
        "__init__": "[\"zero\", {}]", 
        "eps": "1e-05", 
        "fix_gamma": "False", 
        "use_global_stats": "True"
      }, 
      "inputs": []
    }, 
    {
      "op": "null", 
      "name": "resx1_conv3_bn_moving_var", 
      "attr": {
        "__init__": "[\"one\", {}]", 
        "eps": "1e-05", 
        "fix_gamma": "False", 
        "use_global_stats": "True"
      }, 
      "inputs": []
    }, 
    {
      "op": "BatchNorm", 
      "name": "resx1_conv3_bn", 
      "attr": {
        "eps": "1e-05", 
        "fix_gamma": "False", 
        "use_global_stats": "True"
      }, 
      "inputs": [[27, 0, 0], [28, 0, 0], [29, 0, 0], [30, 0, 1], [31, 0, 1]]
    }, 
    {
      "op": "null", 
      "name": "resx1_match_conv_weight", 
      "attr": {
        "kernel": "(1, 1)", 
        "no_bias": "True", 
        "num_filter": "256", 
        "pad": "(0, 0)", 
        "stride": "(1, 1)"
      }, 
      "inputs": []
    }, 
    {
      "op": "Convolution", 
      "name": "resx1_match_conv", 
      "attr": {
        "kernel": "(1, 1)", 
        "no_bias": "True", 
        "num_filter": "256", 
        "pad": "(0, 0)", 
        "stride": "(1, 1)"
      }, 
      "inputs": [[9, 0, 0], [33, 0, 0]]
    }, 
    {
      "op": "null", 
      "name": "resx1_match_conv_bn_gamma", 
      "attr": {
        "eps": "1e-05", 
        "fix_gamma": "False", 
        "use_global_stats": "True"
      }, 
      "inputs": []
    }, 
    {
      "op": "null", 
      "name": "resx1_match_conv_bn_beta", 
      "attr": {
        "eps": "1e-05", 
        "fix_gamma": "False", 
        "use_global_stats": "True"
      }, 
      "inputs": []
    }, 
    {
      "op": "null", 
      "name": "resx1_match_conv_bn_moving_mean", 
      "attr": {
        "__init__": "[\"zero\", {}]", 
        "eps": "1e-05", 
        "fix_gamma": "False", 
        "use_global_stats": "True"
      }, 
      "inputs": []
    }, 
    {
      "op": "null", 
      "name": "resx1_match_conv_bn_moving_var", 
      "attr": {
        "__init__": "[\"one\", {}]", 
        "eps": "1e-05", 
        "fix_gamma": "False", 
        "use_global_stats": "True"
      }, 
      "inputs": []
    }, 
    {
      "op": "BatchNorm", 
      "name": "resx1_match_conv_bn", 
      "attr": {
        "eps": "1e-05", 
        "fix_gamma": "False", 
        "use_global_stats": "True"
      }, 
      "inputs": [[34, 0, 0], [35, 0, 0], [36, 0, 0], [37, 0, 1], [38, 0, 1]]
    }, 
    {
      "op": "broadcast_add", 
      "name": "resx1_eletwise", 
      "inputs": [[32, 0, 0], [39, 0, 0]]
    }, 
    {
      "op": "Activation", 
      "name": "resx1_eletwise_relu", 
      "attr": {"act_type": "relu"}, 
      "inputs": [[40, 0, 0]]
    }, 
    {
      "op": "null", 
      "name": "resx2_conv1_weight", 
      "attr": {
        "kernel": "(1, 1)", 
        "no_bias": "True", 
        "num_filter": "128", 
        "pad": "(0, 0)", 
        "stride": "(1, 1)"
      }, 
      "inputs": []
    }, 
    {
      "op": "Convolution", 
      "name": "resx2_conv1", 
      "attr": {
        "kernel": "(1, 1)", 
        "no_bias": "True", 
        "num_filter": "128", 
        "pad": "(0, 0)", 
        "stride": "(1, 1)"
      }, 
      "inputs": [[41, 0, 0], [42, 0, 0]]
    }, 
    {
      "op": "null", 
      "name": "resx2_conv1_bn_gamma", 
      "attr": {
        "eps": "1e-05", 
        "fix_gamma": "False", 
        "use_global_stats": "True"
      }, 
      "inputs": []
    }, 
    {
      "op": "null", 
      "name": "resx2_conv1_bn_beta", 
      "attr": {
        "eps": "1e-05", 
        "fix_gamma": "False", 
        "use_global_stats": "True"
      }, 
      "inputs": []
    }, 
    {
      "op": "null", 
      "name": "resx2_conv1_bn_moving_mean", 
      "attr": {
        "__init__": "[\"zero\", {}]", 
        "eps": "1e-05", 
        "fix_gamma": "False", 
        "use_global_stats": "True"
      }, 
      "inputs": []
    }, 
    {
      "op": "null", 
      "name": "resx2_conv1_bn_moving_var", 
      "attr": {
        "__init__": "[\"one\", {}]", 
        "eps": "1e-05", 
        "fix_gamma": "False", 
        "use_global_stats": "True"
      }, 
      "inputs": []
    }, 
    {
      "op": "BatchNorm", 
      "name": "resx2_conv1_bn", 
      "attr": {
        "eps": "1e-05", 
        "fix_gamma": "False", 
        "use_global_stats": "True"
      }, 
      "inputs": [[43, 0, 0], [44, 0, 0], [45, 0, 0], [46, 0, 1], [47, 0, 1]]
    }, 
    {
      "op": "Activation", 
      "name": "resx2_conv1_relu", 
      "attr": {"act_type": "relu"}, 
      "inputs": [[48, 0, 0]]
    }, 
    {
      "op": "null", 
      "name": "resx2_conv2_weight", 
      "attr": {
        "kernel": "(3, 3)", 
        "no_bias": "True", 
        "num_filter": "128", 
        "num_group": "32", 
        "pad": "(1, 1)", 
        "stride": "(1, 1)"
      }, 
      "inputs": []
    }, 
    {
      "op": "Convolution", 
      "name": "resx2_conv2", 
      "attr": {
        "kernel": "(3, 3)", 
        "no_bias": "True", 
        "num_filter": "128", 
        "num_group": "32", 
        "pad": "(1, 1)", 
        "stride": "(1, 1)"
      }, 
      "inputs": [[49, 0, 0], [50, 0, 0]]
    }, 
    {
      "op": "null", 
      "name": "resx2_conv2_bn_gamma", 
      "attr": {
        "eps": "1e-05", 
        "fix_gamma": "False", 
        "use_global_stats": "True"
      }, 
      "inputs": []
    }, 
    {
      "op": "null", 
      "name": "resx2_conv2_bn_beta", 
      "attr": {
        "eps": "1e-05", 
        "fix_gamma": "False", 
        "use_global_stats": "True"
      }, 
      "inputs": []
    }, 
    {
      "op": "null", 
      "name": "resx2_conv2_bn_moving_mean", 
      "attr": {
        "__init__": "[\"zero\", {}]", 
        "eps": "1e-05", 
        "fix_gamma": "False", 
        "use_global_stats": "True"
      }, 
      "inputs": []
    }, 
    {
      "op": "null", 
      "name": "resx2_conv2_bn_moving_var", 
      "attr": {
        "__init__": "[\"one\", {}]", 
        "eps": "1e-05", 
        "fix_gamma": "False", 
        "use_global_stats": "True"
      }, 
      "inputs": []
    }, 
    {
      "op": "BatchNorm", 
      "name": "resx2_conv2_bn", 
      "attr": {
        "eps": "1e-05", 
        "fix_gamma": "False", 
        "use_global_stats": "True"
      }, 
      "inputs": [[51, 0, 0], [52, 0, 0], [53, 0, 0], [54, 0, 1], [55, 0, 1]]
    }, 
    {
      "op": "Activation", 
      "name": "resx2_conv2_relu", 
      "attr": {"act_type": "relu"}, 
      "inputs": [[56, 0, 0]]
    }, 
    {
      "op": "null", 
      "name": "resx2_conv3_weight", 
      "attr": {
        "kernel": "(1, 1)", 
        "no_bias": "True", 
        "num_filter": "256", 
        "pad": "(0, 0)", 
        "stride": "(1, 1)"
      }, 
      "inputs": []
    }, 
    {
      "op": "Convolution", 
      "name": "resx2_conv3", 
      "attr": {
        "kernel": "(1, 1)", 
        "no_bias": "True", 
        "num_filter": "256", 
        "pad": "(0, 0)", 
        "stride": "(1, 1)"
      }, 
      "inputs": [[57, 0, 0], [58, 0, 0]]
    }, 
    {
      "op": "null", 
      "name": "resx2_conv3_bn_gamma", 
      "attr": {
        "eps": "1e-05", 
        "fix_gamma": "False", 
        "use_global_stats": "True"
      }, 
      "inputs": []
    }, 
    {
      "op": "null", 
      "name": "resx2_conv3_bn_beta", 
      "attr": {
        "eps": "1e-05", 
        "fix_gamma": "False", 
        "use_global_stats": "True"
      }, 
      "inputs": []
    }, 
    {
      "op": "null", 
      "name": "resx2_conv3_bn_moving_mean", 
      "attr": {
        "__init__": "[\"zero\", {}]", 
        "eps": "1e-05", 
        "fix_gamma": "False", 
        "use_global_stats": "True"
      }, 
      "inputs": []
    }, 
    {
      "op": "null", 
      "name": "resx2_conv3_bn_moving_var", 
      "attr": {
        "__init__": "[\"one\", {}]", 
        "eps": "1e-05", 
        "fix_gamma": "False", 
        "use_global_stats": "True"
      }, 
      "inputs": []
    }, 
    {
      "op": "BatchNorm", 
      "name": "resx2_conv3_bn", 
      "attr": {
        "eps": "1e-05", 
        "fix_gamma": "False", 
        "use_global_stats": "True"
      }, 
      "inputs": [[59, 0, 0], [60, 0, 0], [61, 0, 0], [62, 0, 1], [63, 0, 1]]
    }, 
    {
      "op": "broadcast_add", 
      "name": "resx2_eletwise", 
      "inputs": [[41, 0, 0], [64, 0, 0]]
    }, 
    {
      "op": "Activation", 
      "name": "resx2_eletwise_relu", 
      "attr": {"act_type": "relu"}, 
      "inputs": [[65, 0, 0]]
    }, 
    {
      "op": "null", 
      "name": "resx3_conv1_weight", 
      "attr": {
        "kernel": "(1, 1)", 
        "no_bias": "True", 
        "num_filter": "128", 
        "pad": "(0, 0)", 
        "stride": "(1, 1)"
      }, 
      "inputs": []
    }, 
    {
      "op": "Convolution", 
      "name": "resx3_conv1", 
      "attr": {
        "kernel": "(1, 1)", 
        "no_bias": "True", 
        "num_filter": "128", 
        "pad": "(0, 0)", 
        "stride": "(1, 1)"
      }, 
      "inputs": [[66, 0, 0], [67, 0, 0]]
    }, 
    {
      "op": "null", 
      "name": "resx3_conv1_bn_gamma", 
      "attr": {
        "eps": "1e-05", 
        "fix_gamma": "False", 
        "use_global_stats": "True"
      }, 
      "inputs": []
    }, 
    {
      "op": "null", 
      "name": "resx3_conv1_bn_beta", 
      "attr": {
        "eps": "1e-05", 
        "fix_gamma": "False", 
        "use_global_stats": "True"
      }, 
      "inputs": []
    }, 
    {
      "op": "null", 
      "name": "resx3_conv1_bn_moving_mean", 
      "attr": {
        "__init__": "[\"zero\", {}]", 
        "eps": "1e-05", 
        "fix_gamma": "False", 
        "use_global_stats": "True"
      }, 
      "inputs": []
    }, 
    {
      "op": "null", 
      "name": "resx3_conv1_bn_moving_var", 
      "attr": {
        "__init__": "[\"one\", {}]", 
        "eps": "1e-05", 
        "fix_gamma": "False", 
        "use_global_stats": "True"
      }, 
      "inputs": []
    }, 
    {
      "op": "BatchNorm", 
      "name": "resx3_conv1_bn", 
      "attr": {
        "eps": "1e-05", 
        "fix_gamma": "False", 
        "use_global_stats": "True"
      }, 
      "inputs": [[68, 0, 0], [69, 0, 0], [70, 0, 0], [71, 0, 1], [72, 0, 1]]
    }, 
    {
      "op": "Activation", 
      "name": "resx3_conv1_relu", 
      "attr": {"act_type": "relu"}, 
      "inputs": [[73, 0, 0]]
    }, 
    {
      "op": "null", 
      "name": "resx3_conv2_weight", 
      "attr": {
        "kernel": "(3, 3)", 
        "no_bias": "True", 
        "num_filter": "128", 
        "num_group": "32", 
        "pad": "(1, 1)", 
        "stride": "(1, 1)"
      }, 
      "inputs": []
    }, 
    {
      "op": "Convolution", 
      "name": "resx3_conv2", 
      "attr": {
        "kernel": "(3, 3)", 
        "no_bias": "True", 
        "num_filter": "128", 
        "num_group": "32", 
        "pad": "(1, 1)", 
        "stride": "(1, 1)"
      }, 
      "inputs": [[74, 0, 0], [75, 0, 0]]
    }, 
    {
      "op": "null", 
      "name": "resx3_conv2_bn_gamma", 
      "attr": {
        "eps": "1e-05", 
        "fix_gamma": "False", 
        "use_global_stats": "True"
      }, 
      "inputs": []
    }, 
    {
      "op": "null", 
      "name": "resx3_conv2_bn_beta", 
      "attr": {
        "eps": "1e-05", 
        "fix_gamma": "False", 
        "use_global_stats": "True"
      }, 
      "inputs": []
    }, 
    {
      "op": "null", 
      "name": "resx3_conv2_bn_moving_mean", 
      "attr": {
        "__init__": "[\"zero\", {}]", 
        "eps": "1e-05", 
        "fix_gamma": "False", 
        "use_global_stats": "True"
      }, 
      "inputs": []
    }, 
    {
      "op": "null", 
      "name": "resx3_conv2_bn_moving_var", 
      "attr": {
        "__init__": "[\"one\", {}]", 
        "eps": "1e-05", 
        "fix_gamma": "False", 
        "use_global_stats": "True"
      }, 
      "inputs": []
    }, 
    {
      "op": "BatchNorm", 
      "name": "resx3_conv2_bn", 
      "attr": {
        "eps": "1e-05", 
        "fix_gamma": "False", 
        "use_global_stats": "True"
      }, 
      "inputs": [[76, 0, 0], [77, 0, 0], [78, 0, 0], [79, 0, 1], [80, 0, 1]]
    }, 
    {
      "op": "Activation", 
      "name": "resx3_conv2_relu", 
      "attr": {"act_type": "relu"}, 
      "inputs": [[81, 0, 0]]
    }, 
    {
      "op": "null", 
      "name": "resx3_conv3_weight", 
      "attr": {
        "kernel": "(1, 1)", 
        "no_bias": "True", 
        "num_filter": "256", 
        "pad": "(0, 0)", 
        "stride": "(1, 1)"
      }, 
      "inputs": []
    }, 
    {
      "op": "Convolution", 
      "name": "resx3_conv3", 
      "attr": {
        "kernel": "(1, 1)", 
        "no_bias": "True", 
        "num_filter": "256", 
        "pad": "(0, 0)", 
        "stride": "(1, 1)"
      }, 
      "inputs": [[82, 0, 0], [83, 0, 0]]
    }, 
    {
      "op": "null", 
      "name": "resx3_conv3_bn_gamma", 
      "attr": {
        "eps": "1e-05", 
        "fix_gamma": "False", 
        "use_global_stats": "True"
      }, 
      "inputs": []
    }, 
    {
      "op": "null", 
      "name": "resx3_conv3_bn_beta", 
      "attr": {
        "eps": "1e-05", 
        "fix_gamma": "False", 
        "use_global_stats": "True"
      }, 
      "inputs": []
    }, 
    {
      "op": "null", 
      "name": "resx3_conv3_bn_moving_mean", 
      "attr": {
        "__init__": "[\"zero\", {}]", 
        "eps": "1e-05", 
        "fix_gamma": "False", 
        "use_global_stats": "True"
      }, 
      "inputs": []
    }, 
    {
      "op": "null", 
      "name": "resx3_conv3_bn_moving_var", 
      "attr": {
        "__init__": "[\"one\", {}]", 
        "eps": "1e-05", 
        "fix_gamma": "False", 
        "use_global_stats": "True"
      }, 
      "inputs": []
    }, 
    {
      "op": "BatchNorm", 
      "name": "resx3_conv3_bn", 
      "attr": {
        "eps": "1e-05", 
        "fix_gamma": "False", 
        "use_global_stats": "True"
      }, 
      "inputs": [[84, 0, 0], [85, 0, 0], [86, 0, 0], [87, 0, 1], [88, 0, 1]]
    }, 
    {
      "op": "broadcast_add", 
      "name": "resx3_eletwise", 
      "inputs": [[66, 0, 0], [89, 0, 0]]
    }, 
    {
      "op": "Activation", 
      "name": "resx3_eletwise_relu", 
      "attr": {"act_type": "relu"}, 
      "inputs": [[90, 0, 0]]
    }, 
    {
      "op": "null", 
      "name": "resx4_conv1_weight", 
      "attr": {
        "kernel": "(1, 1)", 
        "no_bias": "True", 
        "num_filter": "256", 
        "pad": "(0, 0)", 
        "stride": "(1, 1)"
      }, 
      "inputs": []
    }, 
    {
      "op": "Convolution", 
      "name": "resx4_conv1", 
      "attr": {
        "kernel": "(1, 1)", 
        "no_bias": "True", 
        "num_filter": "256", 
        "pad": "(0, 0)", 
        "stride": "(1, 1)"
      }, 
      "inputs": [[91, 0, 0], [92, 0, 0]]
    }, 
    {
      "op": "null", 
      "name": "resx4_conv1_bn_gamma", 
      "attr": {
        "eps": "1e-05", 
        "fix_gamma": "False", 
        "use_global_stats": "True"
      }, 
      "inputs": []
    }, 
    {
      "op": "null", 
      "name": "resx4_conv1_bn_beta", 
      "attr": {
        "eps": "1e-05", 
        "fix_gamma": "False", 
        "use_global_stats": "True"
      }, 
      "inputs": []
    }, 
    {
      "op": "null", 
      "name": "resx4_conv1_bn_moving_mean", 
      "attr": {
        "__init__": "[\"zero\", {}]", 
        "eps": "1e-05", 
        "fix_gamma": "False", 
        "use_global_stats": "True"
      }, 
      "inputs": []
    }, 
    {
      "op": "null", 
      "name": "resx4_conv1_bn_moving_var", 
      "attr": {
        "__init__": "[\"one\", {}]", 
        "eps": "1e-05", 
        "fix_gamma": "False", 
        "use_global_stats": "True"
      }, 
      "inputs": []
    }, 
    {
      "op": "BatchNorm", 
      "name": "resx4_conv1_bn", 
      "attr": {
        "eps": "1e-05", 
        "fix_gamma": "False", 
        "use_global_stats": "True"
      }, 
      "inputs": [[93, 0, 0], [94, 0, 0], [95, 0, 0], [96, 0, 1], [97, 0, 1]]
    }, 
    {
      "op": "Activation", 
      "name": "resx4_conv1_relu", 
      "attr": {"act_type": "relu"}, 
      "inputs": [[98, 0, 0]]
    }, 
    {
      "op": "null", 
      "name": "resx4_conv2_weight", 
      "attr": {
        "kernel": "(3, 3)", 
        "no_bias": "True", 
        "num_filter": "256", 
        "num_group": "32", 
        "pad": "(1, 1)", 
        "stride": "(2, 2)"
      }, 
      "inputs": []
    }, 
    {
      "op": "Convolution", 
      "name": "resx4_conv2", 
      "attr": {
        "kernel": "(3, 3)", 
        "no_bias": "True", 
        "num_filter": "256", 
        "num_group": "32", 
        "pad": "(1, 1)", 
        "stride": "(2, 2)"
      }, 
      "inputs": [[99, 0, 0], [100, 0, 0]]
    }, 
    {
      "op": "null", 
      "name": "resx4_conv2_bn_gamma", 
      "attr": {
        "eps": "1e-05", 
        "fix_gamma": "False", 
        "use_global_stats": "True"
      }, 
      "inputs": []
    }, 
    {
      "op": "null", 
      "name": "resx4_conv2_bn_beta", 
      "attr": {
        "eps": "1e-05", 
        "fix_gamma": "False", 
        "use_global_stats": "True"
      }, 
      "inputs": []
    }, 
    {
      "op": "null", 
      "name": "resx4_conv2_bn_moving_mean", 
      "attr": {
        "__init__": "[\"zero\", {}]", 
        "eps": "1e-05", 
        "fix_gamma": "False", 
        "use_global_stats": "True"
      }, 
      "inputs": []
    }, 
    {
      "op": "null", 
      "name": "resx4_conv2_bn_moving_var", 
      "attr": {
        "__init__": "[\"one\", {}]", 
        "eps": "1e-05", 
        "fix_gamma": "False", 
        "use_global_stats": "True"
      }, 
      "inputs": []
    }, 
    {
      "op": "BatchNorm", 
      "name": "resx4_conv2_bn", 
      "attr": {
        "eps": "1e-05", 
        "fix_gamma": "False", 
        "use_global_stats": "True"
      }, 
      "inputs": [[101, 0, 0], [102, 0, 0], [103, 0, 0], [104, 0, 1], [105, 0, 1]]
    }, 
    {
      "op": "Activation", 
      "name": "resx4_conv2_relu", 
      "attr": {"act_type": "relu"}, 
      "inputs": [[106, 0, 0]]
    }, 
    {
      "op": "null", 
      "name": "resx4_conv3_weight", 
      "attr": {
        "kernel": "(1, 1)", 
        "no_bias": "True", 
        "num_filter": "512", 
        "pad": "(0, 0)", 
        "stride": "(1, 1)"
      }, 
      "inputs": []
    }, 
    {
      "op": "Convolution", 
      "name": "resx4_conv3", 
      "attr": {
        "kernel": "(1, 1)", 
        "no_bias": "True", 
        "num_filter": "512", 
        "pad": "(0, 0)", 
        "stride": "(1, 1)"
      }, 
      "inputs": [[107, 0, 0], [108, 0, 0]]
    }, 
    {
      "op": "null", 
      "name": "resx4_conv3_bn_gamma", 
      "attr": {
        "eps": "1e-05", 
        "fix_gamma": "False", 
        "use_global_stats": "True"
      }, 
      "inputs": []
    }, 
    {
      "op": "null", 
      "name": "resx4_conv3_bn_beta", 
      "attr": {
        "eps": "1e-05", 
        "fix_gamma": "False", 
        "use_global_stats": "True"
      }, 
      "inputs": []
    }, 
    {
      "op": "null", 
      "name": "resx4_conv3_bn_moving_mean", 
      "attr": {
        "__init__": "[\"zero\", {}]", 
        "eps": "1e-05", 
        "fix_gamma": "False", 
        "use_global_stats": "True"
      }, 
      "inputs": []
    }, 
    {
      "op": "null", 
      "name": "resx4_conv3_bn_moving_var", 
      "attr": {
        "__init__": "[\"one\", {}]", 
        "eps": "1e-05", 
        "fix_gamma": "False", 
        "use_global_stats": "True"
      }, 
      "inputs": []
    }, 
    {
      "op": "BatchNorm", 
      "name": "resx4_conv3_bn", 
      "attr": {
        "eps": "1e-05", 
        "fix_gamma": "False", 
        "use_global_stats": "True"
      }, 
      "inputs": [[109, 0, 0], [110, 0, 0], [111, 0, 0], [112, 0, 1], [113, 0, 1]]
    }, 
    {
      "op": "null", 
      "name": "resx4_match_conv_weight", 
      "attr": {
        "kernel": "(1, 1)", 
        "no_bias": "True", 
        "num_filter": "512", 
        "pad": "(0, 0)", 
        "stride": "(2, 2)"
      }, 
      "inputs": []
    }, 
    {
      "op": "Convolution", 
      "name": "resx4_match_conv", 
      "attr": {
        "kernel": "(1, 1)", 
        "no_bias": "True", 
        "num_filter": "512", 
        "pad": "(0, 0)", 
        "stride": "(2, 2)"
      }, 
      "inputs": [[91, 0, 0], [115, 0, 0]]
    }, 
    {
      "op": "null", 
      "name": "resx4_match_conv_bn_gamma", 
      "attr": {
        "eps": "1e-05", 
        "fix_gamma": "False", 
        "use_global_stats": "True"
      }, 
      "inputs": []
    }, 
    {
      "op": "null", 
      "name": "resx4_match_conv_bn_beta", 
      "attr": {
        "eps": "1e-05", 
        "fix_gamma": "False", 
        "use_global_stats": "True"
      }, 
      "inputs": []
    }, 
    {
      "op": "null", 
      "name": "resx4_match_conv_bn_moving_mean", 
      "attr": {
        "__init__": "[\"zero\", {}]", 
        "eps": "1e-05", 
        "fix_gamma": "False", 
        "use_global_stats": "True"
      }, 
      "inputs": []
    }, 
    {
      "op": "null", 
      "name": "resx4_match_conv_bn_moving_var", 
      "attr": {
        "__init__": "[\"one\", {}]", 
        "eps": "1e-05", 
        "fix_gamma": "False", 
        "use_global_stats": "True"
      }, 
      "inputs": []
    }, 
    {
      "op": "BatchNorm", 
      "name": "resx4_match_conv_bn", 
      "attr": {
        "eps": "1e-05", 
        "fix_gamma": "False", 
        "use_global_stats": "True"
      }, 
      "inputs": [[116, 0, 0], [117, 0, 0], [118, 0, 0], [119, 0, 1], [120, 0, 1]]
    }, 
    {
      "op": "broadcast_add", 
      "name": "resx4_eletwise", 
      "inputs": [[114, 0, 0], [121, 0, 0]]
    }, 
    {
      "op": "Activation", 
      "name": "resx4_eletwise_relu", 
      "attr": {"act_type": "relu"}, 
      "inputs": [[122, 0, 0]]
    }, 
    {
      "op": "null", 
      "name": "resx5_conv1_weight", 
      "attr": {
        "kernel": "(1, 1)", 
        "no_bias": "True", 
        "num_filter": "256", 
        "pad": "(0, 0)", 
        "stride": "(1, 1)"
      }, 
      "inputs": []
    }, 
    {
      "op": "Convolution", 
      "name": "resx5_conv1", 
      "attr": {
        "kernel": "(1, 1)", 
        "no_bias": "True", 
        "num_filter": "256", 
        "pad": "(0, 0)", 
        "stride": "(1, 1)"
      }, 
      "inputs": [[123, 0, 0], [124, 0, 0]]
    }, 
    {
      "op": "null", 
      "name": "resx5_conv1_bn_gamma", 
      "attr": {
        "eps": "1e-05", 
        "fix_gamma": "False", 
        "use_global_stats": "True"
      }, 
      "inputs": []
    }, 
    {
      "op": "null", 
      "name": "resx5_conv1_bn_beta", 
      "attr": {
        "eps": "1e-05", 
        "fix_gamma": "False", 
        "use_global_stats": "True"
      }, 
      "inputs": []
    }, 
    {
      "op": "null", 
      "name": "resx5_conv1_bn_moving_mean", 
      "attr": {
        "__init__": "[\"zero\", {}]", 
        "eps": "1e-05", 
        "fix_gamma": "False", 
        "use_global_stats": "True"
      }, 
      "inputs": []
    }, 
    {
      "op": "null", 
      "name": "resx5_conv1_bn_moving_var", 
      "attr": {
        "__init__": "[\"one\", {}]", 
        "eps": "1e-05", 
        "fix_gamma": "False", 
        "use_global_stats": "True"
      }, 
      "inputs": []
    }, 
    {
      "op": "BatchNorm", 
      "name": "resx5_conv1_bn", 
      "attr": {
        "eps": "1e-05", 
        "fix_gamma": "False", 
        "use_global_stats": "True"
      }, 
      "inputs": [[125, 0, 0], [126, 0, 0], [127, 0, 0], [128, 0, 1], [129, 0, 1]]
    }, 
    {
      "op": "Activation", 
      "name": "resx5_conv1_relu", 
      "attr": {"act_type": "relu"}, 
      "inputs": [[130, 0, 0]]
    }, 
    {
      "op": "null", 
      "name": "resx5_conv2_weight", 
      "attr": {
        "kernel": "(3, 3)", 
        "no_bias": "True", 
        "num_filter": "256", 
        "num_group": "32", 
        "pad": "(1, 1)", 
        "stride": "(1, 1)"
      }, 
      "inputs": []
    }, 
    {
      "op": "Convolution", 
      "name": "resx5_conv2", 
      "attr": {
        "kernel": "(3, 3)", 
        "no_bias": "True", 
        "num_filter": "256", 
        "num_group": "32", 
        "pad": "(1, 1)", 
        "stride": "(1, 1)"
      }, 
      "inputs": [[131, 0, 0], [132, 0, 0]]
    }, 
    {
      "op": "null", 
      "name": "resx5_conv2_bn_gamma", 
      "attr": {
        "eps": "1e-05", 
        "fix_gamma": "False", 
        "use_global_stats": "True"
      }, 
      "inputs": []
    }, 
    {
      "op": "null", 
      "name": "resx5_conv2_bn_beta", 
      "attr": {
        "eps": "1e-05", 
        "fix_gamma": "False", 
        "use_global_stats": "True"
      }, 
      "inputs": []
    }, 
    {
      "op": "null", 
      "name": "resx5_conv2_bn_moving_mean", 
      "attr": {
        "__init__": "[\"zero\", {}]", 
        "eps": "1e-05", 
        "fix_gamma": "False", 
        "use_global_stats": "True"
      }, 
      "inputs": []
    }, 
    {
      "op": "null", 
      "name": "resx5_conv2_bn_moving_var", 
      "attr": {
        "__init__": "[\"one\", {}]", 
        "eps": "1e-05", 
        "fix_gamma": "False", 
        "use_global_stats": "True"
      }, 
      "inputs": []
    }, 
    {
      "op": "BatchNorm", 
      "name": "resx5_conv2_bn", 
      "attr": {
        "eps": "1e-05", 
        "fix_gamma": "False", 
        "use_global_stats": "True"
      }, 
      "inputs": [[133, 0, 0], [134, 0, 0], [135, 0, 0], [136, 0, 1], [137, 0, 1]]
    }, 
    {
      "op": "Activation", 
      "name": "resx5_conv2_relu", 
      "attr": {"act_type": "relu"}, 
      "inputs": [[138, 0, 0]]
    }, 
    {
      "op": "null", 
      "name": "resx5_conv3_weight", 
      "attr": {
        "kernel": "(1, 1)", 
        "no_bias": "True", 
        "num_filter": "512", 
        "pad": "(0, 0)", 
        "stride": "(1, 1)"
      }, 
      "inputs": []
    }, 
    {
      "op": "Convolution", 
      "name": "resx5_conv3", 
      "attr": {
        "kernel": "(1, 1)", 
        "no_bias": "True", 
        "num_filter": "512", 
        "pad": "(0, 0)", 
        "stride": "(1, 1)"
      }, 
      "inputs": [[139, 0, 0], [140, 0, 0]]
    }, 
    {
      "op": "null", 
      "name": "resx5_conv3_bn_gamma", 
      "attr": {
        "eps": "1e-05", 
        "fix_gamma": "False", 
        "use_global_stats": "True"
      }, 
      "inputs": []
    }, 
    {
      "op": "null", 
      "name": "resx5_conv3_bn_beta", 
      "attr": {
        "eps": "1e-05", 
        "fix_gamma": "False", 
        "use_global_stats": "True"
      }, 
      "inputs": []
    }, 
    {
      "op": "null", 
      "name": "resx5_conv3_bn_moving_mean", 
      "attr": {
        "__init__": "[\"zero\", {}]", 
        "eps": "1e-05", 
        "fix_gamma": "False", 
        "use_global_stats": "True"
      }, 
      "inputs": []
    }, 
    {
      "op": "null", 
      "name": "resx5_conv3_bn_moving_var", 
      "attr": {
        "__init__": "[\"one\", {}]", 
        "eps": "1e-05", 
        "fix_gamma": "False", 
        "use_global_stats": "True"
      }, 
      "inputs": []
    }, 
    {
      "op": "BatchNorm", 
      "name": "resx5_conv3_bn", 
      "attr": {
        "eps": "1e-05", 
        "fix_gamma": "False", 
        "use_global_stats": "True"
      }, 
      "inputs": [[141, 0, 0], [142, 0, 0], [143, 0, 0], [144, 0, 1], [145, 0, 1]]
    }, 
    {
      "op": "broadcast_add", 
      "name": "resx5_eletwise", 
      "inputs": [[123, 0, 0], [146, 0, 0]]
    }, 
    {
      "op": "Activation", 
      "name": "resx5_eletwise_relu", 
      "attr": {"act_type": "relu"}, 
      "inputs": [[147, 0, 0]]
    }, 
    {
      "op": "null", 
      "name": "resx6_conv1_weight", 
      "attr": {
        "kernel": "(1, 1)", 
        "no_bias": "True", 
        "num_filter": "256", 
        "pad": "(0, 0)", 
        "stride": "(1, 1)"
      }, 
      "inputs": []
    }, 
    {
      "op": "Convolution", 
      "name": "resx6_conv1", 
      "attr": {
        "kernel": "(1, 1)", 
        "no_bias": "True", 
        "num_filter": "256", 
        "pad": "(0, 0)", 
        "stride": "(1, 1)"
      }, 
      "inputs": [[148, 0, 0], [149, 0, 0]]
    }, 
    {
      "op": "null", 
      "name": "resx6_conv1_bn_gamma", 
      "attr": {
        "eps": "1e-05", 
        "fix_gamma": "False", 
        "use_global_stats": "True"
      }, 
      "inputs": []
    }, 
    {
      "op": "null", 
      "name": "resx6_conv1_bn_beta", 
      "attr": {
        "eps": "1e-05", 
        "fix_gamma": "False", 
        "use_global_stats": "True"
      }, 
      "inputs": []
    }, 
    {
      "op": "null", 
      "name": "resx6_conv1_bn_moving_mean", 
      "attr": {
        "__init__": "[\"zero\", {}]", 
        "eps": "1e-05", 
        "fix_gamma": "False", 
        "use_global_stats": "True"
      }, 
      "inputs": []
    }, 
    {
      "op": "null", 
      "name": "resx6_conv1_bn_moving_var", 
      "attr": {
        "__init__": "[\"one\", {}]", 
        "eps": "1e-05", 
        "fix_gamma": "False", 
        "use_global_stats": "True"
      }, 
      "inputs": []
    }, 
    {
      "op": "BatchNorm", 
      "name": "resx6_conv1_bn", 
      "attr": {
        "eps": "1e-05", 
        "fix_gamma": "False", 
        "use_global_stats": "True"
      }, 
      "inputs": [[150, 0, 0], [151, 0, 0], [152, 0, 0], [153, 0, 1], [154, 0, 1]]
    }, 
    {
      "op": "Activation", 
      "name": "resx6_conv1_relu", 
      "attr": {"act_type": "relu"}, 
      "inputs": [[155, 0, 0]]
    }, 
    {
      "op": "null", 
      "name": "resx6_conv2_weight", 
      "attr": {
        "kernel": "(3, 3)", 
        "no_bias": "True", 
        "num_filter": "256", 
        "num_group": "32", 
        "pad": "(1, 1)", 
        "stride": "(1, 1)"
      }, 
      "inputs": []
    }, 
    {
      "op": "Convolution", 
      "name": "resx6_conv2", 
      "attr": {
        "kernel": "(3, 3)", 
        "no_bias": "True", 
        "num_filter": "256", 
        "num_group": "32", 
        "pad": "(1, 1)", 
        "stride": "(1, 1)"
      }, 
      "inputs": [[156, 0, 0], [157, 0, 0]]
    }, 
    {
      "op": "null", 
      "name": "resx6_conv2_bn_gamma", 
      "attr": {
        "eps": "1e-05", 
        "fix_gamma": "False", 
        "use_global_stats": "True"
      }, 
      "inputs": []
    }, 
    {
      "op": "null", 
      "name": "resx6_conv2_bn_beta", 
      "attr": {
        "eps": "1e-05", 
        "fix_gamma": "False", 
        "use_global_stats": "True"
      }, 
      "inputs": []
    }, 
    {
      "op": "null", 
      "name": "resx6_conv2_bn_moving_mean", 
      "attr": {
        "__init__": "[\"zero\", {}]", 
        "eps": "1e-05", 
        "fix_gamma": "False", 
        "use_global_stats": "True"
      }, 
      "inputs": []
    }, 
    {
      "op": "null", 
      "name": "resx6_conv2_bn_moving_var", 
      "attr": {
        "__init__": "[\"one\", {}]", 
        "eps": "1e-05", 
        "fix_gamma": "False", 
        "use_global_stats": "True"
      }, 
      "inputs": []
    }, 
    {
      "op": "BatchNorm", 
      "name": "resx6_conv2_bn", 
      "attr": {
        "eps": "1e-05", 
        "fix_gamma": "False", 
        "use_global_stats": "True"
      }, 
      "inputs": [[158, 0, 0], [159, 0, 0], [160, 0, 0], [161, 0, 1], [162, 0, 1]]
    }, 
    {
      "op": "Activation", 
      "name": "resx6_conv2_relu", 
      "attr": {"act_type": "relu"}, 
      "inputs": [[163, 0, 0]]
    }, 
    {
      "op": "null", 
      "name": "resx6_conv3_weight", 
      "attr": {
        "kernel": "(1, 1)", 
        "no_bias": "True", 
        "num_filter": "512", 
        "pad": "(0, 0)", 
        "stride": "(1, 1)"
      }, 
      "inputs": []
    }, 
    {
      "op": "Convolution", 
      "name": "resx6_conv3", 
      "attr": {
        "kernel": "(1, 1)", 
        "no_bias": "True", 
        "num_filter": "512", 
        "pad": "(0, 0)", 
        "stride": "(1, 1)"
      }, 
      "inputs": [[164, 0, 0], [165, 0, 0]]
    }, 
    {
      "op": "null", 
      "name": "resx6_conv3_bn_gamma", 
      "attr": {
        "eps": "1e-05", 
        "fix_gamma": "False", 
        "use_global_stats": "True"
      }, 
      "inputs": []
    }, 
    {
      "op": "null", 
      "name": "resx6_conv3_bn_beta", 
      "attr": {
        "eps": "1e-05", 
        "fix_gamma": "False", 
        "use_global_stats": "True"
      }, 
      "inputs": []
    }, 
    {
      "op": "null", 
      "name": "resx6_conv3_bn_moving_mean", 
      "attr": {
        "__init__": "[\"zero\", {}]", 
        "eps": "1e-05", 
        "fix_gamma": "False", 
        "use_global_stats": "True"
      }, 
      "inputs": []
    }, 
    {
      "op": "null", 
      "name": "resx6_conv3_bn_moving_var", 
      "attr": {
        "__init__": "[\"one\", {}]", 
        "eps": "1e-05", 
        "fix_gamma": "False", 
        "use_global_stats": "True"
      }, 
      "inputs": []
    }, 
    {
      "op": "BatchNorm", 
      "name": "resx6_conv3_bn", 
      "attr": {
        "eps": "1e-05", 
        "fix_gamma": "False", 
        "use_global_stats": "True"
      }, 
      "inputs": [[166, 0, 0], [167, 0, 0], [168, 0, 0], [169, 0, 1], [170, 0, 1]]
    }, 
    {
      "op": "broadcast_add", 
      "name": "resx6_eletwise", 
      "inputs": [[148, 0, 0], [171, 0, 0]]
    }, 
    {
      "op": "Activation", 
      "name": "resx6_eletwise_relu", 
      "attr": {"act_type": "relu"}, 
      "inputs": [[172, 0, 0]]
    }, 
    {
      "op": "null", 
      "name": "resx7_conv1_weight", 
      "attr": {
        "kernel": "(1, 1)", 
        "no_bias": "True", 
        "num_filter": "256", 
        "pad": "(0, 0)", 
        "stride": "(1, 1)"
      }, 
      "inputs": []
    }, 
    {
      "op": "Convolution", 
      "name": "resx7_conv1", 
      "attr": {
        "kernel": "(1, 1)", 
        "no_bias": "True", 
        "num_filter": "256", 
        "pad": "(0, 0)", 
        "stride": "(1, 1)"
      }, 
      "inputs": [[173, 0, 0], [174, 0, 0]]
    }, 
    {
      "op": "null", 
      "name": "resx7_conv1_bn_gamma", 
      "attr": {
        "eps": "1e-05", 
        "fix_gamma": "False", 
        "use_global_stats": "True"
      }, 
      "inputs": []
    }, 
    {
      "op": "null", 
      "name": "resx7_conv1_bn_beta", 
      "attr": {
        "eps": "1e-05", 
        "fix_gamma": "False", 
        "use_global_stats": "True"
      }, 
      "inputs": []
    }, 
    {
      "op": "null", 
      "name": "resx7_conv1_bn_moving_mean", 
      "attr": {
        "__init__": "[\"zero\", {}]", 
        "eps": "1e-05", 
        "fix_gamma": "False", 
        "use_global_stats": "True"
      }, 
      "inputs": []
    }, 
    {
      "op": "null", 
      "name": "resx7_conv1_bn_moving_var", 
      "attr": {
        "__init__": "[\"one\", {}]", 
        "eps": "1e-05", 
        "fix_gamma": "False", 
        "use_global_stats": "True"
      }, 
      "inputs": []
    }, 
    {
      "op": "BatchNorm", 
      "name": "resx7_conv1_bn", 
      "attr": {
        "eps": "1e-05", 
        "fix_gamma": "False", 
        "use_global_stats": "True"
      }, 
      "inputs": [[175, 0, 0], [176, 0, 0], [177, 0, 0], [178, 0, 1], [179, 0, 1]]
    }, 
    {
      "op": "Activation", 
      "name": "resx7_conv1_relu", 
      "attr": {"act_type": "relu"}, 
      "inputs": [[180, 0, 0]]
    }, 
    {
      "op": "null", 
      "name": "resx7_conv2_weight", 
      "attr": {
        "kernel": "(3, 3)", 
        "no_bias": "True", 
        "num_filter": "256", 
        "num_group": "32", 
        "pad": "(1, 1)", 
        "stride": "(1, 1)"
      }, 
      "inputs": []
    }, 
    {
      "op": "Convolution", 
      "name": "resx7_conv2", 
      "attr": {
        "kernel": "(3, 3)", 
        "no_bias": "True", 
        "num_filter": "256", 
        "num_group": "32", 
        "pad": "(1, 1)", 
        "stride": "(1, 1)"
      }, 
      "inputs": [[181, 0, 0], [182, 0, 0]]
    }, 
    {
      "op": "null", 
      "name": "resx7_conv2_bn_gamma", 
      "attr": {
        "eps": "1e-05", 
        "fix_gamma": "False", 
        "use_global_stats": "True"
      }, 
      "inputs": []
    }, 
    {
      "op": "null", 
      "name": "resx7_conv2_bn_beta", 
      "attr": {
        "eps": "1e-05", 
        "fix_gamma": "False", 
        "use_global_stats": "True"
      }, 
      "inputs": []
    }, 
    {
      "op": "null", 
      "name": "resx7_conv2_bn_moving_mean", 
      "attr": {
        "__init__": "[\"zero\", {}]", 
        "eps": "1e-05", 
        "fix_gamma": "False", 
        "use_global_stats": "True"
      }, 
      "inputs": []
    }, 
    {
      "op": "null", 
      "name": "resx7_conv2_bn_moving_var", 
      "attr": {
        "__init__": "[\"one\", {}]", 
        "eps": "1e-05", 
        "fix_gamma": "False", 
        "use_global_stats": "True"
      }, 
      "inputs": []
    }, 
    {
      "op": "BatchNorm", 
      "name": "resx7_conv2_bn", 
      "attr": {
        "eps": "1e-05", 
        "fix_gamma": "False", 
        "use_global_stats": "True"
      }, 
      "inputs": [[183, 0, 0], [184, 0, 0], [185, 0, 0], [186, 0, 1], [187, 0, 1]]
    }, 
    {
      "op": "Activation", 
      "name": "resx7_conv2_relu", 
      "attr": {"act_type": "relu"}, 
      "inputs": [[188, 0, 0]]
    }, 
    {
      "op": "null", 
      "name": "resx7_conv3_weight", 
      "attr": {
        "kernel": "(1, 1)", 
        "no_bias": "True", 
        "num_filter": "512", 
        "pad": "(0, 0)", 
        "stride": "(1, 1)"
      }, 
      "inputs": []
    }, 
    {
      "op": "Convolution", 
      "name": "resx7_conv3", 
      "attr": {
        "kernel": "(1, 1)", 
        "no_bias": "True", 
        "num_filter": "512", 
        "pad": "(0, 0)", 
        "stride": "(1, 1)"
      }, 
      "inputs": [[189, 0, 0], [190, 0, 0]]
    }, 
    {
      "op": "null", 
      "name": "resx7_conv3_bn_gamma", 
      "attr": {
        "eps": "1e-05", 
        "fix_gamma": "False", 
        "use_global_stats": "True"
      }, 
      "inputs": []
    }, 
    {
      "op": "null", 
      "name": "resx7_conv3_bn_beta", 
      "attr": {
        "eps": "1e-05", 
        "fix_gamma": "False", 
        "use_global_stats": "True"
      }, 
      "inputs": []
    }, 
    {
      "op": "null", 
      "name": "resx7_conv3_bn_moving_mean", 
      "attr": {
        "__init__": "[\"zero\", {}]", 
        "eps": "1e-05", 
        "fix_gamma": "False", 
        "use_global_stats": "True"
      }, 
      "inputs": []
    }, 
    {
      "op": "null", 
      "name": "resx7_conv3_bn_moving_var", 
      "attr": {
        "__init__": "[\"one\", {}]", 
        "eps": "1e-05", 
        "fix_gamma": "False", 
        "use_global_stats": "True"
      }, 
      "inputs": []
    }, 
    {
      "op": "BatchNorm", 
      "name": "resx7_conv3_bn", 
      "attr": {
        "eps": "1e-05", 
        "fix_gamma": "False", 
        "use_global_stats": "True"
      }, 
      "inputs": [[191, 0, 0], [192, 0, 0], [193, 0, 0], [194, 0, 1], [195, 0, 1]]
    }, 
    {
      "op": "broadcast_add", 
      "name": "resx7_eletwise", 
      "inputs": [[173, 0, 0], [196, 0, 0]]
    }, 
    {
      "op": "Activation", 
      "name": "resx7_eletwise_relu", 
      "attr": {"act_type": "relu"}, 
      "inputs": [[197, 0, 0]]
    }, 
    {
      "op": "null", 
      "name": "resx8_conv1_weight", 
      "attr": {
        "kernel": "(1, 1)", 
        "no_bias": "True", 
        "num_filter": "512", 
        "pad": "(0, 0)", 
        "stride": "(1, 1)"
      }, 
      "inputs": []
    }, 
    {
      "op": "Convolution", 
      "name": "resx8_conv1", 
      "attr": {
        "kernel": "(1, 1)", 
        "no_bias": "True", 
        "num_filter": "512", 
        "pad": "(0, 0)", 
        "stride": "(1, 1)"
      }, 
      "inputs": [[198, 0, 0], [199, 0, 0]]
    }, 
    {
      "op": "null", 
      "name": "resx8_conv1_bn_gamma", 
      "attr": {
        "eps": "1e-05", 
        "fix_gamma": "False", 
        "use_global_stats": "True"
      }, 
      "inputs": []
    }, 
    {
      "op": "null", 
      "name": "resx8_conv1_bn_beta", 
      "attr": {
        "eps": "1e-05", 
        "fix_gamma": "False", 
        "use_global_stats": "True"
      }, 
      "inputs": []
    }, 
    {
      "op": "null", 
      "name": "resx8_conv1_bn_moving_mean", 
      "attr": {
        "__init__": "[\"zero\", {}]", 
        "eps": "1e-05", 
        "fix_gamma": "False", 
        "use_global_stats": "True"
      }, 
      "inputs": []
    }, 
    {
      "op": "null", 
      "name": "resx8_conv1_bn_moving_var", 
      "attr": {
        "__init__": "[\"one\", {}]", 
        "eps": "1e-05", 
        "fix_gamma": "False", 
        "use_global_stats": "True"
      }, 
      "inputs": []
    }, 
    {
      "op": "BatchNorm", 
      "name": "resx8_conv1_bn", 
      "attr": {
        "eps": "1e-05", 
        "fix_gamma": "False", 
        "use_global_stats": "True"
      }, 
      "inputs": [[200, 0, 0], [201, 0, 0], [202, 0, 0], [203, 0, 1], [204, 0, 1]]
    }, 
    {
      "op": "Activation", 
      "name": "resx8_conv1_relu", 
      "attr": {"act_type": "relu"}, 
      "inputs": [[205, 0, 0]]
    }, 
    {
      "op": "null", 
      "name": "resx8_conv2_weight", 
      "attr": {
        "kernel": "(3, 3)", 
        "no_bias": "True", 
        "num_filter": "512", 
        "num_group": "32", 
        "pad": "(1, 1)", 
        "stride": "(2, 2)"
      }, 
      "inputs": []
    }, 
    {
      "op": "Convolution", 
      "name": "resx8_conv2", 
      "attr": {
        "kernel": "(3, 3)", 
        "no_bias": "True", 
        "num_filter": "512", 
        "num_group": "32", 
        "pad": "(1, 1)", 
        "stride": "(2, 2)"
      }, 
      "inputs": [[206, 0, 0], [207, 0, 0]]
    }, 
    {
      "op": "null", 
      "name": "resx8_conv2_bn_gamma", 
      "attr": {
        "eps": "1e-05", 
        "fix_gamma": "False", 
        "use_global_stats": "True"
      }, 
      "inputs": []
    }, 
    {
      "op": "null", 
      "name": "resx8_conv2_bn_beta", 
      "attr": {
        "eps": "1e-05", 
        "fix_gamma": "False", 
        "use_global_stats": "True"
      }, 
      "inputs": []
    }, 
    {
      "op": "null", 
      "name": "resx8_conv2_bn_moving_mean", 
      "attr": {
        "__init__": "[\"zero\", {}]", 
        "eps": "1e-05", 
        "fix_gamma": "False", 
        "use_global_stats": "True"
      }, 
      "inputs": []
    }, 
    {
      "op": "null", 
      "name": "resx8_conv2_bn_moving_var", 
      "attr": {
        "__init__": "[\"one\", {}]", 
        "eps": "1e-05", 
        "fix_gamma": "False", 
        "use_global_stats": "True"
      }, 
      "inputs": []
    }, 
    {
      "op": "BatchNorm", 
      "name": "resx8_conv2_bn", 
      "attr": {
        "eps": "1e-05", 
        "fix_gamma": "False", 
        "use_global_stats": "True"
      }, 
      "inputs": [[208, 0, 0], [209, 0, 0], [210, 0, 0], [211, 0, 1], [212, 0, 1]]
    }, 
    {
      "op": "Activation", 
      "name": "resx8_conv2_relu", 
      "attr": {"act_type": "relu"}, 
      "inputs": [[213, 0, 0]]
    }, 
    {
      "op": "null", 
      "name": "resx8_conv3_weight", 
      "attr": {
        "kernel": "(1, 1)", 
        "no_bias": "True", 
        "num_filter": "1024", 
        "pad": "(0, 0)", 
        "stride": "(1, 1)"
      }, 
      "inputs": []
    }, 
    {
      "op": "Convolution", 
      "name": "resx8_conv3", 
      "attr": {
        "kernel": "(1, 1)", 
        "no_bias": "True", 
        "num_filter": "1024", 
        "pad": "(0, 0)", 
        "stride": "(1, 1)"
      }, 
      "inputs": [[214, 0, 0], [215, 0, 0]]
    }, 
    {
      "op": "null", 
      "name": "resx8_conv3_bn_gamma", 
      "attr": {
        "eps": "1e-05", 
        "fix_gamma": "False", 
        "use_global_stats": "True"
      }, 
      "inputs": []
    }, 
    {
      "op": "null", 
      "name": "resx8_conv3_bn_beta", 
      "attr": {
        "eps": "1e-05", 
        "fix_gamma": "False", 
        "use_global_stats": "True"
      }, 
      "inputs": []
    }, 
    {
      "op": "null", 
      "name": "resx8_conv3_bn_moving_mean", 
      "attr": {
        "__init__": "[\"zero\", {}]", 
        "eps": "1e-05", 
        "fix_gamma": "False", 
        "use_global_stats": "True"
      }, 
      "inputs": []
    }, 
    {
      "op": "null", 
      "name": "resx8_conv3_bn_moving_var", 
      "attr": {
        "__init__": "[\"one\", {}]", 
        "eps": "1e-05", 
        "fix_gamma": "False", 
        "use_global_stats": "True"
      }, 
      "inputs": []
    }, 
    {
      "op": "BatchNorm", 
      "name": "resx8_conv3_bn", 
      "attr": {
        "eps": "1e-05", 
        "fix_gamma": "False", 
        "use_global_stats": "True"
      }, 
      "inputs": [[216, 0, 0], [217, 0, 0], [218, 0, 0], [219, 0, 1], [220, 0, 1]]
    }, 
    {
      "op": "null", 
      "name": "resx8_match_conv_weight", 
      "attr": {
        "kernel": "(1, 1)", 
        "no_bias": "True", 
        "num_filter": "1024", 
        "pad": "(0, 0)", 
        "stride": "(2, 2)"
      }, 
      "inputs": []
    }, 
    {
      "op": "Convolution", 
      "name": "resx8_match_conv", 
      "attr": {
        "kernel": "(1, 1)", 
        "no_bias": "True", 
        "num_filter": "1024", 
        "pad": "(0, 0)", 
        "stride": "(2, 2)"
      }, 
      "inputs": [[198, 0, 0], [222, 0, 0]]
    }, 
    {
      "op": "null", 
      "name": "resx8_match_conv_bn_gamma", 
      "attr": {
        "eps": "1e-05", 
        "fix_gamma": "False", 
        "use_global_stats": "True"
      }, 
      "inputs": []
    }, 
    {
      "op": "null", 
      "name": "resx8_match_conv_bn_beta", 
      "attr": {
        "eps": "1e-05", 
        "fix_gamma": "False", 
        "use_global_stats": "True"
      }, 
      "inputs": []
    }, 
    {
      "op": "null", 
      "name": "resx8_match_conv_bn_moving_mean", 
      "attr": {
        "__init__": "[\"zero\", {}]", 
        "eps": "1e-05", 
        "fix_gamma": "False", 
        "use_global_stats": "True"
      }, 
      "inputs": []
    }, 
    {
      "op": "null", 
      "name": "resx8_match_conv_bn_moving_var", 
      "attr": {
        "__init__": "[\"one\", {}]", 
        "eps": "1e-05", 
        "fix_gamma": "False", 
        "use_global_stats": "True"
      }, 
      "inputs": []
    }, 
    {
      "op": "BatchNorm", 
      "name": "resx8_match_conv_bn", 
      "attr": {
        "eps": "1e-05", 
        "fix_gamma": "False", 
        "use_global_stats": "True"
      }, 
      "inputs": [[223, 0, 0], [224, 0, 0], [225, 0, 0], [226, 0, 1], [227, 0, 1]]
    }, 
    {
      "op": "broadcast_add", 
      "name": "resx8_eletwise", 
      "inputs": [[221, 0, 0], [228, 0, 0]]
    }, 
    {
      "op": "Activation", 
      "name": "resx8_eletwise_relu", 
      "attr": {"act_type": "relu"}, 
      "inputs": [[229, 0, 0]]
    }, 
    {
      "op": "null", 
      "name": "resx9_conv1_weight", 
      "attr": {
        "kernel": "(1, 1)", 
        "no_bias": "True", 
        "num_filter": "512", 
        "pad": "(0, 0)", 
        "stride": "(1, 1)"
      }, 
      "inputs": []
    }, 
    {
      "op": "Convolution", 
      "name": "resx9_conv1", 
      "attr": {
        "kernel": "(1, 1)", 
        "no_bias": "True", 
        "num_filter": "512", 
        "pad": "(0, 0)", 
        "stride": "(1, 1)"
      }, 
      "inputs": [[230, 0, 0], [231, 0, 0]]
    }, 
    {
      "op": "null", 
      "name": "resx9_conv1_bn_gamma", 
      "attr": {
        "eps": "1e-05", 
        "fix_gamma": "False", 
        "use_global_stats": "True"
      }, 
      "inputs": []
    }, 
    {
      "op": "null", 
      "name": "resx9_conv1_bn_beta", 
      "attr": {
        "eps": "1e-05", 
        "fix_gamma": "False", 
        "use_global_stats": "True"
      }, 
      "inputs": []
    }, 
    {
      "op": "null", 
      "name": "resx9_conv1_bn_moving_mean", 
      "attr": {
        "__init__": "[\"zero\", {}]", 
        "eps": "1e-05", 
        "fix_gamma": "False", 
        "use_global_stats": "True"
      }, 
      "inputs": []
    }, 
    {
      "op": "null", 
      "name": "resx9_conv1_bn_moving_var", 
      "attr": {
        "__init__": "[\"one\", {}]", 
        "eps": "1e-05", 
        "fix_gamma": "False", 
        "use_global_stats": "True"
      }, 
      "inputs": []
    }, 
    {
      "op": "BatchNorm", 
      "name": "resx9_conv1_bn", 
      "attr": {
        "eps": "1e-05", 
        "fix_gamma": "False", 
        "use_global_stats": "True"
      }, 
      "inputs": [[232, 0, 0], [233, 0, 0], [234, 0, 0], [235, 0, 1], [236, 0, 1]]
    }, 
    {
      "op": "Activation", 
      "name": "resx9_conv1_relu", 
      "attr": {"act_type": "relu"}, 
      "inputs": [[237, 0, 0]]
    }, 
    {
      "op": "null", 
      "name": "resx9_conv2_weight", 
      "attr": {
        "kernel": "(3, 3)", 
        "no_bias": "True", 
        "num_filter": "512", 
        "num_group": "32", 
        "pad": "(1, 1)", 
        "stride": "(1, 1)"
      }, 
      "inputs": []
    }, 
    {
      "op": "Convolution", 
      "name": "resx9_conv2", 
      "attr": {
        "kernel": "(3, 3)", 
        "no_bias": "True", 
        "num_filter": "512", 
        "num_group": "32", 
        "pad": "(1, 1)", 
        "stride": "(1, 1)"
      }, 
      "inputs": [[238, 0, 0], [239, 0, 0]]
    }, 
    {
      "op": "null", 
      "name": "resx9_conv2_bn_gamma", 
      "attr": {
        "eps": "1e-05", 
        "fix_gamma": "False", 
        "use_global_stats": "True"
      }, 
      "inputs": []
    }, 
    {
      "op": "null", 
      "name": "resx9_conv2_bn_beta", 
      "attr": {
        "eps": "1e-05", 
        "fix_gamma": "False", 
        "use_global_stats": "True"
      }, 
      "inputs": []
    }, 
    {
      "op": "null", 
      "name": "resx9_conv2_bn_moving_mean", 
      "attr": {
        "__init__": "[\"zero\", {}]", 
        "eps": "1e-05", 
        "fix_gamma": "False", 
        "use_global_stats": "True"
      }, 
      "inputs": []
    }, 
    {
      "op": "null", 
      "name": "resx9_conv2_bn_moving_var", 
      "attr": {
        "__init__": "[\"one\", {}]", 
        "eps": "1e-05", 
        "fix_gamma": "False", 
        "use_global_stats": "True"
      }, 
      "inputs": []
    }, 
    {
      "op": "BatchNorm", 
      "name": "resx9_conv2_bn", 
      "attr": {
        "eps": "1e-05", 
        "fix_gamma": "False", 
        "use_global_stats": "True"
      }, 
      "inputs": [[240, 0, 0], [241, 0, 0], [242, 0, 0], [243, 0, 1], [244, 0, 1]]
    }, 
    {
      "op": "Activation", 
      "name": "resx9_conv2_relu", 
      "attr": {"act_type": "relu"}, 
      "inputs": [[245, 0, 0]]
    }, 
    {
      "op": "null", 
      "name": "resx9_conv3_weight", 
      "attr": {
        "kernel": "(1, 1)", 
        "no_bias": "True", 
        "num_filter": "1024", 
        "pad": "(0, 0)", 
        "stride": "(1, 1)"
      }, 
      "inputs": []
    }, 
    {
      "op": "Convolution", 
      "name": "resx9_conv3", 
      "attr": {
        "kernel": "(1, 1)", 
        "no_bias": "True", 
        "num_filter": "1024", 
        "pad": "(0, 0)", 
        "stride": "(1, 1)"
      }, 
      "inputs": [[246, 0, 0], [247, 0, 0]]
    }, 
    {
      "op": "null", 
      "name": "resx9_conv3_bn_gamma", 
      "attr": {
        "eps": "1e-05", 
        "fix_gamma": "False", 
        "use_global_stats": "True"
      }, 
      "inputs": []
    }, 
    {
      "op": "null", 
      "name": "resx9_conv3_bn_beta", 
      "attr": {
        "eps": "1e-05", 
        "fix_gamma": "False", 
        "use_global_stats": "True"
      }, 
      "inputs": []
    }, 
    {
      "op": "null", 
      "name": "resx9_conv3_bn_moving_mean", 
      "attr": {
        "__init__": "[\"zero\", {}]", 
        "eps": "1e-05", 
        "fix_gamma": "False", 
        "use_global_stats": "True"
      }, 
      "inputs": []
    }, 
    {
      "op": "null", 
      "name": "resx9_conv3_bn_moving_var", 
      "attr": {
        "__init__": "[\"one\", {}]", 
        "eps": "1e-05", 
        "fix_gamma": "False", 
        "use_global_stats": "True"
      }, 
      "inputs": []
    }, 
    {
      "op": "BatchNorm", 
      "name": "resx9_conv3_bn", 
      "attr": {
        "eps": "1e-05", 
        "fix_gamma": "False", 
        "use_global_stats": "True"
      }, 
      "inputs": [[248, 0, 0], [249, 0, 0], [250, 0, 0], [251, 0, 1], [252, 0, 1]]
    }, 
    {
      "op": "broadcast_add", 
      "name": "resx9_eletwise", 
      "inputs": [[230, 0, 0], [253, 0, 0]]
    }, 
    {
      "op": "Activation", 
      "name": "resx9_eletwise_relu", 
      "attr": {"act_type": "relu"}, 
      "inputs": [[254, 0, 0]]
    }, 
    {
      "op": "null", 
      "name": "resx10_conv1_weight", 
      "attr": {
        "kernel": "(1, 1)", 
        "no_bias": "True", 
        "num_filter": "512", 
        "pad": "(0, 0)", 
        "stride": "(1, 1)"
      }, 
      "inputs": []
    }, 
    {
      "op": "Convolution", 
      "name": "resx10_conv1", 
      "attr": {
        "kernel": "(1, 1)", 
        "no_bias": "True", 
        "num_filter": "512", 
        "pad": "(0, 0)", 
        "stride": "(1, 1)"
      }, 
      "inputs": [[255, 0, 0], [256, 0, 0]]
    }, 
    {
      "op": "null", 
      "name": "resx10_conv1_bn_gamma", 
      "attr": {
        "eps": "1e-05", 
        "fix_gamma": "False", 
        "use_global_stats": "True"
      }, 
      "inputs": []
    }, 
    {
      "op": "null", 
      "name": "resx10_conv1_bn_beta", 
      "attr": {
        "eps": "1e-05", 
        "fix_gamma": "False", 
        "use_global_stats": "True"
      }, 
      "inputs": []
    }, 
    {
      "op": "null", 
      "name": "resx10_conv1_bn_moving_mean", 
      "attr": {
        "__init__": "[\"zero\", {}]", 
        "eps": "1e-05", 
        "fix_gamma": "False", 
        "use_global_stats": "True"
      }, 
      "inputs": []
    }, 
    {
      "op": "null", 
      "name": "resx10_conv1_bn_moving_var", 
      "attr": {
        "__init__": "[\"one\", {}]", 
        "eps": "1e-05", 
        "fix_gamma": "False", 
        "use_global_stats": "True"
      }, 
      "inputs": []
    }, 
    {
      "op": "BatchNorm", 
      "name": "resx10_conv1_bn", 
      "attr": {
        "eps": "1e-05", 
        "fix_gamma": "False", 
        "use_global_stats": "True"
      }, 
      "inputs": [[257, 0, 0], [258, 0, 0], [259, 0, 0], [260, 0, 1], [261, 0, 1]]
    }, 
    {
      "op": "Activation", 
      "name": "resx10_conv1_relu", 
      "attr": {"act_type": "relu"}, 
      "inputs": [[262, 0, 0]]
    }, 
    {
      "op": "null", 
      "name": "resx10_conv2_weight", 
      "attr": {
        "kernel": "(3, 3)", 
        "no_bias": "True", 
        "num_filter": "512", 
        "num_group": "32", 
        "pad": "(1, 1)", 
        "stride": "(1, 1)"
      }, 
      "inputs": []
    }, 
    {
      "op": "Convolution", 
      "name": "resx10_conv2", 
      "attr": {
        "kernel": "(3, 3)", 
        "no_bias": "True", 
        "num_filter": "512", 
        "num_group": "32", 
        "pad": "(1, 1)", 
        "stride": "(1, 1)"
      }, 
      "inputs": [[263, 0, 0], [264, 0, 0]]
    }, 
    {
      "op": "null", 
      "name": "resx10_conv2_bn_gamma", 
      "attr": {
        "eps": "1e-05", 
        "fix_gamma": "False", 
        "use_global_stats": "True"
      }, 
      "inputs": []
    }, 
    {
      "op": "null", 
      "name": "resx10_conv2_bn_beta", 
      "attr": {
        "eps": "1e-05", 
        "fix_gamma": "False", 
        "use_global_stats": "True"
      }, 
      "inputs": []
    }, 
    {
      "op": "null", 
      "name": "resx10_conv2_bn_moving_mean", 
      "attr": {
        "__init__": "[\"zero\", {}]", 
        "eps": "1e-05", 
        "fix_gamma": "False", 
        "use_global_stats": "True"
      }, 
      "inputs": []
    }, 
    {
      "op": "null", 
      "name": "resx10_conv2_bn_moving_var", 
      "attr": {
        "__init__": "[\"one\", {}]", 
        "eps": "1e-05", 
        "fix_gamma": "False", 
        "use_global_stats": "True"
      }, 
      "inputs": []
    }, 
    {
      "op": "BatchNorm", 
      "name": "resx10_conv2_bn", 
      "attr": {
        "eps": "1e-05", 
        "fix_gamma": "False", 
        "use_global_stats": "True"
      }, 
      "inputs": [[265, 0, 0], [266, 0, 0], [267, 0, 0], [268, 0, 1], [269, 0, 1]]
    }, 
    {
      "op": "Activation", 
      "name": "resx10_conv2_relu", 
      "attr": {"act_type": "relu"}, 
      "inputs": [[270, 0, 0]]
    }, 
    {
      "op": "null", 
      "name": "resx10_conv3_weight", 
      "attr": {
        "kernel": "(1, 1)", 
        "no_bias": "True", 
        "num_filter": "1024", 
        "pad": "(0, 0)", 
        "stride": "(1, 1)"
      }, 
      "inputs": []
    }, 
    {
      "op": "Convolution", 
      "name": "resx10_conv3", 
      "attr": {
        "kernel": "(1, 1)", 
        "no_bias": "True", 
        "num_filter": "1024", 
        "pad": "(0, 0)", 
        "stride": "(1, 1)"
      }, 
      "inputs": [[271, 0, 0], [272, 0, 0]]
    }, 
    {
      "op": "null", 
      "name": "resx10_conv3_bn_gamma", 
      "attr": {
        "eps": "1e-05", 
        "fix_gamma": "False", 
        "use_global_stats": "True"
      }, 
      "inputs": []
    }, 
    {
      "op": "null", 
      "name": "resx10_conv3_bn_beta", 
      "attr": {
        "eps": "1e-05", 
        "fix_gamma": "False", 
        "use_global_stats": "True"
      }, 
      "inputs": []
    }, 
    {
      "op": "null", 
      "name": "resx10_conv3_bn_moving_mean", 
      "attr": {
        "__init__": "[\"zero\", {}]", 
        "eps": "1e-05", 
        "fix_gamma": "False", 
        "use_global_stats": "True"
      }, 
      "inputs": []
    }, 
    {
      "op": "null", 
      "name": "resx10_conv3_bn_moving_var", 
      "attr": {
        "__init__": "[\"one\", {}]", 
        "eps": "1e-05", 
        "fix_gamma": "False", 
        "use_global_stats": "True"
      }, 
      "inputs": []
    }, 
    {
      "op": "BatchNorm", 
      "name": "resx10_conv3_bn", 
      "attr": {
        "eps": "1e-05", 
        "fix_gamma": "False", 
        "use_global_stats": "True"
      }, 
      "inputs": [[273, 0, 0], [274, 0, 0], [275, 0, 0], [276, 0, 1], [277, 0, 1]]
    }, 
    {
      "op": "broadcast_add", 
      "name": "resx10_eletwise", 
      "inputs": [[255, 0, 0], [278, 0, 0]]
    }, 
    {
      "op": "Activation", 
      "name": "resx10_eletwise_relu", 
      "attr": {"act_type": "relu"}, 
      "inputs": [[279, 0, 0]]
    }, 
    {
      "op": "null", 
      "name": "resx11_conv1_weight", 
      "attr": {
        "kernel": "(1, 1)", 
        "no_bias": "True", 
        "num_filter": "512", 
        "pad": "(0, 0)", 
        "stride": "(1, 1)"
      }, 
      "inputs": []
    }, 
    {
      "op": "Convolution", 
      "name": "resx11_conv1", 
      "attr": {
        "kernel": "(1, 1)", 
        "no_bias": "True", 
        "num_filter": "512", 
        "pad": "(0, 0)", 
        "stride": "(1, 1)"
      }, 
      "inputs": [[280, 0, 0], [281, 0, 0]]
    }, 
    {
      "op": "null", 
      "name": "resx11_conv1_bn_gamma", 
      "attr": {
        "eps": "1e-05", 
        "fix_gamma": "False", 
        "use_global_stats": "True"
      }, 
      "inputs": []
    }, 
    {
      "op": "null", 
      "name": "resx11_conv1_bn_beta", 
      "attr": {
        "eps": "1e-05", 
        "fix_gamma": "False", 
        "use_global_stats": "True"
      }, 
      "inputs": []
    }, 
    {
      "op": "null", 
      "name": "resx11_conv1_bn_moving_mean", 
      "attr": {
        "__init__": "[\"zero\", {}]", 
        "eps": "1e-05", 
        "fix_gamma": "False", 
        "use_global_stats": "True"
      }, 
      "inputs": []
    }, 
    {
      "op": "null", 
      "name": "resx11_conv1_bn_moving_var", 
      "attr": {
        "__init__": "[\"one\", {}]", 
        "eps": "1e-05", 
        "fix_gamma": "False", 
        "use_global_stats": "True"
      }, 
      "inputs": []
    }, 
    {
      "op": "BatchNorm", 
      "name": "resx11_conv1_bn", 
      "attr": {
        "eps": "1e-05", 
        "fix_gamma": "False", 
        "use_global_stats": "True"
      }, 
      "inputs": [[282, 0, 0], [283, 0, 0], [284, 0, 0], [285, 0, 1], [286, 0, 1]]
    }, 
    {
      "op": "Activation", 
      "name": "resx11_conv1_relu", 
      "attr": {"act_type": "relu"}, 
      "inputs": [[287, 0, 0]]
    }, 
    {
      "op": "null", 
      "name": "resx11_conv2_weight", 
      "attr": {
        "kernel": "(3, 3)", 
        "no_bias": "True", 
        "num_filter": "512", 
        "num_group": "32", 
        "pad": "(1, 1)", 
        "stride": "(1, 1)"
      }, 
      "inputs": []
    }, 
    {
      "op": "Convolution", 
      "name": "resx11_conv2", 
      "attr": {
        "kernel": "(3, 3)", 
        "no_bias": "True", 
        "num_filter": "512", 
        "num_group": "32", 
        "pad": "(1, 1)", 
        "stride": "(1, 1)"
      }, 
      "inputs": [[288, 0, 0], [289, 0, 0]]
    }, 
    {
      "op": "null", 
      "name": "resx11_conv2_bn_gamma", 
      "attr": {
        "eps": "1e-05", 
        "fix_gamma": "False", 
        "use_global_stats": "True"
      }, 
      "inputs": []
    }, 
    {
      "op": "null", 
      "name": "resx11_conv2_bn_beta", 
      "attr": {
        "eps": "1e-05", 
        "fix_gamma": "False", 
        "use_global_stats": "True"
      }, 
      "inputs": []
    }, 
    {
      "op": "null", 
      "name": "resx11_conv2_bn_moving_mean", 
      "attr": {
        "__init__": "[\"zero\", {}]", 
        "eps": "1e-05", 
        "fix_gamma": "False", 
        "use_global_stats": "True"
      }, 
      "inputs": []
    }, 
    {
      "op": "null", 
      "name": "resx11_conv2_bn_moving_var", 
      "attr": {
        "__init__": "[\"one\", {}]", 
        "eps": "1e-05", 
        "fix_gamma": "False", 
        "use_global_stats": "True"
      }, 
      "inputs": []
    }, 
    {
      "op": "BatchNorm", 
      "name": "resx11_conv2_bn", 
      "attr": {
        "eps": "1e-05", 
        "fix_gamma": "False", 
        "use_global_stats": "True"
      }, 
      "inputs": [[290, 0, 0], [291, 0, 0], [292, 0, 0], [293, 0, 1], [294, 0, 1]]
    }, 
    {
      "op": "Activation", 
      "name": "resx11_conv2_relu", 
      "attr": {"act_type": "relu"}, 
      "inputs": [[295, 0, 0]]
    }, 
    {
      "op": "null", 
      "name": "resx11_conv3_weight", 
      "attr": {
        "kernel": "(1, 1)", 
        "no_bias": "True", 
        "num_filter": "1024", 
        "pad": "(0, 0)", 
        "stride": "(1, 1)"
      }, 
      "inputs": []
    }, 
    {
      "op": "Convolution", 
      "name": "resx11_conv3", 
      "attr": {
        "kernel": "(1, 1)", 
        "no_bias": "True", 
        "num_filter": "1024", 
        "pad": "(0, 0)", 
        "stride": "(1, 1)"
      }, 
      "inputs": [[296, 0, 0], [297, 0, 0]]
    }, 
    {
      "op": "null", 
      "name": "resx11_conv3_bn_gamma", 
      "attr": {
        "eps": "1e-05", 
        "fix_gamma": "False", 
        "use_global_stats": "True"
      }, 
      "inputs": []
    }, 
    {
      "op": "null", 
      "name": "resx11_conv3_bn_beta", 
      "attr": {
        "eps": "1e-05", 
        "fix_gamma": "False", 
        "use_global_stats": "True"
      }, 
      "inputs": []
    }, 
    {
      "op": "null", 
      "name": "resx11_conv3_bn_moving_mean", 
      "attr": {
        "__init__": "[\"zero\", {}]", 
        "eps": "1e-05", 
        "fix_gamma": "False", 
        "use_global_stats": "True"
      }, 
      "inputs": []
    }, 
    {
      "op": "null", 
      "name": "resx11_conv3_bn_moving_var", 
      "attr": {
        "__init__": "[\"one\", {}]", 
        "eps": "1e-05", 
        "fix_gamma": "False", 
        "use_global_stats": "True"
      }, 
      "inputs": []
    }, 
    {
      "op": "BatchNorm", 
      "name": "resx11_conv3_bn", 
      "attr": {
        "eps": "1e-05", 
        "fix_gamma": "False", 
        "use_global_stats": "True"
      }, 
      "inputs": [[298, 0, 0], [299, 0, 0], [300, 0, 0], [301, 0, 1], [302, 0, 1]]
    }, 
    {
      "op": "broadcast_add", 
      "name": "resx11_eletwise", 
      "inputs": [[280, 0, 0], [303, 0, 0]]
    }, 
    {
      "op": "Activation", 
      "name": "resx11_eletwise_relu", 
      "attr": {"act_type": "relu"}, 
      "inputs": [[304, 0, 0]]
    }, 
    {
      "op": "null", 
      "name": "resx12_conv1_weight", 
      "attr": {
        "kernel": "(1, 1)", 
        "no_bias": "True", 
        "num_filter": "512", 
        "pad": "(0, 0)", 
        "stride": "(1, 1)"
      }, 
      "inputs": []
    }, 
    {
      "op": "Convolution", 
      "name": "resx12_conv1", 
      "attr": {
        "kernel": "(1, 1)", 
        "no_bias": "True", 
        "num_filter": "512", 
        "pad": "(0, 0)", 
        "stride": "(1, 1)"
      }, 
      "inputs": [[305, 0, 0], [306, 0, 0]]
    }, 
    {
      "op": "null", 
      "name": "resx12_conv1_bn_gamma", 
      "attr": {
        "eps": "1e-05", 
        "fix_gamma": "False", 
        "use_global_stats": "True"
      }, 
      "inputs": []
    }, 
    {
      "op": "null", 
      "name": "resx12_conv1_bn_beta", 
      "attr": {
        "eps": "1e-05", 
        "fix_gamma": "False", 
        "use_global_stats": "True"
      }, 
      "inputs": []
    }, 
    {
      "op": "null", 
      "name": "resx12_conv1_bn_moving_mean", 
      "attr": {
        "__init__": "[\"zero\", {}]", 
        "eps": "1e-05", 
        "fix_gamma": "False", 
        "use_global_stats": "True"
      }, 
      "inputs": []
    }, 
    {
      "op": "null", 
      "name": "resx12_conv1_bn_moving_var", 
      "attr": {
        "__init__": "[\"one\", {}]", 
        "eps": "1e-05", 
        "fix_gamma": "False", 
        "use_global_stats": "True"
      }, 
      "inputs": []
    }, 
    {
      "op": "BatchNorm", 
      "name": "resx12_conv1_bn", 
      "attr": {
        "eps": "1e-05", 
        "fix_gamma": "False", 
        "use_global_stats": "True"
      }, 
      "inputs": [[307, 0, 0], [308, 0, 0], [309, 0, 0], [310, 0, 1], [311, 0, 1]]
    }, 
    {
      "op": "Activation", 
      "name": "resx12_conv1_relu", 
      "attr": {"act_type": "relu"}, 
      "inputs": [[312, 0, 0]]
    }, 
    {
      "op": "null", 
      "name": "resx12_conv2_weight", 
      "attr": {
        "kernel": "(3, 3)", 
        "no_bias": "True", 
        "num_filter": "512", 
        "num_group": "32", 
        "pad": "(1, 1)", 
        "stride": "(1, 1)"
      }, 
      "inputs": []
    }, 
    {
      "op": "Convolution", 
      "name": "resx12_conv2", 
      "attr": {
        "kernel": "(3, 3)", 
        "no_bias": "True", 
        "num_filter": "512", 
        "num_group": "32", 
        "pad": "(1, 1)", 
        "stride": "(1, 1)"
      }, 
      "inputs": [[313, 0, 0], [314, 0, 0]]
    }, 
    {
      "op": "null", 
      "name": "resx12_conv2_bn_gamma", 
      "attr": {
        "eps": "1e-05", 
        "fix_gamma": "False", 
        "use_global_stats": "True"
      }, 
      "inputs": []
    }, 
    {
      "op": "null", 
      "name": "resx12_conv2_bn_beta", 
      "attr": {
        "eps": "1e-05", 
        "fix_gamma": "False", 
        "use_global_stats": "True"
      }, 
      "inputs": []
    }, 
    {
      "op": "null", 
      "name": "resx12_conv2_bn_moving_mean", 
      "attr": {
        "__init__": "[\"zero\", {}]", 
        "eps": "1e-05", 
        "fix_gamma": "False", 
        "use_global_stats": "True"
      }, 
      "inputs": []
    }, 
    {
      "op": "null", 
      "name": "resx12_conv2_bn_moving_var", 
      "attr": {
        "__init__": "[\"one\", {}]", 
        "eps": "1e-05", 
        "fix_gamma": "False", 
        "use_global_stats": "True"
      }, 
      "inputs": []
    }, 
    {
      "op": "BatchNorm", 
      "name": "resx12_conv2_bn", 
      "attr": {
        "eps": "1e-05", 
        "fix_gamma": "False", 
        "use_global_stats": "True"
      }, 
      "inputs": [[315, 0, 0], [316, 0, 0], [317, 0, 0], [318, 0, 1], [319, 0, 1]]
    }, 
    {
      "op": "Activation", 
      "name": "resx12_conv2_relu", 
      "attr": {"act_type": "relu"}, 
      "inputs": [[320, 0, 0]]
    }, 
    {
      "op": "null", 
      "name": "resx12_conv3_weight", 
      "attr": {
        "kernel": "(1, 1)", 
        "no_bias": "True", 
        "num_filter": "1024", 
        "pad": "(0, 0)", 
        "stride": "(1, 1)"
      }, 
      "inputs": []
    }, 
    {
      "op": "Convolution", 
      "name": "resx12_conv3", 
      "attr": {
        "kernel": "(1, 1)", 
        "no_bias": "True", 
        "num_filter": "1024", 
        "pad": "(0, 0)", 
        "stride": "(1, 1)"
      }, 
      "inputs": [[321, 0, 0], [322, 0, 0]]
    }, 
    {
      "op": "null", 
      "name": "resx12_conv3_bn_gamma", 
      "attr": {
        "eps": "1e-05", 
        "fix_gamma": "False", 
        "use_global_stats": "True"
      }, 
      "inputs": []
    }, 
    {
      "op": "null", 
      "name": "resx12_conv3_bn_beta", 
      "attr": {
        "eps": "1e-05", 
        "fix_gamma": "False", 
        "use_global_stats": "True"
      }, 
      "inputs": []
    }, 
    {
      "op": "null", 
      "name": "resx12_conv3_bn_moving_mean", 
      "attr": {
        "__init__": "[\"zero\", {}]", 
        "eps": "1e-05", 
        "fix_gamma": "False", 
        "use_global_stats": "True"
      }, 
      "inputs": []
    }, 
    {
      "op": "null", 
      "name": "resx12_conv3_bn_moving_var", 
      "attr": {
        "__init__": "[\"one\", {}]", 
        "eps": "1e-05", 
        "fix_gamma": "False", 
        "use_global_stats": "True"
      }, 
      "inputs": []
    }, 
    {
      "op": "BatchNorm", 
      "name": "resx12_conv3_bn", 
      "attr": {
        "eps": "1e-05", 
        "fix_gamma": "False", 
        "use_global_stats": "True"
      }, 
      "inputs": [[323, 0, 0], [324, 0, 0], [325, 0, 0], [326, 0, 1], [327, 0, 1]]
    }, 
    {
      "op": "broadcast_add", 
      "name": "resx12_eletwise", 
      "inputs": [[305, 0, 0], [328, 0, 0]]
    }, 
    {
      "op": "Activation", 
      "name": "resx12_eletwise_relu", 
      "attr": {"act_type": "relu"}, 
      "inputs": [[329, 0, 0]]
    }, 
    {
      "op": "null", 
      "name": "resx13_conv1_weight", 
      "attr": {
        "kernel": "(1, 1)", 
        "no_bias": "True", 
        "num_filter": "512", 
        "pad": "(0, 0)", 
        "stride": "(1, 1)"
      }, 
      "inputs": []
    }, 
    {
      "op": "Convolution", 
      "name": "resx13_conv1", 
      "attr": {
        "kernel": "(1, 1)", 
        "no_bias": "True", 
        "num_filter": "512", 
        "pad": "(0, 0)", 
        "stride": "(1, 1)"
      }, 
      "inputs": [[330, 0, 0], [331, 0, 0]]
    }, 
    {
      "op": "null", 
      "name": "resx13_conv1_bn_gamma", 
      "attr": {
        "eps": "1e-05", 
        "fix_gamma": "False", 
        "use_global_stats": "True"
      }, 
      "inputs": []
    }, 
    {
      "op": "null", 
      "name": "resx13_conv1_bn_beta", 
      "attr": {
        "eps": "1e-05", 
        "fix_gamma": "False", 
        "use_global_stats": "True"
      }, 
      "inputs": []
    }, 
    {
      "op": "null", 
      "name": "resx13_conv1_bn_moving_mean", 
      "attr": {
        "__init__": "[\"zero\", {}]", 
        "eps": "1e-05", 
        "fix_gamma": "False", 
        "use_global_stats": "True"
      }, 
      "inputs": []
    }, 
    {
      "op": "null", 
      "name": "resx13_conv1_bn_moving_var", 
      "attr": {
        "__init__": "[\"one\", {}]", 
        "eps": "1e-05", 
        "fix_gamma": "False", 
        "use_global_stats": "True"
      }, 
      "inputs": []
    }, 
    {
      "op": "BatchNorm", 
      "name": "resx13_conv1_bn", 
      "attr": {
        "eps": "1e-05", 
        "fix_gamma": "False", 
        "use_global_stats": "True"
      }, 
      "inputs": [[332, 0, 0], [333, 0, 0], [334, 0, 0], [335, 0, 1], [336, 0, 1]]
    }, 
    {
      "op": "Activation", 
      "name": "resx13_conv1_relu", 
      "attr": {"act_type": "relu"}, 
      "inputs": [[337, 0, 0]]
    }, 
    {
      "op": "null", 
      "name": "resx13_conv2_weight", 
      "attr": {
        "kernel": "(3, 3)", 
        "no_bias": "True", 
        "num_filter": "512", 
        "num_group": "32", 
        "pad": "(1, 1)", 
        "stride": "(1, 1)"
      }, 
      "inputs": []
    }, 
    {
      "op": "Convolution", 
      "name": "resx13_conv2", 
      "attr": {
        "kernel": "(3, 3)", 
        "no_bias": "True", 
        "num_filter": "512", 
        "num_group": "32", 
        "pad": "(1, 1)", 
        "stride": "(1, 1)"
      }, 
      "inputs": [[338, 0, 0], [339, 0, 0]]
    }, 
    {
      "op": "null", 
      "name": "resx13_conv2_bn_gamma", 
      "attr": {
        "eps": "1e-05", 
        "fix_gamma": "False", 
        "use_global_stats": "True"
      }, 
      "inputs": []
    }, 
    {
      "op": "null", 
      "name": "resx13_conv2_bn_beta", 
      "attr": {
        "eps": "1e-05", 
        "fix_gamma": "False", 
        "use_global_stats": "True"
      }, 
      "inputs": []
    }, 
    {
      "op": "null", 
      "name": "resx13_conv2_bn_moving_mean", 
      "attr": {
        "__init__": "[\"zero\", {}]", 
        "eps": "1e-05", 
        "fix_gamma": "False", 
        "use_global_stats": "True"
      }, 
      "inputs": []
    }, 
    {
      "op": "null", 
      "name": "resx13_conv2_bn_moving_var", 
      "attr": {
        "__init__": "[\"one\", {}]", 
        "eps": "1e-05", 
        "fix_gamma": "False", 
        "use_global_stats": "True"
      }, 
      "inputs": []
    }, 
    {
      "op": "BatchNorm", 
      "name": "resx13_conv2_bn", 
      "attr": {
        "eps": "1e-05", 
        "fix_gamma": "False", 
        "use_global_stats": "True"
      }, 
      "inputs": [[340, 0, 0], [341, 0, 0], [342, 0, 0], [343, 0, 1], [344, 0, 1]]
    }, 
    {
      "op": "Activation", 
      "name": "resx13_conv2_relu", 
      "attr": {"act_type": "relu"}, 
      "inputs": [[345, 0, 0]]
    }, 
    {
      "op": "null", 
      "name": "resx13_conv3_weight", 
      "attr": {
        "kernel": "(1, 1)", 
        "no_bias": "True", 
        "num_filter": "1024", 
        "pad": "(0, 0)", 
        "stride": "(1, 1)"
      }, 
      "inputs": []
    }, 
    {
      "op": "Convolution", 
      "name": "resx13_conv3", 
      "attr": {
        "kernel": "(1, 1)", 
        "no_bias": "True", 
        "num_filter": "1024", 
        "pad": "(0, 0)", 
        "stride": "(1, 1)"
      }, 
      "inputs": [[346, 0, 0], [347, 0, 0]]
    }, 
    {
      "op": "null", 
      "name": "resx13_conv3_bn_gamma", 
      "attr": {
        "eps": "1e-05", 
        "fix_gamma": "False", 
        "use_global_stats": "True"
      }, 
      "inputs": []
    }, 
    {
      "op": "null", 
      "name": "resx13_conv3_bn_beta", 
      "attr": {
        "eps": "1e-05", 
        "fix_gamma": "False", 
        "use_global_stats": "True"
      }, 
      "inputs": []
    }, 
    {
      "op": "null", 
      "name": "resx13_conv3_bn_moving_mean", 
      "attr": {
        "__init__": "[\"zero\", {}]", 
        "eps": "1e-05", 
        "fix_gamma": "False", 
        "use_global_stats": "True"
      }, 
      "inputs": []
    }, 
    {
      "op": "null", 
      "name": "resx13_conv3_bn_moving_var", 
      "attr": {
        "__init__": "[\"one\", {}]", 
        "eps": "1e-05", 
        "fix_gamma": "False", 
        "use_global_stats": "True"
      }, 
      "inputs": []
    }, 
    {
      "op": "BatchNorm", 
      "name": "resx13_conv3_bn", 
      "attr": {
        "eps": "1e-05", 
        "fix_gamma": "False", 
        "use_global_stats": "True"
      }, 
      "inputs": [[348, 0, 0], [349, 0, 0], [350, 0, 0], [351, 0, 1], [352, 0, 1]]
    }, 
    {
      "op": "broadcast_add", 
      "name": "resx13_eletwise", 
      "inputs": [[330, 0, 0], [353, 0, 0]]
    }, 
    {
      "op": "Activation", 
      "name": "resx13_eletwise_relu", 
      "attr": {"act_type": "relu"}, 
      "inputs": [[354, 0, 0]]
    }, 
    {
      "op": "null", 
      "name": "resx14_conv1_weight", 
      "attr": {
        "kernel": "(1, 1)", 
        "no_bias": "True", 
        "num_filter": "1024", 
        "pad": "(0, 0)", 
        "stride": "(1, 1)"
      }, 
      "inputs": []
    }, 
    {
      "op": "Convolution", 
      "name": "resx14_conv1", 
      "attr": {
        "kernel": "(1, 1)", 
        "no_bias": "True", 
        "num_filter": "1024", 
        "pad": "(0, 0)", 
        "stride": "(1, 1)"
      }, 
      "inputs": [[355, 0, 0], [356, 0, 0]]
    }, 
    {
      "op": "null", 
      "name": "resx14_conv1_bn_gamma", 
      "attr": {
        "eps": "1e-05", 
        "fix_gamma": "False", 
        "use_global_stats": "True"
      }, 
      "inputs": []
    }, 
    {
      "op": "null", 
      "name": "resx14_conv1_bn_beta", 
      "attr": {
        "eps": "1e-05", 
        "fix_gamma": "False", 
        "use_global_stats": "True"
      }, 
      "inputs": []
    }, 
    {
      "op": "null", 
      "name": "resx14_conv1_bn_moving_mean", 
      "attr": {
        "__init__": "[\"zero\", {}]", 
        "eps": "1e-05", 
        "fix_gamma": "False", 
        "use_global_stats": "True"
      }, 
      "inputs": []
    }, 
    {
      "op": "null", 
      "name": "resx14_conv1_bn_moving_var", 
      "attr": {
        "__init__": "[\"one\", {}]", 
        "eps": "1e-05", 
        "fix_gamma": "False", 
        "use_global_stats": "True"
      }, 
      "inputs": []
    }, 
    {
      "op": "BatchNorm", 
      "name": "resx14_conv1_bn", 
      "attr": {
        "eps": "1e-05", 
        "fix_gamma": "False", 
        "use_global_stats": "True"
      }, 
      "inputs": [[357, 0, 0], [358, 0, 0], [359, 0, 0], [360, 0, 1], [361, 0, 1]]
    }, 
    {
      "op": "Activation", 
      "name": "resx14_conv1_relu", 
      "attr": {"act_type": "relu"}, 
      "inputs": [[362, 0, 0]]
    }, 
    {
      "op": "null", 
      "name": "resx14_conv2_weight", 
      "attr": {
        "kernel": "(3, 3)", 
        "no_bias": "True", 
        "num_filter": "1024", 
        "num_group": "32", 
        "pad": "(1, 1)", 
        "stride": "(2, 2)"
      }, 
      "inputs": []
    }, 
    {
      "op": "Convolution", 
      "name": "resx14_conv2", 
      "attr": {
        "kernel": "(3, 3)", 
        "no_bias": "True", 
        "num_filter": "1024", 
        "num_group": "32", 
        "pad": "(1, 1)", 
        "stride": "(2, 2)"
      }, 
      "inputs": [[363, 0, 0], [364, 0, 0]]
    }, 
    {
      "op": "null", 
      "name": "resx14_conv2_bn_gamma", 
      "attr": {
        "eps": "1e-05", 
        "fix_gamma": "False", 
        "use_global_stats": "True"
      }, 
      "inputs": []
    }, 
    {
      "op": "null", 
      "name": "resx14_conv2_bn_beta", 
      "attr": {
        "eps": "1e-05", 
        "fix_gamma": "False", 
        "use_global_stats": "True"
      }, 
      "inputs": []
    }, 
    {
      "op": "null", 
      "name": "resx14_conv2_bn_moving_mean", 
      "attr": {
        "__init__": "[\"zero\", {}]", 
        "eps": "1e-05", 
        "fix_gamma": "False", 
        "use_global_stats": "True"
      }, 
      "inputs": []
    }, 
    {
      "op": "null", 
      "name": "resx14_conv2_bn_moving_var", 
      "attr": {
        "__init__": "[\"one\", {}]", 
        "eps": "1e-05", 
        "fix_gamma": "False", 
        "use_global_stats": "True"
      }, 
      "inputs": []
    }, 
    {
      "op": "BatchNorm", 
      "name": "resx14_conv2_bn", 
      "attr": {
        "eps": "1e-05", 
        "fix_gamma": "False", 
        "use_global_stats": "True"
      }, 
      "inputs": [[365, 0, 0], [366, 0, 0], [367, 0, 0], [368, 0, 1], [369, 0, 1]]
    }, 
    {
      "op": "Activation", 
      "name": "resx14_conv2_relu", 
      "attr": {"act_type": "relu"}, 
      "inputs": [[370, 0, 0]]
    }, 
    {
      "op": "null", 
      "name": "resx14_conv3_weight", 
      "attr": {
        "kernel": "(1, 1)", 
        "no_bias": "True", 
        "num_filter": "2048", 
        "pad": "(0, 0)", 
        "stride": "(1, 1)"
      }, 
      "inputs": []
    }, 
    {
      "op": "Convolution", 
      "name": "resx14_conv3", 
      "attr": {
        "kernel": "(1, 1)", 
        "no_bias": "True", 
        "num_filter": "2048", 
        "pad": "(0, 0)", 
        "stride": "(1, 1)"
      }, 
      "inputs": [[371, 0, 0], [372, 0, 0]]
    }, 
    {
      "op": "null", 
      "name": "resx14_conv3_bn_gamma", 
      "attr": {
        "eps": "1e-05", 
        "fix_gamma": "False", 
        "use_global_stats": "True"
      }, 
      "inputs": []
    }, 
    {
      "op": "null", 
      "name": "resx14_conv3_bn_beta", 
      "attr": {
        "eps": "1e-05", 
        "fix_gamma": "False", 
        "use_global_stats": "True"
      }, 
      "inputs": []
    }, 
    {
      "op": "null", 
      "name": "resx14_conv3_bn_moving_mean", 
      "attr": {
        "__init__": "[\"zero\", {}]", 
        "eps": "1e-05", 
        "fix_gamma": "False", 
        "use_global_stats": "True"
      }, 
      "inputs": []
    }, 
    {
      "op": "null", 
      "name": "resx14_conv3_bn_moving_var", 
      "attr": {
        "__init__": "[\"one\", {}]", 
        "eps": "1e-05", 
        "fix_gamma": "False", 
        "use_global_stats": "True"
      }, 
      "inputs": []
    }, 
    {
      "op": "BatchNorm", 
      "name": "resx14_conv3_bn", 
      "attr": {
        "eps": "1e-05", 
        "fix_gamma": "False", 
        "use_global_stats": "True"
      }, 
      "inputs": [[373, 0, 0], [374, 0, 0], [375, 0, 0], [376, 0, 1], [377, 0, 1]]
    }, 
    {
      "op": "null", 
      "name": "resx14_match_conv_weight", 
      "attr": {
        "kernel": "(1, 1)", 
        "no_bias": "True", 
        "num_filter": "2048", 
        "pad": "(0, 0)", 
        "stride": "(2, 2)"
      }, 
      "inputs": []
    }, 
    {
      "op": "Convolution", 
      "name": "resx14_match_conv", 
      "attr": {
        "kernel": "(1, 1)", 
        "no_bias": "True", 
        "num_filter": "2048", 
        "pad": "(0, 0)", 
        "stride": "(2, 2)"
      }, 
      "inputs": [[355, 0, 0], [379, 0, 0]]
    }, 
    {
      "op": "null", 
      "name": "resx14_match_conv_bn_gamma", 
      "attr": {
        "eps": "1e-05", 
        "fix_gamma": "False", 
        "use_global_stats": "True"
      }, 
      "inputs": []
    }, 
    {
      "op": "null", 
      "name": "resx14_match_conv_bn_beta", 
      "attr": {
        "eps": "1e-05", 
        "fix_gamma": "False", 
        "use_global_stats": "True"
      }, 
      "inputs": []
    }, 
    {
      "op": "null", 
      "name": "resx14_match_conv_bn_moving_mean", 
      "attr": {
        "__init__": "[\"zero\", {}]", 
        "eps": "1e-05", 
        "fix_gamma": "False", 
        "use_global_stats": "True"
      }, 
      "inputs": []
    }, 
    {
      "op": "null", 
      "name": "resx14_match_conv_bn_moving_var", 
      "attr": {
        "__init__": "[\"one\", {}]", 
        "eps": "1e-05", 
        "fix_gamma": "False", 
        "use_global_stats": "True"
      }, 
      "inputs": []
    }, 
    {
      "op": "BatchNorm", 
      "name": "resx14_match_conv_bn", 
      "attr": {
        "eps": "1e-05", 
        "fix_gamma": "False", 
        "use_global_stats": "True"
      }, 
      "inputs": [[380, 0, 0], [381, 0, 0], [382, 0, 0], [383, 0, 1], [384, 0, 1]]
    }, 
    {
      "op": "broadcast_add", 
      "name": "resx14_eletwise", 
      "inputs": [[378, 0, 0], [385, 0, 0]]
    }, 
    {
      "op": "Activation", 
      "name": "resx14_eletwise_relu", 
      "attr": {"act_type": "relu"}, 
      "inputs": [[386, 0, 0]]
    }, 
    {
      "op": "null", 
      "name": "resx15_conv1_weight", 
      "attr": {
        "kernel": "(1, 1)", 
        "no_bias": "True", 
        "num_filter": "1024", 
        "pad": "(0, 0)", 
        "stride": "(1, 1)"
      }, 
      "inputs": []
    }, 
    {
      "op": "Convolution", 
      "name": "resx15_conv1", 
      "attr": {
        "kernel": "(1, 1)", 
        "no_bias": "True", 
        "num_filter": "1024", 
        "pad": "(0, 0)", 
        "stride": "(1, 1)"
      }, 
      "inputs": [[387, 0, 0], [388, 0, 0]]
    }, 
    {
      "op": "null", 
      "name": "resx15_conv1_bn_gamma", 
      "attr": {
        "eps": "1e-05", 
        "fix_gamma": "False", 
        "use_global_stats": "True"
      }, 
      "inputs": []
    }, 
    {
      "op": "null", 
      "name": "resx15_conv1_bn_beta", 
      "attr": {
        "eps": "1e-05", 
        "fix_gamma": "False", 
        "use_global_stats": "True"
      }, 
      "inputs": []
    }, 
    {
      "op": "null", 
      "name": "resx15_conv1_bn_moving_mean", 
      "attr": {
        "__init__": "[\"zero\", {}]", 
        "eps": "1e-05", 
        "fix_gamma": "False", 
        "use_global_stats": "True"
      }, 
      "inputs": []
    }, 
    {
      "op": "null", 
      "name": "resx15_conv1_bn_moving_var", 
      "attr": {
        "__init__": "[\"one\", {}]", 
        "eps": "1e-05", 
        "fix_gamma": "False", 
        "use_global_stats": "True"
      }, 
      "inputs": []
    }, 
    {
      "op": "BatchNorm", 
      "name": "resx15_conv1_bn", 
      "attr": {
        "eps": "1e-05", 
        "fix_gamma": "False", 
        "use_global_stats": "True"
      }, 
      "inputs": [[389, 0, 0], [390, 0, 0], [391, 0, 0], [392, 0, 1], [393, 0, 1]]
    }, 
    {
      "op": "Activation", 
      "name": "resx15_conv1_relu", 
      "attr": {"act_type": "relu"}, 
      "inputs": [[394, 0, 0]]
    }, 
    {
      "op": "null", 
      "name": "resx15_conv2_weight", 
      "attr": {
        "kernel": "(3, 3)", 
        "no_bias": "True", 
        "num_filter": "1024", 
        "num_group": "32", 
        "pad": "(1, 1)", 
        "stride": "(1, 1)"
      }, 
      "inputs": []
    }, 
    {
      "op": "Convolution", 
      "name": "resx15_conv2", 
      "attr": {
        "kernel": "(3, 3)", 
        "no_bias": "True", 
        "num_filter": "1024", 
        "num_group": "32", 
        "pad": "(1, 1)", 
        "stride": "(1, 1)"
      }, 
      "inputs": [[395, 0, 0], [396, 0, 0]]
    }, 
    {
      "op": "null", 
      "name": "resx15_conv2_bn_gamma", 
      "attr": {
        "eps": "1e-05", 
        "fix_gamma": "False", 
        "use_global_stats": "True"
      }, 
      "inputs": []
    }, 
    {
      "op": "null", 
      "name": "resx15_conv2_bn_beta", 
      "attr": {
        "eps": "1e-05", 
        "fix_gamma": "False", 
        "use_global_stats": "True"
      }, 
      "inputs": []
    }, 
    {
      "op": "null", 
      "name": "resx15_conv2_bn_moving_mean", 
      "attr": {
        "__init__": "[\"zero\", {}]", 
        "eps": "1e-05", 
        "fix_gamma": "False", 
        "use_global_stats": "True"
      }, 
      "inputs": []
    }, 
    {
      "op": "null", 
      "name": "resx15_conv2_bn_moving_var", 
      "attr": {
        "__init__": "[\"one\", {}]", 
        "eps": "1e-05", 
        "fix_gamma": "False", 
        "use_global_stats": "True"
      }, 
      "inputs": []
    }, 
    {
      "op": "BatchNorm", 
      "name": "resx15_conv2_bn", 
      "attr": {
        "eps": "1e-05", 
        "fix_gamma": "False", 
        "use_global_stats": "True"
      }, 
      "inputs": [[397, 0, 0], [398, 0, 0], [399, 0, 0], [400, 0, 1], [401, 0, 1]]
    }, 
    {
      "op": "Activation", 
      "name": "resx15_conv2_relu", 
      "attr": {"act_type": "relu"}, 
      "inputs": [[402, 0, 0]]
    }, 
    {
      "op": "null", 
      "name": "resx15_conv3_weight", 
      "attr": {
        "kernel": "(1, 1)", 
        "no_bias": "True", 
        "num_filter": "2048", 
        "pad": "(0, 0)", 
        "stride": "(1, 1)"
      }, 
      "inputs": []
    }, 
    {
      "op": "Convolution", 
      "name": "resx15_conv3", 
      "attr": {
        "kernel": "(1, 1)", 
        "no_bias": "True", 
        "num_filter": "2048", 
        "pad": "(0, 0)", 
        "stride": "(1, 1)"
      }, 
      "inputs": [[403, 0, 0], [404, 0, 0]]
    }, 
    {
      "op": "null", 
      "name": "resx15_conv3_bn_gamma", 
      "attr": {
        "eps": "1e-05", 
        "fix_gamma": "False", 
        "use_global_stats": "True"
      }, 
      "inputs": []
    }, 
    {
      "op": "null", 
      "name": "resx15_conv3_bn_beta", 
      "attr": {
        "eps": "1e-05", 
        "fix_gamma": "False", 
        "use_global_stats": "True"
      }, 
      "inputs": []
    }, 
    {
      "op": "null", 
      "name": "resx15_conv3_bn_moving_mean", 
      "attr": {
        "__init__": "[\"zero\", {}]", 
        "eps": "1e-05", 
        "fix_gamma": "False", 
        "use_global_stats": "True"
      }, 
      "inputs": []
    }, 
    {
      "op": "null", 
      "name": "resx15_conv3_bn_moving_var", 
      "attr": {
        "__init__": "[\"one\", {}]", 
        "eps": "1e-05", 
        "fix_gamma": "False", 
        "use_global_stats": "True"
      }, 
      "inputs": []
    }, 
    {
      "op": "BatchNorm", 
      "name": "resx15_conv3_bn", 
      "attr": {
        "eps": "1e-05", 
        "fix_gamma": "False", 
        "use_global_stats": "True"
      }, 
      "inputs": [[405, 0, 0], [406, 0, 0], [407, 0, 0], [408, 0, 1], [409, 0, 1]]
    }, 
    {
      "op": "broadcast_add", 
      "name": "resx15_eletwise", 
      "inputs": [[387, 0, 0], [410, 0, 0]]
    }, 
    {
      "op": "Activation", 
      "name": "resx15_eletwise_relu", 
      "attr": {"act_type": "relu"}, 
      "inputs": [[411, 0, 0]]
    }, 
    {
      "op": "null", 
      "name": "resx16_conv1_weight", 
      "attr": {
        "kernel": "(1, 1)", 
        "no_bias": "True", 
        "num_filter": "1024", 
        "pad": "(0, 0)", 
        "stride": "(1, 1)"
      }, 
      "inputs": []
    }, 
    {
      "op": "Convolution", 
      "name": "resx16_conv1", 
      "attr": {
        "kernel": "(1, 1)", 
        "no_bias": "True", 
        "num_filter": "1024", 
        "pad": "(0, 0)", 
        "stride": "(1, 1)"
      }, 
      "inputs": [[412, 0, 0], [413, 0, 0]]
    }, 
    {
      "op": "null", 
      "name": "resx16_conv1_bn_gamma", 
      "attr": {
        "eps": "1e-05", 
        "fix_gamma": "False", 
        "use_global_stats": "True"
      }, 
      "inputs": []
    }, 
    {
      "op": "null", 
      "name": "resx16_conv1_bn_beta", 
      "attr": {
        "eps": "1e-05", 
        "fix_gamma": "False", 
        "use_global_stats": "True"
      }, 
      "inputs": []
    }, 
    {
      "op": "null", 
      "name": "resx16_conv1_bn_moving_mean", 
      "attr": {
        "__init__": "[\"zero\", {}]", 
        "eps": "1e-05", 
        "fix_gamma": "False", 
        "use_global_stats": "True"
      }, 
      "inputs": []
    }, 
    {
      "op": "null", 
      "name": "resx16_conv1_bn_moving_var", 
      "attr": {
        "__init__": "[\"one\", {}]", 
        "eps": "1e-05", 
        "fix_gamma": "False", 
        "use_global_stats": "True"
      }, 
      "inputs": []
    }, 
    {
      "op": "BatchNorm", 
      "name": "resx16_conv1_bn", 
      "attr": {
        "eps": "1e-05", 
        "fix_gamma": "False", 
        "use_global_stats": "True"
      }, 
      "inputs": [[414, 0, 0], [415, 0, 0], [416, 0, 0], [417, 0, 1], [418, 0, 1]]
    }, 
    {
      "op": "Activation", 
      "name": "resx16_conv1_relu", 
      "attr": {"act_type": "relu"}, 
      "inputs": [[419, 0, 0]]
    }, 
    {
      "op": "null", 
      "name": "resx16_conv2_weight", 
      "attr": {
        "kernel": "(3, 3)", 
        "no_bias": "True", 
        "num_filter": "1024", 
        "num_group": "32", 
        "pad": "(1, 1)", 
        "stride": "(1, 1)"
      }, 
      "inputs": []
    }, 
    {
      "op": "Convolution", 
      "name": "resx16_conv2", 
      "attr": {
        "kernel": "(3, 3)", 
        "no_bias": "True", 
        "num_filter": "1024", 
        "num_group": "32", 
        "pad": "(1, 1)", 
        "stride": "(1, 1)"
      }, 
      "inputs": [[420, 0, 0], [421, 0, 0]]
    }, 
    {
      "op": "null", 
      "name": "resx16_conv2_bn_gamma", 
      "attr": {
        "eps": "1e-05", 
        "fix_gamma": "False", 
        "use_global_stats": "True"
      }, 
      "inputs": []
    }, 
    {
      "op": "null", 
      "name": "resx16_conv2_bn_beta", 
      "attr": {
        "eps": "1e-05", 
        "fix_gamma": "False", 
        "use_global_stats": "True"
      }, 
      "inputs": []
    }, 
    {
      "op": "null", 
      "name": "resx16_conv2_bn_moving_mean", 
      "attr": {
        "__init__": "[\"zero\", {}]", 
        "eps": "1e-05", 
        "fix_gamma": "False", 
        "use_global_stats": "True"
      }, 
      "inputs": []
    }, 
    {
      "op": "null", 
      "name": "resx16_conv2_bn_moving_var", 
      "attr": {
        "__init__": "[\"one\", {}]", 
        "eps": "1e-05", 
        "fix_gamma": "False", 
        "use_global_stats": "True"
      }, 
      "inputs": []
    }, 
    {
      "op": "BatchNorm", 
      "name": "resx16_conv2_bn", 
      "attr": {
        "eps": "1e-05", 
        "fix_gamma": "False", 
        "use_global_stats": "True"
      }, 
      "inputs": [[422, 0, 0], [423, 0, 0], [424, 0, 0], [425, 0, 1], [426, 0, 1]]
    }, 
    {
      "op": "Activation", 
      "name": "resx16_conv2_relu", 
      "attr": {"act_type": "relu"}, 
      "inputs": [[427, 0, 0]]
    }, 
    {
      "op": "null", 
      "name": "resx16_conv3_weight", 
      "attr": {
        "kernel": "(1, 1)", 
        "no_bias": "True", 
        "num_filter": "2048", 
        "pad": "(0, 0)", 
        "stride": "(1, 1)"
      }, 
      "inputs": []
    }, 
    {
      "op": "Convolution", 
      "name": "resx16_conv3", 
      "attr": {
        "kernel": "(1, 1)", 
        "no_bias": "True", 
        "num_filter": "2048", 
        "pad": "(0, 0)", 
        "stride": "(1, 1)"
      }, 
      "inputs": [[428, 0, 0], [429, 0, 0]]
    }, 
    {
      "op": "null", 
      "name": "resx16_conv3_bn_gamma", 
      "attr": {
        "eps": "1e-05", 
        "fix_gamma": "False", 
        "use_global_stats": "True"
      }, 
      "inputs": []
    }, 
    {
      "op": "null", 
      "name": "resx16_conv3_bn_beta", 
      "attr": {
        "eps": "1e-05", 
        "fix_gamma": "False", 
        "use_global_stats": "True"
      }, 
      "inputs": []
    }, 
    {
      "op": "null", 
      "name": "resx16_conv3_bn_moving_mean", 
      "attr": {
        "__init__": "[\"zero\", {}]", 
        "eps": "1e-05", 
        "fix_gamma": "False", 
        "use_global_stats": "True"
      }, 
      "inputs": []
    }, 
    {
      "op": "null", 
      "name": "resx16_conv3_bn_moving_var", 
      "attr": {
        "__init__": "[\"one\", {}]", 
        "eps": "1e-05", 
        "fix_gamma": "False", 
        "use_global_stats": "True"
      }, 
      "inputs": []
    }, 
    {
      "op": "BatchNorm", 
      "name": "resx16_conv3_bn", 
      "attr": {
        "eps": "1e-05", 
        "fix_gamma": "False", 
        "use_global_stats": "True"
      }, 
      "inputs": [[430, 0, 0], [431, 0, 0], [432, 0, 0], [433, 0, 1], [434, 0, 1]]
    }, 
    {
      "op": "broadcast_add", 
      "name": "resx16_eletwise", 
      "inputs": [[412, 0, 0], [435, 0, 0]]
    }, 
    {
      "op": "Activation", 
      "name": "resx16_eletwise_relu", 
      "attr": {"act_type": "relu"}, 
      "inputs": [[436, 0, 0]]
    }, 
    {
      "op": "Pooling", 
      "name": "avg_pool", 
      "attr": {
        "cudnn_off": "False", 
        "global_pool": "True", 
        "kernel": "(1, 1)", 
        "pool_type": "avg", 
        "pooling_convention": "full"
      }, 
      "inputs": [[437, 0, 0]]
    }, 
    {
      "op": "Flatten", 
      "name": "flatten", 
      "inputs": [[438, 0, 0]]
    }, 
    {
      "op": "null", 
      "name": "classifier_weight", 
      "attr": {"num_hidden": "1000"}, 
      "inputs": []
    }, 
    {
      "op": "null", 
      "name": "classifier_bias", 
      "attr": {"num_hidden": "1000"}, 
      "inputs": []
    }, 
    {
      "op": "FullyConnected", 
      "name": "classifier", 
      "attr": {"num_hidden": "1000"}, 
      "inputs": [[439, 0, 0], [440, 0, 0], [441, 0, 0]]
    }, 
    {
      "op": "null", 
      "name": "softmax_label", 
      "inputs": []
    }, 
    {
      "op": "SoftmaxOutput", 
      "name": "softmax", 
      "inputs": [[442, 0, 0], [443, 0, 0]]
    }
  ], 
  "arg_nodes": [
    0, 
    1, 
    3, 
    4, 
    5, 
    6, 
    10, 
    12, 
    13, 
    14, 
    15, 
    18, 
    20, 
    21, 
    22, 
    23, 
    26, 
    28, 
    29, 
    30, 
    31, 
    33, 
    35, 
    36, 
    37, 
    38, 
    42, 
    44, 
    45, 
    46, 
    47, 
    50, 
    52, 
    53, 
    54, 
    55, 
    58, 
    60, 
    61, 
    62, 
    63, 
    67, 
    69, 
    70, 
    71, 
    72, 
    75, 
    77, 
    78, 
    79, 
    80, 
    83, 
    85, 
    86, 
    87, 
    88, 
    92, 
    94, 
    95, 
    96, 
    97, 
    100, 
    102, 
    103, 
    104, 
    105, 
    108, 
    110, 
    111, 
    112, 
    113, 
    115, 
    117, 
    118, 
    119, 
    120, 
    124, 
    126, 
    127, 
    128, 
    129, 
    132, 
    134, 
    135, 
    136, 
    137, 
    140, 
    142, 
    143, 
    144, 
    145, 
    149, 
    151, 
    152, 
    153, 
    154, 
    157, 
    159, 
    160, 
    161, 
    162, 
    165, 
    167, 
    168, 
    169, 
    170, 
    174, 
    176, 
    177, 
    178, 
    179, 
    182, 
    184, 
    185, 
    186, 
    187, 
    190, 
    192, 
    193, 
    194, 
    195, 
    199, 
    201, 
    202, 
    203, 
    204, 
    207, 
    209, 
    210, 
    211, 
    212, 
    215, 
    217, 
    218, 
    219, 
    220, 
    222, 
    224, 
    225, 
    226, 
    227, 
    231, 
    233, 
    234, 
    235, 
    236, 
    239, 
    241, 
    242, 
    243, 
    244, 
    247, 
    249, 
    250, 
    251, 
    252, 
    256, 
    258, 
    259, 
    260, 
    261, 
    264, 
    266, 
    267, 
    268, 
    269, 
    272, 
    274, 
    275, 
    276, 
    277, 
    281, 
    283, 
    284, 
    285, 
    286, 
    289, 
    291, 
    292, 
    293, 
    294, 
    297, 
    299, 
    300, 
    301, 
    302, 
    306, 
    308, 
    309, 
    310, 
    311, 
    314, 
    316, 
    317, 
    318, 
    319, 
    322, 
    324, 
    325, 
    326, 
    327, 
    331, 
    333, 
    334, 
    335, 
    336, 
    339, 
    341, 
    342, 
    343, 
    344, 
    347, 
    349, 
    350, 
    351, 
    352, 
    356, 
    358, 
    359, 
    360, 
    361, 
    364, 
    366, 
    367, 
    368, 
    369, 
    372, 
    374, 
    375, 
    376, 
    377, 
    379, 
    381, 
    382, 
    383, 
    384, 
    388, 
    390, 
    391, 
    392, 
    393, 
    396, 
    398, 
    399, 
    400, 
    401, 
    404, 
    406, 
    407, 
    408, 
    409, 
    413, 
    415, 
    416, 
    417, 
    418, 
    421, 
    423, 
    424, 
    425, 
    426, 
    429, 
    431, 
    432, 
    433, 
    434, 
    440, 
    441, 
    443
  ], 
  "node_row_ptr": [
    0, 
    1, 
    2, 
    3, 
    4, 
    5, 
    6, 
    7, 
    10, 
    11, 
    12, 
    13, 
    14, 
    15, 
    16, 
    17, 
    18, 
    21, 
    22, 
    23, 
    24, 
    25, 
    26, 
    27, 
    28, 
    31, 
    32, 
    33, 
    34, 
    35, 
    36, 
    37, 
    38, 
    41, 
    42, 
    43, 
    44, 
    45, 
    46, 
    47, 
    50, 
    51, 
    52, 
    53, 
    54, 
    55, 
    56, 
    57, 
    58, 
    61, 
    62, 
    63, 
    64, 
    65, 
    66, 
    67, 
    68, 
    71, 
    72, 
    73, 
    74, 
    75, 
    76, 
    77, 
    78, 
    81, 
    82, 
    83, 
    84, 
    85, 
    86, 
    87, 
    88, 
    89, 
    92, 
    93, 
    94, 
    95, 
    96, 
    97, 
    98, 
    99, 
    102, 
    103, 
    104, 
    105, 
    106, 
    107, 
    108, 
    109, 
    112, 
    113, 
    114, 
    115, 
    116, 
    117, 
    118, 
    119, 
    120, 
    123, 
    124, 
    125, 
    126, 
    127, 
    128, 
    129, 
    130, 
    133, 
    134, 
    135, 
    136, 
    137, 
    138, 
    139, 
    140, 
    143, 
    144, 
    145, 
    146, 
    147, 
    148, 
    149, 
    152, 
    153, 
    154, 
    155, 
    156, 
    157, 
    158, 
    159, 
    160, 
    163, 
    164, 
    165, 
    166, 
    167, 
    168, 
    169, 
    170, 
    173, 
    174, 
    175, 
    176, 
    177, 
    178, 
    179, 
    180, 
    183, 
    184, 
    185, 
    186, 
    187, 
    188, 
    189, 
    190, 
    191, 
    194, 
    195, 
    196, 
    197, 
    198, 
    199, 
    200, 
    201, 
    204, 
    205, 
    206, 
    207, 
    208, 
    209, 
    210, 
    211, 
    214, 
    215, 
    216, 
    217, 
    218, 
    219, 
    220, 
    221, 
    222, 
    225, 
    226, 
    227, 
    228, 
    229, 
    230, 
    231, 
    232, 
    235, 
    236, 
    237, 
    238, 
    239, 
    240, 
    241, 
    242, 
    245, 
    246, 
    247, 
    248, 
    249, 
    250, 
    251, 
    252, 
    253, 
    256, 
    257, 
    258, 
    259, 
    260, 
    261, 
    262, 
    263, 
    266, 
    267, 
    268, 
    269, 
    270, 
    271, 
    272, 
    273, 
    276, 
    277, 
    278, 
    279, 
    280, 
    281, 
    282, 
    285, 
    286, 
    287, 
    288, 
    289, 
    290, 
    291, 
    292, 
    293, 
    296, 
    297, 
    298, 
    299, 
    300, 
    301, 
    302, 
    303, 
    306, 
    307, 
    308, 
    309, 
    310, 
    311, 
    312, 
    313, 
    316, 
    317, 
    318, 
    319, 
    320, 
    321, 
    322, 
    323, 
    324, 
    327, 
    328, 
    329, 
    330, 
    331, 
    332, 
    333, 
    334, 
    337, 
    338, 
    339, 
    340, 
    341, 
    342, 
    343, 
    344, 
    347, 
    348, 
    349, 
    350, 
    351, 
    352, 
    353, 
    354, 
    355, 
    358, 
    359, 
    360, 
    361, 
    362, 
    363, 
    364, 
    365, 
    368, 
    369, 
    370, 
    371, 
    372, 
    373, 
    374, 
    375, 
    378, 
    379, 
    380, 
    381, 
    382, 
    383, 
    384, 
    385, 
    386, 
    389, 
    390, 
    391, 
    392, 
    393, 
    394, 
    395, 
    396, 
    399, 
    400, 
    401, 
    402, 
    403, 
    404, 
    405, 
    406, 
    409, 
    410, 
    411, 
    412, 
    413, 
    414, 
    415, 
    416, 
    417, 
    420, 
    421, 
    422, 
    423, 
    424, 
    425, 
    426, 
    427, 
    430, 
    431, 
    432, 
    433, 
    434, 
    435, 
    436, 
    437, 
    440, 
    441, 
    442, 
    443, 
    444, 
    445, 
    446, 
    447, 
    448, 
    451, 
    452, 
    453, 
    454, 
    455, 
    456, 
    457, 
    458, 
    461, 
    462, 
    463, 
    464, 
    465, 
    466, 
    467, 
    468, 
    471, 
    472, 
    473, 
    474, 
    475, 
    476, 
    477, 
    480, 
    481, 
    482, 
    483, 
    484, 
    485, 
    486, 
    487, 
    488, 
    491, 
    492, 
    493, 
    494, 
    495, 
    496, 
    497, 
    498, 
    501, 
    502, 
    503, 
    504, 
    505, 
    506, 
    507, 
    508, 
    511, 
    512, 
    513, 
    514, 
    515, 
    516, 
    517, 
    518, 
    519, 
    522, 
    523, 
    524, 
    525, 
    526, 
    527, 
    528, 
    529, 
    532, 
    533, 
    534, 
    535, 
    536, 
    537, 
    538, 
    539, 
    542, 
    543, 
    544, 
    545, 
    546, 
    547, 
    548, 
    549, 
    550, 
    551
  ], 
  "heads": [[444, 0, 0]], 
  "attrs": {"mxnet_version": ["int", 1200]}
}