{
  "nodes": [
    {
      "op": "null", 
      "name": "data", 
      "inputs": []
    }, 
    {
      "op": "null", 
      "name": "conv1_3x3_s2_weight", 
      "attr": {
        "kernel": "(3, 3)", 
        "no_bias": "True", 
        "num_filter": "32", 
        "pad": "(0, 0)", 
        "stride": "(2, 2)"
      }, 
      "inputs": []
    }, 
    {
      "op": "Convolution", 
      "name": "conv1_3x3_s2", 
      "attr": {
        "kernel": "(3, 3)", 
        "no_bias": "True", 
        "num_filter": "32", 
        "pad": "(0, 0)", 
        "stride": "(2, 2)"
      }, 
      "inputs": [[0, 0, 0], [1, 0, 0]]
    }, 
    {
      "op": "null", 
      "name": "conv1_3x3_s2_bn_gamma", 
      "attr": {
        "eps": "0.001", 
        "fix_gamma": "False", 
        "use_global_stats": "True"
      }, 
      "inputs": []
    }, 
    {
      "op": "null", 
      "name": "conv1_3x3_s2_bn_beta", 
      "attr": {
        "eps": "0.001", 
        "fix_gamma": "False", 
        "use_global_stats": "True"
      }, 
      "inputs": []
    }, 
    {
      "op": "null", 
      "name": "conv1_3x3_s2_bn_moving_mean", 
      "attr": {
        "__init__": "[\"zero\", {}]", 
        "eps": "0.001", 
        "fix_gamma": "False", 
        "use_global_stats": "True"
      }, 
      "inputs": []
    }, 
    {
      "op": "null", 
      "name": "conv1_3x3_s2_bn_moving_var", 
      "attr": {
        "__init__": "[\"one\", {}]", 
        "eps": "0.001", 
        "fix_gamma": "False", 
        "use_global_stats": "True"
      }, 
      "inputs": []
    }, 
    {
      "op": "BatchNorm", 
      "name": "conv1_3x3_s2_bn", 
      "attr": {
        "eps": "0.001", 
        "fix_gamma": "False", 
        "use_global_stats": "True"
      }, 
      "inputs": [[2, 0, 0], [3, 0, 0], [4, 0, 0], [5, 0, 1], [6, 0, 1]]
    }, 
    {
      "op": "Activation", 
      "name": "conv1_3x3_relu", 
      "attr": {"act_type": "relu"}, 
      "inputs": [[7, 0, 0]]
    }, 
    {
      "op": "null", 
      "name": "conv2_3x3_s1_weight", 
      "attr": {
        "kernel": "(3, 3)", 
        "no_bias": "True", 
        "num_filter": "32", 
        "pad": "(0, 0)", 
        "stride": "(1, 1)"
      }, 
      "inputs": []
    }, 
    {
      "op": "Convolution", 
      "name": "conv2_3x3_s1", 
      "attr": {
        "kernel": "(3, 3)", 
        "no_bias": "True", 
        "num_filter": "32", 
        "pad": "(0, 0)", 
        "stride": "(1, 1)"
      }, 
      "inputs": [[8, 0, 0], [9, 0, 0]]
    }, 
    {
      "op": "null", 
      "name": "conv2_3x3_s1_bn_gamma", 
      "attr": {
        "eps": "0.001", 
        "fix_gamma": "False", 
        "use_global_stats": "True"
      }, 
      "inputs": []
    }, 
    {
      "op": "null", 
      "name": "conv2_3x3_s1_bn_beta", 
      "attr": {
        "eps": "0.001", 
        "fix_gamma": "False", 
        "use_global_stats": "True"
      }, 
      "inputs": []
    }, 
    {
      "op": "null", 
      "name": "conv2_3x3_s1_bn_moving_mean", 
      "attr": {
        "__init__": "[\"zero\", {}]", 
        "eps": "0.001", 
        "fix_gamma": "False", 
        "use_global_stats": "True"
      }, 
      "inputs": []
    }, 
    {
      "op": "null", 
      "name": "conv2_3x3_s1_bn_moving_var", 
      "attr": {
        "__init__": "[\"one\", {}]", 
        "eps": "0.001", 
        "fix_gamma": "False", 
        "use_global_stats": "True"
      }, 
      "inputs": []
    }, 
    {
      "op": "BatchNorm", 
      "name": "conv2_3x3_s1_bn", 
      "attr": {
        "eps": "0.001", 
        "fix_gamma": "False", 
        "use_global_stats": "True"
      }, 
      "inputs": [[10, 0, 0], [11, 0, 0], [12, 0, 0], [13, 0, 1], [14, 0, 1]]
    }, 
    {
      "op": "Activation", 
      "name": "conv2_3x3_relu", 
      "attr": {"act_type": "relu"}, 
      "inputs": [[15, 0, 0]]
    }, 
    {
      "op": "null", 
      "name": "conv3_3x3_s1_weight", 
      "attr": {
        "kernel": "(3, 3)", 
        "no_bias": "True", 
        "num_filter": "64", 
        "pad": "(1, 1)", 
        "stride": "(1, 1)"
      }, 
      "inputs": []
    }, 
    {
      "op": "Convolution", 
      "name": "conv3_3x3_s1", 
      "attr": {
        "kernel": "(3, 3)", 
        "no_bias": "True", 
        "num_filter": "64", 
        "pad": "(1, 1)", 
        "stride": "(1, 1)"
      }, 
      "inputs": [[16, 0, 0], [17, 0, 0]]
    }, 
    {
      "op": "null", 
      "name": "conv3_3x3_s1_bn_gamma", 
      "attr": {
        "eps": "0.001", 
        "fix_gamma": "False", 
        "use_global_stats": "True"
      }, 
      "inputs": []
    }, 
    {
      "op": "null", 
      "name": "conv3_3x3_s1_bn_beta", 
      "attr": {
        "eps": "0.001", 
        "fix_gamma": "False", 
        "use_global_stats": "True"
      }, 
      "inputs": []
    }, 
    {
      "op": "null", 
      "name": "conv3_3x3_s1_bn_moving_mean", 
      "attr": {
        "__init__": "[\"zero\", {}]", 
        "eps": "0.001", 
        "fix_gamma": "False", 
        "use_global_stats": "True"
      }, 
      "inputs": []
    }, 
    {
      "op": "null", 
      "name": "conv3_3x3_s1_bn_moving_var", 
      "attr": {
        "__init__": "[\"one\", {}]", 
        "eps": "0.001", 
        "fix_gamma": "False", 
        "use_global_stats": "True"
      }, 
      "inputs": []
    }, 
    {
      "op": "BatchNorm", 
      "name": "conv3_3x3_s1_bn", 
      "attr": {
        "eps": "0.001", 
        "fix_gamma": "False", 
        "use_global_stats": "True"
      }, 
      "inputs": [[18, 0, 0], [19, 0, 0], [20, 0, 0], [21, 0, 1], [22, 0, 1]]
    }, 
    {
      "op": "Activation", 
      "name": "conv3_3x3_relu", 
      "attr": {"act_type": "relu"}, 
      "inputs": [[23, 0, 0]]
    }, 
    {
      "op": "Pooling", 
      "name": "pool1_3x3_s2", 
      "attr": {
        "kernel": "(3, 3)", 
        "pad": "(0, 0)", 
        "pool_type": "max", 
        "pooling_convention": "full", 
        "stride": "(2, 2)"
      }, 
      "inputs": [[24, 0, 0]]
    }, 
    {
      "op": "null", 
      "name": "conv4_3x3_reduce_weight", 
      "attr": {
        "kernel": "(1, 1)", 
        "no_bias": "True", 
        "num_filter": "80", 
        "pad": "(0, 0)", 
        "stride": "(1, 1)"
      }, 
      "inputs": []
    }, 
    {
      "op": "Convolution", 
      "name": "conv4_3x3_reduce", 
      "attr": {
        "kernel": "(1, 1)", 
        "no_bias": "True", 
        "num_filter": "80", 
        "pad": "(0, 0)", 
        "stride": "(1, 1)"
      }, 
      "inputs": [[25, 0, 0], [26, 0, 0]]
    }, 
    {
      "op": "null", 
      "name": "conv4_3x3_reduce_bn_gamma", 
      "attr": {
        "eps": "0.001", 
        "fix_gamma": "False", 
        "use_global_stats": "True"
      }, 
      "inputs": []
    }, 
    {
      "op": "null", 
      "name": "conv4_3x3_reduce_bn_beta", 
      "attr": {
        "eps": "0.001", 
        "fix_gamma": "False", 
        "use_global_stats": "True"
      }, 
      "inputs": []
    }, 
    {
      "op": "null", 
      "name": "conv4_3x3_reduce_bn_moving_mean", 
      "attr": {
        "__init__": "[\"zero\", {}]", 
        "eps": "0.001", 
        "fix_gamma": "False", 
        "use_global_stats": "True"
      }, 
      "inputs": []
    }, 
    {
      "op": "null", 
      "name": "conv4_3x3_reduce_bn_moving_var", 
      "attr": {
        "__init__": "[\"one\", {}]", 
        "eps": "0.001", 
        "fix_gamma": "False", 
        "use_global_stats": "True"
      }, 
      "inputs": []
    }, 
    {
      "op": "BatchNorm", 
      "name": "conv4_3x3_reduce_bn", 
      "attr": {
        "eps": "0.001", 
        "fix_gamma": "False", 
        "use_global_stats": "True"
      }, 
      "inputs": [[27, 0, 0], [28, 0, 0], [29, 0, 0], [30, 0, 1], [31, 0, 1]]
    }, 
    {
      "op": "Activation", 
      "name": "conv4_relu_3x3_reduce", 
      "attr": {"act_type": "relu"}, 
      "inputs": [[32, 0, 0]]
    }, 
    {
      "op": "null", 
      "name": "conv4_3x3_weight", 
      "attr": {
        "kernel": "(3, 3)", 
        "no_bias": "True", 
        "num_filter": "192", 
        "pad": "(0, 0)", 
        "stride": "(1, 1)"
      }, 
      "inputs": []
    }, 
    {
      "op": "Convolution", 
      "name": "conv4_3x3", 
      "attr": {
        "kernel": "(3, 3)", 
        "no_bias": "True", 
        "num_filter": "192", 
        "pad": "(0, 0)", 
        "stride": "(1, 1)"
      }, 
      "inputs": [[33, 0, 0], [34, 0, 0]]
    }, 
    {
      "op": "null", 
      "name": "conv4_3x3_bn_gamma", 
      "attr": {
        "eps": "0.001", 
        "fix_gamma": "False", 
        "use_global_stats": "True"
      }, 
      "inputs": []
    }, 
    {
      "op": "null", 
      "name": "conv4_3x3_bn_beta", 
      "attr": {
        "eps": "0.001", 
        "fix_gamma": "False", 
        "use_global_stats": "True"
      }, 
      "inputs": []
    }, 
    {
      "op": "null", 
      "name": "conv4_3x3_bn_moving_mean", 
      "attr": {
        "__init__": "[\"zero\", {}]", 
        "eps": "0.001", 
        "fix_gamma": "False", 
        "use_global_stats": "True"
      }, 
      "inputs": []
    }, 
    {
      "op": "null", 
      "name": "conv4_3x3_bn_moving_var", 
      "attr": {
        "__init__": "[\"one\", {}]", 
        "eps": "0.001", 
        "fix_gamma": "False", 
        "use_global_stats": "True"
      }, 
      "inputs": []
    }, 
    {
      "op": "BatchNorm", 
      "name": "conv4_3x3_bn", 
      "attr": {
        "eps": "0.001", 
        "fix_gamma": "False", 
        "use_global_stats": "True"
      }, 
      "inputs": [[35, 0, 0], [36, 0, 0], [37, 0, 0], [38, 0, 1], [39, 0, 1]]
    }, 
    {
      "op": "Activation", 
      "name": "conv4_relu_3x3", 
      "attr": {"act_type": "relu"}, 
      "inputs": [[40, 0, 0]]
    }, 
    {
      "op": "Pooling", 
      "name": "pool2_3x3_s2", 
      "attr": {
        "kernel": "(3, 3)", 
        "pad": "(0, 0)", 
        "pool_type": "max", 
        "pooling_convention": "full", 
        "stride": "(2, 2)"
      }, 
      "inputs": [[41, 0, 0]]
    }, 
    {
      "op": "null", 
      "name": "inception_a1_1x1_weight", 
      "attr": {
        "kernel": "(1, 1)", 
        "no_bias": "True", 
        "num_filter": "64", 
        "pad": "(0, 0)", 
        "stride": "(1, 1)"
      }, 
      "inputs": []
    }, 
    {
      "op": "Convolution", 
      "name": "inception_a1_1x1", 
      "attr": {
        "kernel": "(1, 1)", 
        "no_bias": "True", 
        "num_filter": "64", 
        "pad": "(0, 0)", 
        "stride": "(1, 1)"
      }, 
      "inputs": [[42, 0, 0], [43, 0, 0]]
    }, 
    {
      "op": "null", 
      "name": "inception_a1_1x1_bn_gamma", 
      "attr": {
        "eps": "0.001", 
        "fix_gamma": "False", 
        "use_global_stats": "True"
      }, 
      "inputs": []
    }, 
    {
      "op": "null", 
      "name": "inception_a1_1x1_bn_beta", 
      "attr": {
        "eps": "0.001", 
        "fix_gamma": "False", 
        "use_global_stats": "True"
      }, 
      "inputs": []
    }, 
    {
      "op": "null", 
      "name": "inception_a1_1x1_bn_moving_mean", 
      "attr": {
        "__init__": "[\"zero\", {}]", 
        "eps": "0.001", 
        "fix_gamma": "False", 
        "use_global_stats": "True"
      }, 
      "inputs": []
    }, 
    {
      "op": "null", 
      "name": "inception_a1_1x1_bn_moving_var", 
      "attr": {
        "__init__": "[\"one\", {}]", 
        "eps": "0.001", 
        "fix_gamma": "False", 
        "use_global_stats": "True"
      }, 
      "inputs": []
    }, 
    {
      "op": "BatchNorm", 
      "name": "inception_a1_1x1_bn", 
      "attr": {
        "eps": "0.001", 
        "fix_gamma": "False", 
        "use_global_stats": "True"
      }, 
      "inputs": [[44, 0, 0], [45, 0, 0], [46, 0, 0], [47, 0, 1], [48, 0, 1]]
    }, 
    {
      "op": "Activation", 
      "name": "inception_a1_1x1_relu", 
      "attr": {"act_type": "relu"}, 
      "inputs": [[49, 0, 0]]
    }, 
    {
      "op": "null", 
      "name": "inception_a1_5x5_reduce_weight", 
      "attr": {
        "kernel": "(1, 1)", 
        "no_bias": "True", 
        "num_filter": "48", 
        "pad": "(0, 0)", 
        "stride": "(1, 1)"
      }, 
      "inputs": []
    }, 
    {
      "op": "Convolution", 
      "name": "inception_a1_5x5_reduce", 
      "attr": {
        "kernel": "(1, 1)", 
        "no_bias": "True", 
        "num_filter": "48", 
        "pad": "(0, 0)", 
        "stride": "(1, 1)"
      }, 
      "inputs": [[42, 0, 0], [51, 0, 0]]
    }, 
    {
      "op": "null", 
      "name": "inception_a1_5x5_reduce_bn_gamma", 
      "attr": {
        "eps": "0.001", 
        "fix_gamma": "False", 
        "use_global_stats": "True"
      }, 
      "inputs": []
    }, 
    {
      "op": "null", 
      "name": "inception_a1_5x5_reduce_bn_beta", 
      "attr": {
        "eps": "0.001", 
        "fix_gamma": "False", 
        "use_global_stats": "True"
      }, 
      "inputs": []
    }, 
    {
      "op": "null", 
      "name": "inception_a1_5x5_reduce_bn_moving_mean", 
      "attr": {
        "__init__": "[\"zero\", {}]", 
        "eps": "0.001", 
        "fix_gamma": "False", 
        "use_global_stats": "True"
      }, 
      "inputs": []
    }, 
    {
      "op": "null", 
      "name": "inception_a1_5x5_reduce_bn_moving_var", 
      "attr": {
        "__init__": "[\"one\", {}]", 
        "eps": "0.001", 
        "fix_gamma": "False", 
        "use_global_stats": "True"
      }, 
      "inputs": []
    }, 
    {
      "op": "BatchNorm", 
      "name": "inception_a1_5x5_reduce_bn", 
      "attr": {
        "eps": "0.001", 
        "fix_gamma": "False", 
        "use_global_stats": "True"
      }, 
      "inputs": [[52, 0, 0], [53, 0, 0], [54, 0, 0], [55, 0, 1], [56, 0, 1]]
    }, 
    {
      "op": "Activation", 
      "name": "inception_a1_5x5_reduce_relu", 
      "attr": {"act_type": "relu"}, 
      "inputs": [[57, 0, 0]]
    }, 
    {
      "op": "null", 
      "name": "inception_a1_5x5_weight", 
      "attr": {
        "kernel": "(5, 5)", 
        "no_bias": "True", 
        "num_filter": "64", 
        "pad": "(2, 2)", 
        "stride": "(1, 1)"
      }, 
      "inputs": []
    }, 
    {
      "op": "Convolution", 
      "name": "inception_a1_5x5", 
      "attr": {
        "kernel": "(5, 5)", 
        "no_bias": "True", 
        "num_filter": "64", 
        "pad": "(2, 2)", 
        "stride": "(1, 1)"
      }, 
      "inputs": [[58, 0, 0], [59, 0, 0]]
    }, 
    {
      "op": "null", 
      "name": "inception_a1_5x5_bn_gamma", 
      "attr": {
        "eps": "0.001", 
        "fix_gamma": "False", 
        "use_global_stats": "True"
      }, 
      "inputs": []
    }, 
    {
      "op": "null", 
      "name": "inception_a1_5x5_bn_beta", 
      "attr": {
        "eps": "0.001", 
        "fix_gamma": "False", 
        "use_global_stats": "True"
      }, 
      "inputs": []
    }, 
    {
      "op": "null", 
      "name": "inception_a1_5x5_bn_moving_mean", 
      "attr": {
        "__init__": "[\"zero\", {}]", 
        "eps": "0.001", 
        "fix_gamma": "False", 
        "use_global_stats": "True"
      }, 
      "inputs": []
    }, 
    {
      "op": "null", 
      "name": "inception_a1_5x5_bn_moving_var", 
      "attr": {
        "__init__": "[\"one\", {}]", 
        "eps": "0.001", 
        "fix_gamma": "False", 
        "use_global_stats": "True"
      }, 
      "inputs": []
    }, 
    {
      "op": "BatchNorm", 
      "name": "inception_a1_5x5_bn", 
      "attr": {
        "eps": "0.001", 
        "fix_gamma": "False", 
        "use_global_stats": "True"
      }, 
      "inputs": [[60, 0, 0], [61, 0, 0], [62, 0, 0], [63, 0, 1], [64, 0, 1]]
    }, 
    {
      "op": "Activation", 
      "name": "inception_a1_5x5_relu", 
      "attr": {"act_type": "relu"}, 
      "inputs": [[65, 0, 0]]
    }, 
    {
      "op": "null", 
      "name": "inception_a1_3x3_reduce_weight", 
      "attr": {
        "kernel": "(1, 1)", 
        "no_bias": "True", 
        "num_filter": "64", 
        "pad": "(0, 0)", 
        "stride": "(1, 1)"
      }, 
      "inputs": []
    }, 
    {
      "op": "Convolution", 
      "name": "inception_a1_3x3_reduce", 
      "attr": {
        "kernel": "(1, 1)", 
        "no_bias": "True", 
        "num_filter": "64", 
        "pad": "(0, 0)", 
        "stride": "(1, 1)"
      }, 
      "inputs": [[42, 0, 0], [67, 0, 0]]
    }, 
    {
      "op": "null", 
      "name": "inception_a1_3x3_reduce_bn_gamma", 
      "attr": {
        "eps": "0.001", 
        "fix_gamma": "False", 
        "use_global_stats": "True"
      }, 
      "inputs": []
    }, 
    {
      "op": "null", 
      "name": "inception_a1_3x3_reduce_bn_beta", 
      "attr": {
        "eps": "0.001", 
        "fix_gamma": "False", 
        "use_global_stats": "True"
      }, 
      "inputs": []
    }, 
    {
      "op": "null", 
      "name": "inception_a1_3x3_reduce_bn_moving_mean", 
      "attr": {
        "__init__": "[\"zero\", {}]", 
        "eps": "0.001", 
        "fix_gamma": "False", 
        "use_global_stats": "True"
      }, 
      "inputs": []
    }, 
    {
      "op": "null", 
      "name": "inception_a1_3x3_reduce_bn_moving_var", 
      "attr": {
        "__init__": "[\"one\", {}]", 
        "eps": "0.001", 
        "fix_gamma": "False", 
        "use_global_stats": "True"
      }, 
      "inputs": []
    }, 
    {
      "op": "BatchNorm", 
      "name": "inception_a1_3x3_reduce_bn", 
      "attr": {
        "eps": "0.001", 
        "fix_gamma": "False", 
        "use_global_stats": "True"
      }, 
      "inputs": [[68, 0, 0], [69, 0, 0], [70, 0, 0], [71, 0, 1], [72, 0, 1]]
    }, 
    {
      "op": "Activation", 
      "name": "inception_a1_3x3_reduce_relu", 
      "attr": {"act_type": "relu"}, 
      "inputs": [[73, 0, 0]]
    }, 
    {
      "op": "null", 
      "name": "inception_a1_3x3_1_weight", 
      "attr": {
        "kernel": "(3, 3)", 
        "no_bias": "True", 
        "num_filter": "96", 
        "pad": "(1, 1)", 
        "stride": "(1, 1)"
      }, 
      "inputs": []
    }, 
    {
      "op": "Convolution", 
      "name": "inception_a1_3x3_1", 
      "attr": {
        "kernel": "(3, 3)", 
        "no_bias": "True", 
        "num_filter": "96", 
        "pad": "(1, 1)", 
        "stride": "(1, 1)"
      }, 
      "inputs": [[74, 0, 0], [75, 0, 0]]
    }, 
    {
      "op": "null", 
      "name": "inception_a1_3x3_1_bn_gamma", 
      "attr": {
        "eps": "0.001", 
        "fix_gamma": "False", 
        "use_global_stats": "True"
      }, 
      "inputs": []
    }, 
    {
      "op": "null", 
      "name": "inception_a1_3x3_1_bn_beta", 
      "attr": {
        "eps": "0.001", 
        "fix_gamma": "False", 
        "use_global_stats": "True"
      }, 
      "inputs": []
    }, 
    {
      "op": "null", 
      "name": "inception_a1_3x3_1_bn_moving_mean", 
      "attr": {
        "__init__": "[\"zero\", {}]", 
        "eps": "0.001", 
        "fix_gamma": "False", 
        "use_global_stats": "True"
      }, 
      "inputs": []
    }, 
    {
      "op": "null", 
      "name": "inception_a1_3x3_1_bn_moving_var", 
      "attr": {
        "__init__": "[\"one\", {}]", 
        "eps": "0.001", 
        "fix_gamma": "False", 
        "use_global_stats": "True"
      }, 
      "inputs": []
    }, 
    {
      "op": "BatchNorm", 
      "name": "inception_a1_3x3_1_bn", 
      "attr": {
        "eps": "0.001", 
        "fix_gamma": "False", 
        "use_global_stats": "True"
      }, 
      "inputs": [[76, 0, 0], [77, 0, 0], [78, 0, 0], [79, 0, 1], [80, 0, 1]]
    }, 
    {
      "op": "Activation", 
      "name": "inception_a1_3x3_1_relu", 
      "attr": {"act_type": "relu"}, 
      "inputs": [[81, 0, 0]]
    }, 
    {
      "op": "null", 
      "name": "inception_a1_3x3_2_weight", 
      "attr": {
        "kernel": "(3, 3)", 
        "no_bias": "True", 
        "num_filter": "96", 
        "pad": "(1, 1)", 
        "stride": "(1, 1)"
      }, 
      "inputs": []
    }, 
    {
      "op": "Convolution", 
      "name": "inception_a1_3x3_2", 
      "attr": {
        "kernel": "(3, 3)", 
        "no_bias": "True", 
        "num_filter": "96", 
        "pad": "(1, 1)", 
        "stride": "(1, 1)"
      }, 
      "inputs": [[82, 0, 0], [83, 0, 0]]
    }, 
    {
      "op": "null", 
      "name": "inception_a1_3x3_2_bn_gamma", 
      "attr": {
        "eps": "0.001", 
        "fix_gamma": "False", 
        "use_global_stats": "True"
      }, 
      "inputs": []
    }, 
    {
      "op": "null", 
      "name": "inception_a1_3x3_2_bn_beta", 
      "attr": {
        "eps": "0.001", 
        "fix_gamma": "False", 
        "use_global_stats": "True"
      }, 
      "inputs": []
    }, 
    {
      "op": "null", 
      "name": "inception_a1_3x3_2_bn_moving_mean", 
      "attr": {
        "__init__": "[\"zero\", {}]", 
        "eps": "0.001", 
        "fix_gamma": "False", 
        "use_global_stats": "True"
      }, 
      "inputs": []
    }, 
    {
      "op": "null", 
      "name": "inception_a1_3x3_2_bn_moving_var", 
      "attr": {
        "__init__": "[\"one\", {}]", 
        "eps": "0.001", 
        "fix_gamma": "False", 
        "use_global_stats": "True"
      }, 
      "inputs": []
    }, 
    {
      "op": "BatchNorm", 
      "name": "inception_a1_3x3_2_bn", 
      "attr": {
        "eps": "0.001", 
        "fix_gamma": "False", 
        "use_global_stats": "True"
      }, 
      "inputs": [[84, 0, 0], [85, 0, 0], [86, 0, 0], [87, 0, 1], [88, 0, 1]]
    }, 
    {
      "op": "Activation", 
      "name": "inception_a1_3x3_2_relu", 
      "attr": {"act_type": "relu"}, 
      "inputs": [[89, 0, 0]]
    }, 
    {
      "op": "Pooling", 
      "name": "inception_a1_pool", 
      "attr": {
        "kernel": "(3, 3)", 
        "pad": "(1, 1)", 
        "pool_type": "avg", 
        "pooling_convention": "full", 
        "stride": "(1, 1)"
      }, 
      "inputs": [[42, 0, 0]]
    }, 
    {
      "op": "null", 
      "name": "inception_a1_pool_proj_weight", 
      "attr": {
        "kernel": "(1, 1)", 
        "no_bias": "True", 
        "num_filter": "32", 
        "pad": "(0, 0)", 
        "stride": "(1, 1)"
      }, 
      "inputs": []
    }, 
    {
      "op": "Convolution", 
      "name": "inception_a1_pool_proj", 
      "attr": {
        "kernel": "(1, 1)", 
        "no_bias": "True", 
        "num_filter": "32", 
        "pad": "(0, 0)", 
        "stride": "(1, 1)"
      }, 
      "inputs": [[91, 0, 0], [92, 0, 0]]
    }, 
    {
      "op": "null", 
      "name": "inception_a1_pool_proj_bn_gamma", 
      "attr": {
        "eps": "0.001", 
        "fix_gamma": "False", 
        "use_global_stats": "True"
      }, 
      "inputs": []
    }, 
    {
      "op": "null", 
      "name": "inception_a1_pool_proj_bn_beta", 
      "attr": {
        "eps": "0.001", 
        "fix_gamma": "False", 
        "use_global_stats": "True"
      }, 
      "inputs": []
    }, 
    {
      "op": "null", 
      "name": "inception_a1_pool_proj_bn_moving_mean", 
      "attr": {
        "__init__": "[\"zero\", {}]", 
        "eps": "0.001", 
        "fix_gamma": "False", 
        "use_global_stats": "True"
      }, 
      "inputs": []
    }, 
    {
      "op": "null", 
      "name": "inception_a1_pool_proj_bn_moving_var", 
      "attr": {
        "__init__": "[\"one\", {}]", 
        "eps": "0.001", 
        "fix_gamma": "False", 
        "use_global_stats": "True"
      }, 
      "inputs": []
    }, 
    {
      "op": "BatchNorm", 
      "name": "inception_a1_pool_proj_bn", 
      "attr": {
        "eps": "0.001", 
        "fix_gamma": "False", 
        "use_global_stats": "True"
      }, 
      "inputs": [[93, 0, 0], [94, 0, 0], [95, 0, 0], [96, 0, 1], [97, 0, 1]]
    }, 
    {
      "op": "Activation", 
      "name": "inception_a1_pool_proj_relu", 
      "attr": {"act_type": "relu"}, 
      "inputs": [[98, 0, 0]]
    }, 
    {
      "op": "Concat", 
      "name": "inception_a1_output", 
      "attr": {"num_args": "4"}, 
      "inputs": [[50, 0, 0], [66, 0, 0], [90, 0, 0], [99, 0, 0]]
    }, 
    {
      "op": "null", 
      "name": "inception_a2_1x1_weight", 
      "attr": {
        "kernel": "(1, 1)", 
        "no_bias": "True", 
        "num_filter": "64", 
        "pad": "(0, 0)", 
        "stride": "(1, 1)"
      }, 
      "inputs": []
    }, 
    {
      "op": "Convolution", 
      "name": "inception_a2_1x1", 
      "attr": {
        "kernel": "(1, 1)", 
        "no_bias": "True", 
        "num_filter": "64", 
        "pad": "(0, 0)", 
        "stride": "(1, 1)"
      }, 
      "inputs": [[100, 0, 0], [101, 0, 0]]
    }, 
    {
      "op": "null", 
      "name": "inception_a2_1x1_bn_gamma", 
      "attr": {
        "eps": "0.001", 
        "fix_gamma": "False", 
        "use_global_stats": "True"
      }, 
      "inputs": []
    }, 
    {
      "op": "null", 
      "name": "inception_a2_1x1_bn_beta", 
      "attr": {
        "eps": "0.001", 
        "fix_gamma": "False", 
        "use_global_stats": "True"
      }, 
      "inputs": []
    }, 
    {
      "op": "null", 
      "name": "inception_a2_1x1_bn_moving_mean", 
      "attr": {
        "__init__": "[\"zero\", {}]", 
        "eps": "0.001", 
        "fix_gamma": "False", 
        "use_global_stats": "True"
      }, 
      "inputs": []
    }, 
    {
      "op": "null", 
      "name": "inception_a2_1x1_bn_moving_var", 
      "attr": {
        "__init__": "[\"one\", {}]", 
        "eps": "0.001", 
        "fix_gamma": "False", 
        "use_global_stats": "True"
      }, 
      "inputs": []
    }, 
    {
      "op": "BatchNorm", 
      "name": "inception_a2_1x1_bn", 
      "attr": {
        "eps": "0.001", 
        "fix_gamma": "False", 
        "use_global_stats": "True"
      }, 
      "inputs": [[102, 0, 0], [103, 0, 0], [104, 0, 0], [105, 0, 1], [106, 0, 1]]
    }, 
    {
      "op": "Activation", 
      "name": "inception_a2_1x1_relu", 
      "attr": {"act_type": "relu"}, 
      "inputs": [[107, 0, 0]]
    }, 
    {
      "op": "null", 
      "name": "inception_a2_5x5_reduce_weight", 
      "attr": {
        "kernel": "(1, 1)", 
        "no_bias": "True", 
        "num_filter": "48", 
        "pad": "(0, 0)", 
        "stride": "(1, 1)"
      }, 
      "inputs": []
    }, 
    {
      "op": "Convolution", 
      "name": "inception_a2_5x5_reduce", 
      "attr": {
        "kernel": "(1, 1)", 
        "no_bias": "True", 
        "num_filter": "48", 
        "pad": "(0, 0)", 
        "stride": "(1, 1)"
      }, 
      "inputs": [[100, 0, 0], [109, 0, 0]]
    }, 
    {
      "op": "null", 
      "name": "inception_a2_5x5_reduce_bn_gamma", 
      "attr": {
        "eps": "0.001", 
        "fix_gamma": "False", 
        "use_global_stats": "True"
      }, 
      "inputs": []
    }, 
    {
      "op": "null", 
      "name": "inception_a2_5x5_reduce_bn_beta", 
      "attr": {
        "eps": "0.001", 
        "fix_gamma": "False", 
        "use_global_stats": "True"
      }, 
      "inputs": []
    }, 
    {
      "op": "null", 
      "name": "inception_a2_5x5_reduce_bn_moving_mean", 
      "attr": {
        "__init__": "[\"zero\", {}]", 
        "eps": "0.001", 
        "fix_gamma": "False", 
        "use_global_stats": "True"
      }, 
      "inputs": []
    }, 
    {
      "op": "null", 
      "name": "inception_a2_5x5_reduce_bn_moving_var", 
      "attr": {
        "__init__": "[\"one\", {}]", 
        "eps": "0.001", 
        "fix_gamma": "False", 
        "use_global_stats": "True"
      }, 
      "inputs": []
    }, 
    {
      "op": "BatchNorm", 
      "name": "inception_a2_5x5_reduce_bn", 
      "attr": {
        "eps": "0.001", 
        "fix_gamma": "False", 
        "use_global_stats": "True"
      }, 
      "inputs": [[110, 0, 0], [111, 0, 0], [112, 0, 0], [113, 0, 1], [114, 0, 1]]
    }, 
    {
      "op": "Activation", 
      "name": "inception_a2_5x5_reduce_relu", 
      "attr": {"act_type": "relu"}, 
      "inputs": [[115, 0, 0]]
    }, 
    {
      "op": "null", 
      "name": "inception_a2_5x5_weight", 
      "attr": {
        "kernel": "(5, 5)", 
        "no_bias": "True", 
        "num_filter": "64", 
        "pad": "(2, 2)", 
        "stride": "(1, 1)"
      }, 
      "inputs": []
    }, 
    {
      "op": "Convolution", 
      "name": "inception_a2_5x5", 
      "attr": {
        "kernel": "(5, 5)", 
        "no_bias": "True", 
        "num_filter": "64", 
        "pad": "(2, 2)", 
        "stride": "(1, 1)"
      }, 
      "inputs": [[116, 0, 0], [117, 0, 0]]
    }, 
    {
      "op": "null", 
      "name": "inception_a2_5x5_bn_gamma", 
      "attr": {
        "eps": "0.001", 
        "fix_gamma": "False", 
        "use_global_stats": "True"
      }, 
      "inputs": []
    }, 
    {
      "op": "null", 
      "name": "inception_a2_5x5_bn_beta", 
      "attr": {
        "eps": "0.001", 
        "fix_gamma": "False", 
        "use_global_stats": "True"
      }, 
      "inputs": []
    }, 
    {
      "op": "null", 
      "name": "inception_a2_5x5_bn_moving_mean", 
      "attr": {
        "__init__": "[\"zero\", {}]", 
        "eps": "0.001", 
        "fix_gamma": "False", 
        "use_global_stats": "True"
      }, 
      "inputs": []
    }, 
    {
      "op": "null", 
      "name": "inception_a2_5x5_bn_moving_var", 
      "attr": {
        "__init__": "[\"one\", {}]", 
        "eps": "0.001", 
        "fix_gamma": "False", 
        "use_global_stats": "True"
      }, 
      "inputs": []
    }, 
    {
      "op": "BatchNorm", 
      "name": "inception_a2_5x5_bn", 
      "attr": {
        "eps": "0.001", 
        "fix_gamma": "False", 
        "use_global_stats": "True"
      }, 
      "inputs": [[118, 0, 0], [119, 0, 0], [120, 0, 0], [121, 0, 1], [122, 0, 1]]
    }, 
    {
      "op": "Activation", 
      "name": "inception_a2_5x5_relu", 
      "attr": {"act_type": "relu"}, 
      "inputs": [[123, 0, 0]]
    }, 
    {
      "op": "null", 
      "name": "inception_a2_3x3_reduce_weight", 
      "attr": {
        "kernel": "(1, 1)", 
        "no_bias": "True", 
        "num_filter": "64", 
        "pad": "(0, 0)", 
        "stride": "(1, 1)"
      }, 
      "inputs": []
    }, 
    {
      "op": "Convolution", 
      "name": "inception_a2_3x3_reduce", 
      "attr": {
        "kernel": "(1, 1)", 
        "no_bias": "True", 
        "num_filter": "64", 
        "pad": "(0, 0)", 
        "stride": "(1, 1)"
      }, 
      "inputs": [[100, 0, 0], [125, 0, 0]]
    }, 
    {
      "op": "null", 
      "name": "inception_a2_3x3_reduce_bn_gamma", 
      "attr": {
        "eps": "0.001", 
        "fix_gamma": "False", 
        "use_global_stats": "True"
      }, 
      "inputs": []
    }, 
    {
      "op": "null", 
      "name": "inception_a2_3x3_reduce_bn_beta", 
      "attr": {
        "eps": "0.001", 
        "fix_gamma": "False", 
        "use_global_stats": "True"
      }, 
      "inputs": []
    }, 
    {
      "op": "null", 
      "name": "inception_a2_3x3_reduce_bn_moving_mean", 
      "attr": {
        "__init__": "[\"zero\", {}]", 
        "eps": "0.001", 
        "fix_gamma": "False", 
        "use_global_stats": "True"
      }, 
      "inputs": []
    }, 
    {
      "op": "null", 
      "name": "inception_a2_3x3_reduce_bn_moving_var", 
      "attr": {
        "__init__": "[\"one\", {}]", 
        "eps": "0.001", 
        "fix_gamma": "False", 
        "use_global_stats": "True"
      }, 
      "inputs": []
    }, 
    {
      "op": "BatchNorm", 
      "name": "inception_a2_3x3_reduce_bn", 
      "attr": {
        "eps": "0.001", 
        "fix_gamma": "False", 
        "use_global_stats": "True"
      }, 
      "inputs": [[126, 0, 0], [127, 0, 0], [128, 0, 0], [129, 0, 1], [130, 0, 1]]
    }, 
    {
      "op": "Activation", 
      "name": "inception_a2_3x3_reduce_relu", 
      "attr": {"act_type": "relu"}, 
      "inputs": [[131, 0, 0]]
    }, 
    {
      "op": "null", 
      "name": "inception_a2_3x3_1_weight", 
      "attr": {
        "kernel": "(3, 3)", 
        "no_bias": "True", 
        "num_filter": "96", 
        "pad": "(1, 1)", 
        "stride": "(1, 1)"
      }, 
      "inputs": []
    }, 
    {
      "op": "Convolution", 
      "name": "inception_a2_3x3_1", 
      "attr": {
        "kernel": "(3, 3)", 
        "no_bias": "True", 
        "num_filter": "96", 
        "pad": "(1, 1)", 
        "stride": "(1, 1)"
      }, 
      "inputs": [[132, 0, 0], [133, 0, 0]]
    }, 
    {
      "op": "null", 
      "name": "inception_a2_3x3_1_bn_gamma", 
      "attr": {
        "eps": "0.001", 
        "fix_gamma": "False", 
        "use_global_stats": "True"
      }, 
      "inputs": []
    }, 
    {
      "op": "null", 
      "name": "inception_a2_3x3_1_bn_beta", 
      "attr": {
        "eps": "0.001", 
        "fix_gamma": "False", 
        "use_global_stats": "True"
      }, 
      "inputs": []
    }, 
    {
      "op": "null", 
      "name": "inception_a2_3x3_1_bn_moving_mean", 
      "attr": {
        "__init__": "[\"zero\", {}]", 
        "eps": "0.001", 
        "fix_gamma": "False", 
        "use_global_stats": "True"
      }, 
      "inputs": []
    }, 
    {
      "op": "null", 
      "name": "inception_a2_3x3_1_bn_moving_var", 
      "attr": {
        "__init__": "[\"one\", {}]", 
        "eps": "0.001", 
        "fix_gamma": "False", 
        "use_global_stats": "True"
      }, 
      "inputs": []
    }, 
    {
      "op": "BatchNorm", 
      "name": "inception_a2_3x3_1_bn", 
      "attr": {
        "eps": "0.001", 
        "fix_gamma": "False", 
        "use_global_stats": "True"
      }, 
      "inputs": [[134, 0, 0], [135, 0, 0], [136, 0, 0], [137, 0, 1], [138, 0, 1]]
    }, 
    {
      "op": "Activation", 
      "name": "inception_a2_3x3_1_relu", 
      "attr": {"act_type": "relu"}, 
      "inputs": [[139, 0, 0]]
    }, 
    {
      "op": "null", 
      "name": "inception_a2_3x3_2_weight", 
      "attr": {
        "kernel": "(3, 3)", 
        "no_bias": "True", 
        "num_filter": "96", 
        "pad": "(1, 1)", 
        "stride": "(1, 1)"
      }, 
      "inputs": []
    }, 
    {
      "op": "Convolution", 
      "name": "inception_a2_3x3_2", 
      "attr": {
        "kernel": "(3, 3)", 
        "no_bias": "True", 
        "num_filter": "96", 
        "pad": "(1, 1)", 
        "stride": "(1, 1)"
      }, 
      "inputs": [[140, 0, 0], [141, 0, 0]]
    }, 
    {
      "op": "null", 
      "name": "inception_a2_3x3_2_bn_gamma", 
      "attr": {
        "eps": "0.001", 
        "fix_gamma": "False", 
        "use_global_stats": "True"
      }, 
      "inputs": []
    }, 
    {
      "op": "null", 
      "name": "inception_a2_3x3_2_bn_beta", 
      "attr": {
        "eps": "0.001", 
        "fix_gamma": "False", 
        "use_global_stats": "True"
      }, 
      "inputs": []
    }, 
    {
      "op": "null", 
      "name": "inception_a2_3x3_2_bn_moving_mean", 
      "attr": {
        "__init__": "[\"zero\", {}]", 
        "eps": "0.001", 
        "fix_gamma": "False", 
        "use_global_stats": "True"
      }, 
      "inputs": []
    }, 
    {
      "op": "null", 
      "name": "inception_a2_3x3_2_bn_moving_var", 
      "attr": {
        "__init__": "[\"one\", {}]", 
        "eps": "0.001", 
        "fix_gamma": "False", 
        "use_global_stats": "True"
      }, 
      "inputs": []
    }, 
    {
      "op": "BatchNorm", 
      "name": "inception_a2_3x3_2_bn", 
      "attr": {
        "eps": "0.001", 
        "fix_gamma": "False", 
        "use_global_stats": "True"
      }, 
      "inputs": [[142, 0, 0], [143, 0, 0], [144, 0, 0], [145, 0, 1], [146, 0, 1]]
    }, 
    {
      "op": "Activation", 
      "name": "inception_a2_3x3_2_relu", 
      "attr": {"act_type": "relu"}, 
      "inputs": [[147, 0, 0]]
    }, 
    {
      "op": "Pooling", 
      "name": "inception_a2_pool", 
      "attr": {
        "kernel": "(3, 3)", 
        "pad": "(1, 1)", 
        "pool_type": "avg", 
        "pooling_convention": "full", 
        "stride": "(1, 1)"
      }, 
      "inputs": [[100, 0, 0]]
    }, 
    {
      "op": "null", 
      "name": "inception_a2_pool_proj_weight", 
      "attr": {
        "kernel": "(1, 1)", 
        "no_bias": "True", 
        "num_filter": "64", 
        "pad": "(0, 0)", 
        "stride": "(1, 1)"
      }, 
      "inputs": []
    }, 
    {
      "op": "Convolution", 
      "name": "inception_a2_pool_proj", 
      "attr": {
        "kernel": "(1, 1)", 
        "no_bias": "True", 
        "num_filter": "64", 
        "pad": "(0, 0)", 
        "stride": "(1, 1)"
      }, 
      "inputs": [[149, 0, 0], [150, 0, 0]]
    }, 
    {
      "op": "null", 
      "name": "inception_a2_pool_proj_bn_gamma", 
      "attr": {
        "eps": "0.001", 
        "fix_gamma": "False", 
        "use_global_stats": "True"
      }, 
      "inputs": []
    }, 
    {
      "op": "null", 
      "name": "inception_a2_pool_proj_bn_beta", 
      "attr": {
        "eps": "0.001", 
        "fix_gamma": "False", 
        "use_global_stats": "True"
      }, 
      "inputs": []
    }, 
    {
      "op": "null", 
      "name": "inception_a2_pool_proj_bn_moving_mean", 
      "attr": {
        "__init__": "[\"zero\", {}]", 
        "eps": "0.001", 
        "fix_gamma": "False", 
        "use_global_stats": "True"
      }, 
      "inputs": []
    }, 
    {
      "op": "null", 
      "name": "inception_a2_pool_proj_bn_moving_var", 
      "attr": {
        "__init__": "[\"one\", {}]", 
        "eps": "0.001", 
        "fix_gamma": "False", 
        "use_global_stats": "True"
      }, 
      "inputs": []
    }, 
    {
      "op": "BatchNorm", 
      "name": "inception_a2_pool_proj_bn", 
      "attr": {
        "eps": "0.001", 
        "fix_gamma": "False", 
        "use_global_stats": "True"
      }, 
      "inputs": [[151, 0, 0], [152, 0, 0], [153, 0, 0], [154, 0, 1], [155, 0, 1]]
    }, 
    {
      "op": "Activation", 
      "name": "inception_a2_pool_proj_relu", 
      "attr": {"act_type": "relu"}, 
      "inputs": [[156, 0, 0]]
    }, 
    {
      "op": "Concat", 
      "name": "inception_a2_output", 
      "attr": {"num_args": "4"}, 
      "inputs": [[108, 0, 0], [124, 0, 0], [148, 0, 0], [157, 0, 0]]
    }, 
    {
      "op": "null", 
      "name": "inception_a3_1x1_weight", 
      "attr": {
        "kernel": "(1, 1)", 
        "no_bias": "True", 
        "num_filter": "64", 
        "pad": "(0, 0)", 
        "stride": "(1, 1)"
      }, 
      "inputs": []
    }, 
    {
      "op": "Convolution", 
      "name": "inception_a3_1x1", 
      "attr": {
        "kernel": "(1, 1)", 
        "no_bias": "True", 
        "num_filter": "64", 
        "pad": "(0, 0)", 
        "stride": "(1, 1)"
      }, 
      "inputs": [[158, 0, 0], [159, 0, 0]]
    }, 
    {
      "op": "null", 
      "name": "inception_a3_1x1_bn_gamma", 
      "attr": {
        "eps": "0.001", 
        "fix_gamma": "False", 
        "use_global_stats": "True"
      }, 
      "inputs": []
    }, 
    {
      "op": "null", 
      "name": "inception_a3_1x1_bn_beta", 
      "attr": {
        "eps": "0.001", 
        "fix_gamma": "False", 
        "use_global_stats": "True"
      }, 
      "inputs": []
    }, 
    {
      "op": "null", 
      "name": "inception_a3_1x1_bn_moving_mean", 
      "attr": {
        "__init__": "[\"zero\", {}]", 
        "eps": "0.001", 
        "fix_gamma": "False", 
        "use_global_stats": "True"
      }, 
      "inputs": []
    }, 
    {
      "op": "null", 
      "name": "inception_a3_1x1_bn_moving_var", 
      "attr": {
        "__init__": "[\"one\", {}]", 
        "eps": "0.001", 
        "fix_gamma": "False", 
        "use_global_stats": "True"
      }, 
      "inputs": []
    }, 
    {
      "op": "BatchNorm", 
      "name": "inception_a3_1x1_bn", 
      "attr": {
        "eps": "0.001", 
        "fix_gamma": "False", 
        "use_global_stats": "True"
      }, 
      "inputs": [[160, 0, 0], [161, 0, 0], [162, 0, 0], [163, 0, 1], [164, 0, 1]]
    }, 
    {
      "op": "Activation", 
      "name": "inception_a3_1x1_relu", 
      "attr": {"act_type": "relu"}, 
      "inputs": [[165, 0, 0]]
    }, 
    {
      "op": "null", 
      "name": "inception_a3_5x5_reduce_weight", 
      "attr": {
        "kernel": "(1, 1)", 
        "no_bias": "True", 
        "num_filter": "48", 
        "pad": "(0, 0)", 
        "stride": "(1, 1)"
      }, 
      "inputs": []
    }, 
    {
      "op": "Convolution", 
      "name": "inception_a3_5x5_reduce", 
      "attr": {
        "kernel": "(1, 1)", 
        "no_bias": "True", 
        "num_filter": "48", 
        "pad": "(0, 0)", 
        "stride": "(1, 1)"
      }, 
      "inputs": [[158, 0, 0], [167, 0, 0]]
    }, 
    {
      "op": "null", 
      "name": "inception_a3_5x5_reduce_bn_gamma", 
      "attr": {
        "eps": "0.001", 
        "fix_gamma": "False", 
        "use_global_stats": "True"
      }, 
      "inputs": []
    }, 
    {
      "op": "null", 
      "name": "inception_a3_5x5_reduce_bn_beta", 
      "attr": {
        "eps": "0.001", 
        "fix_gamma": "False", 
        "use_global_stats": "True"
      }, 
      "inputs": []
    }, 
    {
      "op": "null", 
      "name": "inception_a3_5x5_reduce_bn_moving_mean", 
      "attr": {
        "__init__": "[\"zero\", {}]", 
        "eps": "0.001", 
        "fix_gamma": "False", 
        "use_global_stats": "True"
      }, 
      "inputs": []
    }, 
    {
      "op": "null", 
      "name": "inception_a3_5x5_reduce_bn_moving_var", 
      "attr": {
        "__init__": "[\"one\", {}]", 
        "eps": "0.001", 
        "fix_gamma": "False", 
        "use_global_stats": "True"
      }, 
      "inputs": []
    }, 
    {
      "op": "BatchNorm", 
      "name": "inception_a3_5x5_reduce_bn", 
      "attr": {
        "eps": "0.001", 
        "fix_gamma": "False", 
        "use_global_stats": "True"
      }, 
      "inputs": [[168, 0, 0], [169, 0, 0], [170, 0, 0], [171, 0, 1], [172, 0, 1]]
    }, 
    {
      "op": "Activation", 
      "name": "inception_a3_5x5_reduce_relu", 
      "attr": {"act_type": "relu"}, 
      "inputs": [[173, 0, 0]]
    }, 
    {
      "op": "null", 
      "name": "inception_a3_5x5_weight", 
      "attr": {
        "kernel": "(5, 5)", 
        "no_bias": "True", 
        "num_filter": "64", 
        "pad": "(2, 2)", 
        "stride": "(1, 1)"
      }, 
      "inputs": []
    }, 
    {
      "op": "Convolution", 
      "name": "inception_a3_5x5", 
      "attr": {
        "kernel": "(5, 5)", 
        "no_bias": "True", 
        "num_filter": "64", 
        "pad": "(2, 2)", 
        "stride": "(1, 1)"
      }, 
      "inputs": [[174, 0, 0], [175, 0, 0]]
    }, 
    {
      "op": "null", 
      "name": "inception_a3_5x5_bn_gamma", 
      "attr": {
        "eps": "0.001", 
        "fix_gamma": "False", 
        "use_global_stats": "True"
      }, 
      "inputs": []
    }, 
    {
      "op": "null", 
      "name": "inception_a3_5x5_bn_beta", 
      "attr": {
        "eps": "0.001", 
        "fix_gamma": "False", 
        "use_global_stats": "True"
      }, 
      "inputs": []
    }, 
    {
      "op": "null", 
      "name": "inception_a3_5x5_bn_moving_mean", 
      "attr": {
        "__init__": "[\"zero\", {}]", 
        "eps": "0.001", 
        "fix_gamma": "False", 
        "use_global_stats": "True"
      }, 
      "inputs": []
    }, 
    {
      "op": "null", 
      "name": "inception_a3_5x5_bn_moving_var", 
      "attr": {
        "__init__": "[\"one\", {}]", 
        "eps": "0.001", 
        "fix_gamma": "False", 
        "use_global_stats": "True"
      }, 
      "inputs": []
    }, 
    {
      "op": "BatchNorm", 
      "name": "inception_a3_5x5_bn", 
      "attr": {
        "eps": "0.001", 
        "fix_gamma": "False", 
        "use_global_stats": "True"
      }, 
      "inputs": [[176, 0, 0], [177, 0, 0], [178, 0, 0], [179, 0, 1], [180, 0, 1]]
    }, 
    {
      "op": "Activation", 
      "name": "inception_a3_5x5_relu", 
      "attr": {"act_type": "relu"}, 
      "inputs": [[181, 0, 0]]
    }, 
    {
      "op": "null", 
      "name": "inception_a3_3x3_reduce_weight", 
      "attr": {
        "kernel": "(1, 1)", 
        "no_bias": "True", 
        "num_filter": "64", 
        "pad": "(0, 0)", 
        "stride": "(1, 1)"
      }, 
      "inputs": []
    }, 
    {
      "op": "Convolution", 
      "name": "inception_a3_3x3_reduce", 
      "attr": {
        "kernel": "(1, 1)", 
        "no_bias": "True", 
        "num_filter": "64", 
        "pad": "(0, 0)", 
        "stride": "(1, 1)"
      }, 
      "inputs": [[158, 0, 0], [183, 0, 0]]
    }, 
    {
      "op": "null", 
      "name": "inception_a3_3x3_reduce_bn_gamma", 
      "attr": {
        "eps": "0.001", 
        "fix_gamma": "False", 
        "use_global_stats": "True"
      }, 
      "inputs": []
    }, 
    {
      "op": "null", 
      "name": "inception_a3_3x3_reduce_bn_beta", 
      "attr": {
        "eps": "0.001", 
        "fix_gamma": "False", 
        "use_global_stats": "True"
      }, 
      "inputs": []
    }, 
    {
      "op": "null", 
      "name": "inception_a3_3x3_reduce_bn_moving_mean", 
      "attr": {
        "__init__": "[\"zero\", {}]", 
        "eps": "0.001", 
        "fix_gamma": "False", 
        "use_global_stats": "True"
      }, 
      "inputs": []
    }, 
    {
      "op": "null", 
      "name": "inception_a3_3x3_reduce_bn_moving_var", 
      "attr": {
        "__init__": "[\"one\", {}]", 
        "eps": "0.001", 
        "fix_gamma": "False", 
        "use_global_stats": "True"
      }, 
      "inputs": []
    }, 
    {
      "op": "BatchNorm", 
      "name": "inception_a3_3x3_reduce_bn", 
      "attr": {
        "eps": "0.001", 
        "fix_gamma": "False", 
        "use_global_stats": "True"
      }, 
      "inputs": [[184, 0, 0], [185, 0, 0], [186, 0, 0], [187, 0, 1], [188, 0, 1]]
    }, 
    {
      "op": "Activation", 
      "name": "inception_a3_3x3_reduce_relu", 
      "attr": {"act_type": "relu"}, 
      "inputs": [[189, 0, 0]]
    }, 
    {
      "op": "null", 
      "name": "inception_a3_3x3_1_weight", 
      "attr": {
        "kernel": "(3, 3)", 
        "no_bias": "True", 
        "num_filter": "96", 
        "pad": "(1, 1)", 
        "stride": "(1, 1)"
      }, 
      "inputs": []
    }, 
    {
      "op": "Convolution", 
      "name": "inception_a3_3x3_1", 
      "attr": {
        "kernel": "(3, 3)", 
        "no_bias": "True", 
        "num_filter": "96", 
        "pad": "(1, 1)", 
        "stride": "(1, 1)"
      }, 
      "inputs": [[190, 0, 0], [191, 0, 0]]
    }, 
    {
      "op": "null", 
      "name": "inception_a3_3x3_1_bn_gamma", 
      "attr": {
        "eps": "0.001", 
        "fix_gamma": "False", 
        "use_global_stats": "True"
      }, 
      "inputs": []
    }, 
    {
      "op": "null", 
      "name": "inception_a3_3x3_1_bn_beta", 
      "attr": {
        "eps": "0.001", 
        "fix_gamma": "False", 
        "use_global_stats": "True"
      }, 
      "inputs": []
    }, 
    {
      "op": "null", 
      "name": "inception_a3_3x3_1_bn_moving_mean", 
      "attr": {
        "__init__": "[\"zero\", {}]", 
        "eps": "0.001", 
        "fix_gamma": "False", 
        "use_global_stats": "True"
      }, 
      "inputs": []
    }, 
    {
      "op": "null", 
      "name": "inception_a3_3x3_1_bn_moving_var", 
      "attr": {
        "__init__": "[\"one\", {}]", 
        "eps": "0.001", 
        "fix_gamma": "False", 
        "use_global_stats": "True"
      }, 
      "inputs": []
    }, 
    {
      "op": "BatchNorm", 
      "name": "inception_a3_3x3_1_bn", 
      "attr": {
        "eps": "0.001", 
        "fix_gamma": "False", 
        "use_global_stats": "True"
      }, 
      "inputs": [[192, 0, 0], [193, 0, 0], [194, 0, 0], [195, 0, 1], [196, 0, 1]]
    }, 
    {
      "op": "Activation", 
      "name": "inception_a3_3x3_1_relu", 
      "attr": {"act_type": "relu"}, 
      "inputs": [[197, 0, 0]]
    }, 
    {
      "op": "null", 
      "name": "inception_a3_3x3_2_weight", 
      "attr": {
        "kernel": "(3, 3)", 
        "no_bias": "True", 
        "num_filter": "96", 
        "pad": "(1, 1)", 
        "stride": "(1, 1)"
      }, 
      "inputs": []
    }, 
    {
      "op": "Convolution", 
      "name": "inception_a3_3x3_2", 
      "attr": {
        "kernel": "(3, 3)", 
        "no_bias": "True", 
        "num_filter": "96", 
        "pad": "(1, 1)", 
        "stride": "(1, 1)"
      }, 
      "inputs": [[198, 0, 0], [199, 0, 0]]
    }, 
    {
      "op": "null", 
      "name": "inception_a3_3x3_2_bn_gamma", 
      "attr": {
        "eps": "0.001", 
        "fix_gamma": "False", 
        "use_global_stats": "True"
      }, 
      "inputs": []
    }, 
    {
      "op": "null", 
      "name": "inception_a3_3x3_2_bn_beta", 
      "attr": {
        "eps": "0.001", 
        "fix_gamma": "False", 
        "use_global_stats": "True"
      }, 
      "inputs": []
    }, 
    {
      "op": "null", 
      "name": "inception_a3_3x3_2_bn_moving_mean", 
      "attr": {
        "__init__": "[\"zero\", {}]", 
        "eps": "0.001", 
        "fix_gamma": "False", 
        "use_global_stats": "True"
      }, 
      "inputs": []
    }, 
    {
      "op": "null", 
      "name": "inception_a3_3x3_2_bn_moving_var", 
      "attr": {
        "__init__": "[\"one\", {}]", 
        "eps": "0.001", 
        "fix_gamma": "False", 
        "use_global_stats": "True"
      }, 
      "inputs": []
    }, 
    {
      "op": "BatchNorm", 
      "name": "inception_a3_3x3_2_bn", 
      "attr": {
        "eps": "0.001", 
        "fix_gamma": "False", 
        "use_global_stats": "True"
      }, 
      "inputs": [[200, 0, 0], [201, 0, 0], [202, 0, 0], [203, 0, 1], [204, 0, 1]]
    }, 
    {
      "op": "Activation", 
      "name": "inception_a3_3x3_2_relu", 
      "attr": {"act_type": "relu"}, 
      "inputs": [[205, 0, 0]]
    }, 
    {
      "op": "Pooling", 
      "name": "inception_a3_pool", 
      "attr": {
        "kernel": "(3, 3)", 
        "pad": "(1, 1)", 
        "pool_type": "avg", 
        "pooling_convention": "full", 
        "stride": "(1, 1)"
      }, 
      "inputs": [[158, 0, 0]]
    }, 
    {
      "op": "null", 
      "name": "inception_a3_pool_proj_weight", 
      "attr": {
        "kernel": "(1, 1)", 
        "no_bias": "True", 
        "num_filter": "64", 
        "pad": "(0, 0)", 
        "stride": "(1, 1)"
      }, 
      "inputs": []
    }, 
    {
      "op": "Convolution", 
      "name": "inception_a3_pool_proj", 
      "attr": {
        "kernel": "(1, 1)", 
        "no_bias": "True", 
        "num_filter": "64", 
        "pad": "(0, 0)", 
        "stride": "(1, 1)"
      }, 
      "inputs": [[207, 0, 0], [208, 0, 0]]
    }, 
    {
      "op": "null", 
      "name": "inception_a3_pool_proj_bn_gamma", 
      "attr": {
        "eps": "0.001", 
        "fix_gamma": "False", 
        "use_global_stats": "True"
      }, 
      "inputs": []
    }, 
    {
      "op": "null", 
      "name": "inception_a3_pool_proj_bn_beta", 
      "attr": {
        "eps": "0.001", 
        "fix_gamma": "False", 
        "use_global_stats": "True"
      }, 
      "inputs": []
    }, 
    {
      "op": "null", 
      "name": "inception_a3_pool_proj_bn_moving_mean", 
      "attr": {
        "__init__": "[\"zero\", {}]", 
        "eps": "0.001", 
        "fix_gamma": "False", 
        "use_global_stats": "True"
      }, 
      "inputs": []
    }, 
    {
      "op": "null", 
      "name": "inception_a3_pool_proj_bn_moving_var", 
      "attr": {
        "__init__": "[\"one\", {}]", 
        "eps": "0.001", 
        "fix_gamma": "False", 
        "use_global_stats": "True"
      }, 
      "inputs": []
    }, 
    {
      "op": "BatchNorm", 
      "name": "inception_a3_pool_proj_bn", 
      "attr": {
        "eps": "0.001", 
        "fix_gamma": "False", 
        "use_global_stats": "True"
      }, 
      "inputs": [[209, 0, 0], [210, 0, 0], [211, 0, 0], [212, 0, 1], [213, 0, 1]]
    }, 
    {
      "op": "Activation", 
      "name": "inception_a3_pool_proj_relu", 
      "attr": {"act_type": "relu"}, 
      "inputs": [[214, 0, 0]]
    }, 
    {
      "op": "Concat", 
      "name": "inception_a3_output", 
      "attr": {"num_args": "4"}, 
      "inputs": [[166, 0, 0], [182, 0, 0], [206, 0, 0], [215, 0, 0]]
    }, 
    {
      "op": "null", 
      "name": "reduction_a_3x3_weight", 
      "attr": {
        "kernel": "(3, 3)", 
        "no_bias": "True", 
        "num_filter": "384", 
        "pad": "(0, 0)", 
        "stride": "(2, 2)"
      }, 
      "inputs": []
    }, 
    {
      "op": "Convolution", 
      "name": "reduction_a_3x3", 
      "attr": {
        "kernel": "(3, 3)", 
        "no_bias": "True", 
        "num_filter": "384", 
        "pad": "(0, 0)", 
        "stride": "(2, 2)"
      }, 
      "inputs": [[216, 0, 0], [217, 0, 0]]
    }, 
    {
      "op": "null", 
      "name": "reduction_a_3x3_bn_gamma", 
      "attr": {
        "eps": "0.001", 
        "fix_gamma": "False", 
        "use_global_stats": "True"
      }, 
      "inputs": []
    }, 
    {
      "op": "null", 
      "name": "reduction_a_3x3_bn_beta", 
      "attr": {
        "eps": "0.001", 
        "fix_gamma": "False", 
        "use_global_stats": "True"
      }, 
      "inputs": []
    }, 
    {
      "op": "null", 
      "name": "reduction_a_3x3_bn_moving_mean", 
      "attr": {
        "__init__": "[\"zero\", {}]", 
        "eps": "0.001", 
        "fix_gamma": "False", 
        "use_global_stats": "True"
      }, 
      "inputs": []
    }, 
    {
      "op": "null", 
      "name": "reduction_a_3x3_bn_moving_var", 
      "attr": {
        "__init__": "[\"one\", {}]", 
        "eps": "0.001", 
        "fix_gamma": "False", 
        "use_global_stats": "True"
      }, 
      "inputs": []
    }, 
    {
      "op": "BatchNorm", 
      "name": "reduction_a_3x3_bn", 
      "attr": {
        "eps": "0.001", 
        "fix_gamma": "False", 
        "use_global_stats": "True"
      }, 
      "inputs": [[218, 0, 0], [219, 0, 0], [220, 0, 0], [221, 0, 1], [222, 0, 1]]
    }, 
    {
      "op": "Activation", 
      "name": "reduction_a_3x3_relu", 
      "attr": {"act_type": "relu"}, 
      "inputs": [[223, 0, 0]]
    }, 
    {
      "op": "null", 
      "name": "reduction_a_3x3_2_reduce_weight", 
      "attr": {
        "kernel": "(1, 1)", 
        "no_bias": "True", 
        "num_filter": "64", 
        "pad": "(0, 0)", 
        "stride": "(1, 1)"
      }, 
      "inputs": []
    }, 
    {
      "op": "Convolution", 
      "name": "reduction_a_3x3_2_reduce", 
      "attr": {
        "kernel": "(1, 1)", 
        "no_bias": "True", 
        "num_filter": "64", 
        "pad": "(0, 0)", 
        "stride": "(1, 1)"
      }, 
      "inputs": [[216, 0, 0], [225, 0, 0]]
    }, 
    {
      "op": "null", 
      "name": "reduction_a_3x3_2_reduce_bn_gamma", 
      "attr": {
        "eps": "0.001", 
        "fix_gamma": "False", 
        "use_global_stats": "True"
      }, 
      "inputs": []
    }, 
    {
      "op": "null", 
      "name": "reduction_a_3x3_2_reduce_bn_beta", 
      "attr": {
        "eps": "0.001", 
        "fix_gamma": "False", 
        "use_global_stats": "True"
      }, 
      "inputs": []
    }, 
    {
      "op": "null", 
      "name": "reduction_a_3x3_2_reduce_bn_moving_mean", 
      "attr": {
        "__init__": "[\"zero\", {}]", 
        "eps": "0.001", 
        "fix_gamma": "False", 
        "use_global_stats": "True"
      }, 
      "inputs": []
    }, 
    {
      "op": "null", 
      "name": "reduction_a_3x3_2_reduce_bn_moving_var", 
      "attr": {
        "__init__": "[\"one\", {}]", 
        "eps": "0.001", 
        "fix_gamma": "False", 
        "use_global_stats": "True"
      }, 
      "inputs": []
    }, 
    {
      "op": "BatchNorm", 
      "name": "reduction_a_3x3_2_reduce_bn", 
      "attr": {
        "eps": "0.001", 
        "fix_gamma": "False", 
        "use_global_stats": "True"
      }, 
      "inputs": [[226, 0, 0], [227, 0, 0], [228, 0, 0], [229, 0, 1], [230, 0, 1]]
    }, 
    {
      "op": "Activation", 
      "name": "reduction_a_3x3_2_reduce_relu", 
      "attr": {"act_type": "relu"}, 
      "inputs": [[231, 0, 0]]
    }, 
    {
      "op": "null", 
      "name": "reduction_a_3x3_2_weight", 
      "attr": {
        "kernel": "(3, 3)", 
        "no_bias": "True", 
        "num_filter": "96", 
        "pad": "(1, 1)", 
        "stride": "(1, 1)"
      }, 
      "inputs": []
    }, 
    {
      "op": "Convolution", 
      "name": "reduction_a_3x3_2", 
      "attr": {
        "kernel": "(3, 3)", 
        "no_bias": "True", 
        "num_filter": "96", 
        "pad": "(1, 1)", 
        "stride": "(1, 1)"
      }, 
      "inputs": [[232, 0, 0], [233, 0, 0]]
    }, 
    {
      "op": "null", 
      "name": "reduction_a_3x3_2_bn_gamma", 
      "attr": {
        "eps": "0.001", 
        "fix_gamma": "False", 
        "use_global_stats": "True"
      }, 
      "inputs": []
    }, 
    {
      "op": "null", 
      "name": "reduction_a_3x3_2_bn_beta", 
      "attr": {
        "eps": "0.001", 
        "fix_gamma": "False", 
        "use_global_stats": "True"
      }, 
      "inputs": []
    }, 
    {
      "op": "null", 
      "name": "reduction_a_3x3_2_bn_moving_mean", 
      "attr": {
        "__init__": "[\"zero\", {}]", 
        "eps": "0.001", 
        "fix_gamma": "False", 
        "use_global_stats": "True"
      }, 
      "inputs": []
    }, 
    {
      "op": "null", 
      "name": "reduction_a_3x3_2_bn_moving_var", 
      "attr": {
        "__init__": "[\"one\", {}]", 
        "eps": "0.001", 
        "fix_gamma": "False", 
        "use_global_stats": "True"
      }, 
      "inputs": []
    }, 
    {
      "op": "BatchNorm", 
      "name": "reduction_a_3x3_2_bn", 
      "attr": {
        "eps": "0.001", 
        "fix_gamma": "False", 
        "use_global_stats": "True"
      }, 
      "inputs": [[234, 0, 0], [235, 0, 0], [236, 0, 0], [237, 0, 1], [238, 0, 1]]
    }, 
    {
      "op": "Activation", 
      "name": "reduction_a_3x3_2_relu", 
      "attr": {"act_type": "relu"}, 
      "inputs": [[239, 0, 0]]
    }, 
    {
      "op": "null", 
      "name": "reduction_a_3x3_3_weight", 
      "attr": {
        "kernel": "(3, 3)", 
        "no_bias": "True", 
        "num_filter": "96", 
        "pad": "(0, 0)", 
        "stride": "(2, 2)"
      }, 
      "inputs": []
    }, 
    {
      "op": "Convolution", 
      "name": "reduction_a_3x3_3", 
      "attr": {
        "kernel": "(3, 3)", 
        "no_bias": "True", 
        "num_filter": "96", 
        "pad": "(0, 0)", 
        "stride": "(2, 2)"
      }, 
      "inputs": [[240, 0, 0], [241, 0, 0]]
    }, 
    {
      "op": "null", 
      "name": "reduction_a_3x3_3_bn_gamma", 
      "attr": {
        "eps": "0.001", 
        "fix_gamma": "False", 
        "use_global_stats": "True"
      }, 
      "inputs": []
    }, 
    {
      "op": "null", 
      "name": "reduction_a_3x3_3_bn_beta", 
      "attr": {
        "eps": "0.001", 
        "fix_gamma": "False", 
        "use_global_stats": "True"
      }, 
      "inputs": []
    }, 
    {
      "op": "null", 
      "name": "reduction_a_3x3_3_bn_moving_mean", 
      "attr": {
        "__init__": "[\"zero\", {}]", 
        "eps": "0.001", 
        "fix_gamma": "False", 
        "use_global_stats": "True"
      }, 
      "inputs": []
    }, 
    {
      "op": "null", 
      "name": "reduction_a_3x3_3_bn_moving_var", 
      "attr": {
        "__init__": "[\"one\", {}]", 
        "eps": "0.001", 
        "fix_gamma": "False", 
        "use_global_stats": "True"
      }, 
      "inputs": []
    }, 
    {
      "op": "BatchNorm", 
      "name": "reduction_a_3x3_3_bn", 
      "attr": {
        "eps": "0.001", 
        "fix_gamma": "False", 
        "use_global_stats": "True"
      }, 
      "inputs": [[242, 0, 0], [243, 0, 0], [244, 0, 0], [245, 0, 1], [246, 0, 1]]
    }, 
    {
      "op": "Activation", 
      "name": "reduction_a_3x3_3_relu", 
      "attr": {"act_type": "relu"}, 
      "inputs": [[247, 0, 0]]
    }, 
    {
      "op": "Pooling", 
      "name": "reduction_a_pool", 
      "attr": {
        "kernel": "(3, 3)", 
        "pad": "(0, 0)", 
        "pool_type": "max", 
        "pooling_convention": "full", 
        "stride": "(2, 2)"
      }, 
      "inputs": [[216, 0, 0]]
    }, 
    {
      "op": "Concat", 
      "name": "reduction_a_concat", 
      "attr": {"num_args": "3"}, 
      "inputs": [[224, 0, 0], [248, 0, 0], [249, 0, 0]]
    }, 
    {
      "op": "null", 
      "name": "inception_b1_1x1_2_weight", 
      "attr": {
        "kernel": "(1, 1)", 
        "no_bias": "True", 
        "num_filter": "192", 
        "pad": "(0, 0)", 
        "stride": "(1, 1)"
      }, 
      "inputs": []
    }, 
    {
      "op": "Convolution", 
      "name": "inception_b1_1x1_2", 
      "attr": {
        "kernel": "(1, 1)", 
        "no_bias": "True", 
        "num_filter": "192", 
        "pad": "(0, 0)", 
        "stride": "(1, 1)"
      }, 
      "inputs": [[250, 0, 0], [251, 0, 0]]
    }, 
    {
      "op": "null", 
      "name": "inception_b1_1x1_2_bn_gamma", 
      "attr": {
        "eps": "0.001", 
        "fix_gamma": "False", 
        "use_global_stats": "True"
      }, 
      "inputs": []
    }, 
    {
      "op": "null", 
      "name": "inception_b1_1x1_2_bn_beta", 
      "attr": {
        "eps": "0.001", 
        "fix_gamma": "False", 
        "use_global_stats": "True"
      }, 
      "inputs": []
    }, 
    {
      "op": "null", 
      "name": "inception_b1_1x1_2_bn_moving_mean", 
      "attr": {
        "__init__": "[\"zero\", {}]", 
        "eps": "0.001", 
        "fix_gamma": "False", 
        "use_global_stats": "True"
      }, 
      "inputs": []
    }, 
    {
      "op": "null", 
      "name": "inception_b1_1x1_2_bn_moving_var", 
      "attr": {
        "__init__": "[\"one\", {}]", 
        "eps": "0.001", 
        "fix_gamma": "False", 
        "use_global_stats": "True"
      }, 
      "inputs": []
    }, 
    {
      "op": "BatchNorm", 
      "name": "inception_b1_1x1_2_bn", 
      "attr": {
        "eps": "0.001", 
        "fix_gamma": "False", 
        "use_global_stats": "True"
      }, 
      "inputs": [[252, 0, 0], [253, 0, 0], [254, 0, 0], [255, 0, 1], [256, 0, 1]]
    }, 
    {
      "op": "Activation", 
      "name": "inception_b1_1x1_2_relu", 
      "attr": {"act_type": "relu"}, 
      "inputs": [[257, 0, 0]]
    }, 
    {
      "op": "null", 
      "name": "inception_b1_1x7_reduce_weight", 
      "attr": {
        "kernel": "(1, 1)", 
        "no_bias": "True", 
        "num_filter": "128", 
        "pad": "(0, 0)", 
        "stride": "(1, 1)"
      }, 
      "inputs": []
    }, 
    {
      "op": "Convolution", 
      "name": "inception_b1_1x7_reduce", 
      "attr": {
        "kernel": "(1, 1)", 
        "no_bias": "True", 
        "num_filter": "128", 
        "pad": "(0, 0)", 
        "stride": "(1, 1)"
      }, 
      "inputs": [[250, 0, 0], [259, 0, 0]]
    }, 
    {
      "op": "null", 
      "name": "inception_b1_1x7_reduce_bn_gamma", 
      "attr": {
        "eps": "0.001", 
        "fix_gamma": "False", 
        "use_global_stats": "True"
      }, 
      "inputs": []
    }, 
    {
      "op": "null", 
      "name": "inception_b1_1x7_reduce_bn_beta", 
      "attr": {
        "eps": "0.001", 
        "fix_gamma": "False", 
        "use_global_stats": "True"
      }, 
      "inputs": []
    }, 
    {
      "op": "null", 
      "name": "inception_b1_1x7_reduce_bn_moving_mean", 
      "attr": {
        "__init__": "[\"zero\", {}]", 
        "eps": "0.001", 
        "fix_gamma": "False", 
        "use_global_stats": "True"
      }, 
      "inputs": []
    }, 
    {
      "op": "null", 
      "name": "inception_b1_1x7_reduce_bn_moving_var", 
      "attr": {
        "__init__": "[\"one\", {}]", 
        "eps": "0.001", 
        "fix_gamma": "False", 
        "use_global_stats": "True"
      }, 
      "inputs": []
    }, 
    {
      "op": "BatchNorm", 
      "name": "inception_b1_1x7_reduce_bn", 
      "attr": {
        "eps": "0.001", 
        "fix_gamma": "False", 
        "use_global_stats": "True"
      }, 
      "inputs": [[260, 0, 0], [261, 0, 0], [262, 0, 0], [263, 0, 1], [264, 0, 1]]
    }, 
    {
      "op": "Activation", 
      "name": "inception_b1_1x7_reduce_relu", 
      "attr": {"act_type": "relu"}, 
      "inputs": [[265, 0, 0]]
    }, 
    {
      "op": "null", 
      "name": "inception_b1_1x7_weight", 
      "attr": {
        "kernel": "(1, 7)", 
        "no_bias": "True", 
        "num_filter": "128", 
        "pad": "(0, 3)", 
        "stride": "(1, 1)"
      }, 
      "inputs": []
    }, 
    {
      "op": "Convolution", 
      "name": "inception_b1_1x7", 
      "attr": {
        "kernel": "(1, 7)", 
        "no_bias": "True", 
        "num_filter": "128", 
        "pad": "(0, 3)", 
        "stride": "(1, 1)"
      }, 
      "inputs": [[266, 0, 0], [267, 0, 0]]
    }, 
    {
      "op": "null", 
      "name": "inception_b1_1x7_bn_gamma", 
      "attr": {
        "eps": "0.001", 
        "fix_gamma": "False", 
        "use_global_stats": "True"
      }, 
      "inputs": []
    }, 
    {
      "op": "null", 
      "name": "inception_b1_1x7_bn_beta", 
      "attr": {
        "eps": "0.001", 
        "fix_gamma": "False", 
        "use_global_stats": "True"
      }, 
      "inputs": []
    }, 
    {
      "op": "null", 
      "name": "inception_b1_1x7_bn_moving_mean", 
      "attr": {
        "__init__": "[\"zero\", {}]", 
        "eps": "0.001", 
        "fix_gamma": "False", 
        "use_global_stats": "True"
      }, 
      "inputs": []
    }, 
    {
      "op": "null", 
      "name": "inception_b1_1x7_bn_moving_var", 
      "attr": {
        "__init__": "[\"one\", {}]", 
        "eps": "0.001", 
        "fix_gamma": "False", 
        "use_global_stats": "True"
      }, 
      "inputs": []
    }, 
    {
      "op": "BatchNorm", 
      "name": "inception_b1_1x7_bn", 
      "attr": {
        "eps": "0.001", 
        "fix_gamma": "False", 
        "use_global_stats": "True"
      }, 
      "inputs": [[268, 0, 0], [269, 0, 0], [270, 0, 0], [271, 0, 1], [272, 0, 1]]
    }, 
    {
      "op": "Activation", 
      "name": "inception_b1_1x7_relu", 
      "attr": {"act_type": "relu"}, 
      "inputs": [[273, 0, 0]]
    }, 
    {
      "op": "null", 
      "name": "inception_b1_7x1_weight", 
      "attr": {
        "kernel": "(7, 1)", 
        "no_bias": "True", 
        "num_filter": "192", 
        "pad": "(3, 0)", 
        "stride": "(1, 1)"
      }, 
      "inputs": []
    }, 
    {
      "op": "Convolution", 
      "name": "inception_b1_7x1", 
      "attr": {
        "kernel": "(7, 1)", 
        "no_bias": "True", 
        "num_filter": "192", 
        "pad": "(3, 0)", 
        "stride": "(1, 1)"
      }, 
      "inputs": [[274, 0, 0], [275, 0, 0]]
    }, 
    {
      "op": "null", 
      "name": "inception_b1_7x1_bn_gamma", 
      "attr": {
        "eps": "0.001", 
        "fix_gamma": "False", 
        "use_global_stats": "True"
      }, 
      "inputs": []
    }, 
    {
      "op": "null", 
      "name": "inception_b1_7x1_bn_beta", 
      "attr": {
        "eps": "0.001", 
        "fix_gamma": "False", 
        "use_global_stats": "True"
      }, 
      "inputs": []
    }, 
    {
      "op": "null", 
      "name": "inception_b1_7x1_bn_moving_mean", 
      "attr": {
        "__init__": "[\"zero\", {}]", 
        "eps": "0.001", 
        "fix_gamma": "False", 
        "use_global_stats": "True"
      }, 
      "inputs": []
    }, 
    {
      "op": "null", 
      "name": "inception_b1_7x1_bn_moving_var", 
      "attr": {
        "__init__": "[\"one\", {}]", 
        "eps": "0.001", 
        "fix_gamma": "False", 
        "use_global_stats": "True"
      }, 
      "inputs": []
    }, 
    {
      "op": "BatchNorm", 
      "name": "inception_b1_7x1_bn", 
      "attr": {
        "eps": "0.001", 
        "fix_gamma": "False", 
        "use_global_stats": "True"
      }, 
      "inputs": [[276, 0, 0], [277, 0, 0], [278, 0, 0], [279, 0, 1], [280, 0, 1]]
    }, 
    {
      "op": "Activation", 
      "name": "inception_b1_7x1_relu", 
      "attr": {"act_type": "relu"}, 
      "inputs": [[281, 0, 0]]
    }, 
    {
      "op": "null", 
      "name": "inception_b1_7x1_reduce_weight", 
      "attr": {
        "kernel": "(1, 1)", 
        "no_bias": "True", 
        "num_filter": "128", 
        "pad": "(0, 0)", 
        "stride": "(1, 1)"
      }, 
      "inputs": []
    }, 
    {
      "op": "Convolution", 
      "name": "inception_b1_7x1_reduce", 
      "attr": {
        "kernel": "(1, 1)", 
        "no_bias": "True", 
        "num_filter": "128", 
        "pad": "(0, 0)", 
        "stride": "(1, 1)"
      }, 
      "inputs": [[250, 0, 0], [283, 0, 0]]
    }, 
    {
      "op": "null", 
      "name": "inception_b1_7x1_reduce_bn_gamma", 
      "attr": {
        "eps": "0.001", 
        "fix_gamma": "False", 
        "use_global_stats": "True"
      }, 
      "inputs": []
    }, 
    {
      "op": "null", 
      "name": "inception_b1_7x1_reduce_bn_beta", 
      "attr": {
        "eps": "0.001", 
        "fix_gamma": "False", 
        "use_global_stats": "True"
      }, 
      "inputs": []
    }, 
    {
      "op": "null", 
      "name": "inception_b1_7x1_reduce_bn_moving_mean", 
      "attr": {
        "__init__": "[\"zero\", {}]", 
        "eps": "0.001", 
        "fix_gamma": "False", 
        "use_global_stats": "True"
      }, 
      "inputs": []
    }, 
    {
      "op": "null", 
      "name": "inception_b1_7x1_reduce_bn_moving_var", 
      "attr": {
        "__init__": "[\"one\", {}]", 
        "eps": "0.001", 
        "fix_gamma": "False", 
        "use_global_stats": "True"
      }, 
      "inputs": []
    }, 
    {
      "op": "BatchNorm", 
      "name": "inception_b1_7x1_reduce_bn", 
      "attr": {
        "eps": "0.001", 
        "fix_gamma": "False", 
        "use_global_stats": "True"
      }, 
      "inputs": [[284, 0, 0], [285, 0, 0], [286, 0, 0], [287, 0, 1], [288, 0, 1]]
    }, 
    {
      "op": "Activation", 
      "name": "inception_b1_7x1_reduce_relu", 
      "attr": {"act_type": "relu"}, 
      "inputs": [[289, 0, 0]]
    }, 
    {
      "op": "null", 
      "name": "inception_b1_7x1_2_weight", 
      "attr": {
        "kernel": "(7, 1)", 
        "no_bias": "True", 
        "num_filter": "128", 
        "pad": "(3, 0)", 
        "stride": "(1, 1)"
      }, 
      "inputs": []
    }, 
    {
      "op": "Convolution", 
      "name": "inception_b1_7x1_2", 
      "attr": {
        "kernel": "(7, 1)", 
        "no_bias": "True", 
        "num_filter": "128", 
        "pad": "(3, 0)", 
        "stride": "(1, 1)"
      }, 
      "inputs": [[290, 0, 0], [291, 0, 0]]
    }, 
    {
      "op": "null", 
      "name": "inception_b1_7x1_2_bn_gamma", 
      "attr": {
        "eps": "0.001", 
        "fix_gamma": "False", 
        "use_global_stats": "True"
      }, 
      "inputs": []
    }, 
    {
      "op": "null", 
      "name": "inception_b1_7x1_2_bn_beta", 
      "attr": {
        "eps": "0.001", 
        "fix_gamma": "False", 
        "use_global_stats": "True"
      }, 
      "inputs": []
    }, 
    {
      "op": "null", 
      "name": "inception_b1_7x1_2_bn_moving_mean", 
      "attr": {
        "__init__": "[\"zero\", {}]", 
        "eps": "0.001", 
        "fix_gamma": "False", 
        "use_global_stats": "True"
      }, 
      "inputs": []
    }, 
    {
      "op": "null", 
      "name": "inception_b1_7x1_2_bn_moving_var", 
      "attr": {
        "__init__": "[\"one\", {}]", 
        "eps": "0.001", 
        "fix_gamma": "False", 
        "use_global_stats": "True"
      }, 
      "inputs": []
    }, 
    {
      "op": "BatchNorm", 
      "name": "inception_b1_7x1_2_bn", 
      "attr": {
        "eps": "0.001", 
        "fix_gamma": "False", 
        "use_global_stats": "True"
      }, 
      "inputs": [[292, 0, 0], [293, 0, 0], [294, 0, 0], [295, 0, 1], [296, 0, 1]]
    }, 
    {
      "op": "Activation", 
      "name": "inception_b1_7x1_2_relu", 
      "attr": {"act_type": "relu"}, 
      "inputs": [[297, 0, 0]]
    }, 
    {
      "op": "null", 
      "name": "inception_b1_1x7_2_weight", 
      "attr": {
        "kernel": "(1, 7)", 
        "no_bias": "True", 
        "num_filter": "128", 
        "pad": "(0, 3)", 
        "stride": "(1, 1)"
      }, 
      "inputs": []
    }, 
    {
      "op": "Convolution", 
      "name": "inception_b1_1x7_2", 
      "attr": {
        "kernel": "(1, 7)", 
        "no_bias": "True", 
        "num_filter": "128", 
        "pad": "(0, 3)", 
        "stride": "(1, 1)"
      }, 
      "inputs": [[298, 0, 0], [299, 0, 0]]
    }, 
    {
      "op": "null", 
      "name": "inception_b1_1x7_2_bn_gamma", 
      "attr": {
        "eps": "0.001", 
        "fix_gamma": "False", 
        "use_global_stats": "True"
      }, 
      "inputs": []
    }, 
    {
      "op": "null", 
      "name": "inception_b1_1x7_2_bn_beta", 
      "attr": {
        "eps": "0.001", 
        "fix_gamma": "False", 
        "use_global_stats": "True"
      }, 
      "inputs": []
    }, 
    {
      "op": "null", 
      "name": "inception_b1_1x7_2_bn_moving_mean", 
      "attr": {
        "__init__": "[\"zero\", {}]", 
        "eps": "0.001", 
        "fix_gamma": "False", 
        "use_global_stats": "True"
      }, 
      "inputs": []
    }, 
    {
      "op": "null", 
      "name": "inception_b1_1x7_2_bn_moving_var", 
      "attr": {
        "__init__": "[\"one\", {}]", 
        "eps": "0.001", 
        "fix_gamma": "False", 
        "use_global_stats": "True"
      }, 
      "inputs": []
    }, 
    {
      "op": "BatchNorm", 
      "name": "inception_b1_1x7_2_bn", 
      "attr": {
        "eps": "0.001", 
        "fix_gamma": "False", 
        "use_global_stats": "True"
      }, 
      "inputs": [[300, 0, 0], [301, 0, 0], [302, 0, 0], [303, 0, 1], [304, 0, 1]]
    }, 
    {
      "op": "Activation", 
      "name": "inception_b1_1x7_2_relu", 
      "attr": {"act_type": "relu"}, 
      "inputs": [[305, 0, 0]]
    }, 
    {
      "op": "null", 
      "name": "inception_b1_7x1_3_weight", 
      "attr": {
        "kernel": "(7, 1)", 
        "no_bias": "True", 
        "num_filter": "128", 
        "pad": "(3, 0)", 
        "stride": "(1, 1)"
      }, 
      "inputs": []
    }, 
    {
      "op": "Convolution", 
      "name": "inception_b1_7x1_3", 
      "attr": {
        "kernel": "(7, 1)", 
        "no_bias": "True", 
        "num_filter": "128", 
        "pad": "(3, 0)", 
        "stride": "(1, 1)"
      }, 
      "inputs": [[306, 0, 0], [307, 0, 0]]
    }, 
    {
      "op": "null", 
      "name": "inception_b1_7x1_3_bn_gamma", 
      "attr": {
        "eps": "0.001", 
        "fix_gamma": "False", 
        "use_global_stats": "True"
      }, 
      "inputs": []
    }, 
    {
      "op": "null", 
      "name": "inception_b1_7x1_3_bn_beta", 
      "attr": {
        "eps": "0.001", 
        "fix_gamma": "False", 
        "use_global_stats": "True"
      }, 
      "inputs": []
    }, 
    {
      "op": "null", 
      "name": "inception_b1_7x1_3_bn_moving_mean", 
      "attr": {
        "__init__": "[\"zero\", {}]", 
        "eps": "0.001", 
        "fix_gamma": "False", 
        "use_global_stats": "True"
      }, 
      "inputs": []
    }, 
    {
      "op": "null", 
      "name": "inception_b1_7x1_3_bn_moving_var", 
      "attr": {
        "__init__": "[\"one\", {}]", 
        "eps": "0.001", 
        "fix_gamma": "False", 
        "use_global_stats": "True"
      }, 
      "inputs": []
    }, 
    {
      "op": "BatchNorm", 
      "name": "inception_b1_7x1_3_bn", 
      "attr": {
        "eps": "0.001", 
        "fix_gamma": "False", 
        "use_global_stats": "True"
      }, 
      "inputs": [[308, 0, 0], [309, 0, 0], [310, 0, 0], [311, 0, 1], [312, 0, 1]]
    }, 
    {
      "op": "Activation", 
      "name": "inception_b1_7x1_3_relu", 
      "attr": {"act_type": "relu"}, 
      "inputs": [[313, 0, 0]]
    }, 
    {
      "op": "null", 
      "name": "inception_b1_1x7_3_weight", 
      "attr": {
        "kernel": "(1, 7)", 
        "no_bias": "True", 
        "num_filter": "192", 
        "pad": "(0, 3)", 
        "stride": "(1, 1)"
      }, 
      "inputs": []
    }, 
    {
      "op": "Convolution", 
      "name": "inception_b1_1x7_3", 
      "attr": {
        "kernel": "(1, 7)", 
        "no_bias": "True", 
        "num_filter": "192", 
        "pad": "(0, 3)", 
        "stride": "(1, 1)"
      }, 
      "inputs": [[314, 0, 0], [315, 0, 0]]
    }, 
    {
      "op": "null", 
      "name": "inception_b1_1x7_3_bn_gamma", 
      "attr": {
        "eps": "0.001", 
        "fix_gamma": "False", 
        "use_global_stats": "True"
      }, 
      "inputs": []
    }, 
    {
      "op": "null", 
      "name": "inception_b1_1x7_3_bn_beta", 
      "attr": {
        "eps": "0.001", 
        "fix_gamma": "False", 
        "use_global_stats": "True"
      }, 
      "inputs": []
    }, 
    {
      "op": "null", 
      "name": "inception_b1_1x7_3_bn_moving_mean", 
      "attr": {
        "__init__": "[\"zero\", {}]", 
        "eps": "0.001", 
        "fix_gamma": "False", 
        "use_global_stats": "True"
      }, 
      "inputs": []
    }, 
    {
      "op": "null", 
      "name": "inception_b1_1x7_3_bn_moving_var", 
      "attr": {
        "__init__": "[\"one\", {}]", 
        "eps": "0.001", 
        "fix_gamma": "False", 
        "use_global_stats": "True"
      }, 
      "inputs": []
    }, 
    {
      "op": "BatchNorm", 
      "name": "inception_b1_1x7_3_bn", 
      "attr": {
        "eps": "0.001", 
        "fix_gamma": "False", 
        "use_global_stats": "True"
      }, 
      "inputs": [[316, 0, 0], [317, 0, 0], [318, 0, 0], [319, 0, 1], [320, 0, 1]]
    }, 
    {
      "op": "Activation", 
      "name": "inception_b1_1x7_3_relu", 
      "attr": {"act_type": "relu"}, 
      "inputs": [[321, 0, 0]]
    }, 
    {
      "op": "Pooling", 
      "name": "inception_b1_pool_ave", 
      "attr": {
        "kernel": "(3, 3)", 
        "pad": "(1, 1)", 
        "pool_type": "avg", 
        "pooling_convention": "full", 
        "stride": "(1, 1)"
      }, 
      "inputs": [[250, 0, 0]]
    }, 
    {
      "op": "null", 
      "name": "inception_b1_1x1_weight", 
      "attr": {
        "kernel": "(1, 1)", 
        "no_bias": "True", 
        "num_filter": "192", 
        "pad": "(0, 0)", 
        "stride": "(1, 1)"
      }, 
      "inputs": []
    }, 
    {
      "op": "Convolution", 
      "name": "inception_b1_1x1", 
      "attr": {
        "kernel": "(1, 1)", 
        "no_bias": "True", 
        "num_filter": "192", 
        "pad": "(0, 0)", 
        "stride": "(1, 1)"
      }, 
      "inputs": [[323, 0, 0], [324, 0, 0]]
    }, 
    {
      "op": "null", 
      "name": "inception_b1_1x1_bn_gamma", 
      "attr": {
        "eps": "0.001", 
        "fix_gamma": "False", 
        "use_global_stats": "True"
      }, 
      "inputs": []
    }, 
    {
      "op": "null", 
      "name": "inception_b1_1x1_bn_beta", 
      "attr": {
        "eps": "0.001", 
        "fix_gamma": "False", 
        "use_global_stats": "True"
      }, 
      "inputs": []
    }, 
    {
      "op": "null", 
      "name": "inception_b1_1x1_bn_moving_mean", 
      "attr": {
        "__init__": "[\"zero\", {}]", 
        "eps": "0.001", 
        "fix_gamma": "False", 
        "use_global_stats": "True"
      }, 
      "inputs": []
    }, 
    {
      "op": "null", 
      "name": "inception_b1_1x1_bn_moving_var", 
      "attr": {
        "__init__": "[\"one\", {}]", 
        "eps": "0.001", 
        "fix_gamma": "False", 
        "use_global_stats": "True"
      }, 
      "inputs": []
    }, 
    {
      "op": "BatchNorm", 
      "name": "inception_b1_1x1_bn", 
      "attr": {
        "eps": "0.001", 
        "fix_gamma": "False", 
        "use_global_stats": "True"
      }, 
      "inputs": [[325, 0, 0], [326, 0, 0], [327, 0, 0], [328, 0, 1], [329, 0, 1]]
    }, 
    {
      "op": "Activation", 
      "name": "inception_b1_1x1_relu", 
      "attr": {"act_type": "relu"}, 
      "inputs": [[330, 0, 0]]
    }, 
    {
      "op": "Concat", 
      "name": "inception_b1_concat", 
      "attr": {"num_args": "4"}, 
      "inputs": [[258, 0, 0], [282, 0, 0], [322, 0, 0], [331, 0, 0]]
    }, 
    {
      "op": "null", 
      "name": "inception_b2_1x1_2_weight", 
      "attr": {
        "kernel": "(1, 1)", 
        "no_bias": "True", 
        "num_filter": "192", 
        "pad": "(0, 0)", 
        "stride": "(1, 1)"
      }, 
      "inputs": []
    }, 
    {
      "op": "Convolution", 
      "name": "inception_b2_1x1_2", 
      "attr": {
        "kernel": "(1, 1)", 
        "no_bias": "True", 
        "num_filter": "192", 
        "pad": "(0, 0)", 
        "stride": "(1, 1)"
      }, 
      "inputs": [[332, 0, 0], [333, 0, 0]]
    }, 
    {
      "op": "null", 
      "name": "inception_b2_1x1_2_bn_gamma", 
      "attr": {
        "eps": "0.001", 
        "fix_gamma": "False", 
        "use_global_stats": "True"
      }, 
      "inputs": []
    }, 
    {
      "op": "null", 
      "name": "inception_b2_1x1_2_bn_beta", 
      "attr": {
        "eps": "0.001", 
        "fix_gamma": "False", 
        "use_global_stats": "True"
      }, 
      "inputs": []
    }, 
    {
      "op": "null", 
      "name": "inception_b2_1x1_2_bn_moving_mean", 
      "attr": {
        "__init__": "[\"zero\", {}]", 
        "eps": "0.001", 
        "fix_gamma": "False", 
        "use_global_stats": "True"
      }, 
      "inputs": []
    }, 
    {
      "op": "null", 
      "name": "inception_b2_1x1_2_bn_moving_var", 
      "attr": {
        "__init__": "[\"one\", {}]", 
        "eps": "0.001", 
        "fix_gamma": "False", 
        "use_global_stats": "True"
      }, 
      "inputs": []
    }, 
    {
      "op": "BatchNorm", 
      "name": "inception_b2_1x1_2_bn", 
      "attr": {
        "eps": "0.001", 
        "fix_gamma": "False", 
        "use_global_stats": "True"
      }, 
      "inputs": [[334, 0, 0], [335, 0, 0], [336, 0, 0], [337, 0, 1], [338, 0, 1]]
    }, 
    {
      "op": "Activation", 
      "name": "inception_b2_1x1_2_relu", 
      "attr": {"act_type": "relu"}, 
      "inputs": [[339, 0, 0]]
    }, 
    {
      "op": "null", 
      "name": "inception_b2_1x7_reduce_weight", 
      "attr": {
        "kernel": "(1, 1)", 
        "no_bias": "True", 
        "num_filter": "160", 
        "pad": "(0, 0)", 
        "stride": "(1, 1)"
      }, 
      "inputs": []
    }, 
    {
      "op": "Convolution", 
      "name": "inception_b2_1x7_reduce", 
      "attr": {
        "kernel": "(1, 1)", 
        "no_bias": "True", 
        "num_filter": "160", 
        "pad": "(0, 0)", 
        "stride": "(1, 1)"
      }, 
      "inputs": [[332, 0, 0], [341, 0, 0]]
    }, 
    {
      "op": "null", 
      "name": "inception_b2_1x7_reduce_bn_gamma", 
      "attr": {
        "eps": "0.001", 
        "fix_gamma": "False", 
        "use_global_stats": "True"
      }, 
      "inputs": []
    }, 
    {
      "op": "null", 
      "name": "inception_b2_1x7_reduce_bn_beta", 
      "attr": {
        "eps": "0.001", 
        "fix_gamma": "False", 
        "use_global_stats": "True"
      }, 
      "inputs": []
    }, 
    {
      "op": "null", 
      "name": "inception_b2_1x7_reduce_bn_moving_mean", 
      "attr": {
        "__init__": "[\"zero\", {}]", 
        "eps": "0.001", 
        "fix_gamma": "False", 
        "use_global_stats": "True"
      }, 
      "inputs": []
    }, 
    {
      "op": "null", 
      "name": "inception_b2_1x7_reduce_bn_moving_var", 
      "attr": {
        "__init__": "[\"one\", {}]", 
        "eps": "0.001", 
        "fix_gamma": "False", 
        "use_global_stats": "True"
      }, 
      "inputs": []
    }, 
    {
      "op": "BatchNorm", 
      "name": "inception_b2_1x7_reduce_bn", 
      "attr": {
        "eps": "0.001", 
        "fix_gamma": "False", 
        "use_global_stats": "True"
      }, 
      "inputs": [[342, 0, 0], [343, 0, 0], [344, 0, 0], [345, 0, 1], [346, 0, 1]]
    }, 
    {
      "op": "Activation", 
      "name": "inception_b2_1x7_reduce_relu", 
      "attr": {"act_type": "relu"}, 
      "inputs": [[347, 0, 0]]
    }, 
    {
      "op": "null", 
      "name": "inception_b2_1x7_weight", 
      "attr": {
        "kernel": "(1, 7)", 
        "no_bias": "True", 
        "num_filter": "160", 
        "pad": "(0, 3)", 
        "stride": "(1, 1)"
      }, 
      "inputs": []
    }, 
    {
      "op": "Convolution", 
      "name": "inception_b2_1x7", 
      "attr": {
        "kernel": "(1, 7)", 
        "no_bias": "True", 
        "num_filter": "160", 
        "pad": "(0, 3)", 
        "stride": "(1, 1)"
      }, 
      "inputs": [[348, 0, 0], [349, 0, 0]]
    }, 
    {
      "op": "null", 
      "name": "inception_b2_1x7_bn_gamma", 
      "attr": {
        "eps": "0.001", 
        "fix_gamma": "False", 
        "use_global_stats": "True"
      }, 
      "inputs": []
    }, 
    {
      "op": "null", 
      "name": "inception_b2_1x7_bn_beta", 
      "attr": {
        "eps": "0.001", 
        "fix_gamma": "False", 
        "use_global_stats": "True"
      }, 
      "inputs": []
    }, 
    {
      "op": "null", 
      "name": "inception_b2_1x7_bn_moving_mean", 
      "attr": {
        "__init__": "[\"zero\", {}]", 
        "eps": "0.001", 
        "fix_gamma": "False", 
        "use_global_stats": "True"
      }, 
      "inputs": []
    }, 
    {
      "op": "null", 
      "name": "inception_b2_1x7_bn_moving_var", 
      "attr": {
        "__init__": "[\"one\", {}]", 
        "eps": "0.001", 
        "fix_gamma": "False", 
        "use_global_stats": "True"
      }, 
      "inputs": []
    }, 
    {
      "op": "BatchNorm", 
      "name": "inception_b2_1x7_bn", 
      "attr": {
        "eps": "0.001", 
        "fix_gamma": "False", 
        "use_global_stats": "True"
      }, 
      "inputs": [[350, 0, 0], [351, 0, 0], [352, 0, 0], [353, 0, 1], [354, 0, 1]]
    }, 
    {
      "op": "Activation", 
      "name": "inception_b2_1x7_relu", 
      "attr": {"act_type": "relu"}, 
      "inputs": [[355, 0, 0]]
    }, 
    {
      "op": "null", 
      "name": "inception_b2_7x1_weight", 
      "attr": {
        "kernel": "(7, 1)", 
        "no_bias": "True", 
        "num_filter": "192", 
        "pad": "(3, 0)", 
        "stride": "(1, 1)"
      }, 
      "inputs": []
    }, 
    {
      "op": "Convolution", 
      "name": "inception_b2_7x1", 
      "attr": {
        "kernel": "(7, 1)", 
        "no_bias": "True", 
        "num_filter": "192", 
        "pad": "(3, 0)", 
        "stride": "(1, 1)"
      }, 
      "inputs": [[356, 0, 0], [357, 0, 0]]
    }, 
    {
      "op": "null", 
      "name": "inception_b2_7x1_bn_gamma", 
      "attr": {
        "eps": "0.001", 
        "fix_gamma": "False", 
        "use_global_stats": "True"
      }, 
      "inputs": []
    }, 
    {
      "op": "null", 
      "name": "inception_b2_7x1_bn_beta", 
      "attr": {
        "eps": "0.001", 
        "fix_gamma": "False", 
        "use_global_stats": "True"
      }, 
      "inputs": []
    }, 
    {
      "op": "null", 
      "name": "inception_b2_7x1_bn_moving_mean", 
      "attr": {
        "__init__": "[\"zero\", {}]", 
        "eps": "0.001", 
        "fix_gamma": "False", 
        "use_global_stats": "True"
      }, 
      "inputs": []
    }, 
    {
      "op": "null", 
      "name": "inception_b2_7x1_bn_moving_var", 
      "attr": {
        "__init__": "[\"one\", {}]", 
        "eps": "0.001", 
        "fix_gamma": "False", 
        "use_global_stats": "True"
      }, 
      "inputs": []
    }, 
    {
      "op": "BatchNorm", 
      "name": "inception_b2_7x1_bn", 
      "attr": {
        "eps": "0.001", 
        "fix_gamma": "False", 
        "use_global_stats": "True"
      }, 
      "inputs": [[358, 0, 0], [359, 0, 0], [360, 0, 0], [361, 0, 1], [362, 0, 1]]
    }, 
    {
      "op": "Activation", 
      "name": "inception_b2_7x1_relu", 
      "attr": {"act_type": "relu"}, 
      "inputs": [[363, 0, 0]]
    }, 
    {
      "op": "null", 
      "name": "inception_b2_7x1_reduce_weight", 
      "attr": {
        "kernel": "(1, 1)", 
        "no_bias": "True", 
        "num_filter": "160", 
        "pad": "(0, 0)", 
        "stride": "(1, 1)"
      }, 
      "inputs": []
    }, 
    {
      "op": "Convolution", 
      "name": "inception_b2_7x1_reduce", 
      "attr": {
        "kernel": "(1, 1)", 
        "no_bias": "True", 
        "num_filter": "160", 
        "pad": "(0, 0)", 
        "stride": "(1, 1)"
      }, 
      "inputs": [[332, 0, 0], [365, 0, 0]]
    }, 
    {
      "op": "null", 
      "name": "inception_b2_7x1_reduce_bn_gamma", 
      "attr": {
        "eps": "0.001", 
        "fix_gamma": "False", 
        "use_global_stats": "True"
      }, 
      "inputs": []
    }, 
    {
      "op": "null", 
      "name": "inception_b2_7x1_reduce_bn_beta", 
      "attr": {
        "eps": "0.001", 
        "fix_gamma": "False", 
        "use_global_stats": "True"
      }, 
      "inputs": []
    }, 
    {
      "op": "null", 
      "name": "inception_b2_7x1_reduce_bn_moving_mean", 
      "attr": {
        "__init__": "[\"zero\", {}]", 
        "eps": "0.001", 
        "fix_gamma": "False", 
        "use_global_stats": "True"
      }, 
      "inputs": []
    }, 
    {
      "op": "null", 
      "name": "inception_b2_7x1_reduce_bn_moving_var", 
      "attr": {
        "__init__": "[\"one\", {}]", 
        "eps": "0.001", 
        "fix_gamma": "False", 
        "use_global_stats": "True"
      }, 
      "inputs": []
    }, 
    {
      "op": "BatchNorm", 
      "name": "inception_b2_7x1_reduce_bn", 
      "attr": {
        "eps": "0.001", 
        "fix_gamma": "False", 
        "use_global_stats": "True"
      }, 
      "inputs": [[366, 0, 0], [367, 0, 0], [368, 0, 0], [369, 0, 1], [370, 0, 1]]
    }, 
    {
      "op": "Activation", 
      "name": "inception_b2_7x1_reduce_relu", 
      "attr": {"act_type": "relu"}, 
      "inputs": [[371, 0, 0]]
    }, 
    {
      "op": "null", 
      "name": "inception_b2_7x1_2_weight", 
      "attr": {
        "kernel": "(7, 1)", 
        "no_bias": "True", 
        "num_filter": "160", 
        "pad": "(3, 0)", 
        "stride": "(1, 1)"
      }, 
      "inputs": []
    }, 
    {
      "op": "Convolution", 
      "name": "inception_b2_7x1_2", 
      "attr": {
        "kernel": "(7, 1)", 
        "no_bias": "True", 
        "num_filter": "160", 
        "pad": "(3, 0)", 
        "stride": "(1, 1)"
      }, 
      "inputs": [[372, 0, 0], [373, 0, 0]]
    }, 
    {
      "op": "null", 
      "name": "inception_b2_7x1_2_bn_gamma", 
      "attr": {
        "eps": "0.001", 
        "fix_gamma": "False", 
        "use_global_stats": "True"
      }, 
      "inputs": []
    }, 
    {
      "op": "null", 
      "name": "inception_b2_7x1_2_bn_beta", 
      "attr": {
        "eps": "0.001", 
        "fix_gamma": "False", 
        "use_global_stats": "True"
      }, 
      "inputs": []
    }, 
    {
      "op": "null", 
      "name": "inception_b2_7x1_2_bn_moving_mean", 
      "attr": {
        "__init__": "[\"zero\", {}]", 
        "eps": "0.001", 
        "fix_gamma": "False", 
        "use_global_stats": "True"
      }, 
      "inputs": []
    }, 
    {
      "op": "null", 
      "name": "inception_b2_7x1_2_bn_moving_var", 
      "attr": {
        "__init__": "[\"one\", {}]", 
        "eps": "0.001", 
        "fix_gamma": "False", 
        "use_global_stats": "True"
      }, 
      "inputs": []
    }, 
    {
      "op": "BatchNorm", 
      "name": "inception_b2_7x1_2_bn", 
      "attr": {
        "eps": "0.001", 
        "fix_gamma": "False", 
        "use_global_stats": "True"
      }, 
      "inputs": [[374, 0, 0], [375, 0, 0], [376, 0, 0], [377, 0, 1], [378, 0, 1]]
    }, 
    {
      "op": "Activation", 
      "name": "inception_b2_7x1_2_relu", 
      "attr": {"act_type": "relu"}, 
      "inputs": [[379, 0, 0]]
    }, 
    {
      "op": "null", 
      "name": "inception_b2_1x7_2_weight", 
      "attr": {
        "kernel": "(1, 7)", 
        "no_bias": "True", 
        "num_filter": "160", 
        "pad": "(0, 3)", 
        "stride": "(1, 1)"
      }, 
      "inputs": []
    }, 
    {
      "op": "Convolution", 
      "name": "inception_b2_1x7_2", 
      "attr": {
        "kernel": "(1, 7)", 
        "no_bias": "True", 
        "num_filter": "160", 
        "pad": "(0, 3)", 
        "stride": "(1, 1)"
      }, 
      "inputs": [[380, 0, 0], [381, 0, 0]]
    }, 
    {
      "op": "null", 
      "name": "inception_b2_1x7_2_bn_gamma", 
      "attr": {
        "eps": "0.001", 
        "fix_gamma": "False", 
        "use_global_stats": "True"
      }, 
      "inputs": []
    }, 
    {
      "op": "null", 
      "name": "inception_b2_1x7_2_bn_beta", 
      "attr": {
        "eps": "0.001", 
        "fix_gamma": "False", 
        "use_global_stats": "True"
      }, 
      "inputs": []
    }, 
    {
      "op": "null", 
      "name": "inception_b2_1x7_2_bn_moving_mean", 
      "attr": {
        "__init__": "[\"zero\", {}]", 
        "eps": "0.001", 
        "fix_gamma": "False", 
        "use_global_stats": "True"
      }, 
      "inputs": []
    }, 
    {
      "op": "null", 
      "name": "inception_b2_1x7_2_bn_moving_var", 
      "attr": {
        "__init__": "[\"one\", {}]", 
        "eps": "0.001", 
        "fix_gamma": "False", 
        "use_global_stats": "True"
      }, 
      "inputs": []
    }, 
    {
      "op": "BatchNorm", 
      "name": "inception_b2_1x7_2_bn", 
      "attr": {
        "eps": "0.001", 
        "fix_gamma": "False", 
        "use_global_stats": "True"
      }, 
      "inputs": [[382, 0, 0], [383, 0, 0], [384, 0, 0], [385, 0, 1], [386, 0, 1]]
    }, 
    {
      "op": "Activation", 
      "name": "inception_b2_1x7_2_relu", 
      "attr": {"act_type": "relu"}, 
      "inputs": [[387, 0, 0]]
    }, 
    {
      "op": "null", 
      "name": "inception_b2_7x1_3_weight", 
      "attr": {
        "kernel": "(7, 1)", 
        "no_bias": "True", 
        "num_filter": "160", 
        "pad": "(3, 0)", 
        "stride": "(1, 1)"
      }, 
      "inputs": []
    }, 
    {
      "op": "Convolution", 
      "name": "inception_b2_7x1_3", 
      "attr": {
        "kernel": "(7, 1)", 
        "no_bias": "True", 
        "num_filter": "160", 
        "pad": "(3, 0)", 
        "stride": "(1, 1)"
      }, 
      "inputs": [[388, 0, 0], [389, 0, 0]]
    }, 
    {
      "op": "null", 
      "name": "inception_b2_7x1_3_bn_gamma", 
      "attr": {
        "eps": "0.001", 
        "fix_gamma": "False", 
        "use_global_stats": "True"
      }, 
      "inputs": []
    }, 
    {
      "op": "null", 
      "name": "inception_b2_7x1_3_bn_beta", 
      "attr": {
        "eps": "0.001", 
        "fix_gamma": "False", 
        "use_global_stats": "True"
      }, 
      "inputs": []
    }, 
    {
      "op": "null", 
      "name": "inception_b2_7x1_3_bn_moving_mean", 
      "attr": {
        "__init__": "[\"zero\", {}]", 
        "eps": "0.001", 
        "fix_gamma": "False", 
        "use_global_stats": "True"
      }, 
      "inputs": []
    }, 
    {
      "op": "null", 
      "name": "inception_b2_7x1_3_bn_moving_var", 
      "attr": {
        "__init__": "[\"one\", {}]", 
        "eps": "0.001", 
        "fix_gamma": "False", 
        "use_global_stats": "True"
      }, 
      "inputs": []
    }, 
    {
      "op": "BatchNorm", 
      "name": "inception_b2_7x1_3_bn", 
      "attr": {
        "eps": "0.001", 
        "fix_gamma": "False", 
        "use_global_stats": "True"
      }, 
      "inputs": [[390, 0, 0], [391, 0, 0], [392, 0, 0], [393, 0, 1], [394, 0, 1]]
    }, 
    {
      "op": "Activation", 
      "name": "inception_b2_7x1_3_relu", 
      "attr": {"act_type": "relu"}, 
      "inputs": [[395, 0, 0]]
    }, 
    {
      "op": "null", 
      "name": "inception_b2_1x7_3_weight", 
      "attr": {
        "kernel": "(1, 7)", 
        "no_bias": "True", 
        "num_filter": "192", 
        "pad": "(0, 3)", 
        "stride": "(1, 1)"
      }, 
      "inputs": []
    }, 
    {
      "op": "Convolution", 
      "name": "inception_b2_1x7_3", 
      "attr": {
        "kernel": "(1, 7)", 
        "no_bias": "True", 
        "num_filter": "192", 
        "pad": "(0, 3)", 
        "stride": "(1, 1)"
      }, 
      "inputs": [[396, 0, 0], [397, 0, 0]]
    }, 
    {
      "op": "null", 
      "name": "inception_b2_1x7_3_bn_gamma", 
      "attr": {
        "eps": "0.001", 
        "fix_gamma": "False", 
        "use_global_stats": "True"
      }, 
      "inputs": []
    }, 
    {
      "op": "null", 
      "name": "inception_b2_1x7_3_bn_beta", 
      "attr": {
        "eps": "0.001", 
        "fix_gamma": "False", 
        "use_global_stats": "True"
      }, 
      "inputs": []
    }, 
    {
      "op": "null", 
      "name": "inception_b2_1x7_3_bn_moving_mean", 
      "attr": {
        "__init__": "[\"zero\", {}]", 
        "eps": "0.001", 
        "fix_gamma": "False", 
        "use_global_stats": "True"
      }, 
      "inputs": []
    }, 
    {
      "op": "null", 
      "name": "inception_b2_1x7_3_bn_moving_var", 
      "attr": {
        "__init__": "[\"one\", {}]", 
        "eps": "0.001", 
        "fix_gamma": "False", 
        "use_global_stats": "True"
      }, 
      "inputs": []
    }, 
    {
      "op": "BatchNorm", 
      "name": "inception_b2_1x7_3_bn", 
      "attr": {
        "eps": "0.001", 
        "fix_gamma": "False", 
        "use_global_stats": "True"
      }, 
      "inputs": [[398, 0, 0], [399, 0, 0], [400, 0, 0], [401, 0, 1], [402, 0, 1]]
    }, 
    {
      "op": "Activation", 
      "name": "inception_b2_1x7_3_relu", 
      "attr": {"act_type": "relu"}, 
      "inputs": [[403, 0, 0]]
    }, 
    {
      "op": "Pooling", 
      "name": "inception_b2_pool_ave", 
      "attr": {
        "kernel": "(3, 3)", 
        "pad": "(1, 1)", 
        "pool_type": "avg", 
        "pooling_convention": "full", 
        "stride": "(1, 1)"
      }, 
      "inputs": [[332, 0, 0]]
    }, 
    {
      "op": "null", 
      "name": "inception_b2_1x1_weight", 
      "attr": {
        "kernel": "(1, 1)", 
        "no_bias": "True", 
        "num_filter": "192", 
        "pad": "(0, 0)", 
        "stride": "(1, 1)"
      }, 
      "inputs": []
    }, 
    {
      "op": "Convolution", 
      "name": "inception_b2_1x1", 
      "attr": {
        "kernel": "(1, 1)", 
        "no_bias": "True", 
        "num_filter": "192", 
        "pad": "(0, 0)", 
        "stride": "(1, 1)"
      }, 
      "inputs": [[405, 0, 0], [406, 0, 0]]
    }, 
    {
      "op": "null", 
      "name": "inception_b2_1x1_bn_gamma", 
      "attr": {
        "eps": "0.001", 
        "fix_gamma": "False", 
        "use_global_stats": "True"
      }, 
      "inputs": []
    }, 
    {
      "op": "null", 
      "name": "inception_b2_1x1_bn_beta", 
      "attr": {
        "eps": "0.001", 
        "fix_gamma": "False", 
        "use_global_stats": "True"
      }, 
      "inputs": []
    }, 
    {
      "op": "null", 
      "name": "inception_b2_1x1_bn_moving_mean", 
      "attr": {
        "__init__": "[\"zero\", {}]", 
        "eps": "0.001", 
        "fix_gamma": "False", 
        "use_global_stats": "True"
      }, 
      "inputs": []
    }, 
    {
      "op": "null", 
      "name": "inception_b2_1x1_bn_moving_var", 
      "attr": {
        "__init__": "[\"one\", {}]", 
        "eps": "0.001", 
        "fix_gamma": "False", 
        "use_global_stats": "True"
      }, 
      "inputs": []
    }, 
    {
      "op": "BatchNorm", 
      "name": "inception_b2_1x1_bn", 
      "attr": {
        "eps": "0.001", 
        "fix_gamma": "False", 
        "use_global_stats": "True"
      }, 
      "inputs": [[407, 0, 0], [408, 0, 0], [409, 0, 0], [410, 0, 1], [411, 0, 1]]
    }, 
    {
      "op": "Activation", 
      "name": "inception_b2_1x1_relu", 
      "attr": {"act_type": "relu"}, 
      "inputs": [[412, 0, 0]]
    }, 
    {
      "op": "Concat", 
      "name": "inception_b2_concat", 
      "attr": {"num_args": "4"}, 
      "inputs": [[340, 0, 0], [364, 0, 0], [404, 0, 0], [413, 0, 0]]
    }, 
    {
      "op": "null", 
      "name": "inception_b3_1x1_2_weight", 
      "attr": {
        "kernel": "(1, 1)", 
        "no_bias": "True", 
        "num_filter": "192", 
        "pad": "(0, 0)", 
        "stride": "(1, 1)"
      }, 
      "inputs": []
    }, 
    {
      "op": "Convolution", 
      "name": "inception_b3_1x1_2", 
      "attr": {
        "kernel": "(1, 1)", 
        "no_bias": "True", 
        "num_filter": "192", 
        "pad": "(0, 0)", 
        "stride": "(1, 1)"
      }, 
      "inputs": [[414, 0, 0], [415, 0, 0]]
    }, 
    {
      "op": "null", 
      "name": "inception_b3_1x1_2_bn_gamma", 
      "attr": {
        "eps": "0.001", 
        "fix_gamma": "False", 
        "use_global_stats": "True"
      }, 
      "inputs": []
    }, 
    {
      "op": "null", 
      "name": "inception_b3_1x1_2_bn_beta", 
      "attr": {
        "eps": "0.001", 
        "fix_gamma": "False", 
        "use_global_stats": "True"
      }, 
      "inputs": []
    }, 
    {
      "op": "null", 
      "name": "inception_b3_1x1_2_bn_moving_mean", 
      "attr": {
        "__init__": "[\"zero\", {}]", 
        "eps": "0.001", 
        "fix_gamma": "False", 
        "use_global_stats": "True"
      }, 
      "inputs": []
    }, 
    {
      "op": "null", 
      "name": "inception_b3_1x1_2_bn_moving_var", 
      "attr": {
        "__init__": "[\"one\", {}]", 
        "eps": "0.001", 
        "fix_gamma": "False", 
        "use_global_stats": "True"
      }, 
      "inputs": []
    }, 
    {
      "op": "BatchNorm", 
      "name": "inception_b3_1x1_2_bn", 
      "attr": {
        "eps": "0.001", 
        "fix_gamma": "False", 
        "use_global_stats": "True"
      }, 
      "inputs": [[416, 0, 0], [417, 0, 0], [418, 0, 0], [419, 0, 1], [420, 0, 1]]
    }, 
    {
      "op": "Activation", 
      "name": "inception_b3_1x1_2_relu", 
      "attr": {"act_type": "relu"}, 
      "inputs": [[421, 0, 0]]
    }, 
    {
      "op": "null", 
      "name": "inception_b3_1x7_reduce_weight", 
      "attr": {
        "kernel": "(1, 1)", 
        "no_bias": "True", 
        "num_filter": "160", 
        "pad": "(0, 0)", 
        "stride": "(1, 1)"
      }, 
      "inputs": []
    }, 
    {
      "op": "Convolution", 
      "name": "inception_b3_1x7_reduce", 
      "attr": {
        "kernel": "(1, 1)", 
        "no_bias": "True", 
        "num_filter": "160", 
        "pad": "(0, 0)", 
        "stride": "(1, 1)"
      }, 
      "inputs": [[414, 0, 0], [423, 0, 0]]
    }, 
    {
      "op": "null", 
      "name": "inception_b3_1x7_reduce_bn_gamma", 
      "attr": {
        "eps": "0.001", 
        "fix_gamma": "False", 
        "use_global_stats": "True"
      }, 
      "inputs": []
    }, 
    {
      "op": "null", 
      "name": "inception_b3_1x7_reduce_bn_beta", 
      "attr": {
        "eps": "0.001", 
        "fix_gamma": "False", 
        "use_global_stats": "True"
      }, 
      "inputs": []
    }, 
    {
      "op": "null", 
      "name": "inception_b3_1x7_reduce_bn_moving_mean", 
      "attr": {
        "__init__": "[\"zero\", {}]", 
        "eps": "0.001", 
        "fix_gamma": "False", 
        "use_global_stats": "True"
      }, 
      "inputs": []
    }, 
    {
      "op": "null", 
      "name": "inception_b3_1x7_reduce_bn_moving_var", 
      "attr": {
        "__init__": "[\"one\", {}]", 
        "eps": "0.001", 
        "fix_gamma": "False", 
        "use_global_stats": "True"
      }, 
      "inputs": []
    }, 
    {
      "op": "BatchNorm", 
      "name": "inception_b3_1x7_reduce_bn", 
      "attr": {
        "eps": "0.001", 
        "fix_gamma": "False", 
        "use_global_stats": "True"
      }, 
      "inputs": [[424, 0, 0], [425, 0, 0], [426, 0, 0], [427, 0, 1], [428, 0, 1]]
    }, 
    {
      "op": "Activation", 
      "name": "inception_b3_1x7_reduce_relu", 
      "attr": {"act_type": "relu"}, 
      "inputs": [[429, 0, 0]]
    }, 
    {
      "op": "null", 
      "name": "inception_b3_1x7_weight", 
      "attr": {
        "kernel": "(1, 7)", 
        "no_bias": "True", 
        "num_filter": "160", 
        "pad": "(0, 3)", 
        "stride": "(1, 1)"
      }, 
      "inputs": []
    }, 
    {
      "op": "Convolution", 
      "name": "inception_b3_1x7", 
      "attr": {
        "kernel": "(1, 7)", 
        "no_bias": "True", 
        "num_filter": "160", 
        "pad": "(0, 3)", 
        "stride": "(1, 1)"
      }, 
      "inputs": [[430, 0, 0], [431, 0, 0]]
    }, 
    {
      "op": "null", 
      "name": "inception_b3_1x7_bn_gamma", 
      "attr": {
        "eps": "0.001", 
        "fix_gamma": "False", 
        "use_global_stats": "True"
      }, 
      "inputs": []
    }, 
    {
      "op": "null", 
      "name": "inception_b3_1x7_bn_beta", 
      "attr": {
        "eps": "0.001", 
        "fix_gamma": "False", 
        "use_global_stats": "True"
      }, 
      "inputs": []
    }, 
    {
      "op": "null", 
      "name": "inception_b3_1x7_bn_moving_mean", 
      "attr": {
        "__init__": "[\"zero\", {}]", 
        "eps": "0.001", 
        "fix_gamma": "False", 
        "use_global_stats": "True"
      }, 
      "inputs": []
    }, 
    {
      "op": "null", 
      "name": "inception_b3_1x7_bn_moving_var", 
      "attr": {
        "__init__": "[\"one\", {}]", 
        "eps": "0.001", 
        "fix_gamma": "False", 
        "use_global_stats": "True"
      }, 
      "inputs": []
    }, 
    {
      "op": "BatchNorm", 
      "name": "inception_b3_1x7_bn", 
      "attr": {
        "eps": "0.001", 
        "fix_gamma": "False", 
        "use_global_stats": "True"
      }, 
      "inputs": [[432, 0, 0], [433, 0, 0], [434, 0, 0], [435, 0, 1], [436, 0, 1]]
    }, 
    {
      "op": "Activation", 
      "name": "inception_b3_1x7_relu", 
      "attr": {"act_type": "relu"}, 
      "inputs": [[437, 0, 0]]
    }, 
    {
      "op": "null", 
      "name": "inception_b3_7x1_weight", 
      "attr": {
        "kernel": "(7, 1)", 
        "no_bias": "True", 
        "num_filter": "192", 
        "pad": "(3, 0)", 
        "stride": "(1, 1)"
      }, 
      "inputs": []
    }, 
    {
      "op": "Convolution", 
      "name": "inception_b3_7x1", 
      "attr": {
        "kernel": "(7, 1)", 
        "no_bias": "True", 
        "num_filter": "192", 
        "pad": "(3, 0)", 
        "stride": "(1, 1)"
      }, 
      "inputs": [[438, 0, 0], [439, 0, 0]]
    }, 
    {
      "op": "null", 
      "name": "inception_b3_7x1_bn_gamma", 
      "attr": {
        "eps": "0.001", 
        "fix_gamma": "False", 
        "use_global_stats": "True"
      }, 
      "inputs": []
    }, 
    {
      "op": "null", 
      "name": "inception_b3_7x1_bn_beta", 
      "attr": {
        "eps": "0.001", 
        "fix_gamma": "False", 
        "use_global_stats": "True"
      }, 
      "inputs": []
    }, 
    {
      "op": "null", 
      "name": "inception_b3_7x1_bn_moving_mean", 
      "attr": {
        "__init__": "[\"zero\", {}]", 
        "eps": "0.001", 
        "fix_gamma": "False", 
        "use_global_stats": "True"
      }, 
      "inputs": []
    }, 
    {
      "op": "null", 
      "name": "inception_b3_7x1_bn_moving_var", 
      "attr": {
        "__init__": "[\"one\", {}]", 
        "eps": "0.001", 
        "fix_gamma": "False", 
        "use_global_stats": "True"
      }, 
      "inputs": []
    }, 
    {
      "op": "BatchNorm", 
      "name": "inception_b3_7x1_bn", 
      "attr": {
        "eps": "0.001", 
        "fix_gamma": "False", 
        "use_global_stats": "True"
      }, 
      "inputs": [[440, 0, 0], [441, 0, 0], [442, 0, 0], [443, 0, 1], [444, 0, 1]]
    }, 
    {
      "op": "Activation", 
      "name": "inception_b3_7x1_relu", 
      "attr": {"act_type": "relu"}, 
      "inputs": [[445, 0, 0]]
    }, 
    {
      "op": "null", 
      "name": "inception_b3_7x1_reduce_weight", 
      "attr": {
        "kernel": "(1, 1)", 
        "no_bias": "True", 
        "num_filter": "160", 
        "pad": "(0, 0)", 
        "stride": "(1, 1)"
      }, 
      "inputs": []
    }, 
    {
      "op": "Convolution", 
      "name": "inception_b3_7x1_reduce", 
      "attr": {
        "kernel": "(1, 1)", 
        "no_bias": "True", 
        "num_filter": "160", 
        "pad": "(0, 0)", 
        "stride": "(1, 1)"
      }, 
      "inputs": [[414, 0, 0], [447, 0, 0]]
    }, 
    {
      "op": "null", 
      "name": "inception_b3_7x1_reduce_bn_gamma", 
      "attr": {
        "eps": "0.001", 
        "fix_gamma": "False", 
        "use_global_stats": "True"
      }, 
      "inputs": []
    }, 
    {
      "op": "null", 
      "name": "inception_b3_7x1_reduce_bn_beta", 
      "attr": {
        "eps": "0.001", 
        "fix_gamma": "False", 
        "use_global_stats": "True"
      }, 
      "inputs": []
    }, 
    {
      "op": "null", 
      "name": "inception_b3_7x1_reduce_bn_moving_mean", 
      "attr": {
        "__init__": "[\"zero\", {}]", 
        "eps": "0.001", 
        "fix_gamma": "False", 
        "use_global_stats": "True"
      }, 
      "inputs": []
    }, 
    {
      "op": "null", 
      "name": "inception_b3_7x1_reduce_bn_moving_var", 
      "attr": {
        "__init__": "[\"one\", {}]", 
        "eps": "0.001", 
        "fix_gamma": "False", 
        "use_global_stats": "True"
      }, 
      "inputs": []
    }, 
    {
      "op": "BatchNorm", 
      "name": "inception_b3_7x1_reduce_bn", 
      "attr": {
        "eps": "0.001", 
        "fix_gamma": "False", 
        "use_global_stats": "True"
      }, 
      "inputs": [[448, 0, 0], [449, 0, 0], [450, 0, 0], [451, 0, 1], [452, 0, 1]]
    }, 
    {
      "op": "Activation", 
      "name": "inception_b3_7x1_reduce_relu", 
      "attr": {"act_type": "relu"}, 
      "inputs": [[453, 0, 0]]
    }, 
    {
      "op": "null", 
      "name": "inception_b3_7x1_2_weight", 
      "attr": {
        "kernel": "(7, 1)", 
        "no_bias": "True", 
        "num_filter": "160", 
        "pad": "(3, 0)", 
        "stride": "(1, 1)"
      }, 
      "inputs": []
    }, 
    {
      "op": "Convolution", 
      "name": "inception_b3_7x1_2", 
      "attr": {
        "kernel": "(7, 1)", 
        "no_bias": "True", 
        "num_filter": "160", 
        "pad": "(3, 0)", 
        "stride": "(1, 1)"
      }, 
      "inputs": [[454, 0, 0], [455, 0, 0]]
    }, 
    {
      "op": "null", 
      "name": "inception_b3_7x1_2_bn_gamma", 
      "attr": {
        "eps": "0.001", 
        "fix_gamma": "False", 
        "use_global_stats": "True"
      }, 
      "inputs": []
    }, 
    {
      "op": "null", 
      "name": "inception_b3_7x1_2_bn_beta", 
      "attr": {
        "eps": "0.001", 
        "fix_gamma": "False", 
        "use_global_stats": "True"
      }, 
      "inputs": []
    }, 
    {
      "op": "null", 
      "name": "inception_b3_7x1_2_bn_moving_mean", 
      "attr": {
        "__init__": "[\"zero\", {}]", 
        "eps": "0.001", 
        "fix_gamma": "False", 
        "use_global_stats": "True"
      }, 
      "inputs": []
    }, 
    {
      "op": "null", 
      "name": "inception_b3_7x1_2_bn_moving_var", 
      "attr": {
        "__init__": "[\"one\", {}]", 
        "eps": "0.001", 
        "fix_gamma": "False", 
        "use_global_stats": "True"
      }, 
      "inputs": []
    }, 
    {
      "op": "BatchNorm", 
      "name": "inception_b3_7x1_2_bn", 
      "attr": {
        "eps": "0.001", 
        "fix_gamma": "False", 
        "use_global_stats": "True"
      }, 
      "inputs": [[456, 0, 0], [457, 0, 0], [458, 0, 0], [459, 0, 1], [460, 0, 1]]
    }, 
    {
      "op": "Activation", 
      "name": "inception_b3_7x1_2_relu", 
      "attr": {"act_type": "relu"}, 
      "inputs": [[461, 0, 0]]
    }, 
    {
      "op": "null", 
      "name": "inception_b3_1x7_2_weight", 
      "attr": {
        "kernel": "(1, 7)", 
        "no_bias": "True", 
        "num_filter": "160", 
        "pad": "(0, 3)", 
        "stride": "(1, 1)"
      }, 
      "inputs": []
    }, 
    {
      "op": "Convolution", 
      "name": "inception_b3_1x7_2", 
      "attr": {
        "kernel": "(1, 7)", 
        "no_bias": "True", 
        "num_filter": "160", 
        "pad": "(0, 3)", 
        "stride": "(1, 1)"
      }, 
      "inputs": [[462, 0, 0], [463, 0, 0]]
    }, 
    {
      "op": "null", 
      "name": "inception_b3_1x7_2_bn_gamma", 
      "attr": {
        "eps": "0.001", 
        "fix_gamma": "False", 
        "use_global_stats": "True"
      }, 
      "inputs": []
    }, 
    {
      "op": "null", 
      "name": "inception_b3_1x7_2_bn_beta", 
      "attr": {
        "eps": "0.001", 
        "fix_gamma": "False", 
        "use_global_stats": "True"
      }, 
      "inputs": []
    }, 
    {
      "op": "null", 
      "name": "inception_b3_1x7_2_bn_moving_mean", 
      "attr": {
        "__init__": "[\"zero\", {}]", 
        "eps": "0.001", 
        "fix_gamma": "False", 
        "use_global_stats": "True"
      }, 
      "inputs": []
    }, 
    {
      "op": "null", 
      "name": "inception_b3_1x7_2_bn_moving_var", 
      "attr": {
        "__init__": "[\"one\", {}]", 
        "eps": "0.001", 
        "fix_gamma": "False", 
        "use_global_stats": "True"
      }, 
      "inputs": []
    }, 
    {
      "op": "BatchNorm", 
      "name": "inception_b3_1x7_2_bn", 
      "attr": {
        "eps": "0.001", 
        "fix_gamma": "False", 
        "use_global_stats": "True"
      }, 
      "inputs": [[464, 0, 0], [465, 0, 0], [466, 0, 0], [467, 0, 1], [468, 0, 1]]
    }, 
    {
      "op": "Activation", 
      "name": "inception_b3_1x7_2_relu", 
      "attr": {"act_type": "relu"}, 
      "inputs": [[469, 0, 0]]
    }, 
    {
      "op": "null", 
      "name": "inception_b3_7x1_3_weight", 
      "attr": {
        "kernel": "(7, 1)", 
        "no_bias": "True", 
        "num_filter": "160", 
        "pad": "(3, 0)", 
        "stride": "(1, 1)"
      }, 
      "inputs": []
    }, 
    {
      "op": "Convolution", 
      "name": "inception_b3_7x1_3", 
      "attr": {
        "kernel": "(7, 1)", 
        "no_bias": "True", 
        "num_filter": "160", 
        "pad": "(3, 0)", 
        "stride": "(1, 1)"
      }, 
      "inputs": [[470, 0, 0], [471, 0, 0]]
    }, 
    {
      "op": "null", 
      "name": "inception_b3_7x1_3_bn_gamma", 
      "attr": {
        "eps": "0.001", 
        "fix_gamma": "False", 
        "use_global_stats": "True"
      }, 
      "inputs": []
    }, 
    {
      "op": "null", 
      "name": "inception_b3_7x1_3_bn_beta", 
      "attr": {
        "eps": "0.001", 
        "fix_gamma": "False", 
        "use_global_stats": "True"
      }, 
      "inputs": []
    }, 
    {
      "op": "null", 
      "name": "inception_b3_7x1_3_bn_moving_mean", 
      "attr": {
        "__init__": "[\"zero\", {}]", 
        "eps": "0.001", 
        "fix_gamma": "False", 
        "use_global_stats": "True"
      }, 
      "inputs": []
    }, 
    {
      "op": "null", 
      "name": "inception_b3_7x1_3_bn_moving_var", 
      "attr": {
        "__init__": "[\"one\", {}]", 
        "eps": "0.001", 
        "fix_gamma": "False", 
        "use_global_stats": "True"
      }, 
      "inputs": []
    }, 
    {
      "op": "BatchNorm", 
      "name": "inception_b3_7x1_3_bn", 
      "attr": {
        "eps": "0.001", 
        "fix_gamma": "False", 
        "use_global_stats": "True"
      }, 
      "inputs": [[472, 0, 0], [473, 0, 0], [474, 0, 0], [475, 0, 1], [476, 0, 1]]
    }, 
    {
      "op": "Activation", 
      "name": "inception_b3_7x1_3_relu", 
      "attr": {"act_type": "relu"}, 
      "inputs": [[477, 0, 0]]
    }, 
    {
      "op": "null", 
      "name": "inception_b3_1x7_3_weight", 
      "attr": {
        "kernel": "(1, 7)", 
        "no_bias": "True", 
        "num_filter": "192", 
        "pad": "(0, 3)", 
        "stride": "(1, 1)"
      }, 
      "inputs": []
    }, 
    {
      "op": "Convolution", 
      "name": "inception_b3_1x7_3", 
      "attr": {
        "kernel": "(1, 7)", 
        "no_bias": "True", 
        "num_filter": "192", 
        "pad": "(0, 3)", 
        "stride": "(1, 1)"
      }, 
      "inputs": [[478, 0, 0], [479, 0, 0]]
    }, 
    {
      "op": "null", 
      "name": "inception_b3_1x7_3_bn_gamma", 
      "attr": {
        "eps": "0.001", 
        "fix_gamma": "False", 
        "use_global_stats": "True"
      }, 
      "inputs": []
    }, 
    {
      "op": "null", 
      "name": "inception_b3_1x7_3_bn_beta", 
      "attr": {
        "eps": "0.001", 
        "fix_gamma": "False", 
        "use_global_stats": "True"
      }, 
      "inputs": []
    }, 
    {
      "op": "null", 
      "name": "inception_b3_1x7_3_bn_moving_mean", 
      "attr": {
        "__init__": "[\"zero\", {}]", 
        "eps": "0.001", 
        "fix_gamma": "False", 
        "use_global_stats": "True"
      }, 
      "inputs": []
    }, 
    {
      "op": "null", 
      "name": "inception_b3_1x7_3_bn_moving_var", 
      "attr": {
        "__init__": "[\"one\", {}]", 
        "eps": "0.001", 
        "fix_gamma": "False", 
        "use_global_stats": "True"
      }, 
      "inputs": []
    }, 
    {
      "op": "BatchNorm", 
      "name": "inception_b3_1x7_3_bn", 
      "attr": {
        "eps": "0.001", 
        "fix_gamma": "False", 
        "use_global_stats": "True"
      }, 
      "inputs": [[480, 0, 0], [481, 0, 0], [482, 0, 0], [483, 0, 1], [484, 0, 1]]
    }, 
    {
      "op": "Activation", 
      "name": "inception_b3_1x7_3_relu", 
      "attr": {"act_type": "relu"}, 
      "inputs": [[485, 0, 0]]
    }, 
    {
      "op": "Pooling", 
      "name": "inception_b3_pool_ave", 
      "attr": {
        "kernel": "(3, 3)", 
        "pad": "(1, 1)", 
        "pool_type": "avg", 
        "pooling_convention": "full", 
        "stride": "(1, 1)"
      }, 
      "inputs": [[414, 0, 0]]
    }, 
    {
      "op": "null", 
      "name": "inception_b3_1x1_weight", 
      "attr": {
        "kernel": "(1, 1)", 
        "no_bias": "True", 
        "num_filter": "192", 
        "pad": "(0, 0)", 
        "stride": "(1, 1)"
      }, 
      "inputs": []
    }, 
    {
      "op": "Convolution", 
      "name": "inception_b3_1x1", 
      "attr": {
        "kernel": "(1, 1)", 
        "no_bias": "True", 
        "num_filter": "192", 
        "pad": "(0, 0)", 
        "stride": "(1, 1)"
      }, 
      "inputs": [[487, 0, 0], [488, 0, 0]]
    }, 
    {
      "op": "null", 
      "name": "inception_b3_1x1_bn_gamma", 
      "attr": {
        "eps": "0.001", 
        "fix_gamma": "False", 
        "use_global_stats": "True"
      }, 
      "inputs": []
    }, 
    {
      "op": "null", 
      "name": "inception_b3_1x1_bn_beta", 
      "attr": {
        "eps": "0.001", 
        "fix_gamma": "False", 
        "use_global_stats": "True"
      }, 
      "inputs": []
    }, 
    {
      "op": "null", 
      "name": "inception_b3_1x1_bn_moving_mean", 
      "attr": {
        "__init__": "[\"zero\", {}]", 
        "eps": "0.001", 
        "fix_gamma": "False", 
        "use_global_stats": "True"
      }, 
      "inputs": []
    }, 
    {
      "op": "null", 
      "name": "inception_b3_1x1_bn_moving_var", 
      "attr": {
        "__init__": "[\"one\", {}]", 
        "eps": "0.001", 
        "fix_gamma": "False", 
        "use_global_stats": "True"
      }, 
      "inputs": []
    }, 
    {
      "op": "BatchNorm", 
      "name": "inception_b3_1x1_bn", 
      "attr": {
        "eps": "0.001", 
        "fix_gamma": "False", 
        "use_global_stats": "True"
      }, 
      "inputs": [[489, 0, 0], [490, 0, 0], [491, 0, 0], [492, 0, 1], [493, 0, 1]]
    }, 
    {
      "op": "Activation", 
      "name": "inception_b3_1x1_relu", 
      "attr": {"act_type": "relu"}, 
      "inputs": [[494, 0, 0]]
    }, 
    {
      "op": "Concat", 
      "name": "inception_b3_concat", 
      "attr": {"num_args": "4"}, 
      "inputs": [[422, 0, 0], [446, 0, 0], [486, 0, 0], [495, 0, 0]]
    }, 
    {
      "op": "null", 
      "name": "inception_b4_1x1_2_weight", 
      "attr": {
        "kernel": "(1, 1)", 
        "no_bias": "True", 
        "num_filter": "192", 
        "pad": "(0, 0)", 
        "stride": "(1, 1)"
      }, 
      "inputs": []
    }, 
    {
      "op": "Convolution", 
      "name": "inception_b4_1x1_2", 
      "attr": {
        "kernel": "(1, 1)", 
        "no_bias": "True", 
        "num_filter": "192", 
        "pad": "(0, 0)", 
        "stride": "(1, 1)"
      }, 
      "inputs": [[496, 0, 0], [497, 0, 0]]
    }, 
    {
      "op": "null", 
      "name": "inception_b4_1x1_2_bn_gamma", 
      "attr": {
        "eps": "0.001", 
        "fix_gamma": "False", 
        "use_global_stats": "True"
      }, 
      "inputs": []
    }, 
    {
      "op": "null", 
      "name": "inception_b4_1x1_2_bn_beta", 
      "attr": {
        "eps": "0.001", 
        "fix_gamma": "False", 
        "use_global_stats": "True"
      }, 
      "inputs": []
    }, 
    {
      "op": "null", 
      "name": "inception_b4_1x1_2_bn_moving_mean", 
      "attr": {
        "__init__": "[\"zero\", {}]", 
        "eps": "0.001", 
        "fix_gamma": "False", 
        "use_global_stats": "True"
      }, 
      "inputs": []
    }, 
    {
      "op": "null", 
      "name": "inception_b4_1x1_2_bn_moving_var", 
      "attr": {
        "__init__": "[\"one\", {}]", 
        "eps": "0.001", 
        "fix_gamma": "False", 
        "use_global_stats": "True"
      }, 
      "inputs": []
    }, 
    {
      "op": "BatchNorm", 
      "name": "inception_b4_1x1_2_bn", 
      "attr": {
        "eps": "0.001", 
        "fix_gamma": "False", 
        "use_global_stats": "True"
      }, 
      "inputs": [[498, 0, 0], [499, 0, 0], [500, 0, 0], [501, 0, 1], [502, 0, 1]]
    }, 
    {
      "op": "Activation", 
      "name": "inception_b4_1x1_2_relu", 
      "attr": {"act_type": "relu"}, 
      "inputs": [[503, 0, 0]]
    }, 
    {
      "op": "null", 
      "name": "inception_b4_1x7_reduce_weight", 
      "attr": {
        "kernel": "(1, 1)", 
        "no_bias": "True", 
        "num_filter": "192", 
        "pad": "(0, 0)", 
        "stride": "(1, 1)"
      }, 
      "inputs": []
    }, 
    {
      "op": "Convolution", 
      "name": "inception_b4_1x7_reduce", 
      "attr": {
        "kernel": "(1, 1)", 
        "no_bias": "True", 
        "num_filter": "192", 
        "pad": "(0, 0)", 
        "stride": "(1, 1)"
      }, 
      "inputs": [[496, 0, 0], [505, 0, 0]]
    }, 
    {
      "op": "null", 
      "name": "inception_b4_1x7_reduce_bn_gamma", 
      "attr": {
        "eps": "0.001", 
        "fix_gamma": "False", 
        "use_global_stats": "True"
      }, 
      "inputs": []
    }, 
    {
      "op": "null", 
      "name": "inception_b4_1x7_reduce_bn_beta", 
      "attr": {
        "eps": "0.001", 
        "fix_gamma": "False", 
        "use_global_stats": "True"
      }, 
      "inputs": []
    }, 
    {
      "op": "null", 
      "name": "inception_b4_1x7_reduce_bn_moving_mean", 
      "attr": {
        "__init__": "[\"zero\", {}]", 
        "eps": "0.001", 
        "fix_gamma": "False", 
        "use_global_stats": "True"
      }, 
      "inputs": []
    }, 
    {
      "op": "null", 
      "name": "inception_b4_1x7_reduce_bn_moving_var", 
      "attr": {
        "__init__": "[\"one\", {}]", 
        "eps": "0.001", 
        "fix_gamma": "False", 
        "use_global_stats": "True"
      }, 
      "inputs": []
    }, 
    {
      "op": "BatchNorm", 
      "name": "inception_b4_1x7_reduce_bn", 
      "attr": {
        "eps": "0.001", 
        "fix_gamma": "False", 
        "use_global_stats": "True"
      }, 
      "inputs": [[506, 0, 0], [507, 0, 0], [508, 0, 0], [509, 0, 1], [510, 0, 1]]
    }, 
    {
      "op": "Activation", 
      "name": "inception_b4_1x7_reduce_relu", 
      "attr": {"act_type": "relu"}, 
      "inputs": [[511, 0, 0]]
    }, 
    {
      "op": "null", 
      "name": "inception_b4_1x7_weight", 
      "attr": {
        "kernel": "(1, 7)", 
        "no_bias": "True", 
        "num_filter": "192", 
        "pad": "(0, 3)", 
        "stride": "(1, 1)"
      }, 
      "inputs": []
    }, 
    {
      "op": "Convolution", 
      "name": "inception_b4_1x7", 
      "attr": {
        "kernel": "(1, 7)", 
        "no_bias": "True", 
        "num_filter": "192", 
        "pad": "(0, 3)", 
        "stride": "(1, 1)"
      }, 
      "inputs": [[512, 0, 0], [513, 0, 0]]
    }, 
    {
      "op": "null", 
      "name": "inception_b4_1x7_bn_gamma", 
      "attr": {
        "eps": "0.001", 
        "fix_gamma": "False", 
        "use_global_stats": "True"
      }, 
      "inputs": []
    }, 
    {
      "op": "null", 
      "name": "inception_b4_1x7_bn_beta", 
      "attr": {
        "eps": "0.001", 
        "fix_gamma": "False", 
        "use_global_stats": "True"
      }, 
      "inputs": []
    }, 
    {
      "op": "null", 
      "name": "inception_b4_1x7_bn_moving_mean", 
      "attr": {
        "__init__": "[\"zero\", {}]", 
        "eps": "0.001", 
        "fix_gamma": "False", 
        "use_global_stats": "True"
      }, 
      "inputs": []
    }, 
    {
      "op": "null", 
      "name": "inception_b4_1x7_bn_moving_var", 
      "attr": {
        "__init__": "[\"one\", {}]", 
        "eps": "0.001", 
        "fix_gamma": "False", 
        "use_global_stats": "True"
      }, 
      "inputs": []
    }, 
    {
      "op": "BatchNorm", 
      "name": "inception_b4_1x7_bn", 
      "attr": {
        "eps": "0.001", 
        "fix_gamma": "False", 
        "use_global_stats": "True"
      }, 
      "inputs": [[514, 0, 0], [515, 0, 0], [516, 0, 0], [517, 0, 1], [518, 0, 1]]
    }, 
    {
      "op": "Activation", 
      "name": "inception_b4_1x7_relu", 
      "attr": {"act_type": "relu"}, 
      "inputs": [[519, 0, 0]]
    }, 
    {
      "op": "null", 
      "name": "inception_b4_7x1_weight", 
      "attr": {
        "kernel": "(7, 1)", 
        "no_bias": "True", 
        "num_filter": "192", 
        "pad": "(3, 0)", 
        "stride": "(1, 1)"
      }, 
      "inputs": []
    }, 
    {
      "op": "Convolution", 
      "name": "inception_b4_7x1", 
      "attr": {
        "kernel": "(7, 1)", 
        "no_bias": "True", 
        "num_filter": "192", 
        "pad": "(3, 0)", 
        "stride": "(1, 1)"
      }, 
      "inputs": [[520, 0, 0], [521, 0, 0]]
    }, 
    {
      "op": "null", 
      "name": "inception_b4_7x1_bn_gamma", 
      "attr": {
        "eps": "0.001", 
        "fix_gamma": "False", 
        "use_global_stats": "True"
      }, 
      "inputs": []
    }, 
    {
      "op": "null", 
      "name": "inception_b4_7x1_bn_beta", 
      "attr": {
        "eps": "0.001", 
        "fix_gamma": "False", 
        "use_global_stats": "True"
      }, 
      "inputs": []
    }, 
    {
      "op": "null", 
      "name": "inception_b4_7x1_bn_moving_mean", 
      "attr": {
        "__init__": "[\"zero\", {}]", 
        "eps": "0.001", 
        "fix_gamma": "False", 
        "use_global_stats": "True"
      }, 
      "inputs": []
    }, 
    {
      "op": "null", 
      "name": "inception_b4_7x1_bn_moving_var", 
      "attr": {
        "__init__": "[\"one\", {}]", 
        "eps": "0.001", 
        "fix_gamma": "False", 
        "use_global_stats": "True"
      }, 
      "inputs": []
    }, 
    {
      "op": "BatchNorm", 
      "name": "inception_b4_7x1_bn", 
      "attr": {
        "eps": "0.001", 
        "fix_gamma": "False", 
        "use_global_stats": "True"
      }, 
      "inputs": [[522, 0, 0], [523, 0, 0], [524, 0, 0], [525, 0, 1], [526, 0, 1]]
    }, 
    {
      "op": "Activation", 
      "name": "inception_b4_7x1_relu", 
      "attr": {"act_type": "relu"}, 
      "inputs": [[527, 0, 0]]
    }, 
    {
      "op": "null", 
      "name": "inception_b4_7x1_reduce_weight", 
      "attr": {
        "kernel": "(1, 1)", 
        "no_bias": "True", 
        "num_filter": "192", 
        "pad": "(0, 0)", 
        "stride": "(1, 1)"
      }, 
      "inputs": []
    }, 
    {
      "op": "Convolution", 
      "name": "inception_b4_7x1_reduce", 
      "attr": {
        "kernel": "(1, 1)", 
        "no_bias": "True", 
        "num_filter": "192", 
        "pad": "(0, 0)", 
        "stride": "(1, 1)"
      }, 
      "inputs": [[496, 0, 0], [529, 0, 0]]
    }, 
    {
      "op": "null", 
      "name": "inception_b4_7x1_reduce_bn_gamma", 
      "attr": {
        "eps": "0.001", 
        "fix_gamma": "False", 
        "use_global_stats": "True"
      }, 
      "inputs": []
    }, 
    {
      "op": "null", 
      "name": "inception_b4_7x1_reduce_bn_beta", 
      "attr": {
        "eps": "0.001", 
        "fix_gamma": "False", 
        "use_global_stats": "True"
      }, 
      "inputs": []
    }, 
    {
      "op": "null", 
      "name": "inception_b4_7x1_reduce_bn_moving_mean", 
      "attr": {
        "__init__": "[\"zero\", {}]", 
        "eps": "0.001", 
        "fix_gamma": "False", 
        "use_global_stats": "True"
      }, 
      "inputs": []
    }, 
    {
      "op": "null", 
      "name": "inception_b4_7x1_reduce_bn_moving_var", 
      "attr": {
        "__init__": "[\"one\", {}]", 
        "eps": "0.001", 
        "fix_gamma": "False", 
        "use_global_stats": "True"
      }, 
      "inputs": []
    }, 
    {
      "op": "BatchNorm", 
      "name": "inception_b4_7x1_reduce_bn", 
      "attr": {
        "eps": "0.001", 
        "fix_gamma": "False", 
        "use_global_stats": "True"
      }, 
      "inputs": [[530, 0, 0], [531, 0, 0], [532, 0, 0], [533, 0, 1], [534, 0, 1]]
    }, 
    {
      "op": "Activation", 
      "name": "inception_b4_7x1_reduce_relu", 
      "attr": {"act_type": "relu"}, 
      "inputs": [[535, 0, 0]]
    }, 
    {
      "op": "null", 
      "name": "inception_b4_7x1_2_weight", 
      "attr": {
        "kernel": "(7, 1)", 
        "no_bias": "True", 
        "num_filter": "192", 
        "pad": "(3, 0)", 
        "stride": "(1, 1)"
      }, 
      "inputs": []
    }, 
    {
      "op": "Convolution", 
      "name": "inception_b4_7x1_2", 
      "attr": {
        "kernel": "(7, 1)", 
        "no_bias": "True", 
        "num_filter": "192", 
        "pad": "(3, 0)", 
        "stride": "(1, 1)"
      }, 
      "inputs": [[536, 0, 0], [537, 0, 0]]
    }, 
    {
      "op": "null", 
      "name": "inception_b4_7x1_2_bn_gamma", 
      "attr": {
        "eps": "0.001", 
        "fix_gamma": "False", 
        "use_global_stats": "True"
      }, 
      "inputs": []
    }, 
    {
      "op": "null", 
      "name": "inception_b4_7x1_2_bn_beta", 
      "attr": {
        "eps": "0.001", 
        "fix_gamma": "False", 
        "use_global_stats": "True"
      }, 
      "inputs": []
    }, 
    {
      "op": "null", 
      "name": "inception_b4_7x1_2_bn_moving_mean", 
      "attr": {
        "__init__": "[\"zero\", {}]", 
        "eps": "0.001", 
        "fix_gamma": "False", 
        "use_global_stats": "True"
      }, 
      "inputs": []
    }, 
    {
      "op": "null", 
      "name": "inception_b4_7x1_2_bn_moving_var", 
      "attr": {
        "__init__": "[\"one\", {}]", 
        "eps": "0.001", 
        "fix_gamma": "False", 
        "use_global_stats": "True"
      }, 
      "inputs": []
    }, 
    {
      "op": "BatchNorm", 
      "name": "inception_b4_7x1_2_bn", 
      "attr": {
        "eps": "0.001", 
        "fix_gamma": "False", 
        "use_global_stats": "True"
      }, 
      "inputs": [[538, 0, 0], [539, 0, 0], [540, 0, 0], [541, 0, 1], [542, 0, 1]]
    }, 
    {
      "op": "Activation", 
      "name": "inception_b4_7x1_2_relu", 
      "attr": {"act_type": "relu"}, 
      "inputs": [[543, 0, 0]]
    }, 
    {
      "op": "null", 
      "name": "inception_b4_1x7_2_weight", 
      "attr": {
        "kernel": "(1, 7)", 
        "no_bias": "True", 
        "num_filter": "192", 
        "pad": "(0, 3)", 
        "stride": "(1, 1)"
      }, 
      "inputs": []
    }, 
    {
      "op": "Convolution", 
      "name": "inception_b4_1x7_2", 
      "attr": {
        "kernel": "(1, 7)", 
        "no_bias": "True", 
        "num_filter": "192", 
        "pad": "(0, 3)", 
        "stride": "(1, 1)"
      }, 
      "inputs": [[544, 0, 0], [545, 0, 0]]
    }, 
    {
      "op": "null", 
      "name": "inception_b4_1x7_2_bn_gamma", 
      "attr": {
        "eps": "0.001", 
        "fix_gamma": "False", 
        "use_global_stats": "True"
      }, 
      "inputs": []
    }, 
    {
      "op": "null", 
      "name": "inception_b4_1x7_2_bn_beta", 
      "attr": {
        "eps": "0.001", 
        "fix_gamma": "False", 
        "use_global_stats": "True"
      }, 
      "inputs": []
    }, 
    {
      "op": "null", 
      "name": "inception_b4_1x7_2_bn_moving_mean", 
      "attr": {
        "__init__": "[\"zero\", {}]", 
        "eps": "0.001", 
        "fix_gamma": "False", 
        "use_global_stats": "True"
      }, 
      "inputs": []
    }, 
    {
      "op": "null", 
      "name": "inception_b4_1x7_2_bn_moving_var", 
      "attr": {
        "__init__": "[\"one\", {}]", 
        "eps": "0.001", 
        "fix_gamma": "False", 
        "use_global_stats": "True"
      }, 
      "inputs": []
    }, 
    {
      "op": "BatchNorm", 
      "name": "inception_b4_1x7_2_bn", 
      "attr": {
        "eps": "0.001", 
        "fix_gamma": "False", 
        "use_global_stats": "True"
      }, 
      "inputs": [[546, 0, 0], [547, 0, 0], [548, 0, 0], [549, 0, 1], [550, 0, 1]]
    }, 
    {
      "op": "Activation", 
      "name": "inception_b4_1x7_2_relu", 
      "attr": {"act_type": "relu"}, 
      "inputs": [[551, 0, 0]]
    }, 
    {
      "op": "null", 
      "name": "inception_b4_7x1_3_weight", 
      "attr": {
        "kernel": "(7, 1)", 
        "no_bias": "True", 
        "num_filter": "192", 
        "pad": "(3, 0)", 
        "stride": "(1, 1)"
      }, 
      "inputs": []
    }, 
    {
      "op": "Convolution", 
      "name": "inception_b4_7x1_3", 
      "attr": {
        "kernel": "(7, 1)", 
        "no_bias": "True", 
        "num_filter": "192", 
        "pad": "(3, 0)", 
        "stride": "(1, 1)"
      }, 
      "inputs": [[552, 0, 0], [553, 0, 0]]
    }, 
    {
      "op": "null", 
      "name": "inception_b4_7x1_3_bn_gamma", 
      "attr": {
        "eps": "0.001", 
        "fix_gamma": "False", 
        "use_global_stats": "True"
      }, 
      "inputs": []
    }, 
    {
      "op": "null", 
      "name": "inception_b4_7x1_3_bn_beta", 
      "attr": {
        "eps": "0.001", 
        "fix_gamma": "False", 
        "use_global_stats": "True"
      }, 
      "inputs": []
    }, 
    {
      "op": "null", 
      "name": "inception_b4_7x1_3_bn_moving_mean", 
      "attr": {
        "__init__": "[\"zero\", {}]", 
        "eps": "0.001", 
        "fix_gamma": "False", 
        "use_global_stats": "True"
      }, 
      "inputs": []
    }, 
    {
      "op": "null", 
      "name": "inception_b4_7x1_3_bn_moving_var", 
      "attr": {
        "__init__": "[\"one\", {}]", 
        "eps": "0.001", 
        "fix_gamma": "False", 
        "use_global_stats": "True"
      }, 
      "inputs": []
    }, 
    {
      "op": "BatchNorm", 
      "name": "inception_b4_7x1_3_bn", 
      "attr": {
        "eps": "0.001", 
        "fix_gamma": "False", 
        "use_global_stats": "True"
      }, 
      "inputs": [[554, 0, 0], [555, 0, 0], [556, 0, 0], [557, 0, 1], [558, 0, 1]]
    }, 
    {
      "op": "Activation", 
      "name": "inception_b4_7x1_3_relu", 
      "attr": {"act_type": "relu"}, 
      "inputs": [[559, 0, 0]]
    }, 
    {
      "op": "null", 
      "name": "inception_b4_1x7_3_weight", 
      "attr": {
        "kernel": "(1, 7)", 
        "no_bias": "True", 
        "num_filter": "192", 
        "pad": "(0, 3)", 
        "stride": "(1, 1)"
      }, 
      "inputs": []
    }, 
    {
      "op": "Convolution", 
      "name": "inception_b4_1x7_3", 
      "attr": {
        "kernel": "(1, 7)", 
        "no_bias": "True", 
        "num_filter": "192", 
        "pad": "(0, 3)", 
        "stride": "(1, 1)"
      }, 
      "inputs": [[560, 0, 0], [561, 0, 0]]
    }, 
    {
      "op": "null", 
      "name": "inception_b4_1x7_3_bn_gamma", 
      "attr": {
        "eps": "0.001", 
        "fix_gamma": "False", 
        "use_global_stats": "True"
      }, 
      "inputs": []
    }, 
    {
      "op": "null", 
      "name": "inception_b4_1x7_3_bn_beta", 
      "attr": {
        "eps": "0.001", 
        "fix_gamma": "False", 
        "use_global_stats": "True"
      }, 
      "inputs": []
    }, 
    {
      "op": "null", 
      "name": "inception_b4_1x7_3_bn_moving_mean", 
      "attr": {
        "__init__": "[\"zero\", {}]", 
        "eps": "0.001", 
        "fix_gamma": "False", 
        "use_global_stats": "True"
      }, 
      "inputs": []
    }, 
    {
      "op": "null", 
      "name": "inception_b4_1x7_3_bn_moving_var", 
      "attr": {
        "__init__": "[\"one\", {}]", 
        "eps": "0.001", 
        "fix_gamma": "False", 
        "use_global_stats": "True"
      }, 
      "inputs": []
    }, 
    {
      "op": "BatchNorm", 
      "name": "inception_b4_1x7_3_bn", 
      "attr": {
        "eps": "0.001", 
        "fix_gamma": "False", 
        "use_global_stats": "True"
      }, 
      "inputs": [[562, 0, 0], [563, 0, 0], [564, 0, 0], [565, 0, 1], [566, 0, 1]]
    }, 
    {
      "op": "Activation", 
      "name": "inception_b4_1x7_3_relu", 
      "attr": {"act_type": "relu"}, 
      "inputs": [[567, 0, 0]]
    }, 
    {
      "op": "Pooling", 
      "name": "inception_b4_pool_ave", 
      "attr": {
        "kernel": "(3, 3)", 
        "pad": "(1, 1)", 
        "pool_type": "avg", 
        "pooling_convention": "full", 
        "stride": "(1, 1)"
      }, 
      "inputs": [[496, 0, 0]]
    }, 
    {
      "op": "null", 
      "name": "inception_b4_1x1_weight", 
      "attr": {
        "kernel": "(1, 1)", 
        "no_bias": "True", 
        "num_filter": "192", 
        "pad": "(0, 0)", 
        "stride": "(1, 1)"
      }, 
      "inputs": []
    }, 
    {
      "op": "Convolution", 
      "name": "inception_b4_1x1", 
      "attr": {
        "kernel": "(1, 1)", 
        "no_bias": "True", 
        "num_filter": "192", 
        "pad": "(0, 0)", 
        "stride": "(1, 1)"
      }, 
      "inputs": [[569, 0, 0], [570, 0, 0]]
    }, 
    {
      "op": "null", 
      "name": "inception_b4_1x1_bn_gamma", 
      "attr": {
        "eps": "0.001", 
        "fix_gamma": "False", 
        "use_global_stats": "True"
      }, 
      "inputs": []
    }, 
    {
      "op": "null", 
      "name": "inception_b4_1x1_bn_beta", 
      "attr": {
        "eps": "0.001", 
        "fix_gamma": "False", 
        "use_global_stats": "True"
      }, 
      "inputs": []
    }, 
    {
      "op": "null", 
      "name": "inception_b4_1x1_bn_moving_mean", 
      "attr": {
        "__init__": "[\"zero\", {}]", 
        "eps": "0.001", 
        "fix_gamma": "False", 
        "use_global_stats": "True"
      }, 
      "inputs": []
    }, 
    {
      "op": "null", 
      "name": "inception_b4_1x1_bn_moving_var", 
      "attr": {
        "__init__": "[\"one\", {}]", 
        "eps": "0.001", 
        "fix_gamma": "False", 
        "use_global_stats": "True"
      }, 
      "inputs": []
    }, 
    {
      "op": "BatchNorm", 
      "name": "inception_b4_1x1_bn", 
      "attr": {
        "eps": "0.001", 
        "fix_gamma": "False", 
        "use_global_stats": "True"
      }, 
      "inputs": [[571, 0, 0], [572, 0, 0], [573, 0, 0], [574, 0, 1], [575, 0, 1]]
    }, 
    {
      "op": "Activation", 
      "name": "inception_b4_1x1_relu", 
      "attr": {"act_type": "relu"}, 
      "inputs": [[576, 0, 0]]
    }, 
    {
      "op": "Concat", 
      "name": "inception_b4_concat", 
      "attr": {"num_args": "4"}, 
      "inputs": [[504, 0, 0], [528, 0, 0], [568, 0, 0], [577, 0, 0]]
    }, 
    {
      "op": "null", 
      "name": "reduction_b_3x3_reduce_weight", 
      "attr": {
        "kernel": "(1, 1)", 
        "no_bias": "True", 
        "num_filter": "192", 
        "pad": "(0, 0)", 
        "stride": "(1, 1)"
      }, 
      "inputs": []
    }, 
    {
      "op": "Convolution", 
      "name": "reduction_b_3x3_reduce", 
      "attr": {
        "kernel": "(1, 1)", 
        "no_bias": "True", 
        "num_filter": "192", 
        "pad": "(0, 0)", 
        "stride": "(1, 1)"
      }, 
      "inputs": [[578, 0, 0], [579, 0, 0]]
    }, 
    {
      "op": "null", 
      "name": "reduction_b_3x3_reduce_bn_gamma", 
      "attr": {
        "eps": "0.001", 
        "fix_gamma": "False", 
        "use_global_stats": "True"
      }, 
      "inputs": []
    }, 
    {
      "op": "null", 
      "name": "reduction_b_3x3_reduce_bn_beta", 
      "attr": {
        "eps": "0.001", 
        "fix_gamma": "False", 
        "use_global_stats": "True"
      }, 
      "inputs": []
    }, 
    {
      "op": "null", 
      "name": "reduction_b_3x3_reduce_bn_moving_mean", 
      "attr": {
        "__init__": "[\"zero\", {}]", 
        "eps": "0.001", 
        "fix_gamma": "False", 
        "use_global_stats": "True"
      }, 
      "inputs": []
    }, 
    {
      "op": "null", 
      "name": "reduction_b_3x3_reduce_bn_moving_var", 
      "attr": {
        "__init__": "[\"one\", {}]", 
        "eps": "0.001", 
        "fix_gamma": "False", 
        "use_global_stats": "True"
      }, 
      "inputs": []
    }, 
    {
      "op": "BatchNorm", 
      "name": "reduction_b_3x3_reduce_bn", 
      "attr": {
        "eps": "0.001", 
        "fix_gamma": "False", 
        "use_global_stats": "True"
      }, 
      "inputs": [[580, 0, 0], [581, 0, 0], [582, 0, 0], [583, 0, 1], [584, 0, 1]]
    }, 
    {
      "op": "Activation", 
      "name": "reduction_b_3x3_reduce_relu", 
      "attr": {"act_type": "relu"}, 
      "inputs": [[585, 0, 0]]
    }, 
    {
      "op": "null", 
      "name": "reduction_b_3x3_weight", 
      "attr": {
        "kernel": "(3, 3)", 
        "no_bias": "True", 
        "num_filter": "320", 
        "pad": "(0, 0)", 
        "stride": "(2, 2)"
      }, 
      "inputs": []
    }, 
    {
      "op": "Convolution", 
      "name": "reduction_b_3x3", 
      "attr": {
        "kernel": "(3, 3)", 
        "no_bias": "True", 
        "num_filter": "320", 
        "pad": "(0, 0)", 
        "stride": "(2, 2)"
      }, 
      "inputs": [[586, 0, 0], [587, 0, 0]]
    }, 
    {
      "op": "null", 
      "name": "reduction_b_3x3_bn_gamma", 
      "attr": {
        "eps": "0.001", 
        "fix_gamma": "False", 
        "use_global_stats": "True"
      }, 
      "inputs": []
    }, 
    {
      "op": "null", 
      "name": "reduction_b_3x3_bn_beta", 
      "attr": {
        "eps": "0.001", 
        "fix_gamma": "False", 
        "use_global_stats": "True"
      }, 
      "inputs": []
    }, 
    {
      "op": "null", 
      "name": "reduction_b_3x3_bn_moving_mean", 
      "attr": {
        "__init__": "[\"zero\", {}]", 
        "eps": "0.001", 
        "fix_gamma": "False", 
        "use_global_stats": "True"
      }, 
      "inputs": []
    }, 
    {
      "op": "null", 
      "name": "reduction_b_3x3_bn_moving_var", 
      "attr": {
        "__init__": "[\"one\", {}]", 
        "eps": "0.001", 
        "fix_gamma": "False", 
        "use_global_stats": "True"
      }, 
      "inputs": []
    }, 
    {
      "op": "BatchNorm", 
      "name": "reduction_b_3x3_bn", 
      "attr": {
        "eps": "0.001", 
        "fix_gamma": "False", 
        "use_global_stats": "True"
      }, 
      "inputs": [[588, 0, 0], [589, 0, 0], [590, 0, 0], [591, 0, 1], [592, 0, 1]]
    }, 
    {
      "op": "Activation", 
      "name": "reduction_b_3x3_relu", 
      "attr": {"act_type": "relu"}, 
      "inputs": [[593, 0, 0]]
    }, 
    {
      "op": "null", 
      "name": "reduction_b_1x7_reduce_weight", 
      "attr": {
        "kernel": "(1, 1)", 
        "no_bias": "True", 
        "num_filter": "192", 
        "pad": "(0, 0)", 
        "stride": "(1, 1)"
      }, 
      "inputs": []
    }, 
    {
      "op": "Convolution", 
      "name": "reduction_b_1x7_reduce", 
      "attr": {
        "kernel": "(1, 1)", 
        "no_bias": "True", 
        "num_filter": "192", 
        "pad": "(0, 0)", 
        "stride": "(1, 1)"
      }, 
      "inputs": [[578, 0, 0], [595, 0, 0]]
    }, 
    {
      "op": "null", 
      "name": "reduction_b_1x7_reduce_bn_gamma", 
      "attr": {
        "eps": "0.001", 
        "fix_gamma": "False", 
        "use_global_stats": "True"
      }, 
      "inputs": []
    }, 
    {
      "op": "null", 
      "name": "reduction_b_1x7_reduce_bn_beta", 
      "attr": {
        "eps": "0.001", 
        "fix_gamma": "False", 
        "use_global_stats": "True"
      }, 
      "inputs": []
    }, 
    {
      "op": "null", 
      "name": "reduction_b_1x7_reduce_bn_moving_mean", 
      "attr": {
        "__init__": "[\"zero\", {}]", 
        "eps": "0.001", 
        "fix_gamma": "False", 
        "use_global_stats": "True"
      }, 
      "inputs": []
    }, 
    {
      "op": "null", 
      "name": "reduction_b_1x7_reduce_bn_moving_var", 
      "attr": {
        "__init__": "[\"one\", {}]", 
        "eps": "0.001", 
        "fix_gamma": "False", 
        "use_global_stats": "True"
      }, 
      "inputs": []
    }, 
    {
      "op": "BatchNorm", 
      "name": "reduction_b_1x7_reduce_bn", 
      "attr": {
        "eps": "0.001", 
        "fix_gamma": "False", 
        "use_global_stats": "True"
      }, 
      "inputs": [[596, 0, 0], [597, 0, 0], [598, 0, 0], [599, 0, 1], [600, 0, 1]]
    }, 
    {
      "op": "Activation", 
      "name": "reduction_b_1x7_reduce_relu", 
      "attr": {"act_type": "relu"}, 
      "inputs": [[601, 0, 0]]
    }, 
    {
      "op": "null", 
      "name": "reduction_b_1x7_weight", 
      "attr": {
        "kernel": "(1, 7)", 
        "no_bias": "True", 
        "num_filter": "192", 
        "pad": "(0, 3)", 
        "stride": "(1, 1)"
      }, 
      "inputs": []
    }, 
    {
      "op": "Convolution", 
      "name": "reduction_b_1x7", 
      "attr": {
        "kernel": "(1, 7)", 
        "no_bias": "True", 
        "num_filter": "192", 
        "pad": "(0, 3)", 
        "stride": "(1, 1)"
      }, 
      "inputs": [[602, 0, 0], [603, 0, 0]]
    }, 
    {
      "op": "null", 
      "name": "reduction_b_1x7_bn_gamma", 
      "attr": {
        "eps": "0.001", 
        "fix_gamma": "False", 
        "use_global_stats": "True"
      }, 
      "inputs": []
    }, 
    {
      "op": "null", 
      "name": "reduction_b_1x7_bn_beta", 
      "attr": {
        "eps": "0.001", 
        "fix_gamma": "False", 
        "use_global_stats": "True"
      }, 
      "inputs": []
    }, 
    {
      "op": "null", 
      "name": "reduction_b_1x7_bn_moving_mean", 
      "attr": {
        "__init__": "[\"zero\", {}]", 
        "eps": "0.001", 
        "fix_gamma": "False", 
        "use_global_stats": "True"
      }, 
      "inputs": []
    }, 
    {
      "op": "null", 
      "name": "reduction_b_1x7_bn_moving_var", 
      "attr": {
        "__init__": "[\"one\", {}]", 
        "eps": "0.001", 
        "fix_gamma": "False", 
        "use_global_stats": "True"
      }, 
      "inputs": []
    }, 
    {
      "op": "BatchNorm", 
      "name": "reduction_b_1x7_bn", 
      "attr": {
        "eps": "0.001", 
        "fix_gamma": "False", 
        "use_global_stats": "True"
      }, 
      "inputs": [[604, 0, 0], [605, 0, 0], [606, 0, 0], [607, 0, 1], [608, 0, 1]]
    }, 
    {
      "op": "Activation", 
      "name": "reduction_b_1x7_relu", 
      "attr": {"act_type": "relu"}, 
      "inputs": [[609, 0, 0]]
    }, 
    {
      "op": "null", 
      "name": "reduction_b_7x1_weight", 
      "attr": {
        "kernel": "(7, 1)", 
        "no_bias": "True", 
        "num_filter": "192", 
        "pad": "(3, 0)", 
        "stride": "(1, 1)"
      }, 
      "inputs": []
    }, 
    {
      "op": "Convolution", 
      "name": "reduction_b_7x1", 
      "attr": {
        "kernel": "(7, 1)", 
        "no_bias": "True", 
        "num_filter": "192", 
        "pad": "(3, 0)", 
        "stride": "(1, 1)"
      }, 
      "inputs": [[610, 0, 0], [611, 0, 0]]
    }, 
    {
      "op": "null", 
      "name": "reduction_b_7x1_bn_gamma", 
      "attr": {
        "eps": "0.001", 
        "fix_gamma": "False", 
        "use_global_stats": "True"
      }, 
      "inputs": []
    }, 
    {
      "op": "null", 
      "name": "reduction_b_7x1_bn_beta", 
      "attr": {
        "eps": "0.001", 
        "fix_gamma": "False", 
        "use_global_stats": "True"
      }, 
      "inputs": []
    }, 
    {
      "op": "null", 
      "name": "reduction_b_7x1_bn_moving_mean", 
      "attr": {
        "__init__": "[\"zero\", {}]", 
        "eps": "0.001", 
        "fix_gamma": "False", 
        "use_global_stats": "True"
      }, 
      "inputs": []
    }, 
    {
      "op": "null", 
      "name": "reduction_b_7x1_bn_moving_var", 
      "attr": {
        "__init__": "[\"one\", {}]", 
        "eps": "0.001", 
        "fix_gamma": "False", 
        "use_global_stats": "True"
      }, 
      "inputs": []
    }, 
    {
      "op": "BatchNorm", 
      "name": "reduction_b_7x1_bn", 
      "attr": {
        "eps": "0.001", 
        "fix_gamma": "False", 
        "use_global_stats": "True"
      }, 
      "inputs": [[612, 0, 0], [613, 0, 0], [614, 0, 0], [615, 0, 1], [616, 0, 1]]
    }, 
    {
      "op": "Activation", 
      "name": "reduction_b_7x1_relu", 
      "attr": {"act_type": "relu"}, 
      "inputs": [[617, 0, 0]]
    }, 
    {
      "op": "null", 
      "name": "reduction_b_3x3_2_weight", 
      "attr": {
        "kernel": "(3, 3)", 
        "no_bias": "True", 
        "num_filter": "192", 
        "pad": "(0, 0)", 
        "stride": "(2, 2)"
      }, 
      "inputs": []
    }, 
    {
      "op": "Convolution", 
      "name": "reduction_b_3x3_2", 
      "attr": {
        "kernel": "(3, 3)", 
        "no_bias": "True", 
        "num_filter": "192", 
        "pad": "(0, 0)", 
        "stride": "(2, 2)"
      }, 
…
        "kernel": "(3, 3)", 
        "pad": "(0, 0)", 
        "pool_type": "max", 
        "pooling_convention": "full", 
        "stride": "(2, 2)"
      }, 
      "inputs": [[578, 0, 0]]
    }, 
    {
      "op": "Concat", 
      "name": "reduction_b_concat", 
      "attr": {"num_args": "3"}, 
      "inputs": [[594, 0, 0], [626, 0, 0], [627, 0, 0]]
    }, 
    {
      "op": "null", 
      "name": "inception_c1_1x1_2_weight", 
      "attr": {
        "kernel": "(1, 1)", 
        "no_bias": "True", 
        "num_filter": "320", 
        "pad": "(0, 0)", 
        "stride": "(1, 1)"
      }, 
      "inputs": []
    }, 
    {
      "op": "Convolution", 
      "name": "inception_c1_1x1_2", 
      "attr": {
        "kernel": "(1, 1)", 
        "no_bias": "True", 
        "num_filter": "320", 
        "pad": "(0, 0)", 
        "stride": "(1, 1)"
      }, 
      "inputs": [[628, 0, 0], [629, 0, 0]]
    }, 
    {
      "op": "null", 
      "name": "inception_c1_1x1_2_bn_gamma", 
      "attr": {
        "eps": "0.001", 
        "fix_gamma": "False", 
        "use_global_stats": "True"
      }, 
      "inputs": []
    }, 
    {
      "op": "null", 
      "name": "inception_c1_1x1_2_bn_beta", 
      "attr": {
        "eps": "0.001", 
        "fix_gamma": "False", 
        "use_global_stats": "True"
      }, 
      "inputs": []
    }, 
    {
      "op": "null", 
      "name": "inception_c1_1x1_2_bn_moving_mean", 
      "attr": {
        "__init__": "[\"zero\", {}]", 
        "eps": "0.001", 
        "fix_gamma": "False", 
        "use_global_stats": "True"
      }, 
      "inputs": []
    }, 
    {
      "op": "null", 
      "name": "inception_c1_1x1_2_bn_moving_var", 
      "attr": {
        "__init__": "[\"one\", {}]", 
        "eps": "0.001", 
        "fix_gamma": "False", 
        "use_global_stats": "True"
      }, 
      "inputs": []
    }, 
    {
      "op": "BatchNorm", 
      "name": "inception_c1_1x1_2_bn", 
      "attr": {
        "eps": "0.001", 
        "fix_gamma": "False", 
        "use_global_stats": "True"
      }, 
      "inputs": [[630, 0, 0], [631, 0, 0], [632, 0, 0], [633, 0, 1], [634, 0, 1]]
    }, 
    {
      "op": "Activation", 
      "name": "inception_c1_1x1_2_relu", 
      "attr": {"act_type": "relu"}, 
      "inputs": [[635, 0, 0]]
    }, 
    {
      "op": "null", 
      "name": "inception_c1_1x3_reduce_weight", 
      "attr": {
        "kernel": "(1, 1)", 
        "no_bias": "True", 
        "num_filter": "384", 
        "pad": "(0, 0)", 
        "stride": "(1, 1)"
      }, 
      "inputs": []
    }, 
    {
      "op": "Convolution", 
      "name": "inception_c1_1x3_reduce", 
      "attr": {
        "kernel": "(1, 1)", 
        "no_bias": "True", 
        "num_filter": "384", 
        "pad": "(0, 0)", 
        "stride": "(1, 1)"
      }, 
      "inputs": [[628, 0, 0], [637, 0, 0]]
    }, 
    {
      "op": "null", 
      "name": "inception_c1_1x3_reduce_bn_gamma", 
      "attr": {
        "eps": "0.001", 
        "fix_gamma": "False", 
        "use_global_stats": "True"
      }, 
      "inputs": []
    }, 
    {
      "op": "null", 
      "name": "inception_c1_1x3_reduce_bn_beta", 
      "attr": {
        "eps": "0.001", 
        "fix_gamma": "False", 
        "use_global_stats": "True"
      }, 
      "inputs": []
    }, 
    {
      "op": "null", 
      "name": "inception_c1_1x3_reduce_bn_moving_mean", 
      "attr": {
        "__init__": "[\"zero\", {}]", 
        "eps": "0.001", 
        "fix_gamma": "False", 
        "use_global_stats": "True"
      }, 
      "inputs": []
    }, 
    {
      "op": "null", 
      "name": "inception_c1_1x3_reduce_bn_moving_var", 
      "attr": {
        "__init__": "[\"one\", {}]", 
        "eps": "0.001", 
        "fix_gamma": "False", 
        "use_global_stats": "True"
      }, 
      "inputs": []
    }, 
    {
      "op": "BatchNorm", 
      "name": "inception_c1_1x3_reduce_bn", 
      "attr": {
        "eps": "0.001", 
        "fix_gamma": "False", 
        "use_global_stats": "True"
      }, 
      "inputs": [[638, 0, 0], [639, 0, 0], [640, 0, 0], [641, 0, 1], [642, 0, 1]]
    }, 
    {
      "op": "Activation", 
      "name": "inception_c1_1x3_reduce_relu", 
      "attr": {"act_type": "relu"}, 
      "inputs": [[643, 0, 0]]
    }, 
    {
      "op": "null", 
      "name": "inception_c1_1x3_weight", 
      "attr": {
        "kernel": "(1, 3)", 
        "no_bias": "True", 
        "num_filter": "384", 
        "pad": "(0, 1)", 
        "stride": "(1, 1)"
      }, 
      "inputs": []
    }, 
    {
      "op": "Convolution", 
      "name": "inception_c1_1x3", 
      "attr": {
        "kernel": "(1, 3)", 
        "no_bias": "True", 
        "num_filter": "384", 
        "pad": "(0, 1)", 
        "stride": "(1, 1)"
      }, 
      "inputs": [[644, 0, 0], [645, 0, 0]]
    }, 
    {
      "op": "null", 
      "name": "inception_c1_1x3_bn_gamma", 
      "attr": {
        "eps": "0.001", 
        "fix_gamma": "False", 
        "use_global_stats": "True"
      }, 
      "inputs": []
    }, 
    {
      "op": "null", 
      "name": "inception_c1_1x3_bn_beta", 
      "attr": {
        "eps": "0.001", 
        "fix_gamma": "False", 
        "use_global_stats": "True"
      }, 
      "inputs": []
    }, 
    {
      "op": "null", 
      "name": "inception_c1_1x3_bn_moving_mean", 
      "attr": {
        "__init__": "[\"zero\", {}]", 
        "eps": "0.001", 
        "fix_gamma": "False", 
        "use_global_stats": "True"
      }, 
      "inputs": []
    }, 
    {
      "op": "null", 
      "name": "inception_c1_1x3_bn_moving_var", 
      "attr": {
        "__init__": "[\"one\", {}]", 
        "eps": "0.001", 
        "fix_gamma": "False", 
        "use_global_stats": "True"
      }, 
      "inputs": []
    }, 
    {
      "op": "BatchNorm", 
      "name": "inception_c1_1x3_bn", 
      "attr": {
        "eps": "0.001", 
        "fix_gamma": "False", 
        "use_global_stats": "True"
      }, 
      "inputs": [[646, 0, 0], [647, 0, 0], [648, 0, 0], [649, 0, 1], [650, 0, 1]]
    }, 
    {
      "op": "Activation", 
      "name": "inception_c1_1x3_relu", 
      "attr": {"act_type": "relu"}, 
      "inputs": [[651, 0, 0]]
    }, 
    {
      "op": "null", 
      "name": "inception_c1_3x1_weight", 
      "attr": {
        "kernel": "(3, 1)", 
        "no_bias": "True", 
        "num_filter": "384", 
        "pad": "(1, 0)", 
        "stride": "(1, 1)"
      }, 
      "inputs": []
    }, 
    {
      "op": "Convolution", 
      "name": "inception_c1_3x1", 
      "attr": {
        "kernel": "(3, 1)", 
        "no_bias": "True", 
        "num_filter": "384", 
        "pad": "(1, 0)", 
        "stride": "(1, 1)"
      }, 
      "inputs": [[644, 0, 0], [653, 0, 0]]
    }, 
    {
      "op": "null", 
      "name": "inception_c1_3x1_bn_gamma", 
      "attr": {
        "eps": "0.001", 
        "fix_gamma": "False", 
        "use_global_stats": "True"
      }, 
      "inputs": []
    }, 
    {
      "op": "null", 
      "name": "inception_c1_3x1_bn_beta", 
      "attr": {
        "eps": "0.001", 
        "fix_gamma": "False", 
        "use_global_stats": "True"
      }, 
      "inputs": []
    }, 
    {
      "op": "null", 
      "name": "inception_c1_3x1_bn_moving_mean", 
      "attr": {
        "__init__": "[\"zero\", {}]", 
        "eps": "0.001", 
        "fix_gamma": "False", 
        "use_global_stats": "True"
      }, 
      "inputs": []
    }, 
    {
      "op": "null", 
      "name": "inception_c1_3x1_bn_moving_var", 
      "attr": {
        "__init__": "[\"one\", {}]", 
        "eps": "0.001", 
        "fix_gamma": "False", 
        "use_global_stats": "True"
      }, 
      "inputs": []
    }, 
    {
      "op": "BatchNorm", 
      "name": "inception_c1_3x1_bn", 
      "attr": {
        "eps": "0.001", 
        "fix_gamma": "False", 
        "use_global_stats": "True"
      }, 
      "inputs": [[654, 0, 0], [655, 0, 0], [656, 0, 0], [657, 0, 1], [658, 0, 1]]
    }, 
    {
      "op": "Activation", 
      "name": "inception_c1_3x1_relu", 
      "attr": {"act_type": "relu"}, 
      "inputs": [[659, 0, 0]]
    }, 
    {
      "op": "null", 
      "name": "inception_c1_3x3_reduce_weight", 
      "attr": {
        "kernel": "(1, 1)", 
        "no_bias": "True", 
        "num_filter": "448", 
        "pad": "(0, 0)", 
        "stride": "(1, 1)"
      }, 
      "inputs": []
    }, 
    {
      "op": "Convolution", 
      "name": "inception_c1_3x3_reduce", 
      "attr": {
        "kernel": "(1, 1)", 
        "no_bias": "True", 
        "num_filter": "448", 
        "pad": "(0, 0)", 
        "stride": "(1, 1)"
      }, 
      "inputs": [[628, 0, 0], [661, 0, 0]]
    }, 
    {
      "op": "null", 
      "name": "inception_c1_3x3_reduce_bn_gamma", 
      "attr": {
        "eps": "0.001", 
        "fix_gamma": "False", 
        "use_global_stats": "True"
      }, 
      "inputs": []
    }, 
    {
      "op": "null", 
      "name": "inception_c1_3x3_reduce_bn_beta", 
      "attr": {
        "eps": "0.001", 
        "fix_gamma": "False", 
        "use_global_stats": "True"
      }, 
      "inputs": []
    }, 
    {
      "op": "null", 
      "name": "inception_c1_3x3_reduce_bn_moving_mean", 
      "attr": {
        "__init__": "[\"zero\", {}]", 
        "eps": "0.001", 
        "fix_gamma": "False", 
        "use_global_stats": "True"
      }, 
      "inputs": []
    }, 
    {
      "op": "null", 
      "name": "inception_c1_3x3_reduce_bn_moving_var", 
      "attr": {
        "__init__": "[\"one\", {}]", 
        "eps": "0.001", 
        "fix_gamma": "False", 
        "use_global_stats": "True"
      }, 
      "inputs": []
    }, 
    {
      "op": "BatchNorm", 
      "name": "inception_c1_3x3_reduce_bn", 
      "attr": {
        "eps": "0.001", 
        "fix_gamma": "False", 
        "use_global_stats": "True"
      }, 
      "inputs": [[662, 0, 0], [663, 0, 0], [664, 0, 0], [665, 0, 1], [666, 0, 1]]
    }, 
    {
      "op": "Activation", 
      "name": "inception_c1_3x3_reduce_relu", 
      "attr": {"act_type": "relu"}, 
      "inputs": [[667, 0, 0]]
    }, 
    {
      "op": "null", 
      "name": "inception_c1_3x3_weight", 
      "attr": {
        "kernel": "(3, 3)", 
        "no_bias": "True", 
        "num_filter": "384", 
        "pad": "(1, 1)", 
        "stride": "(1, 1)"
      }, 
      "inputs": []
    }, 
    {
      "op": "Convolution", 
      "name": "inception_c1_3x3", 
      "attr": {
        "kernel": "(3, 3)", 
        "no_bias": "True", 
        "num_filter": "384", 
        "pad": "(1, 1)", 
        "stride": "(1, 1)"
      }, 
      "inputs": [[668, 0, 0], [669, 0, 0]]
    }, 
    {
      "op": "null", 
      "name": "inception_c1_3x3_bn_gamma", 
      "attr": {
        "eps": "0.001", 
        "fix_gamma": "False", 
        "use_global_stats": "True"
      }, 
      "inputs": []
    }, 
    {
      "op": "null", 
      "name": "inception_c1_3x3_bn_beta", 
      "attr": {
        "eps": "0.001", 
        "fix_gamma": "False", 
        "use_global_stats": "True"
      }, 
      "inputs": []
    }, 
    {
      "op": "null", 
      "name": "inception_c1_3x3_bn_moving_mean", 
      "attr": {
        "__init__": "[\"zero\", {}]", 
        "eps": "0.001", 
        "fix_gamma": "False", 
        "use_global_stats": "True"
      }, 
      "inputs": []
    }, 
    {
      "op": "null", 
      "name": "inception_c1_3x3_bn_moving_var", 
      "attr": {
        "__init__": "[\"one\", {}]", 
        "eps": "0.001", 
        "fix_gamma": "False", 
        "use_global_stats": "True"
      }, 
      "inputs": []
    }, 
    {
      "op": "BatchNorm", 
      "name": "inception_c1_3x3_bn", 
      "attr": {
        "eps": "0.001", 
        "fix_gamma": "False", 
        "use_global_stats": "True"
      }, 
      "inputs": [[670, 0, 0], [671, 0, 0], [672, 0, 0], [673, 0, 1], [674, 0, 1]]
    }, 
    {
      "op": "Activation", 
      "name": "inception_c1_3x3_relu", 
      "attr": {"act_type": "relu"}, 
      "inputs": [[675, 0, 0]]
    }, 
    {
      "op": "null", 
      "name": "inception_c1_1x3_2_weight", 
      "attr": {
        "kernel": "(1, 3)", 
        "no_bias": "True", 
        "num_filter": "384", 
        "pad": "(0, 1)", 
        "stride": "(1, 1)"
      }, 
      "inputs": []
    }, 
    {
      "op": "Convolution", 
      "name": "inception_c1_1x3_2", 
      "attr": {
        "kernel": "(1, 3)", 
        "no_bias": "True", 
        "num_filter": "384", 
        "pad": "(0, 1)", 
        "stride": "(1, 1)"
      }, 
      "inputs": [[676, 0, 0], [677, 0, 0]]
    }, 
    {
      "op": "null", 
      "name": "inception_c1_1x3_2_bn_gamma", 
      "attr": {
        "eps": "0.001", 
        "fix_gamma": "False", 
        "use_global_stats": "True"
      }, 
      "inputs": []
    }, 
    {
      "op": "null", 
      "name": "inception_c1_1x3_2_bn_beta", 
      "attr": {
        "eps": "0.001", 
        "fix_gamma": "False", 
        "use_global_stats": "True"
      }, 
      "inputs": []
    }, 
    {
      "op": "null", 
      "name": "inception_c1_1x3_2_bn_moving_mean", 
      "attr": {
        "__init__": "[\"zero\", {}]", 
        "eps": "0.001", 
        "fix_gamma": "False", 
        "use_global_stats": "True"
      }, 
      "inputs": []
    }, 
    {
      "op": "null", 
      "name": "inception_c1_1x3_2_bn_moving_var", 
      "attr": {
        "__init__": "[\"one\", {}]", 
        "eps": "0.001", 
        "fix_gamma": "False", 
        "use_global_stats": "True"
      }, 
      "inputs": []
    }, 
    {
      "op": "BatchNorm", 
      "name": "inception_c1_1x3_2_bn", 
      "attr": {
        "eps": "0.001", 
        "fix_gamma": "False", 
        "use_global_stats": "True"
      }, 
      "inputs": [[678, 0, 0], [679, 0, 0], [680, 0, 0], [681, 0, 1], [682, 0, 1]]
    }, 
    {
      "op": "Activation", 
      "name": "inception_c1_1x3_2_relu", 
      "attr": {"act_type": "relu"}, 
      "inputs": [[683, 0, 0]]
    }, 
    {
      "op": "null", 
      "name": "inception_c1_3x1_2_weight", 
      "attr": {
        "kernel": "(3, 1)", 
        "no_bias": "True", 
        "num_filter": "384", 
        "pad": "(1, 0)", 
        "stride": "(1, 1)"
      }, 
      "inputs": []
    }, 
    {
      "op": "Convolution", 
      "name": "inception_c1_3x1_2", 
      "attr": {
        "kernel": "(3, 1)", 
        "no_bias": "True", 
        "num_filter": "384", 
        "pad": "(1, 0)", 
        "stride": "(1, 1)"
      }, 
      "inputs": [[676, 0, 0], [685, 0, 0]]
    }, 
    {
      "op": "null", 
      "name": "inception_c1_3x1_2_bn_gamma", 
      "attr": {
        "eps": "0.001", 
        "fix_gamma": "False", 
        "use_global_stats": "True"
      }, 
      "inputs": []
    }, 
    {
      "op": "null", 
      "name": "inception_c1_3x1_2_bn_beta", 
      "attr": {
        "eps": "0.001", 
        "fix_gamma": "False", 
        "use_global_stats": "True"
      }, 
      "inputs": []
    }, 
    {
      "op": "null", 
      "name": "inception_c1_3x1_2_bn_moving_mean", 
      "attr": {
        "__init__": "[\"zero\", {}]", 
        "eps": "0.001", 
        "fix_gamma": "False", 
        "use_global_stats": "True"
      }, 
      "inputs": []
    }, 
    {
      "op": "null", 
      "name": "inception_c1_3x1_2_bn_moving_var", 
      "attr": {
        "__init__": "[\"one\", {}]", 
        "eps": "0.001", 
        "fix_gamma": "False", 
        "use_global_stats": "True"
      }, 
      "inputs": []
    }, 
    {
      "op": "BatchNorm", 
      "name": "inception_c1_3x1_2_bn", 
      "attr": {
        "eps": "0.001", 
        "fix_gamma": "False", 
        "use_global_stats": "True"
      }, 
      "inputs": [[686, 0, 0], [687, 0, 0], [688, 0, 0], [689, 0, 1], [690, 0, 1]]
    }, 
    {
      "op": "Activation", 
      "name": "inception_c1_3x1_2_relu", 
      "attr": {"act_type": "relu"}, 
      "inputs": [[691, 0, 0]]
    }, 
    {
      "op": "Pooling", 
      "name": "inception_c1_pool", 
      "attr": {
        "kernel": "(3, 3)", 
        "pad": "(1, 1)", 
        "pool_type": "avg", 
        "pooling_convention": "full", 
        "stride": "(1, 1)"
      }, 
      "inputs": [[628, 0, 0]]
    }, 
    {
      "op": "null", 
      "name": "inception_c1_1x1_weight", 
      "attr": {
        "kernel": "(1, 1)", 
        "no_bias": "True", 
        "num_filter": "192", 
        "pad": "(0, 0)", 
        "stride": "(1, 1)"
      }, 
      "inputs": []
    }, 
    {
      "op": "Convolution", 
      "name": "inception_c1_1x1", 
      "attr": {
        "kernel": "(1, 1)", 
        "no_bias": "True", 
        "num_filter": "192", 
        "pad": "(0, 0)", 
        "stride": "(1, 1)"
      }, 
      "inputs": [[693, 0, 0], [694, 0, 0]]
    }, 
    {
      "op": "null", 
      "name": "inception_c1_1x1_bn_gamma", 
      "attr": {
        "eps": "0.001", 
        "fix_gamma": "False", 
        "use_global_stats": "True"
      }, 
      "inputs": []
    }, 
    {
      "op": "null", 
      "name": "inception_c1_1x1_bn_beta", 
      "attr": {
        "eps": "0.001", 
        "fix_gamma": "False", 
        "use_global_stats": "True"
      }, 
      "inputs": []
    }, 
    {
      "op": "null", 
      "name": "inception_c1_1x1_bn_moving_mean", 
      "attr": {
        "__init__": "[\"zero\", {}]", 
        "eps": "0.001", 
        "fix_gamma": "False", 
        "use_global_stats": "True"
      }, 
      "inputs": []
    }, 
    {
      "op": "null", 
      "name": "inception_c1_1x1_bn_moving_var", 
      "attr": {
        "__init__": "[\"one\", {}]", 
        "eps": "0.001", 
        "fix_gamma": "False", 
        "use_global_stats": "True"
      }, 
      "inputs": []
    }, 
    {
      "op": "BatchNorm", 
      "name": "inception_c1_1x1_bn", 
      "attr": {
        "eps": "0.001", 
        "fix_gamma": "False", 
        "use_global_stats": "True"
      }, 
      "inputs": [[695, 0, 0], [696, 0, 0], [697, 0, 0], [698, 0, 1], [699, 0, 1]]
    }, 
    {
      "op": "Activation", 
      "name": "inception_c1_1x1_relu", 
      "attr": {"act_type": "relu"}, 
      "inputs": [[700, 0, 0]]
    }, 
    {
      "op": "Concat", 
      "name": "inception_c1_concat", 
      "attr": {"num_args": "6"}, 
      "inputs": [[636, 0, 0], [652, 0, 0], [660, 0, 0], [684, 0, 0], [692, 0, 0], [701, 0, 0]]
    }, 
    {
      "op": "null", 
      "name": "inception_c2_1x1_2_weight", 
      "attr": {
        "kernel": "(1, 1)", 
        "no_bias": "True", 
        "num_filter": "320", 
        "pad": "(0, 0)", 
        "stride": "(1, 1)"
      }, 
      "inputs": []
    }, 
    {
      "op": "Convolution", 
      "name": "inception_c2_1x1_2", 
      "attr": {
        "kernel": "(1, 1)", 
        "no_bias": "True", 
        "num_filter": "320", 
        "pad": "(0, 0)", 
        "stride": "(1, 1)"
      }, 
      "inputs": [[702, 0, 0], [703, 0, 0]]
    }, 
    {
      "op": "null", 
      "name": "inception_c2_1x1_2_bn_gamma", 
      "attr": {
        "eps": "0.001", 
        "fix_gamma": "False", 
        "use_global_stats": "True"
      }, 
      "inputs": []
    }, 
    {
      "op": "null", 
      "name": "inception_c2_1x1_2_bn_beta", 
      "attr": {
        "eps": "0.001", 
        "fix_gamma": "False", 
        "use_global_stats": "True"
      }, 
      "inputs": []
    }, 
    {
      "op": "null", 
      "name": "inception_c2_1x1_2_bn_moving_mean", 
      "attr": {
        "__init__": "[\"zero\", {}]", 
        "eps": "0.001", 
        "fix_gamma": "False", 
        "use_global_stats": "True"
      }, 
      "inputs": []
    }, 
    {
      "op": "null", 
      "name": "inception_c2_1x1_2_bn_moving_var", 
      "attr": {
        "__init__": "[\"one\", {}]", 
        "eps": "0.001", 
        "fix_gamma": "False", 
        "use_global_stats": "True"
      }, 
      "inputs": []
    }, 
    {
      "op": "BatchNorm", 
      "name": "inception_c2_1x1_2_bn", 
      "attr": {
        "eps": "0.001", 
        "fix_gamma": "False", 
        "use_global_stats": "True"
      }, 
      "inputs": [[704, 0, 0], [705, 0, 0], [706, 0, 0], [707, 0, 1], [708, 0, 1]]
    }, 
    {
      "op": "Activation", 
      "name": "inception_c2_1x1_2_relu", 
      "attr": {"act_type": "relu"}, 
      "inputs": [[709, 0, 0]]
    }, 
    {
      "op": "null", 
      "name": "inception_c2_1x3_reduce_weight", 
      "attr": {
        "kernel": "(1, 1)", 
        "no_bias": "True", 
        "num_filter": "384", 
        "pad": "(0, 0)", 
        "stride": "(1, 1)"
      }, 
      "inputs": []
    }, 
    {
      "op": "Convolution", 
      "name": "inception_c2_1x3_reduce", 
      "attr": {
        "kernel": "(1, 1)", 
        "no_bias": "True", 
        "num_filter": "384", 
        "pad": "(0, 0)", 
        "stride": "(1, 1)"
      }, 
      "inputs": [[702, 0, 0], [711, 0, 0]]
    }, 
    {
      "op": "null", 
      "name": "inception_c2_1x3_reduce_bn_gamma", 
      "attr": {
        "eps": "0.001", 
        "fix_gamma": "False", 
        "use_global_stats": "True"
      }, 
      "inputs": []
    }, 
    {
      "op": "null", 
      "name": "inception_c2_1x3_reduce_bn_beta", 
      "attr": {
        "eps": "0.001", 
        "fix_gamma": "False", 
        "use_global_stats": "True"
      }, 
      "inputs": []
    }, 
    {
      "op": "null", 
      "name": "inception_c2_1x3_reduce_bn_moving_mean", 
      "attr": {
        "__init__": "[\"zero\", {}]", 
        "eps": "0.001", 
        "fix_gamma": "False", 
        "use_global_stats": "True"
      }, 
      "inputs": []
    }, 
    {
      "op": "null", 
      "name": "inception_c2_1x3_reduce_bn_moving_var", 
      "attr": {
        "__init__": "[\"one\", {}]", 
        "eps": "0.001", 
        "fix_gamma": "False", 
        "use_global_stats": "True"
      }, 
      "inputs": []
    }, 
    {
      "op": "BatchNorm", 
      "name": "inception_c2_1x3_reduce_bn", 
      "attr": {
        "eps": "0.001", 
        "fix_gamma": "False", 
        "use_global_stats": "True"
      }, 
      "inputs": [[712, 0, 0], [713, 0, 0], [714, 0, 0], [715, 0, 1], [716, 0, 1]]
    }, 
    {
      "op": "Activation", 
      "name": "inception_c2_1x3_reduce_relu", 
      "attr": {"act_type": "relu"}, 
      "inputs": [[717, 0, 0]]
    }, 
    {
      "op": "null", 
      "name": "inception_c2_1x3_weight", 
      "attr": {
        "kernel": "(1, 3)", 
        "no_bias": "True", 
        "num_filter": "384", 
        "pad": "(0, 1)", 
        "stride": "(1, 1)"
      }, 
      "inputs": []
    }, 
    {
      "op": "Convolution", 
      "name": "inception_c2_1x3", 
      "attr": {
        "kernel": "(1, 3)", 
        "no_bias": "True", 
        "num_filter": "384", 
        "pad": "(0, 1)", 
        "stride": "(1, 1)"
      }, 
      "inputs": [[718, 0, 0], [719, 0, 0]]
    }, 
    {
      "op": "null", 
      "name": "inception_c2_1x3_bn_gamma", 
      "attr": {
        "eps": "0.001", 
        "fix_gamma": "False", 
        "use_global_stats": "True"
      }, 
      "inputs": []
    }, 
    {
      "op": "null", 
      "name": "inception_c2_1x3_bn_beta", 
      "attr": {
        "eps": "0.001", 
        "fix_gamma": "False", 
        "use_global_stats": "True"
      }, 
      "inputs": []
    }, 
    {
      "op": "null", 
      "name": "inception_c2_1x3_bn_moving_mean", 
      "attr": {
        "__init__": "[\"zero\", {}]", 
        "eps": "0.001", 
        "fix_gamma": "False", 
        "use_global_stats": "True"
      }, 
      "inputs": []
    }, 
    {
      "op": "null", 
      "name": "inception_c2_1x3_bn_moving_var", 
      "attr": {
        "__init__": "[\"one\", {}]", 
        "eps": "0.001", 
        "fix_gamma": "False", 
        "use_global_stats": "True"
      }, 
      "inputs": []
    }, 
    {
      "op": "BatchNorm", 
      "name": "inception_c2_1x3_bn", 
      "attr": {
        "eps": "0.001", 
        "fix_gamma": "False", 
        "use_global_stats": "True"
      }, 
      "inputs": [[720, 0, 0], [721, 0, 0], [722, 0, 0], [723, 0, 1], [724, 0, 1]]
    }, 
    {
      "op": "Activation", 
      "name": "inception_c2_1x3_relu", 
      "attr": {"act_type": "relu"}, 
      "inputs": [[725, 0, 0]]
    }, 
    {
      "op": "null", 
      "name": "inception_c2_3x1_weight", 
      "attr": {
        "kernel": "(3, 1)", 
        "no_bias": "True", 
        "num_filter": "384", 
        "pad": "(1, 0)", 
        "stride": "(1, 1)"
      }, 
      "inputs": []
    }, 
    {
      "op": "Convolution", 
      "name": "inception_c2_3x1", 
      "attr": {
        "kernel": "(3, 1)", 
        "no_bias": "True", 
        "num_filter": "384", 
        "pad": "(1, 0)", 
        "stride": "(1, 1)"
      }, 
      "inputs": [[718, 0, 0], [727, 0, 0]]
    }, 
    {
      "op": "null", 
      "name": "inception_c2_3x1_bn_gamma", 
      "attr": {
        "eps": "0.001", 
        "fix_gamma": "False", 
        "use_global_stats": "True"
      }, 
      "inputs": []
    }, 
    {
      "op": "null", 
      "name": "inception_c2_3x1_bn_beta", 
      "attr": {
        "eps": "0.001", 
        "fix_gamma": "False", 
        "use_global_stats": "True"
      }, 
      "inputs": []
    }, 
    {
      "op": "null", 
      "name": "inception_c2_3x1_bn_moving_mean", 
      "attr": {
        "__init__": "[\"zero\", {}]", 
        "eps": "0.001", 
        "fix_gamma": "False", 
        "use_global_stats": "True"
      }, 
      "inputs": []
    }, 
    {
      "op": "null", 
      "name": "inception_c2_3x1_bn_moving_var", 
      "attr": {
        "__init__": "[\"one\", {}]", 
        "eps": "0.001", 
        "fix_gamma": "False", 
        "use_global_stats": "True"
      }, 
      "inputs": []
    }, 
    {
      "op": "BatchNorm", 
      "name": "inception_c2_3x1_bn", 
      "attr": {
        "eps": "0.001", 
        "fix_gamma": "False", 
        "use_global_stats": "True"
      }, 
      "inputs": [[728, 0, 0], [729, 0, 0], [730, 0, 0], [731, 0, 1], [732, 0, 1]]
    }, 
    {
      "op": "Activation", 
      "name": "inception_c2_3x1_relu", 
      "attr": {"act_type": "relu"}, 
      "inputs": [[733, 0, 0]]
    }, 
    {
      "op": "null", 
      "name": "inception_c2_3x3_reduce_weight", 
      "attr": {
        "kernel": "(1, 1)", 
        "no_bias": "True", 
        "num_filter": "448", 
        "pad": "(0, 0)", 
        "stride": "(1, 1)"
      }, 
      "inputs": []
    }, 
    {
      "op": "Convolution", 
      "name": "inception_c2_3x3_reduce", 
      "attr": {
        "kernel": "(1, 1)", 
        "no_bias": "True", 
        "num_filter": "448", 
        "pad": "(0, 0)", 
        "stride": "(1, 1)"
      }, 
      "inputs": [[702, 0, 0], [735, 0, 0]]
    }, 
    {
      "op": "null", 
      "name": "inception_c2_3x3_reduce_bn_gamma", 
      "attr": {
        "eps": "0.001", 
        "fix_gamma": "False", 
        "use_global_stats": "True"
      }, 
      "inputs": []
    }, 
    {
      "op": "null", 
      "name": "inception_c2_3x3_reduce_bn_beta", 
      "attr": {
        "eps": "0.001", 
        "fix_gamma": "False", 
        "use_global_stats": "True"
      }, 
      "inputs": []
    }, 
    {
      "op": "null", 
      "name": "inception_c2_3x3_reduce_bn_moving_mean", 
      "attr": {
        "__init__": "[\"zero\", {}]", 
        "eps": "0.001", 
        "fix_gamma": "False", 
        "use_global_stats": "True"
      }, 
      "inputs": []
    }, 
    {
      "op": "null", 
      "name": "inception_c2_3x3_reduce_bn_moving_var", 
      "attr": {
        "__init__": "[\"one\", {}]", 
        "eps": "0.001", 
        "fix_gamma": "False", 
        "use_global_stats": "True"
      }, 
      "inputs": []
    }, 
    {
      "op": "BatchNorm", 
      "name": "inception_c2_3x3_reduce_bn", 
      "attr": {
        "eps": "0.001", 
        "fix_gamma": "False", 
        "use_global_stats": "True"
      }, 
      "inputs": [[736, 0, 0], [737, 0, 0], [738, 0, 0], [739, 0, 1], [740, 0, 1]]
    }, 
    {
      "op": "Activation", 
      "name": "inception_c2_3x3_reduce_relu", 
      "attr": {"act_type": "relu"}, 
      "inputs": [[741, 0, 0]]
    }, 
    {
      "op": "null", 
      "name": "inception_c2_3x3_weight", 
      "attr": {
        "kernel": "(3, 3)", 
        "no_bias": "True", 
        "num_filter": "384", 
        "pad": "(1, 1)", 
        "stride": "(1, 1)"
      }, 
      "inputs": []
    }, 
    {
      "op": "Convolution", 
      "name": "inception_c2_3x3", 
      "attr": {
        "kernel": "(3, 3)", 
        "no_bias": "True", 
        "num_filter": "384", 
        "pad": "(1, 1)", 
        "stride": "(1, 1)"
      }, 
      "inputs": [[742, 0, 0], [743, 0, 0]]
    }, 
    {
      "op": "null", 
      "name": "inception_c2_3x3_bn_gamma", 
      "attr": {
        "eps": "0.001", 
        "fix_gamma": "False", 
        "use_global_stats": "True"
      }, 
      "inputs": []
    }, 
    {
      "op": "null", 
      "name": "inception_c2_3x3_bn_beta", 
      "attr": {
        "eps": "0.001", 
        "fix_gamma": "False", 
        "use_global_stats": "True"
      }, 
      "inputs": []
    }, 
    {
      "op": "null", 
      "name": "inception_c2_3x3_bn_moving_mean", 
      "attr": {
        "__init__": "[\"zero\", {}]", 
        "eps": "0.001", 
        "fix_gamma": "False", 
        "use_global_stats": "True"
      }, 
      "inputs": []
    }, 
    {
      "op": "null", 
      "name": "inception_c2_3x3_bn_moving_var", 
      "attr": {
        "__init__": "[\"one\", {}]", 
        "eps": "0.001", 
        "fix_gamma": "False", 
        "use_global_stats": "True"
      }, 
      "inputs": []
    }, 
    {
      "op": "BatchNorm", 
      "name": "inception_c2_3x3_bn", 
      "attr": {
        "eps": "0.001", 
        "fix_gamma": "False", 
        "use_global_stats": "True"
      }, 
      "inputs": [[744, 0, 0], [745, 0, 0], [746, 0, 0], [747, 0, 1], [748, 0, 1]]
    }, 
    {
      "op": "Activation", 
      "name": "inception_c2_3x3_relu", 
      "attr": {"act_type": "relu"}, 
      "inputs": [[749, 0, 0]]
    }, 
    {
      "op": "null", 
      "name": "inception_c2_1x3_2_weight", 
      "attr": {
        "kernel": "(1, 3)", 
        "no_bias": "True", 
        "num_filter": "384", 
        "pad": "(0, 1)", 
        "stride": "(1, 1)"
      }, 
      "inputs": []
    }, 
    {
      "op": "Convolution", 
      "name": "inception_c2_1x3_2", 
      "attr": {
        "kernel": "(1, 3)", 
        "no_bias": "True", 
        "num_filter": "384", 
        "pad": "(0, 1)", 
        "stride": "(1, 1)"
      }, 
      "inputs": [[750, 0, 0], [751, 0, 0]]
    }, 
    {
      "op": "null", 
      "name": "inception_c2_1x3_2_bn_gamma", 
      "attr": {
        "eps": "0.001", 
        "fix_gamma": "False", 
        "use_global_stats": "True"
      }, 
      "inputs": []
    }, 
    {
      "op": "null", 
      "name": "inception_c2_1x3_2_bn_beta", 
      "attr": {
        "eps": "0.001", 
        "fix_gamma": "False", 
        "use_global_stats": "True"
      }, 
      "inputs": []
    }, 
    {
      "op": "null", 
      "name": "inception_c2_1x3_2_bn_moving_mean", 
      "attr": {
        "__init__": "[\"zero\", {}]", 
        "eps": "0.001", 
        "fix_gamma": "False", 
        "use_global_stats": "True"
      }, 
      "inputs": []
    }, 
    {
      "op": "null", 
      "name": "inception_c2_1x3_2_bn_moving_var", 
      "attr": {
        "__init__": "[\"one\", {}]", 
        "eps": "0.001", 
        "fix_gamma": "False", 
        "use_global_stats": "True"
      }, 
      "inputs": []
    }, 
    {
      "op": "BatchNorm", 
      "name": "inception_c2_1x3_2_bn", 
      "attr": {
        "eps": "0.001", 
        "fix_gamma": "False", 
        "use_global_stats": "True"
      }, 
      "inputs": [[752, 0, 0], [753, 0, 0], [754, 0, 0], [755, 0, 1], [756, 0, 1]]
    }, 
    {
      "op": "Activation", 
      "name": "inception_c2_1x3_2_relu", 
      "attr": {"act_type": "relu"}, 
      "inputs": [[757, 0, 0]]
    }, 
    {
      "op": "null", 
      "name": "inception_c2_3x1_2_weight", 
      "attr": {
        "kernel": "(3, 1)", 
        "no_bias": "True", 
        "num_filter": "384", 
        "pad": "(1, 0)", 
        "stride": "(1, 1)"
      }, 
      "inputs": []
    }, 
    {
      "op": "Convolution", 
      "name": "inception_c2_3x1_2", 
      "attr": {
        "kernel": "(3, 1)", 
        "no_bias": "True", 
        "num_filter": "384", 
        "pad": "(1, 0)", 
        "stride": "(1, 1)"
      }, 
      "inputs": [[750, 0, 0], [759, 0, 0]]
    }, 
    {
      "op": "null", 
      "name": "inception_c2_3x1_2_bn_gamma", 
      "attr": {
        "eps": "0.001", 
        "fix_gamma": "False", 
        "use_global_stats": "True"
      }, 
      "inputs": []
    }, 
    {
      "op": "null", 
      "name": "inception_c2_3x1_2_bn_beta", 
      "attr": {
        "eps": "0.001", 
        "fix_gamma": "False", 
        "use_global_stats": "True"
      }, 
      "inputs": []
    }, 
    {
      "op": "null", 
      "name": "inception_c2_3x1_2_bn_moving_mean", 
      "attr": {
        "__init__": "[\"zero\", {}]", 
        "eps": "0.001", 
        "fix_gamma": "False", 
        "use_global_stats": "True"
      }, 
      "inputs": []
    }, 
    {
      "op": "null", 
      "name": "inception_c2_3x1_2_bn_moving_var", 
      "attr": {
        "__init__": "[\"one\", {}]", 
        "eps": "0.001", 
        "fix_gamma": "False", 
        "use_global_stats": "True"
      }, 
      "inputs": []
    }, 
    {
      "op": "BatchNorm", 
      "name": "inception_c2_3x1_2_bn", 
      "attr": {
        "eps": "0.001", 
        "fix_gamma": "False", 
        "use_global_stats": "True"
      }, 
      "inputs": [[760, 0, 0], [761, 0, 0], [762, 0, 0], [763, 0, 1], [764, 0, 1]]
    }, 
    {
      "op": "Activation", 
      "name": "inception_c2_3x1_2_relu", 
      "attr": {"act_type": "relu"}, 
      "inputs": [[765, 0, 0]]
    }, 
    {
      "op": "Pooling", 
      "name": "inception_c2_pool", 
      "attr": {
        "kernel": "(3, 3)", 
        "pad": "(1, 1)", 
        "pool_type": "max", 
        "pooling_convention": "full", 
        "stride": "(1, 1)"
      }, 
      "inputs": [[702, 0, 0]]
    }, 
    {
      "op": "null", 
      "name": "inception_c2_1x1_weight", 
      "attr": {
        "kernel": "(1, 1)", 
        "no_bias": "True", 
        "num_filter": "192", 
        "pad": "(0, 0)", 
        "stride": "(1, 1)"
      }, 
      "inputs": []
    }, 
    {
      "op": "Convolution", 
      "name": "inception_c2_1x1", 
      "attr": {
        "kernel": "(1, 1)", 
        "no_bias": "True", 
        "num_filter": "192", 
        "pad": "(0, 0)", 
        "stride": "(1, 1)"
      }, 
      "inputs": [[767, 0, 0], [768, 0, 0]]
    }, 
    {
      "op": "null", 
      "name": "inception_c2_1x1_bn_gamma", 
      "attr": {
        "eps": "0.001", 
        "fix_gamma": "False", 
        "use_global_stats": "True"
      }, 
      "inputs": []
    }, 
    {
      "op": "null", 
      "name": "inception_c2_1x1_bn_beta", 
      "attr": {
        "eps": "0.001", 
        "fix_gamma": "False", 
        "use_global_stats": "True"
      }, 
      "inputs": []
    }, 
    {
      "op": "null", 
      "name": "inception_c2_1x1_bn_moving_mean", 
      "attr": {
        "__init__": "[\"zero\", {}]", 
        "eps": "0.001", 
        "fix_gamma": "False", 
        "use_global_stats": "True"
      }, 
      "inputs": []
    }, 
    {
      "op": "null", 
      "name": "inception_c2_1x1_bn_moving_var", 
      "attr": {
        "__init__": "[\"one\", {}]", 
        "eps": "0.001", 
        "fix_gamma": "False", 
        "use_global_stats": "True"
      }, 
      "inputs": []
    }, 
    {
      "op": "BatchNorm", 
      "name": "inception_c2_1x1_bn", 
      "attr": {
        "eps": "0.001", 
        "fix_gamma": "False", 
        "use_global_stats": "True"
      }, 
      "inputs": [[769, 0, 0], [770, 0, 0], [771, 0, 0], [772, 0, 1], [773, 0, 1]]
    }, 
    {
      "op": "Activation", 
      "name": "inception_c2_1x1_relu", 
      "attr": {"act_type": "relu"}, 
      "inputs": [[774, 0, 0]]
    }, 
    {
      "op": "Concat", 
      "name": "inception_c2_concat", 
      "attr": {"num_args": "6"}, 
      "inputs": [[710, 0, 0], [726, 0, 0], [734, 0, 0], [758, 0, 0], [766, 0, 0], [775, 0, 0]]
    }, 
    {
      "op": "Pooling", 
      "name": "pool_8x8_s1", 
      "attr": {
        "global_pool": "True", 
        "kernel": "(1, 1)", 
        "pool_type": "avg", 
        "pooling_convention": "full"
      }, 
      "inputs": [[776, 0, 0]]
    }, 
    {
      "op": "Dropout", 
      "name": "pool_8x8_s1_drop", 
      "attr": {"p": "0.2"}, 
      "inputs": [[777, 0, 0]]
    }, 
    {
      "op": "Flatten", 
      "name": "flatten_0", 
      "inputs": [[778, 0, 0]]
    }, 
    {
      "op": "null", 
      "name": "classifier_weight", 
      "attr": {
        "no_bias": "False", 
        "num_hidden": "1000"
      }, 
      "inputs": []
    }, 
    {
      "op": "null", 
      "name": "classifier_bias", 
      "attr": {
        "no_bias": "False", 
        "num_hidden": "1000"
      }, 
      "inputs": []
    }, 
    {
      "op": "FullyConnected", 
      "name": "classifier", 
      "attr": {
        "no_bias": "False", 
        "num_hidden": "1000"
      }, 
      "inputs": [[779, 0, 0], [780, 0, 0], [781, 0, 0]]
    }, 
    {
      "op": "null", 
      "name": "prob_label", 
      "inputs": []
    }, 
    {
      "op": "SoftmaxOutput", 
      "name": "prob", 
      "inputs": [[782, 0, 0], [783, 0, 0]]
    }
  ], 
  "arg_nodes": [
    0, 
    1, 
    3, 
    4, 
    5, 
    6, 
    9, 
    11, 
    12, 
    13, 
    14, 
    17, 
    19, 
    20, 
    21, 
    22, 
    26, 
    28, 
    29, 
    30, 
    31, 
    34, 
    36, 
    37, 
    38, 
    39, 
    43, 
    45, 
    46, 
    47, 
    48, 
    51, 
    53, 
    54, 
    55, 
    56, 
    59, 
    61, 
    62, 
    63, 
    64, 
    67, 
    69, 
    70, 
    71, 
    72, 
    75, 
    77, 
    78, 
    79, 
    80, 
    83, 
    85, 
    86, 
    87, 
    88, 
    92, 
    94, 
    95, 
    96, 
    97, 
    101, 
    103, 
    104, 
    105, 
    106, 
    109, 
    111, 
    112, 
    113, 
    114, 
    117, 
    119, 
    120, 
    121, 
    122, 
    125, 
    127, 
    128, 
    129, 
    130, 
    133, 
    135, 
    136, 
    137, 
    138, 
    141, 
    143, 
    144, 
    145, 
    146, 
    150, 
    152, 
    153, 
    154, 
    155, 
    159, 
    161, 
    162, 
    163, 
    164, 
    167, 
    169, 
    170, 
    171, 
    172, 
    175, 
    177, 
    178, 
    179, 
    180, 
    183, 
    185, 
    186, 
    187, 
    188, 
    191, 
    193, 
    194, 
    195, 
    196, 
    199, 
    201, 
    202, 
    203, 
    204, 
    208, 
    210, 
    211, 
    212, 
    213, 
    217, 
    219, 
    220, 
    221, 
    222, 
    225, 
    227, 
    228, 
    229, 
    230, 
    233, 
    235, 
    236, 
    237, 
    238, 
    241, 
    243, 
    244, 
    245, 
    246, 
    251, 
    253, 
    254, 
    255, 
    256, 
    259, 
    261, 
    262, 
    263, 
    264, 
    267, 
    269, 
    270, 
    271, 
    272, 
    275, 
    277, 
    278, 
    279, 
    280, 
    283, 
    285, 
    286, 
    287, 
    288, 
    291, 
    293, 
    294, 
    295, 
    296, 
    299, 
    301, 
    302, 
    303, 
    304, 
    307, 
    309, 
    310, 
    311, 
    312, 
    315, 
    317, 
    318, 
    319, 
    320, 
    324, 
    326, 
    327, 
    328, 
    329, 
    333, 
    335, 
    336, 
    337, 
    338, 
    341, 
    343, 
    344, 
    345, 
    346, 
    349, 
    351, 
    352, 
    353, 
    354, 
    357, 
    359, 
    360, 
    361, 
    362, 
    365, 
    367, 
    368, 
    369, 
    370, 
    373, 
    375, 
    376, 
    377, 
    378, 
    381, 
    383, 
    384, 
    385, 
    386, 
    389, 
    391, 
    392, 
    393, 
    394, 
    397, 
    399, 
    400, 
    401, 
    402, 
    406, 
    408, 
    409, 
    410, 
    411, 
    415, 
    417, 
    418, 
    419, 
    420, 
    423, 
    425, 
    426, 
    427, 
    428, 
    431, 
    433, 
    434, 
    435, 
    436, 
    439, 
    441, 
    442, 
    443, 
    444, 
    447, 
    449, 
    450, 
    451, 
    452, 
    455, 
    457, 
    458, 
    459, 
    460, 
    463, 
    465, 
    466, 
    467, 
    468, 
    471, 
    473, 
    474, 
    475, 
    476, 
    479, 
    481, 
    482, 
    483, 
    484, 
    488, 
    490, 
    491, 
    492, 
    493, 
    497, 
    499, 
    500, 
    501, 
    502, 
    505, 
    507, 
    508, 
    509, 
    510, 
    513, 
    515, 
    516, 
    517, 
    518, 
    521, 
    523, 
    524, 
    525, 
    526, 
    529, 
    531, 
    532, 
    533, 
    534, 
    537, 
    539, 
    540, 
    541, 
    542, 
    545, 
    547, 
    548, 
    549, 
    550, 
    553, 
    555, 
    556, 
    557, 
    558, 
    561, 
    563, 
    564, 
    565, 
    566, 
    570, 
    572, 
    573, 
    574, 
    575, 
    579, 
    581, 
    582, 
    583, 
    584, 
    587, 
    589, 
    590, 
    591, 
    592, 
    595, 
    597, 
    598, 
    599, 
    600, 
    603, 
    605, 
    606, 
    607, 
    608, 
    611, 
    613, 
    614, 
    615, 
    616, 
    619, 
    621, 
    622, 
    623, 
    624, 
    629, 
    631, 
    632, 
    633, 
    634, 
    637, 
    639, 
    640, 
    641, 
    642, 
    645, 
    647, 
    648, 
    649, 
    650, 
    653, 
    655, 
    656, 
    657, 
    658, 
    661, 
    663, 
    664, 
    665, 
    666, 
    669, 
    671, 
    672, 
    673, 
    674, 
    677, 
    679, 
    680, 
    681, 
    682, 
    685, 
    687, 
    688, 
    689, 
    690, 
    694, 
    696, 
    697, 
    698, 
    699, 
    703, 
    705, 
    706, 
    707, 
    708, 
    711, 
    713, 
    714, 
    715, 
    716, 
    719, 
    721, 
    722, 
    723, 
    724, 
    727, 
    729, 
    730, 
    731, 
    732, 
    735, 
    737, 
    738, 
    739, 
    740, 
    743, 
    745, 
    746, 
    747, 
    748, 
    751, 
    753, 
    754, 
    755, 
    756, 
    759, 
    761, 
    762, 
    763, 
    764, 
    768, 
    770, 
    771, 
    772, 
    773, 
    780, 
    781, 
    783
  ], 
  "node_row_ptr": [
    0, 
    1, 
    2, 
    3, 
    4, 
    5, 
    6, 
    7, 
    10, 
    11, 
    12, 
    13, 
    14, 
    15, 
    16, 
    17, 
    20, 
    21, 
    22, 
    23, 
    24, 
    25, 
    26, 
    27, 
    30, 
    31, 
    32, 
    33, 
    34, 
    35, 
    36, 
    37, 
    38, 
    41, 
    42, 
    43, 
    44, 
    45, 
    46, 
    47, 
    48, 
    51, 
    52, 
    53, 
    54, 
    55, 
    56, 
    57, 
    58, 
    59, 
    62, 
    63, 
    64, 
    65, 
    66, 
    67, 
    68, 
    69, 
    72, 
    73, 
    74, 
    75, 
    76, 
    77, 
    78, 
    79, 
    82, 
    83, 
    84, 
    85, 
    86, 
    87, 
    88, 
    89, 
    92, 
    93, 
    94, 
    95, 
    96, 
    97, 
    98, 
    99, 
    102, 
    103, 
    104, 
    105, 
    106, 
    107, 
    108, 
    109, 
    112, 
    113, 
    114, 
    115, 
    116, 
    117, 
    118, 
    119, 
    120, 
    123, 
    124, 
    125, 
    126, 
    127, 
    128, 
    129, 
    130, 
    131, 
    134, 
    135, 
    136, 
    137, 
    138, 
    139, 
    140, 
    141, 
    144, 
    145, 
    146, 
    147, 
    148, 
    149, 
    150, 
    151, 
    154, 
    155, 
    156, 
    157, 
    158, 
    159, 
    160, 
    161, 
    164, 
    165, 
    166, 
    167, 
    168, 
    169, 
    170, 
    171, 
    174, 
    175, 
    176, 
    177, 
    178, 
    179, 
    180, 
    181, 
    184, 
    185, 
    186, 
    187, 
    188, 
    189, 
    190, 
    191, 
    192, 
    195, 
    196, 
    197, 
    198, 
    199, 
    200, 
    201, 
    202, 
    203, 
    206, 
    207, 
    208, 
    209, 
    210, 
    211, 
    212, 
    213, 
    216, 
    217, 
    218, 
    219, 
    220, 
    221, 
    222, 
    223, 
    226, 
    227, 
    228, 
    229, 
    230, 
    231, 
    232, 
    233, 
    236, 
    237, 
    238, 
    239, 
    240, 
    241, 
    242, 
    243, 
    246, 
    247, 
    248, 
    249, 
    250, 
    251, 
    252, 
    253, 
    256, 
    257, 
    258, 
    259, 
    260, 
    261, 
    262, 
    263, 
    264, 
    267, 
    268, 
    269, 
    270, 
    271, 
    272, 
    273, 
    274, 
    275, 
    278, 
    279, 
    280, 
    281, 
    282, 
    283, 
    284, 
    285, 
    288, 
    289, 
    290, 
    291, 
    292, 
    293, 
    294, 
    295, 
    298, 
    299, 
    300, 
    301, 
    302, 
    303, 
    304, 
    305, 
    308, 
    309, 
    310, 
    311, 
    312, 
    313, 
    314, 
    315, 
    316, 
    317, 
    320, 
    321, 
    322, 
    323, 
    324, 
    325, 
    326, 
    327, 
    330, 
    331, 
    332, 
    333, 
    334, 
    335, 
    336, 
    337, 
    340, 
    341, 
    342, 
    343, 
    344, 
    345, 
    346, 
    347, 
    350, 
    351, 
    352, 
    353, 
    354, 
    355, 
    356, 
    357, 
    360, 
    361, 
    362, 
    363, 
    364, 
    365, 
    366, 
    367, 
    370, 
    371, 
    372, 
    373, 
    374, 
    375, 
    376, 
    377, 
    380, 
    381, 
    382, 
    383, 
    384, 
    385, 
    386, 
    387, 
    390, 
    391, 
    392, 
    393, 
    394, 
    395, 
    396, 
    397, 
    400, 
    401, 
    402, 
    403, 
    404, 
    405, 
    406, 
    407, 
    408, 
    411, 
    412, 
    413, 
    414, 
    415, 
    416, 
    417, 
    418, 
    419, 
    422, 
    423, 
    424, 
    425, 
    426, 
    427, 
    428, 
    429, 
    432, 
    433, 
    434, 
    435, 
    436, 
    437, 
    438, 
    439, 
    442, 
    443, 
    444, 
    445, 
    446, 
    447, 
    448, 
    449, 
    452, 
    453, 
    454, 
    455, 
    456, 
    457, 
    458, 
    459, 
    462, 
    463, 
    464, 
    465, 
    466, 
    467, 
    468, 
    469, 
    472, 
    473, 
    474, 
    475, 
    476, 
    477, 
    478, 
    479, 
    482, 
    483, 
    484, 
    485, 
    486, 
    487, 
    488, 
    489, 
    492, 
    493, 
    494, 
    495, 
    496, 
    497, 
    498, 
    499, 
    502, 
    503, 
    504, 
    505, 
    506, 
    507, 
    508, 
    509, 
    510, 
    513, 
    514, 
    515, 
    516, 
    517, 
    518, 
    519, 
    520, 
    521, 
    524, 
    525, 
    526, 
    527, 
    528, 
    529, 
    530, 
    531, 
    534, 
    535, 
    536, 
    537, 
    538, 
    539, 
    540, 
    541, 
    544, 
    545, 
    546, 
    547, 
    548, 
    549, 
    550, 
    551, 
    554, 
    555, 
    556, 
    557, 
    558, 
    559, 
    560, 
    561, 
    564, 
    565, 
    566, 
    567, 
    568, 
    569, 
    570, 
    571, 
    574, 
    575, 
    576, 
    577, 
    578, 
    579, 
    580, 
    581, 
    584, 
    585, 
    586, 
    587, 
    588, 
    589, 
    590, 
    591, 
    594, 
    595, 
    596, 
    597, 
    598, 
    599, 
    600, 
    601, 
    604, 
    605, 
    606, 
    607, 
    608, 
    609, 
    610, 
    611, 
    612, 
    615, 
    616, 
    617, 
    618, 
    619, 
    620, 
    621, 
    622, 
    623, 
    626, 
    627, 
    628, 
    629, 
    630, 
    631, 
    632, 
    633, 
    636, 
    637, 
    638, 
    639, 
    640, 
    641, 
    642, 
    643, 
    646, 
    647, 
    648, 
    649, 
    650, 
    651, 
    652, 
    653, 
    656, 
    657, 
    658, 
    659, 
    660, 
    661, 
    662, 
    663, 
    666, 
    667, 
    668, 
    669, 
    670, 
    671, 
    672, 
    673, 
    676, 
    677, 
    678, 
    679, 
    680, 
    681, 
    682, 
    683, 
    686, 
    687, 
    688, 
    689, 
    690, 
    691, 
    692, 
    693, 
    696, 
    697, 
    698, 
    699, 
    700, 
    701, 
    702, 
    703, 
    706, 
    707, 
    708, 
    709, 
    710, 
    711, 
    712, 
    713, 
    714, 
    717, 
    718, 
    719, 
    720, 
    721, 
    722, 
    723, 
    724, 
    725, 
    728, 
    729, 
    730, 
    731, 
    732, 
    733, 
    734, 
    735, 
    738, 
    739, 
    740, 
    741, 
    742, 
    743, 
    744, 
    745, 
    748, 
    749, 
    750, 
    751, 
    752, 
    753, 
    754, 
    755, 
    758, 
    759, 
    760, 
    761, 
    762, 
    763, 
    764, 
    765, 
    768, 
    769, 
    770, 
    771, 
    772, 
    773, 
    774, 
    775, 
    778, 
    779, 
    780, 
    781, 
    782, 
    783, 
    784, 
    785, 
    786, 
    787, 
    790, 
    791, 
    792, 
    793, 
    794, 
    795, 
    796, 
    797, 
    800, 
    801, 
    802, 
    803, 
    804, 
    805, 
    806, 
    807, 
    810, 
    811, 
    812, 
    813, 
    814, 
    815, 
    816, 
    817, 
    820, 
    821, 
    822, 
    823, 
    824, 
    825, 
    826, 
    827, 
    830, 
    831, 
    832, 
    833, 
    834, 
    835, 
    836, 
    837, 
    840, 
    841, 
    842, 
    843, 
    844, 
    845, 
    846, 
    847, 
    850, 
    851, 
    852, 
    853, 
    854, 
    855, 
    856, 
    857, 
    860, 
    861, 
    862, 
    863, 
    864, 
    865, 
    866, 
    867, 
    868, 
    871, 
    872, 
    873, 
    874, 
    875, 
    876, 
    877, 
    878, 
    879, 
    882, 
    883, 
    884, 
    885, 
    886, 
    887, 
    888, 
    889, 
    892, 
    893, 
    894, 
    895, 
    896, 
    897, 
    898, 
    899, 
    902, 
    903, 
    904, 
    905, 
    906, 
    907, 
    908, 
    909, 
    912, 
    913, 
    914, 
    915, 
    916, 
    917, 
    918, 
    919, 
    922, 
    923, 
    924, 
    925, 
    926, 
    927, 
    928, 
    929, 
    932, 
    933, 
    934, 
    935, 
    936, 
    937, 
    938, 
    939, 
    942, 
    943, 
    944, 
    945, 
    946, 
    947, 
    948, 
    949, 
    952, 
    953, 
    954, 
    955, 
    956, 
    957, 
    958, 
    959, 
    960, 
    963, 
    964, 
    965, 
    966, 
    968, 
    969, 
    970, 
    971, 
    972, 
    973, 
    974
  ], 
  "heads": [[784, 0, 0]], 
  "attrs": {"mxnet_version": ["int", 1100]}
}