{
  "nodes": [
    {
      "op": "null", 
      "name": "data", 
      "inputs": []
    }, 
    {
      "op": "null", 
      "name": "conv1_3x3_s2_weight", 
      "attrs": {
        "kernel": "(3, 3)", 
        "no_bias": "True", 
        "num_filter": "32", 
        "pad": "(0, 0)", 
        "stride": "(2, 2)"
      }, 
      "inputs": []
    }, 
    {
      "op": "Convolution", 
      "name": "conv1_3x3_s2", 
      "attrs": {
        "kernel": "(3, 3)", 
        "no_bias": "True", 
        "num_filter": "32", 
        "pad": "(0, 0)", 
        "stride": "(2, 2)"
      }, 
      "inputs": [[0, 0, 0], [1, 0, 0]]
    }, 
    {
      "op": "null", 
      "name": "conv1_3x3_s2_bn_gamma", 
      "attrs": {
        "eps": "0.001", 
        "fix_gamma": "False", 
        "use_global_stats": "True"
      }, 
      "inputs": []
    }, 
    {
      "op": "null", 
      "name": "conv1_3x3_s2_bn_beta", 
      "attrs": {
        "eps": "0.001", 
        "fix_gamma": "False", 
        "use_global_stats": "True"
      }, 
      "inputs": []
    }, 
    {
      "op": "null", 
      "name": "conv1_3x3_s2_bn_moving_mean", 
      "attrs": {
        "__init__": "[\"zero\", {}]", 
        "eps": "0.001", 
        "fix_gamma": "False", 
        "use_global_stats": "True"
      }, 
      "inputs": []
    }, 
    {
      "op": "null", 
      "name": "conv1_3x3_s2_bn_moving_var", 
      "attrs": {
        "__init__": "[\"one\", {}]", 
        "eps": "0.001", 
        "fix_gamma": "False", 
        "use_global_stats": "True"
      }, 
      "inputs": []
    }, 
    {
      "op": "BatchNorm", 
      "name": "conv1_3x3_s2_bn", 
      "attrs": {
        "eps": "0.001", 
        "fix_gamma": "False", 
        "use_global_stats": "True"
      }, 
      "inputs": [[2, 0, 0], [3, 0, 0], [4, 0, 0], [5, 0, 1], [6, 0, 1]]
    }, 
    {
      "op": "Activation", 
      "name": "conv1_3x3_relu", 
      "attrs": {"act_type": "relu"}, 
      "inputs": [[7, 0, 0]]
    }, 
    {
      "op": "null", 
      "name": "conv2_3x3_s1_weight", 
      "attrs": {
        "kernel": "(3, 3)", 
        "no_bias": "True", 
        "num_filter": "32", 
        "pad": "(0, 0)", 
        "stride": "(1, 1)"
      }, 
      "inputs": []
    }, 
    {
      "op": "Convolution", 
      "name": "conv2_3x3_s1", 
      "attrs": {
        "kernel": "(3, 3)", 
        "no_bias": "True", 
        "num_filter": "32", 
        "pad": "(0, 0)", 
        "stride": "(1, 1)"
      }, 
      "inputs": [[8, 0, 0], [9, 0, 0]]
    }, 
    {
      "op": "null", 
      "name": "conv2_3x3_s1_bn_gamma", 
      "attrs": {
        "eps": "0.001", 
        "fix_gamma": "False", 
        "use_global_stats": "True"
      }, 
      "inputs": []
    }, 
    {
      "op": "null", 
      "name": "conv2_3x3_s1_bn_beta", 
      "attrs": {
        "eps": "0.001", 
        "fix_gamma": "False", 
        "use_global_stats": "True"
      }, 
      "inputs": []
    }, 
    {
      "op": "null", 
      "name": "conv2_3x3_s1_bn_moving_mean", 
      "attrs": {
        "__init__": "[\"zero\", {}]", 
        "eps": "0.001", 
        "fix_gamma": "False", 
        "use_global_stats": "True"
      }, 
      "inputs": []
    }, 
    {
      "op": "null", 
      "name": "conv2_3x3_s1_bn_moving_var", 
      "attrs": {
        "__init__": "[\"one\", {}]", 
        "eps": "0.001", 
        "fix_gamma": "False", 
        "use_global_stats": "True"
      }, 
      "inputs": []
    }, 
    {
      "op": "BatchNorm", 
      "name": "conv2_3x3_s1_bn", 
      "attrs": {
        "eps": "0.001", 
        "fix_gamma": "False", 
        "use_global_stats": "True"
      }, 
      "inputs": [[10, 0, 0], [11, 0, 0], [12, 0, 0], [13, 0, 1], [14, 0, 1]]
    }, 
    {
      "op": "Activation", 
      "name": "conv2_3x3_relu", 
      "attrs": {"act_type": "relu"}, 
      "inputs": [[15, 0, 0]]
    }, 
    {
      "op": "null", 
      "name": "conv3_3x3_s1_weight", 
      "attrs": {
        "kernel": "(3, 3)", 
        "no_bias": "True", 
        "num_filter": "64", 
        "pad": "(1, 1)", 
        "stride": "(1, 1)"
      }, 
      "inputs": []
    }, 
    {
      "op": "Convolution", 
      "name": "conv3_3x3_s1", 
      "attrs": {
        "kernel": "(3, 3)", 
        "no_bias": "True", 
        "num_filter": "64", 
        "pad": "(1, 1)", 
        "stride": "(1, 1)"
      }, 
      "inputs": [[16, 0, 0], [17, 0, 0]]
    }, 
    {
      "op": "null", 
      "name": "conv3_3x3_s1_bn_gamma", 
      "attrs": {
        "eps": "0.001", 
        "fix_gamma": "False", 
        "use_global_stats": "True"
      }, 
      "inputs": []
    }, 
    {
      "op": "null", 
      "name": "conv3_3x3_s1_bn_beta", 
      "attrs": {
        "eps": "0.001", 
        "fix_gamma": "False", 
        "use_global_stats": "True"
      }, 
      "inputs": []
    }, 
    {
      "op": "null", 
      "name": "conv3_3x3_s1_bn_moving_mean", 
      "attrs": {
        "__init__": "[\"zero\", {}]", 
        "eps": "0.001", 
        "fix_gamma": "False", 
        "use_global_stats": "True"
      }, 
      "inputs": []
    }, 
    {
      "op": "null", 
      "name": "conv3_3x3_s1_bn_moving_var", 
      "attrs": {
        "__init__": "[\"one\", {}]", 
        "eps": "0.001", 
        "fix_gamma": "False", 
        "use_global_stats": "True"
      }, 
      "inputs": []
    }, 
    {
      "op": "BatchNorm", 
      "name": "conv3_3x3_s1_bn", 
      "attrs": {
        "eps": "0.001", 
        "fix_gamma": "False", 
        "use_global_stats": "True"
      }, 
      "inputs": [[18, 0, 0], [19, 0, 0], [20, 0, 0], [21, 0, 1], [22, 0, 1]]
    }, 
    {
      "op": "Activation", 
      "name": "conv3_3x3_relu", 
      "attrs": {"act_type": "relu"}, 
      "inputs": [[23, 0, 0]]
    }, 
    {
      "op": "Pooling", 
      "name": "pool1_3x3_s2", 
      "attrs": {
        "cudnn_off": "False", 
        "global_pool": "False", 
        "kernel": "(3, 3)", 
        "pad": "(0, 0)", 
        "pool_type": "max", 
        "pooling_convention": "full", 
        "stride": "(2, 2)"
      }, 
      "inputs": [[24, 0, 0]]
    }, 
    {
      "op": "null", 
      "name": "conv4_3x3_reduce_weight", 
      "attrs": {
        "kernel": "(1, 1)", 
        "no_bias": "True", 
        "num_filter": "80", 
        "pad": "(0, 0)", 
        "stride": "(1, 1)"
      }, 
      "inputs": []
    }, 
    {
      "op": "Convolution", 
      "name": "conv4_3x3_reduce", 
      "attrs": {
        "kernel": "(1, 1)", 
        "no_bias": "True", 
        "num_filter": "80", 
        "pad": "(0, 0)", 
        "stride": "(1, 1)"
      }, 
      "inputs": [[25, 0, 0], [26, 0, 0]]
    }, 
    {
      "op": "null", 
      "name": "conv4_3x3_reduce_bn_gamma", 
      "attrs": {
        "eps": "0.001", 
        "fix_gamma": "False", 
        "use_global_stats": "True"
      }, 
      "inputs": []
    }, 
    {
      "op": "null", 
      "name": "conv4_3x3_reduce_bn_beta", 
      "attrs": {
        "eps": "0.001", 
        "fix_gamma": "False", 
        "use_global_stats": "True"
      }, 
      "inputs": []
    }, 
    {
      "op": "null", 
      "name": "conv4_3x3_reduce_bn_moving_mean", 
      "attrs": {
        "__init__": "[\"zero\", {}]", 
        "eps": "0.001", 
        "fix_gamma": "False", 
        "use_global_stats": "True"
      }, 
      "inputs": []
    }, 
    {
      "op": "null", 
      "name": "conv4_3x3_reduce_bn_moving_var", 
      "attrs": {
        "__init__": "[\"one\", {}]", 
        "eps": "0.001", 
        "fix_gamma": "False", 
        "use_global_stats": "True"
      }, 
      "inputs": []
    }, 
    {
      "op": "BatchNorm", 
      "name": "conv4_3x3_reduce_bn", 
      "attrs": {
        "eps": "0.001", 
        "fix_gamma": "False", 
        "use_global_stats": "True"
      }, 
      "inputs": [[27, 0, 0], [28, 0, 0], [29, 0, 0], [30, 0, 1], [31, 0, 1]]
    }, 
    {
      "op": "Activation", 
      "name": "conv4_relu_3x3_reduce", 
      "attrs": {"act_type": "relu"}, 
      "inputs": [[32, 0, 0]]
    }, 
    {
      "op": "null", 
      "name": "conv4_3x3_weight", 
      "attrs": {
        "kernel": "(3, 3)", 
        "no_bias": "True", 
        "num_filter": "192", 
        "pad": "(0, 0)", 
        "stride": "(1, 1)"
      }, 
      "inputs": []
    }, 
    {
      "op": "Convolution", 
      "name": "conv4_3x3", 
      "attrs": {
        "kernel": "(3, 3)", 
        "no_bias": "True", 
        "num_filter": "192", 
        "pad": "(0, 0)", 
        "stride": "(1, 1)"
      }, 
      "inputs": [[33, 0, 0], [34, 0, 0]]
    }, 
    {
      "op": "null", 
      "name": "conv4_3x3_bn_gamma", 
      "attrs": {
        "eps": "0.001", 
        "fix_gamma": "False", 
        "use_global_stats": "True"
      }, 
      "inputs": []
    }, 
    {
      "op": "null", 
      "name": "conv4_3x3_bn_beta", 
      "attrs": {
        "eps": "0.001", 
        "fix_gamma": "False", 
        "use_global_stats": "True"
      }, 
      "inputs": []
    }, 
    {
      "op": "null", 
      "name": "conv4_3x3_bn_moving_mean", 
      "attrs": {
        "__init__": "[\"zero\", {}]", 
        "eps": "0.001", 
        "fix_gamma": "False", 
        "use_global_stats": "True"
      }, 
      "inputs": []
    }, 
    {
      "op": "null", 
      "name": "conv4_3x3_bn_moving_var", 
      "attrs": {
        "__init__": "[\"one\", {}]", 
        "eps": "0.001", 
        "fix_gamma": "False", 
        "use_global_stats": "True"
      }, 
      "inputs": []
    }, 
    {
      "op": "BatchNorm", 
      "name": "conv4_3x3_bn", 
      "attrs": {
        "eps": "0.001", 
        "fix_gamma": "False", 
        "use_global_stats": "True"
      }, 
      "inputs": [[35, 0, 0], [36, 0, 0], [37, 0, 0], [38, 0, 1], [39, 0, 1]]
    }, 
    {
      "op": "Activation", 
      "name": "conv4_relu_3x3", 
      "attrs": {"act_type": "relu"}, 
      "inputs": [[40, 0, 0]]
    }, 
    {
      "op": "Pooling", 
      "name": "pool2_3x3_s2", 
      "attrs": {
        "cudnn_off": "False", 
        "global_pool": "False", 
        "kernel": "(3, 3)", 
        "pad": "(0, 0)", 
        "pool_type": "max", 
        "pooling_convention": "full", 
        "stride": "(2, 2)"
      }, 
      "inputs": [[41, 0, 0]]
    }, 
    {
      "op": "null", 
      "name": "conv5_1x1_weight", 
      "attrs": {
        "kernel": "(1, 1)", 
        "no_bias": "True", 
        "num_filter": "96", 
        "pad": "(0, 0)", 
        "stride": "(1, 1)"
      }, 
      "inputs": []
    }, 
    {
      "op": "Convolution", 
      "name": "conv5_1x1", 
      "attrs": {
        "kernel": "(1, 1)", 
        "no_bias": "True", 
        "num_filter": "96", 
        "pad": "(0, 0)", 
        "stride": "(1, 1)"
      }, 
      "inputs": [[42, 0, 0], [43, 0, 0]]
    }, 
    {
      "op": "null", 
      "name": "conv5_1x1_bn_gamma", 
      "attrs": {
        "eps": "0.001", 
        "fix_gamma": "False", 
        "use_global_stats": "True"
      }, 
      "inputs": []
    }, 
    {
      "op": "null", 
      "name": "conv5_1x1_bn_beta", 
      "attrs": {
        "eps": "0.001", 
        "fix_gamma": "False", 
        "use_global_stats": "True"
      }, 
      "inputs": []
    }, 
    {
      "op": "null", 
      "name": "conv5_1x1_bn_moving_mean", 
      "attrs": {
        "__init__": "[\"zero\", {}]", 
        "eps": "0.001", 
        "fix_gamma": "False", 
        "use_global_stats": "True"
      }, 
      "inputs": []
    }, 
    {
      "op": "null", 
      "name": "conv5_1x1_bn_moving_var", 
      "attrs": {
        "__init__": "[\"one\", {}]", 
        "eps": "0.001", 
        "fix_gamma": "False", 
        "use_global_stats": "True"
      }, 
      "inputs": []
    }, 
    {
      "op": "BatchNorm", 
      "name": "conv5_1x1_bn", 
      "attrs": {
        "eps": "0.001", 
        "fix_gamma": "False", 
        "use_global_stats": "True"
      }, 
      "inputs": [[44, 0, 0], [45, 0, 0], [46, 0, 0], [47, 0, 1], [48, 0, 1]]
    }, 
    {
      "op": "Activation", 
      "name": "conv5_1x1_relu", 
      "attrs": {"act_type": "relu"}, 
      "inputs": [[49, 0, 0]]
    }, 
    {
      "op": "null", 
      "name": "conv5_5x5_reduce_weight", 
      "attrs": {
        "kernel": "(1, 1)", 
        "no_bias": "True", 
        "num_filter": "48", 
        "pad": "(0, 0)", 
        "stride": "(1, 1)"
      }, 
      "inputs": []
    }, 
    {
      "op": "Convolution", 
      "name": "conv5_5x5_reduce", 
      "attrs": {
        "kernel": "(1, 1)", 
        "no_bias": "True", 
        "num_filter": "48", 
        "pad": "(0, 0)", 
        "stride": "(1, 1)"
      }, 
      "inputs": [[42, 0, 0], [51, 0, 0]]
    }, 
    {
      "op": "null", 
      "name": "conv5_5x5_reduce_bn_gamma", 
      "attrs": {
        "eps": "0.001", 
        "fix_gamma": "False", 
        "use_global_stats": "True"
      }, 
      "inputs": []
    }, 
    {
      "op": "null", 
      "name": "conv5_5x5_reduce_bn_beta", 
      "attrs": {
        "eps": "0.001", 
        "fix_gamma": "False", 
        "use_global_stats": "True"
      }, 
      "inputs": []
    }, 
    {
      "op": "null", 
      "name": "conv5_5x5_reduce_bn_moving_mean", 
      "attrs": {
        "__init__": "[\"zero\", {}]", 
        "eps": "0.001", 
        "fix_gamma": "False", 
        "use_global_stats": "True"
      }, 
      "inputs": []
    }, 
    {
      "op": "null", 
      "name": "conv5_5x5_reduce_bn_moving_var", 
      "attrs": {
        "__init__": "[\"one\", {}]", 
        "eps": "0.001", 
        "fix_gamma": "False", 
        "use_global_stats": "True"
      }, 
      "inputs": []
    }, 
    {
      "op": "BatchNorm", 
      "name": "conv5_5x5_reduce_bn", 
      "attrs": {
        "eps": "0.001", 
        "fix_gamma": "False", 
        "use_global_stats": "True"
      }, 
      "inputs": [[52, 0, 0], [53, 0, 0], [54, 0, 0], [55, 0, 1], [56, 0, 1]]
    }, 
    {
      "op": "Activation", 
      "name": "conv5_5x5_reduce_relu", 
      "attrs": {"act_type": "relu"}, 
      "inputs": [[57, 0, 0]]
    }, 
    {
      "op": "null", 
      "name": "conv5_5x5_weight", 
      "attrs": {
        "kernel": "(5, 5)", 
        "no_bias": "True", 
        "num_filter": "64", 
        "pad": "(2, 2)", 
        "stride": "(1, 1)"
      }, 
      "inputs": []
    }, 
    {
      "op": "Convolution", 
      "name": "conv5_5x5", 
      "attrs": {
        "kernel": "(5, 5)", 
        "no_bias": "True", 
        "num_filter": "64", 
        "pad": "(2, 2)", 
        "stride": "(1, 1)"
      }, 
      "inputs": [[58, 0, 0], [59, 0, 0]]
    }, 
    {
      "op": "null", 
      "name": "conv5_5x5_bn_gamma", 
      "attrs": {
        "eps": "0.001", 
        "fix_gamma": "False", 
        "use_global_stats": "True"
      }, 
      "inputs": []
    }, 
    {
      "op": "null", 
      "name": "conv5_5x5_bn_beta", 
      "attrs": {
        "eps": "0.001", 
        "fix_gamma": "False", 
        "use_global_stats": "True"
      }, 
      "inputs": []
    }, 
    {
      "op": "null", 
      "name": "conv5_5x5_bn_moving_mean", 
      "attrs": {
        "__init__": "[\"zero\", {}]", 
        "eps": "0.001", 
        "fix_gamma": "False", 
        "use_global_stats": "True"
      }, 
      "inputs": []
    }, 
    {
      "op": "null", 
      "name": "conv5_5x5_bn_moving_var", 
      "attrs": {
        "__init__": "[\"one\", {}]", 
        "eps": "0.001", 
        "fix_gamma": "False", 
        "use_global_stats": "True"
      }, 
      "inputs": []
    }, 
    {
      "op": "BatchNorm", 
      "name": "conv5_5x5_bn", 
      "attrs": {
        "eps": "0.001", 
        "fix_gamma": "False", 
        "use_global_stats": "True"
      }, 
      "inputs": [[60, 0, 0], [61, 0, 0], [62, 0, 0], [63, 0, 1], [64, 0, 1]]
    }, 
    {
      "op": "Activation", 
      "name": "conv5_5x5_relu", 
      "attrs": {"act_type": "relu"}, 
      "inputs": [[65, 0, 0]]
    }, 
    {
      "op": "null", 
      "name": "conv5_3x3_reduce_weight", 
      "attrs": {
        "kernel": "(1, 1)", 
        "no_bias": "True", 
        "num_filter": "64", 
        "pad": "(0, 0)", 
        "stride": "(1, 1)"
      }, 
      "inputs": []
    }, 
    {
      "op": "Convolution", 
      "name": "conv5_3x3_reduce", 
      "attrs": {
        "kernel": "(1, 1)", 
        "no_bias": "True", 
        "num_filter": "64", 
        "pad": "(0, 0)", 
        "stride": "(1, 1)"
      }, 
      "inputs": [[42, 0, 0], [67, 0, 0]]
    }, 
    {
      "op": "null", 
      "name": "conv5_3x3_reduce_bn_gamma", 
      "attrs": {
        "eps": "0.001", 
        "fix_gamma": "False", 
        "use_global_stats": "True"
      }, 
      "inputs": []
    }, 
    {
      "op": "null", 
      "name": "conv5_3x3_reduce_bn_beta", 
      "attrs": {
        "eps": "0.001", 
        "fix_gamma": "False", 
        "use_global_stats": "True"
      }, 
      "inputs": []
    }, 
    {
      "op": "null", 
      "name": "conv5_3x3_reduce_bn_moving_mean", 
      "attrs": {
        "__init__": "[\"zero\", {}]", 
        "eps": "0.001", 
        "fix_gamma": "False", 
        "use_global_stats": "True"
      }, 
      "inputs": []
    }, 
    {
      "op": "null", 
      "name": "conv5_3x3_reduce_bn_moving_var", 
      "attrs": {
        "__init__": "[\"one\", {}]", 
        "eps": "0.001", 
        "fix_gamma": "False", 
        "use_global_stats": "True"
      }, 
      "inputs": []
    }, 
    {
      "op": "BatchNorm", 
      "name": "conv5_3x3_reduce_bn", 
      "attrs": {
        "eps": "0.001", 
        "fix_gamma": "False", 
        "use_global_stats": "True"
      }, 
      "inputs": [[68, 0, 0], [69, 0, 0], [70, 0, 0], [71, 0, 1], [72, 0, 1]]
    }, 
    {
      "op": "Activation", 
      "name": "conv5_3x3_reduce_relu", 
      "attrs": {"act_type": "relu"}, 
      "inputs": [[73, 0, 0]]
    }, 
    {
      "op": "null", 
      "name": "conv5_3x3_weight", 
      "attrs": {
        "kernel": "(3, 3)", 
        "no_bias": "True", 
        "num_filter": "96", 
        "pad": "(1, 1)", 
        "stride": "(1, 1)"
      }, 
      "inputs": []
    }, 
    {
      "op": "Convolution", 
      "name": "conv5_3x3", 
      "attrs": {
        "kernel": "(3, 3)", 
        "no_bias": "True", 
        "num_filter": "96", 
        "pad": "(1, 1)", 
        "stride": "(1, 1)"
      }, 
      "inputs": [[74, 0, 0], [75, 0, 0]]
    }, 
    {
      "op": "null", 
      "name": "conv5_3x3_bn_gamma", 
      "attrs": {
        "eps": "0.001", 
        "fix_gamma": "False", 
        "use_global_stats": "True"
      }, 
      "inputs": []
    }, 
    {
      "op": "null", 
      "name": "conv5_3x3_bn_beta", 
      "attrs": {
        "eps": "0.001", 
        "fix_gamma": "False", 
        "use_global_stats": "True"
      }, 
      "inputs": []
    }, 
    {
      "op": "null", 
      "name": "conv5_3x3_bn_moving_mean", 
      "attrs": {
        "__init__": "[\"zero\", {}]", 
        "eps": "0.001", 
        "fix_gamma": "False", 
        "use_global_stats": "True"
      }, 
      "inputs": []
    }, 
    {
      "op": "null", 
      "name": "conv5_3x3_bn_moving_var", 
      "attrs": {
        "__init__": "[\"one\", {}]", 
        "eps": "0.001", 
        "fix_gamma": "False", 
        "use_global_stats": "True"
      }, 
      "inputs": []
    }, 
    {
      "op": "BatchNorm", 
      "name": "conv5_3x3_bn", 
      "attrs": {
        "eps": "0.001", 
        "fix_gamma": "False", 
        "use_global_stats": "True"
      }, 
      "inputs": [[76, 0, 0], [77, 0, 0], [78, 0, 0], [79, 0, 1], [80, 0, 1]]
    }, 
    {
      "op": "Activation", 
      "name": "conv5_3x3_relu", 
      "attrs": {"act_type": "relu"}, 
      "inputs": [[81, 0, 0]]
    }, 
    {
      "op": "null", 
      "name": "conv5_3x3_2_weight", 
      "attrs": {
        "kernel": "(3, 3)", 
        "no_bias": "True", 
        "num_filter": "96", 
        "pad": "(1, 1)", 
        "stride": "(1, 1)"
      }, 
      "inputs": []
    }, 
    {
      "op": "Convolution", 
      "name": "conv5_3x3_2", 
      "attrs": {
        "kernel": "(3, 3)", 
        "no_bias": "True", 
        "num_filter": "96", 
        "pad": "(1, 1)", 
        "stride": "(1, 1)"
      }, 
      "inputs": [[82, 0, 0], [83, 0, 0]]
    }, 
    {
      "op": "null", 
      "name": "conv5_3x3_2_bn_gamma", 
      "attrs": {
        "eps": "0.001", 
        "fix_gamma": "False", 
        "use_global_stats": "True"
      }, 
      "inputs": []
    }, 
    {
      "op": "null", 
      "name": "conv5_3x3_2_bn_beta", 
      "attrs": {
        "eps": "0.001", 
        "fix_gamma": "False", 
        "use_global_stats": "True"
      }, 
      "inputs": []
    }, 
    {
      "op": "null", 
      "name": "conv5_3x3_2_bn_moving_mean", 
      "attrs": {
        "__init__": "[\"zero\", {}]", 
        "eps": "0.001", 
        "fix_gamma": "False", 
        "use_global_stats": "True"
      }, 
      "inputs": []
    }, 
    {
      "op": "null", 
      "name": "conv5_3x3_2_bn_moving_var", 
      "attrs": {
        "__init__": "[\"one\", {}]", 
        "eps": "0.001", 
        "fix_gamma": "False", 
        "use_global_stats": "True"
      }, 
      "inputs": []
    }, 
    {
      "op": "BatchNorm", 
      "name": "conv5_3x3_2_bn", 
      "attrs": {
        "eps": "0.001", 
        "fix_gamma": "False", 
        "use_global_stats": "True"
      }, 
      "inputs": [[84, 0, 0], [85, 0, 0], [86, 0, 0], [87, 0, 1], [88, 0, 1]]
    }, 
    {
      "op": "Activation", 
      "name": "conv5_3x3_2_relu", 
      "attrs": {"act_type": "relu"}, 
      "inputs": [[89, 0, 0]]
    }, 
    {
      "op": "Pooling", 
      "name": "ave_pool", 
      "attrs": {
        "kernel": "(3, 3)", 
        "pad": "(1, 1)", 
        "pool_type": "avg", 
        "pooling_convention": "full", 
        "stride": "(1, 1)"
      }, 
      "inputs": [[42, 0, 0]]
    }, 
    {
      "op": "null", 
      "name": "conv5_1x1_ave_weight", 
      "attrs": {
        "kernel": "(1, 1)", 
        "no_bias": "True", 
        "num_filter": "64", 
        "pad": "(0, 0)", 
        "stride": "(1, 1)"
      }, 
      "inputs": []
    }, 
    {
      "op": "Convolution", 
      "name": "conv5_1x1_ave", 
      "attrs": {
        "kernel": "(1, 1)", 
        "no_bias": "True", 
        "num_filter": "64", 
        "pad": "(0, 0)", 
        "stride": "(1, 1)"
      }, 
      "inputs": [[91, 0, 0], [92, 0, 0]]
    }, 
    {
      "op": "null", 
      "name": "conv5_1x1_ave_bn_gamma", 
      "attrs": {
        "eps": "0.001", 
        "fix_gamma": "False", 
        "use_global_stats": "True"
      }, 
      "inputs": []
    }, 
    {
      "op": "null", 
      "name": "conv5_1x1_ave_bn_beta", 
      "attrs": {
        "eps": "0.001", 
        "fix_gamma": "False", 
        "use_global_stats": "True"
      }, 
      "inputs": []
    }, 
    {
      "op": "null", 
      "name": "conv5_1x1_ave_bn_moving_mean", 
      "attrs": {
        "__init__": "[\"zero\", {}]", 
        "eps": "0.001", 
        "fix_gamma": "False", 
        "use_global_stats": "True"
      }, 
      "inputs": []
    }, 
    {
      "op": "null", 
      "name": "conv5_1x1_ave_bn_moving_var", 
      "attrs": {
        "__init__": "[\"one\", {}]", 
        "eps": "0.001", 
        "fix_gamma": "False", 
        "use_global_stats": "True"
      }, 
      "inputs": []
    }, 
    {
      "op": "BatchNorm", 
      "name": "conv5_1x1_ave_bn", 
      "attrs": {
        "eps": "0.001", 
        "fix_gamma": "False", 
        "use_global_stats": "True"
      }, 
      "inputs": [[93, 0, 0], [94, 0, 0], [95, 0, 0], [96, 0, 1], [97, 0, 1]]
    }, 
    {
      "op": "Activation", 
      "name": "conv5_1x1_ave_relu", 
      "attrs": {"act_type": "relu"}, 
      "inputs": [[98, 0, 0]]
    }, 
    {
      "op": "Concat", 
      "name": "stem_concat", 
      "attrs": {"num_args": "4"}, 
      "inputs": [[50, 0, 0], [66, 0, 0], [90, 0, 0], [99, 0, 0]]
    }, 
    {
      "op": "_mul_scalar", 
      "name": "_mulscalar0", 
      "attrs": {"scalar": "1.0"}, 
      "inputs": [[100, 0, 0]]
    }, 
    {
      "op": "null", 
      "name": "inception_resnet_v2_a1_1x1_weight", 
      "attrs": {
        "kernel": "(1, 1)", 
        "no_bias": "True", 
        "num_filter": "32", 
        "pad": "(0, 0)", 
        "stride": "(1, 1)"
      }, 
      "inputs": []
    }, 
    {
      "op": "Convolution", 
      "name": "inception_resnet_v2_a1_1x1", 
      "attrs": {
        "kernel": "(1, 1)", 
        "no_bias": "True", 
        "num_filter": "32", 
        "pad": "(0, 0)", 
        "stride": "(1, 1)"
      }, 
      "inputs": [[101, 0, 0], [102, 0, 0]]
    }, 
    {
      "op": "null", 
      "name": "inception_resnet_v2_a1_1x1_bn_gamma", 
      "attrs": {
        "eps": "0.001", 
        "fix_gamma": "False", 
        "use_global_stats": "True"
      }, 
      "inputs": []
    }, 
    {
      "op": "null", 
      "name": "inception_resnet_v2_a1_1x1_bn_beta", 
      "attrs": {
        "eps": "0.001", 
        "fix_gamma": "False", 
        "use_global_stats": "True"
      }, 
      "inputs": []
    }, 
    {
      "op": "null", 
      "name": "inception_resnet_v2_a1_1x1_bn_moving_mean", 
      "attrs": {
        "__init__": "[\"zero\", {}]", 
        "eps": "0.001", 
        "fix_gamma": "False", 
        "use_global_stats": "True"
      }, 
      "inputs": []
    }, 
    {
      "op": "null", 
      "name": "inception_resnet_v2_a1_1x1_bn_moving_var", 
      "attrs": {
        "__init__": "[\"one\", {}]", 
        "eps": "0.001", 
        "fix_gamma": "False", 
        "use_global_stats": "True"
      }, 
      "inputs": []
    }, 
    {
      "op": "BatchNorm", 
      "name": "inception_resnet_v2_a1_1x1_bn", 
      "attrs": {
        "eps": "0.001", 
        "fix_gamma": "False", 
        "use_global_stats": "True"
      }, 
      "inputs": [[103, 0, 0], [104, 0, 0], [105, 0, 0], [106, 0, 1], [107, 0, 1]]
    }, 
    {
      "op": "Activation", 
      "name": "inception_resnet_v2_a1_1x1_relu", 
      "attrs": {"act_type": "relu"}, 
      "inputs": [[108, 0, 0]]
    }, 
    {
      "op": "null", 
      "name": "inception_resnet_v2_a1_3x3_reduce_weight", 
      "attrs": {
        "kernel": "(1, 1)", 
        "no_bias": "True", 
        "num_filter": "32", 
        "pad": "(0, 0)", 
        "stride": "(1, 1)"
      }, 
      "inputs": []
    }, 
    {
      "op": "Convolution", 
      "name": "inception_resnet_v2_a1_3x3_reduce", 
      "attrs": {
        "kernel": "(1, 1)", 
        "no_bias": "True", 
        "num_filter": "32", 
        "pad": "(0, 0)", 
        "stride": "(1, 1)"
      }, 
      "inputs": [[101, 0, 0], [110, 0, 0]]
    }, 
    {
      "op": "null", 
      "name": "inception_resnet_v2_a1_3x3_reduce_bn_gamma", 
      "attrs": {
        "eps": "0.001", 
        "fix_gamma": "False", 
        "use_global_stats": "True"
      }, 
      "inputs": []
    }, 
    {
      "op": "null", 
      "name": "inception_resnet_v2_a1_3x3_reduce_bn_beta", 
      "attrs": {
        "eps": "0.001", 
        "fix_gamma": "False", 
        "use_global_stats": "True"
      }, 
      "inputs": []
    }, 
    {
      "op": "null", 
      "name": "inception_resnet_v2_a1_3x3_reduce_bn_moving_mean", 
      "attrs": {
        "__init__": "[\"zero\", {}]", 
        "eps": "0.001", 
        "fix_gamma": "False", 
        "use_global_stats": "True"
      }, 
      "inputs": []
    }, 
    {
      "op": "null", 
      "name": "inception_resnet_v2_a1_3x3_reduce_bn_moving_var", 
      "attrs": {
        "__init__": "[\"one\", {}]", 
        "eps": "0.001", 
        "fix_gamma": "False", 
        "use_global_stats": "True"
      }, 
      "inputs": []
    }, 
    {
      "op": "BatchNorm", 
      "name": "inception_resnet_v2_a1_3x3_reduce_bn", 
      "attrs": {
        "eps": "0.001", 
        "fix_gamma": "False", 
        "use_global_stats": "True"
      }, 
      "inputs": [[111, 0, 0], [112, 0, 0], [113, 0, 0], [114, 0, 1], [115, 0, 1]]
    }, 
    {
      "op": "Activation", 
      "name": "inception_resnet_v2_a1_3x3_reduce_relu", 
      "attrs": {"act_type": "relu"}, 
      "inputs": [[116, 0, 0]]
    }, 
    {
      "op": "null", 
      "name": "inception_resnet_v2_a1_3x3_weight", 
      "attrs": {
        "kernel": "(3, 3)", 
        "no_bias": "True", 
        "num_filter": "32", 
        "pad": "(1, 1)", 
        "stride": "(1, 1)"
      }, 
      "inputs": []
    }, 
    {
      "op": "Convolution", 
      "name": "inception_resnet_v2_a1_3x3", 
      "attrs": {
        "kernel": "(3, 3)", 
        "no_bias": "True", 
        "num_filter": "32", 
        "pad": "(1, 1)", 
        "stride": "(1, 1)"
      }, 
      "inputs": [[117, 0, 0], [118, 0, 0]]
    }, 
    {
      "op": "null", 
      "name": "inception_resnet_v2_a1_3x3_bn_gamma", 
      "attrs": {
        "eps": "0.001", 
        "fix_gamma": "False", 
        "use_global_stats": "True"
      }, 
      "inputs": []
    }, 
    {
      "op": "null", 
      "name": "inception_resnet_v2_a1_3x3_bn_beta", 
      "attrs": {
        "eps": "0.001", 
        "fix_gamma": "False", 
        "use_global_stats": "True"
      }, 
      "inputs": []
    }, 
    {
      "op": "null", 
      "name": "inception_resnet_v2_a1_3x3_bn_moving_mean", 
      "attrs": {
        "__init__": "[\"zero\", {}]", 
        "eps": "0.001", 
        "fix_gamma": "False", 
        "use_global_stats": "True"
      }, 
      "inputs": []
    }, 
    {
      "op": "null", 
      "name": "inception_resnet_v2_a1_3x3_bn_moving_var", 
      "attrs": {
        "__init__": "[\"one\", {}]", 
        "eps": "0.001", 
        "fix_gamma": "False", 
        "use_global_stats": "True"
      }, 
      "inputs": []
    }, 
    {
      "op": "BatchNorm", 
      "name": "inception_resnet_v2_a1_3x3_bn", 
      "attrs": {
        "eps": "0.001", 
        "fix_gamma": "False", 
        "use_global_stats": "True"
      }, 
      "inputs": [[119, 0, 0], [120, 0, 0], [121, 0, 0], [122, 0, 1], [123, 0, 1]]
    }, 
    {
      "op": "Activation", 
      "name": "inception_resnet_v2_a1_3x3_relu", 
      "attrs": {"act_type": "relu"}, 
      "inputs": [[124, 0, 0]]
    }, 
    {
      "op": "null", 
      "name": "inception_resnet_v2_a1_3x3_2_reduce_weight", 
      "attrs": {
        "kernel": "(1, 1)", 
        "no_bias": "True", 
        "num_filter": "32", 
        "pad": "(0, 0)", 
        "stride": "(1, 1)"
      }, 
      "inputs": []
    }, 
    {
      "op": "Convolution", 
      "name": "inception_resnet_v2_a1_3x3_2_reduce", 
      "attrs": {
        "kernel": "(1, 1)", 
        "no_bias": "True", 
        "num_filter": "32", 
        "pad": "(0, 0)", 
        "stride": "(1, 1)"
      }, 
      "inputs": [[101, 0, 0], [126, 0, 0]]
    }, 
    {
      "op": "null", 
      "name": "inception_resnet_v2_a1_3x3_2_reduce_bn_gamma", 
      "attrs": {
        "eps": "0.001", 
        "fix_gamma": "False", 
        "use_global_stats": "True"
      }, 
      "inputs": []
    }, 
    {
      "op": "null", 
      "name": "inception_resnet_v2_a1_3x3_2_reduce_bn_beta", 
      "attrs": {
        "eps": "0.001", 
        "fix_gamma": "False", 
        "use_global_stats": "True"
      }, 
      "inputs": []
    }, 
    {
      "op": "null", 
      "name": "inception_resnet_v2_a1_3x3_2_reduce_bn_moving_mean", 
      "attrs": {
        "__init__": "[\"zero\", {}]", 
        "eps": "0.001", 
        "fix_gamma": "False", 
        "use_global_stats": "True"
      }, 
      "inputs": []
    }, 
    {
      "op": "null", 
      "name": "inception_resnet_v2_a1_3x3_2_reduce_bn_moving_var", 
      "attrs": {
        "__init__": "[\"one\", {}]", 
        "eps": "0.001", 
        "fix_gamma": "False", 
        "use_global_stats": "True"
      }, 
      "inputs": []
    }, 
    {
      "op": "BatchNorm", 
      "name": "inception_resnet_v2_a1_3x3_2_reduce_bn", 
      "attrs": {
        "eps": "0.001", 
        "fix_gamma": "False", 
        "use_global_stats": "True"
      }, 
      "inputs": [[127, 0, 0], [128, 0, 0], [129, 0, 0], [130, 0, 1], [131, 0, 1]]
    }, 
    {
      "op": "Activation", 
      "name": "inception_resnet_v2_a1_3x3_2_reduce_relu", 
      "attrs": {"act_type": "relu"}, 
      "inputs": [[132, 0, 0]]
    }, 
    {
      "op": "null", 
      "name": "inception_resnet_v2_a1_3x3_2_weight", 
      "attrs": {
        "kernel": "(3, 3)", 
        "no_bias": "True", 
        "num_filter": "48", 
        "pad": "(1, 1)", 
        "stride": "(1, 1)"
      }, 
      "inputs": []
    }, 
    {
      "op": "Convolution", 
      "name": "inception_resnet_v2_a1_3x3_2", 
      "attrs": {
        "kernel": "(3, 3)", 
        "no_bias": "True", 
        "num_filter": "48", 
        "pad": "(1, 1)", 
        "stride": "(1, 1)"
      }, 
      "inputs": [[133, 0, 0], [134, 0, 0]]
    }, 
    {
      "op": "null", 
      "name": "inception_resnet_v2_a1_3x3_2_bn_gamma", 
      "attrs": {
        "eps": "0.001", 
        "fix_gamma": "False", 
        "use_global_stats": "True"
      }, 
      "inputs": []
    }, 
    {
      "op": "null", 
      "name": "inception_resnet_v2_a1_3x3_2_bn_beta", 
      "attrs": {
        "eps": "0.001", 
        "fix_gamma": "False", 
        "use_global_stats": "True"
      }, 
      "inputs": []
    }, 
    {
      "op": "null", 
      "name": "inception_resnet_v2_a1_3x3_2_bn_moving_mean", 
      "attrs": {
        "__init__": "[\"zero\", {}]", 
        "eps": "0.001", 
        "fix_gamma": "False", 
        "use_global_stats": "True"
      }, 
      "inputs": []
    }, 
    {
      "op": "null", 
      "name": "inception_resnet_v2_a1_3x3_2_bn_moving_var", 
      "attrs": {
        "__init__": "[\"one\", {}]", 
        "eps": "0.001", 
        "fix_gamma": "False", 
        "use_global_stats": "True"
      }, 
      "inputs": []
    }, 
    {
      "op": "BatchNorm", 
      "name": "inception_resnet_v2_a1_3x3_2_bn", 
      "attrs": {
        "eps": "0.001", 
        "fix_gamma": "False", 
        "use_global_stats": "True"
      }, 
      "inputs": [[135, 0, 0], [136, 0, 0], [137, 0, 0], [138, 0, 1], [139, 0, 1]]
    }, 
    {
      "op": "Activation", 
      "name": "inception_resnet_v2_a1_3x3_2_relu", 
      "attrs": {"act_type": "relu"}, 
      "inputs": [[140, 0, 0]]
    }, 
    {
      "op": "null", 
      "name": "inception_resnet_v2_a1_3x3_3_weight", 
      "attrs": {
        "kernel": "(3, 3)", 
        "no_bias": "True", 
        "num_filter": "64", 
        "pad": "(1, 1)", 
        "stride": "(1, 1)"
      }, 
      "inputs": []
    }, 
    {
      "op": "Convolution", 
      "name": "inception_resnet_v2_a1_3x3_3", 
      "attrs": {
        "kernel": "(3, 3)", 
        "no_bias": "True", 
        "num_filter": "64", 
        "pad": "(1, 1)", 
        "stride": "(1, 1)"
      }, 
      "inputs": [[141, 0, 0], [142, 0, 0]]
    }, 
    {
      "op": "null", 
      "name": "inception_resnet_v2_a1_3x3_3_bn_gamma", 
      "attrs": {
        "eps": "0.001", 
        "fix_gamma": "False", 
        "use_global_stats": "True"
      }, 
      "inputs": []
    }, 
    {
      "op": "null", 
      "name": "inception_resnet_v2_a1_3x3_3_bn_beta", 
      "attrs": {
        "eps": "0.001", 
        "fix_gamma": "False", 
        "use_global_stats": "True"
      }, 
      "inputs": []
    }, 
    {
      "op": "null", 
      "name": "inception_resnet_v2_a1_3x3_3_bn_moving_mean", 
      "attrs": {
        "__init__": "[\"zero\", {}]", 
        "eps": "0.001", 
        "fix_gamma": "False", 
        "use_global_stats": "True"
      }, 
      "inputs": []
    }, 
    {
      "op": "null", 
      "name": "inception_resnet_v2_a1_3x3_3_bn_moving_var", 
      "attrs": {
        "__init__": "[\"one\", {}]", 
        "eps": "0.001", 
        "fix_gamma": "False", 
        "use_global_stats": "True"
      }, 
      "inputs": []
    }, 
    {
      "op": "BatchNorm", 
      "name": "inception_resnet_v2_a1_3x3_3_bn", 
      "attrs": {
        "eps": "0.001", 
        "fix_gamma": "False", 
        "use_global_stats": "True"
      }, 
      "inputs": [[143, 0, 0], [144, 0, 0], [145, 0, 0], [146, 0, 1], [147, 0, 1]]
    }, 
    {
      "op": "Activation", 
      "name": "inception_resnet_v2_a1_3x3_3_relu", 
      "attrs": {"act_type": "relu"}, 
      "inputs": [[148, 0, 0]]
    }, 
    {
      "op": "Concat", 
      "name": "inception_resnet_v2_a1_concat", 
      "attrs": {"num_args": "3"}, 
      "inputs": [[109, 0, 0], [125, 0, 0], [149, 0, 0]]
    }, 
    {
      "op": "null", 
      "name": "inception_resnet_v2_a1_up_weight", 
      "attrs": {
        "kernel": "(1, 1)", 
        "no_bias": "False", 
        "num_filter": "320", 
        "pad": "(0, 0)", 
        "stride": "(1, 1)"
      }, 
      "inputs": []
    }, 
    {
      "op": "null", 
      "name": "inception_resnet_v2_a1_up_bias", 
      "attrs": {
        "kernel": "(1, 1)", 
        "no_bias": "False", 
        "num_filter": "320", 
        "pad": "(0, 0)", 
        "stride": "(1, 1)"
      }, 
      "inputs": []
    }, 
    {
      "op": "Convolution", 
      "name": "inception_resnet_v2_a1_up", 
      "attrs": {
        "kernel": "(1, 1)", 
        "no_bias": "False", 
        "num_filter": "320", 
        "pad": "(0, 0)", 
        "stride": "(1, 1)"
      }, 
      "inputs": [[150, 0, 0], [151, 0, 0], [152, 0, 0]]
    }, 
    {
      "op": "_mul_scalar", 
      "name": "_mulscalar1", 
      "attrs": {"scalar": "0.170000001788"}, 
      "inputs": [[153, 0, 0]]
    }, 
    {
      "op": "elemwise_add", 
      "name": "inception_resnet_v2_a1_residual_eltwise", 
      "inputs": [[101, 0, 0], [154, 0, 0]]
    }, 
    {
      "op": "Activation", 
      "name": "inception_resnet_v2_a1_residual_eltwise_relu", 
      "attrs": {"act_type": "relu"}, 
      "inputs": [[155, 0, 0]]
    }, 
    {
      "op": "_mul_scalar", 
      "name": "_mulscalar2", 
      "attrs": {"scalar": "1.0"}, 
      "inputs": [[156, 0, 0]]
    }, 
    {
      "op": "null", 
      "name": "inception_resnet_v2_a2_1x1_weight", 
      "attrs": {
        "kernel": "(1, 1)", 
        "no_bias": "True", 
        "num_filter": "32", 
        "pad": "(0, 0)", 
        "stride": "(1, 1)"
      }, 
      "inputs": []
    }, 
    {
      "op": "Convolution", 
      "name": "inception_resnet_v2_a2_1x1", 
      "attrs": {
        "kernel": "(1, 1)", 
        "no_bias": "True", 
        "num_filter": "32", 
        "pad": "(0, 0)", 
        "stride": "(1, 1)"
      }, 
      "inputs": [[157, 0, 0], [158, 0, 0]]
    }, 
    {
      "op": "null", 
      "name": "inception_resnet_v2_a2_1x1_bn_gamma", 
      "attrs": {
        "eps": "0.001", 
        "fix_gamma": "False", 
        "use_global_stats": "True"
      }, 
      "inputs": []
    }, 
    {
      "op": "null", 
      "name": "inception_resnet_v2_a2_1x1_bn_beta", 
      "attrs": {
        "eps": "0.001", 
        "fix_gamma": "False", 
        "use_global_stats": "True"
      }, 
      "inputs": []
    }, 
    {
      "op": "null", 
      "name": "inception_resnet_v2_a2_1x1_bn_moving_mean", 
      "attrs": {
        "__init__": "[\"zero\", {}]", 
        "eps": "0.001", 
        "fix_gamma": "False", 
        "use_global_stats": "True"
      }, 
      "inputs": []
    }, 
    {
      "op": "null", 
      "name": "inception_resnet_v2_a2_1x1_bn_moving_var", 
      "attrs": {
        "__init__": "[\"one\", {}]", 
        "eps": "0.001", 
        "fix_gamma": "False", 
        "use_global_stats": "True"
      }, 
      "inputs": []
    }, 
    {
      "op": "BatchNorm", 
      "name": "inception_resnet_v2_a2_1x1_bn", 
      "attrs": {
        "eps": "0.001", 
        "fix_gamma": "False", 
        "use_global_stats": "True"
      }, 
      "inputs": [[159, 0, 0], [160, 0, 0], [161, 0, 0], [162, 0, 1], [163, 0, 1]]
    }, 
    {
      "op": "Activation", 
      "name": "inception_resnet_v2_a2_1x1_relu", 
      "attrs": {"act_type": "relu"}, 
      "inputs": [[164, 0, 0]]
    }, 
    {
      "op": "null", 
      "name": "inception_resnet_v2_a2_3x3_reduce_weight", 
      "attrs": {
        "kernel": "(1, 1)", 
        "no_bias": "True", 
        "num_filter": "32", 
        "pad": "(0, 0)", 
        "stride": "(1, 1)"
      }, 
      "inputs": []
    }, 
    {
      "op": "Convolution", 
      "name": "inception_resnet_v2_a2_3x3_reduce", 
      "attrs": {
        "kernel": "(1, 1)", 
        "no_bias": "True", 
        "num_filter": "32", 
        "pad": "(0, 0)", 
        "stride": "(1, 1)"
      }, 
      "inputs": [[157, 0, 0], [166, 0, 0]]
    }, 
    {
      "op": "null", 
      "name": "inception_resnet_v2_a2_3x3_reduce_bn_gamma", 
      "attrs": {
        "eps": "0.001", 
        "fix_gamma": "False", 
        "use_global_stats": "True"
      }, 
      "inputs": []
    }, 
    {
      "op": "null", 
      "name": "inception_resnet_v2_a2_3x3_reduce_bn_beta", 
      "attrs": {
        "eps": "0.001", 
        "fix_gamma": "False", 
        "use_global_stats": "True"
      }, 
      "inputs": []
    }, 
    {
      "op": "null", 
      "name": "inception_resnet_v2_a2_3x3_reduce_bn_moving_mean", 
      "attrs": {
        "__init__": "[\"zero\", {}]", 
        "eps": "0.001", 
        "fix_gamma": "False", 
        "use_global_stats": "True"
      }, 
      "inputs": []
    }, 
    {
      "op": "null", 
      "name": "inception_resnet_v2_a2_3x3_reduce_bn_moving_var", 
      "attrs": {
        "__init__": "[\"one\", {}]", 
        "eps": "0.001", 
        "fix_gamma": "False", 
        "use_global_stats": "True"
      }, 
      "inputs": []
    }, 
    {
      "op": "BatchNorm", 
      "name": "inception_resnet_v2_a2_3x3_reduce_bn", 
      "attrs": {
        "eps": "0.001", 
        "fix_gamma": "False", 
        "use_global_stats": "True"
      }, 
      "inputs": [[167, 0, 0], [168, 0, 0], [169, 0, 0], [170, 0, 1], [171, 0, 1]]
    }, 
    {
      "op": "Activation", 
      "name": "inception_resnet_v2_a2_3x3_reduce_relu", 
      "attrs": {"act_type": "relu"}, 
      "inputs": [[172, 0, 0]]
    }, 
    {
      "op": "null", 
      "name": "inception_resnet_v2_a2_3x3_weight", 
      "attrs": {
        "kernel": "(3, 3)", 
        "no_bias": "True", 
        "num_filter": "32", 
        "pad": "(1, 1)", 
        "stride": "(1, 1)"
      }, 
      "inputs": []
    }, 
    {
      "op": "Convolution", 
      "name": "inception_resnet_v2_a2_3x3", 
      "attrs": {
        "kernel": "(3, 3)", 
        "no_bias": "True", 
        "num_filter": "32", 
        "pad": "(1, 1)", 
        "stride": "(1, 1)"
      }, 
      "inputs": [[173, 0, 0], [174, 0, 0]]
    }, 
    {
      "op": "null", 
      "name": "inception_resnet_v2_a2_3x3_bn_gamma", 
      "attrs": {
        "eps": "0.001", 
        "fix_gamma": "False", 
        "use_global_stats": "True"
      }, 
      "inputs": []
    }, 
    {
      "op": "null", 
      "name": "inception_resnet_v2_a2_3x3_bn_beta", 
      "attrs": {
        "eps": "0.001", 
        "fix_gamma": "False", 
        "use_global_stats": "True"
      }, 
      "inputs": []
    }, 
    {
      "op": "null", 
      "name": "inception_resnet_v2_a2_3x3_bn_moving_mean", 
      "attrs": {
        "__init__": "[\"zero\", {}]", 
        "eps": "0.001", 
        "fix_gamma": "False", 
        "use_global_stats": "True"
      }, 
      "inputs": []
    }, 
    {
      "op": "null", 
      "name": "inception_resnet_v2_a2_3x3_bn_moving_var", 
      "attrs": {
        "__init__": "[\"one\", {}]", 
        "eps": "0.001", 
        "fix_gamma": "False", 
        "use_global_stats": "True"
      }, 
      "inputs": []
    }, 
    {
      "op": "BatchNorm", 
      "name": "inception_resnet_v2_a2_3x3_bn", 
      "attrs": {
        "eps": "0.001", 
        "fix_gamma": "False", 
        "use_global_stats": "True"
      }, 
      "inputs": [[175, 0, 0], [176, 0, 0], [177, 0, 0], [178, 0, 1], [179, 0, 1]]
    }, 
    {
      "op": "Activation", 
      "name": "inception_resnet_v2_a2_3x3_relu", 
      "attrs": {"act_type": "relu"}, 
      "inputs": [[180, 0, 0]]
    }, 
    {
      "op": "null", 
      "name": "inception_resnet_v2_a2_3x3_2_reduce_weight", 
      "attrs": {
        "kernel": "(1, 1)", 
        "no_bias": "True", 
        "num_filter": "32", 
        "pad": "(0, 0)", 
        "stride": "(1, 1)"
      }, 
      "inputs": []
    }, 
    {
      "op": "Convolution", 
      "name": "inception_resnet_v2_a2_3x3_2_reduce", 
      "attrs": {
        "kernel": "(1, 1)", 
        "no_bias": "True", 
        "num_filter": "32", 
        "pad": "(0, 0)", 
        "stride": "(1, 1)"
      }, 
      "inputs": [[157, 0, 0], [182, 0, 0]]
    }, 
    {
      "op": "null", 
      "name": "inception_resnet_v2_a2_3x3_2_reduce_bn_gamma", 
      "attrs": {
        "eps": "0.001", 
        "fix_gamma": "False", 
        "use_global_stats": "True"
      }, 
      "inputs": []
    }, 
    {
      "op": "null", 
      "name": "inception_resnet_v2_a2_3x3_2_reduce_bn_beta", 
      "attrs": {
        "eps": "0.001", 
        "fix_gamma": "False", 
        "use_global_stats": "True"
      }, 
      "inputs": []
    }, 
    {
      "op": "null", 
      "name": "inception_resnet_v2_a2_3x3_2_reduce_bn_moving_mean", 
      "attrs": {
        "__init__": "[\"zero\", {}]", 
        "eps": "0.001", 
        "fix_gamma": "False", 
        "use_global_stats": "True"
      }, 
      "inputs": []
    }, 
    {
      "op": "null", 
      "name": "inception_resnet_v2_a2_3x3_2_reduce_bn_moving_var", 
      "attrs": {
        "__init__": "[\"one\", {}]", 
        "eps": "0.001", 
        "fix_gamma": "False", 
        "use_global_stats": "True"
      }, 
      "inputs": []
    }, 
    {
      "op": "BatchNorm", 
      "name": "inception_resnet_v2_a2_3x3_2_reduce_bn", 
      "attrs": {
        "eps": "0.001", 
        "fix_gamma": "False", 
        "use_global_stats": "True"
      }, 
      "inputs": [[183, 0, 0], [184, 0, 0], [185, 0, 0], [186, 0, 1], [187, 0, 1]]
    }, 
    {
      "op": "Activation", 
      "name": "inception_resnet_v2_a2_3x3_2_reduce_relu", 
      "attrs": {"act_type": "relu"}, 
      "inputs": [[188, 0, 0]]
    }, 
    {
      "op": "null", 
      "name": "inception_resnet_v2_a2_3x3_2_weight", 
      "attrs": {
        "kernel": "(3, 3)", 
        "no_bias": "True", 
        "num_filter": "48", 
        "pad": "(1, 1)", 
        "stride": "(1, 1)"
      }, 
      "inputs": []
    }, 
    {
      "op": "Convolution", 
      "name": "inception_resnet_v2_a2_3x3_2", 
      "attrs": {
        "kernel": "(3, 3)", 
        "no_bias": "True", 
        "num_filter": "48", 
        "pad": "(1, 1)", 
        "stride": "(1, 1)"
      }, 
      "inputs": [[189, 0, 0], [190, 0, 0]]
    }, 
    {
      "op": "null", 
      "name": "inception_resnet_v2_a2_3x3_2_bn_gamma", 
      "attrs": {
        "eps": "0.001", 
        "fix_gamma": "False", 
        "use_global_stats": "True"
      }, 
      "inputs": []
    }, 
    {
      "op": "null", 
      "name": "inception_resnet_v2_a2_3x3_2_bn_beta", 
      "attrs": {
        "eps": "0.001", 
        "fix_gamma": "False", 
        "use_global_stats": "True"
      }, 
      "inputs": []
    }, 
    {
      "op": "null", 
      "name": "inception_resnet_v2_a2_3x3_2_bn_moving_mean", 
      "attrs": {
        "__init__": "[\"zero\", {}]", 
        "eps": "0.001", 
        "fix_gamma": "False", 
        "use_global_stats": "True"
      }, 
      "inputs": []
    }, 
    {
      "op": "null", 
      "name": "inception_resnet_v2_a2_3x3_2_bn_moving_var", 
      "attrs": {
        "__init__": "[\"one\", {}]", 
        "eps": "0.001", 
        "fix_gamma": "False", 
        "use_global_stats": "True"
      }, 
      "inputs": []
    }, 
    {
      "op": "BatchNorm", 
      "name": "inception_resnet_v2_a2_3x3_2_bn", 
      "attrs": {
        "eps": "0.001", 
        "fix_gamma": "False", 
        "use_global_stats": "True"
      }, 
      "inputs": [[191, 0, 0], [192, 0, 0], [193, 0, 0], [194, 0, 1], [195, 0, 1]]
    }, 
    {
      "op": "Activation", 
      "name": "inception_resnet_v2_a2_3x3_2_relu", 
      "attrs": {"act_type": "relu"}, 
      "inputs": [[196, 0, 0]]
    }, 
    {
      "op": "null", 
      "name": "inception_resnet_v2_a2_3x3_3_weight", 
      "attrs": {
        "kernel": "(3, 3)", 
        "no_bias": "True", 
        "num_filter": "64", 
        "pad": "(1, 1)", 
        "stride": "(1, 1)"
      }, 
      "inputs": []
    }, 
    {
      "op": "Convolution", 
      "name": "inception_resnet_v2_a2_3x3_3", 
      "attrs": {
        "kernel": "(3, 3)", 
        "no_bias": "True", 
        "num_filter": "64", 
        "pad": "(1, 1)", 
        "stride": "(1, 1)"
      }, 
      "inputs": [[197, 0, 0], [198, 0, 0]]
    }, 
    {
      "op": "null", 
      "name": "inception_resnet_v2_a2_3x3_3_bn_gamma", 
      "attrs": {
        "eps": "0.001", 
        "fix_gamma": "False", 
        "use_global_stats": "True"
      }, 
      "inputs": []
    }, 
    {
      "op": "null", 
      "name": "inception_resnet_v2_a2_3x3_3_bn_beta", 
      "attrs": {
        "eps": "0.001", 
        "fix_gamma": "False", 
        "use_global_stats": "True"
      }, 
      "inputs": []
    }, 
    {
      "op": "null", 
      "name": "inception_resnet_v2_a2_3x3_3_bn_moving_mean", 
      "attrs": {
        "__init__": "[\"zero\", {}]", 
        "eps": "0.001", 
        "fix_gamma": "False", 
        "use_global_stats": "True"
      }, 
      "inputs": []
    }, 
    {
      "op": "null", 
      "name": "inception_resnet_v2_a2_3x3_3_bn_moving_var", 
      "attrs": {
        "__init__": "[\"one\", {}]", 
        "eps": "0.001", 
        "fix_gamma": "False", 
        "use_global_stats": "True"
      }, 
      "inputs": []
    }, 
    {
      "op": "BatchNorm", 
      "name": "inception_resnet_v2_a2_3x3_3_bn", 
      "attrs": {
        "eps": "0.001", 
        "fix_gamma": "False", 
        "use_global_stats": "True"
      }, 
      "inputs": [[199, 0, 0], [200, 0, 0], [201, 0, 0], [202, 0, 1], [203, 0, 1]]
    }, 
    {
      "op": "Activation", 
      "name": "inception_resnet_v2_a2_3x3_3_relu", 
      "attrs": {"act_type": "relu"}, 
      "inputs": [[204, 0, 0]]
    }, 
    {
      "op": "Concat", 
      "name": "inception_resnet_v2_a2_concat", 
      "attrs": {"num_args": "3"}, 
      "inputs": [[165, 0, 0], [181, 0, 0], [205, 0, 0]]
    }, 
    {
      "op": "null", 
      "name": "inception_resnet_v2_a2_up_weight", 
      "attrs": {
        "kernel": "(1, 1)", 
        "no_bias": "False", 
        "num_filter": "320", 
        "pad": "(0, 0)", 
        "stride": "(1, 1)"
      }, 
      "inputs": []
    }, 
    {
      "op": "null", 
      "name": "inception_resnet_v2_a2_up_bias", 
      "attrs": {
        "kernel": "(1, 1)", 
        "no_bias": "False", 
        "num_filter": "320", 
        "pad": "(0, 0)", 
        "stride": "(1, 1)"
      }, 
      "inputs": []
    }, 
    {
      "op": "Convolution", 
      "name": "inception_resnet_v2_a2_up", 
      "attrs": {
        "kernel": "(1, 1)", 
        "no_bias": "False", 
        "num_filter": "320", 
        "pad": "(0, 0)", 
        "stride": "(1, 1)"
      }, 
      "inputs": [[206, 0, 0], [207, 0, 0], [208, 0, 0]]
    }, 
    {
      "op": "_mul_scalar", 
      "name": "_mulscalar3", 
      "attrs": {"scalar": "0.170000001788"}, 
      "inputs": [[209, 0, 0]]
    }, 
    {
      "op": "elemwise_add", 
      "name": "inception_resnet_v2_a2_residual_eltwise", 
      "inputs": [[157, 0, 0], [210, 0, 0]]
    }, 
    {
      "op": "Activation", 
      "name": "inception_resnet_v2_a2_residual_eltwise_relu", 
      "attrs": {"act_type": "relu"}, 
      "inputs": [[211, 0, 0]]
    }, 
    {
      "op": "_mul_scalar", 
      "name": "_mulscalar4", 
      "attrs": {"scalar": "1.0"}, 
      "inputs": [[212, 0, 0]]
    }, 
    {
      "op": "null", 
      "name": "inception_resnet_v2_a3_1x1_weight", 
      "attrs": {
        "kernel": "(1, 1)", 
        "no_bias": "True", 
        "num_filter": "32", 
        "pad": "(0, 0)", 
        "stride": "(1, 1)"
      }, 
      "inputs": []
    }, 
    {
      "op": "Convolution", 
      "name": "inception_resnet_v2_a3_1x1", 
      "attrs": {
        "kernel": "(1, 1)", 
        "no_bias": "True", 
        "num_filter": "32", 
        "pad": "(0, 0)", 
        "stride": "(1, 1)"
      }, 
      "inputs": [[213, 0, 0], [214, 0, 0]]
    }, 
    {
      "op": "null", 
      "name": "inception_resnet_v2_a3_1x1_bn_gamma", 
      "attrs": {
        "eps": "0.001", 
        "fix_gamma": "False", 
        "use_global_stats": "True"
      }, 
      "inputs": []
    }, 
    {
      "op": "null", 
      "name": "inception_resnet_v2_a3_1x1_bn_beta", 
      "attrs": {
        "eps": "0.001", 
        "fix_gamma": "False", 
        "use_global_stats": "True"
      }, 
      "inputs": []
    }, 
    {
      "op": "null", 
      "name": "inception_resnet_v2_a3_1x1_bn_moving_mean", 
      "attrs": {
        "__init__": "[\"zero\", {}]", 
        "eps": "0.001", 
        "fix_gamma": "False", 
        "use_global_stats": "True"
      }, 
      "inputs": []
    }, 
    {
      "op": "null", 
      "name": "inception_resnet_v2_a3_1x1_bn_moving_var", 
      "attrs": {
        "__init__": "[\"one\", {}]", 
        "eps": "0.001", 
        "fix_gamma": "False", 
        "use_global_stats": "True"
      }, 
      "inputs": []
    }, 
    {
      "op": "BatchNorm", 
      "name": "inception_resnet_v2_a3_1x1_bn", 
      "attrs": {
        "eps": "0.001", 
        "fix_gamma": "False", 
        "use_global_stats": "True"
      }, 
      "inputs": [[215, 0, 0], [216, 0, 0], [217, 0, 0], [218, 0, 1], [219, 0, 1]]
    }, 
    {
      "op": "Activation", 
      "name": "inception_resnet_v2_a3_1x1_relu", 
      "attrs": {"act_type": "relu"}, 
      "inputs": [[220, 0, 0]]
    }, 
    {
      "op": "null", 
      "name": "inception_resnet_v2_a3_3x3_reduce_weight", 
      "attrs": {
        "kernel": "(1, 1)", 
        "no_bias": "True", 
        "num_filter": "32", 
        "pad": "(0, 0)", 
        "stride": "(1, 1)"
      }, 
      "inputs": []
    }, 
    {
      "op": "Convolution", 
      "name": "inception_resnet_v2_a3_3x3_reduce", 
      "attrs": {
        "kernel": "(1, 1)", 
        "no_bias": "True", 
        "num_filter": "32", 
        "pad": "(0, 0)", 
        "stride": "(1, 1)"
      }, 
      "inputs": [[213, 0, 0], [222, 0, 0]]
    }, 
    {
      "op": "null", 
      "name": "inception_resnet_v2_a3_3x3_reduce_bn_gamma", 
      "attrs": {
        "eps": "0.001", 
        "fix_gamma": "False", 
        "use_global_stats": "True"
      }, 
      "inputs": []
    }, 
    {
      "op": "null", 
      "name": "inception_resnet_v2_a3_3x3_reduce_bn_beta", 
      "attrs": {
        "eps": "0.001", 
        "fix_gamma": "False", 
        "use_global_stats": "True"
      }, 
      "inputs": []
    }, 
    {
      "op": "null", 
      "name": "inception_resnet_v2_a3_3x3_reduce_bn_moving_mean", 
      "attrs": {
        "__init__": "[\"zero\", {}]", 
        "eps": "0.001", 
        "fix_gamma": "False", 
        "use_global_stats": "True"
      }, 
      "inputs": []
    }, 
    {
      "op": "null", 
      "name": "inception_resnet_v2_a3_3x3_reduce_bn_moving_var", 
      "attrs": {
        "__init__": "[\"one\", {}]", 
        "eps": "0.001", 
        "fix_gamma": "False", 
        "use_global_stats": "True"
      }, 
      "inputs": []
    }, 
    {
      "op": "BatchNorm", 
      "name": "inception_resnet_v2_a3_3x3_reduce_bn", 
      "attrs": {
        "eps": "0.001", 
        "fix_gamma": "False", 
        "use_global_stats": "True"
      }, 
      "inputs": [[223, 0, 0], [224, 0, 0], [225, 0, 0], [226, 0, 1], [227, 0, 1]]
    }, 
    {
      "op": "Activation", 
      "name": "inception_resnet_v2_a3_3x3_reduce_relu", 
      "attrs": {"act_type": "relu"}, 
      "inputs": [[228, 0, 0]]
    }, 
    {
      "op": "null", 
      "name": "inception_resnet_v2_a3_3x3_weight", 
      "attrs": {
        "kernel": "(3, 3)", 
        "no_bias": "True", 
        "num_filter": "32", 
        "pad": "(1, 1)", 
        "stride": "(1, 1)"
      }, 
      "inputs": []
    }, 
    {
      "op": "Convolution", 
      "name": "inception_resnet_v2_a3_3x3", 
      "attrs": {
        "kernel": "(3, 3)", 
        "no_bias": "True", 
        "num_filter": "32", 
        "pad": "(1, 1)", 
        "stride": "(1, 1)"
      }, 
      "inputs": [[229, 0, 0], [230, 0, 0]]
    }, 
    {
      "op": "null", 
      "name": "inception_resnet_v2_a3_3x3_bn_gamma", 
      "attrs": {
        "eps": "0.001", 
        "fix_gamma": "False", 
        "use_global_stats": "True"
      }, 
      "inputs": []
    }, 
    {
      "op": "null", 
      "name": "inception_resnet_v2_a3_3x3_bn_beta", 
      "attrs": {
        "eps": "0.001", 
        "fix_gamma": "False", 
        "use_global_stats": "True"
      }, 
      "inputs": []
    }, 
    {
      "op": "null", 
      "name": "inception_resnet_v2_a3_3x3_bn_moving_mean", 
      "attrs": {
        "__init__": "[\"zero\", {}]", 
        "eps": "0.001", 
        "fix_gamma": "False", 
        "use_global_stats": "True"
      }, 
      "inputs": []
    }, 
    {
      "op": "null", 
      "name": "inception_resnet_v2_a3_3x3_bn_moving_var", 
      "attrs": {
        "__init__": "[\"one\", {}]", 
        "eps": "0.001", 
        "fix_gamma": "False", 
        "use_global_stats": "True"
      }, 
      "inputs": []
    }, 
    {
      "op": "BatchNorm", 
      "name": "inception_resnet_v2_a3_3x3_bn", 
      "attrs": {
        "eps": "0.001", 
        "fix_gamma": "False", 
        "use_global_stats": "True"
      }, 
      "inputs": [[231, 0, 0], [232, 0, 0], [233, 0, 0], [234, 0, 1], [235, 0, 1]]
    }, 
    {
      "op": "Activation", 
      "name": "inception_resnet_v2_a3_3x3_relu", 
      "attrs": {"act_type": "relu"}, 
      "inputs": [[236, 0, 0]]
    }, 
    {
      "op": "null", 
      "name": "inception_resnet_v2_a3_3x3_2_reduce_weight", 
      "attrs": {
        "kernel": "(1, 1)", 
        "no_bias": "True", 
        "num_filter": "32", 
        "pad": "(0, 0)", 
        "stride": "(1, 1)"
      }, 
      "inputs": []
    }, 
    {
      "op": "Convolution", 
      "name": "inception_resnet_v2_a3_3x3_2_reduce", 
      "attrs": {
        "kernel": "(1, 1)", 
        "no_bias": "True", 
        "num_filter": "32", 
        "pad": "(0, 0)", 
        "stride": "(1, 1)"
      }, 
      "inputs": [[213, 0, 0], [238, 0, 0]]
    }, 
    {
      "op": "null", 
      "name": "inception_resnet_v2_a3_3x3_2_reduce_bn_gamma", 
      "attrs": {
        "eps": "0.001", 
        "fix_gamma": "False", 
        "use_global_stats": "True"
      }, 
      "inputs": []
    }, 
    {
      "op": "null", 
      "name": "inception_resnet_v2_a3_3x3_2_reduce_bn_beta", 
      "attrs": {
        "eps": "0.001", 
        "fix_gamma": "False", 
        "use_global_stats": "True"
      }, 
      "inputs": []
    }, 
    {
      "op": "null", 
      "name": "inception_resnet_v2_a3_3x3_2_reduce_bn_moving_mean", 
      "attrs": {
        "__init__": "[\"zero\", {}]", 
        "eps": "0.001", 
        "fix_gamma": "False", 
        "use_global_stats": "True"
      }, 
      "inputs": []
    }, 
    {
      "op": "null", 
      "name": "inception_resnet_v2_a3_3x3_2_reduce_bn_moving_var", 
      "attrs": {
        "__init__": "[\"one\", {}]", 
        "eps": "0.001", 
        "fix_gamma": "False", 
        "use_global_stats": "True"
      }, 
      "inputs": []
    }, 
    {
      "op": "BatchNorm", 
      "name": "inception_resnet_v2_a3_3x3_2_reduce_bn", 
      "attrs": {
        "eps": "0.001", 
        "fix_gamma": "False", 
        "use_global_stats": "True"
      }, 
      "inputs": [[239, 0, 0], [240, 0, 0], [241, 0, 0], [242, 0, 1], [243, 0, 1]]
    }, 
    {
      "op": "Activation", 
      "name": "inception_resnet_v2_a3_3x3_2_reduce_relu", 
      "attrs": {"act_type": "relu"}, 
      "inputs": [[244, 0, 0]]
    }, 
    {
      "op": "null", 
      "name": "inception_resnet_v2_a3_3x3_2_weight", 
      "attrs": {
        "kernel": "(3, 3)", 
        "no_bias": "True", 
        "num_filter": "48", 
        "pad": "(1, 1)", 
        "stride": "(1, 1)"
      }, 
      "inputs": []
    }, 
    {
      "op": "Convolution", 
      "name": "inception_resnet_v2_a3_3x3_2", 
      "attrs": {
        "kernel": "(3, 3)", 
        "no_bias": "True", 
        "num_filter": "48", 
        "pad": "(1, 1)", 
        "stride": "(1, 1)"
      }, 
      "inputs": [[245, 0, 0], [246, 0, 0]]
    }, 
    {
      "op": "null", 
      "name": "inception_resnet_v2_a3_3x3_2_bn_gamma", 
      "attrs": {
        "eps": "0.001", 
        "fix_gamma": "False", 
        "use_global_stats": "True"
      }, 
      "inputs": []
    }, 
    {
      "op": "null", 
      "name": "inception_resnet_v2_a3_3x3_2_bn_beta", 
      "attrs": {
        "eps": "0.001", 
        "fix_gamma": "False", 
        "use_global_stats": "True"
      }, 
      "inputs": []
    }, 
    {
      "op": "null", 
      "name": "inception_resnet_v2_a3_3x3_2_bn_moving_mean", 
      "attrs": {
        "__init__": "[\"zero\", {}]", 
        "eps": "0.001", 
        "fix_gamma": "False", 
        "use_global_stats": "True"
      }, 
      "inputs": []
    }, 
    {
      "op": "null", 
      "name": "inception_resnet_v2_a3_3x3_2_bn_moving_var", 
      "attrs": {
        "__init__": "[\"one\", {}]", 
        "eps": "0.001", 
        "fix_gamma": "False", 
        "use_global_stats": "True"
      }, 
      "inputs": []
    }, 
    {
      "op": "BatchNorm", 
      "name": "inception_resnet_v2_a3_3x3_2_bn", 
      "attrs": {
        "eps": "0.001", 
        "fix_gamma": "False", 
        "use_global_stats": "True"
      }, 
      "inputs": [[247, 0, 0], [248, 0, 0], [249, 0, 0], [250, 0, 1], [251, 0, 1]]
    }, 
    {
      "op": "Activation", 
      "name": "inception_resnet_v2_a3_3x3_2_relu", 
      "attrs": {"act_type": "relu"}, 
      "inputs": [[252, 0, 0]]
    }, 
    {
      "op": "null", 
      "name": "inception_resnet_v2_a3_3x3_3_weight", 
      "attrs": {
        "kernel": "(3, 3)", 
        "no_bias": "True", 
        "num_filter": "64", 
        "pad": "(1, 1)", 
        "stride": "(1, 1)"
      }, 
      "inputs": []
    }, 
    {
      "op": "Convolution", 
      "name": "inception_resnet_v2_a3_3x3_3", 
      "attrs": {
        "kernel": "(3, 3)", 
        "no_bias": "True", 
        "num_filter": "64", 
        "pad": "(1, 1)", 
        "stride": "(1, 1)"
      }, 
      "inputs": [[253, 0, 0], [254, 0, 0]]
    }, 
    {
      "op": "null", 
      "name": "inception_resnet_v2_a3_3x3_3_bn_gamma", 
      "attrs": {
        "eps": "0.001", 
        "fix_gamma": "False", 
        "use_global_stats": "True"
      }, 
      "inputs": []
    }, 
    {
      "op": "null", 
      "name": "inception_resnet_v2_a3_3x3_3_bn_beta", 
      "attrs": {
        "eps": "0.001", 
        "fix_gamma": "False", 
        "use_global_stats": "True"
      }, 
      "inputs": []
    }, 
    {
      "op": "null", 
      "name": "inception_resnet_v2_a3_3x3_3_bn_moving_mean", 
      "attrs": {
        "__init__": "[\"zero\", {}]", 
        "eps": "0.001", 
        "fix_gamma": "False", 
        "use_global_stats": "True"
      }, 
      "inputs": []
    }, 
    {
      "op": "null", 
      "name": "inception_resnet_v2_a3_3x3_3_bn_moving_var", 
      "attrs": {
        "__init__": "[\"one\", {}]", 
        "eps": "0.001", 
        "fix_gamma": "False", 
        "use_global_stats": "True"
      }, 
      "inputs": []
    }, 
    {
      "op": "BatchNorm", 
      "name": "inception_resnet_v2_a3_3x3_3_bn", 
      "attrs": {
        "eps": "0.001", 
        "fix_gamma": "False", 
        "use_global_stats": "True"
      }, 
      "inputs": [[255, 0, 0], [256, 0, 0], [257, 0, 0], [258, 0, 1], [259, 0, 1]]
    }, 
    {
      "op": "Activation", 
      "name": "inception_resnet_v2_a3_3x3_3_relu", 
      "attrs": {"act_type": "relu"}, 
      "inputs": [[260, 0, 0]]
    }, 
    {
      "op": "Concat", 
      "name": "inception_resnet_v2_a3_concat", 
      "attrs": {"num_args": "3"}, 
      "inputs": [[221, 0, 0], [237, 0, 0], [261, 0, 0]]
    }, 
    {
      "op": "null", 
      "name": "inception_resnet_v2_a3_up_weight", 
      "attrs": {
        "kernel": "(1, 1)", 
        "no_bias": "False", 
        "num_filter": "320", 
        "pad": "(0, 0)", 
        "stride": "(1, 1)"
      }, 
      "inputs": []
    }, 
    {
      "op": "null", 
      "name": "inception_resnet_v2_a3_up_bias", 
      "attrs": {
        "kernel": "(1, 1)", 
        "no_bias": "False", 
        "num_filter": "320", 
        "pad": "(0, 0)", 
        "stride": "(1, 1)"
      }, 
      "inputs": []
    }, 
    {
      "op": "Convolution", 
      "name": "inception_resnet_v2_a3_up", 
      "attrs": {
        "kernel": "(1, 1)", 
        "no_bias": "False", 
        "num_filter": "320", 
        "pad": "(0, 0)", 
        "stride": "(1, 1)"
      }, 
      "inputs": [[262, 0, 0], [263, 0, 0], [264, 0, 0]]
    }, 
    {
      "op": "_mul_scalar", 
      "name": "_mulscalar5", 
      "attrs": {"scalar": "0.170000001788"}, 
      "inputs": [[265, 0, 0]]
    }, 
    {
      "op": "elemwise_add", 
      "name": "inception_resnet_v2_a3_residual_eltwise", 
      "inputs": [[213, 0, 0], [266, 0, 0]]
    }, 
    {
      "op": "Activation", 
      "name": "inception_resnet_v2_a3_residual_eltwise_relu", 
      "attrs": {"act_type": "relu"}, 
      "inputs": [[267, 0, 0]]
    }, 
    {
      "op": "_mul_scalar", 
      "name": "_mulscalar6", 
      "attrs": {"scalar": "1.0"}, 
      "inputs": [[268, 0, 0]]
    }, 
    {
      "op": "null", 
      "name": "inception_resnet_v2_a4_1x1_weight", 
      "attrs": {
        "kernel": "(1, 1)", 
        "no_bias": "True", 
        "num_filter": "32", 
        "pad": "(0, 0)", 
        "stride": "(1, 1)"
      }, 
      "inputs": []
    }, 
    {
      "op": "Convolution", 
      "name": "inception_resnet_v2_a4_1x1", 
      "attrs": {
        "kernel": "(1, 1)", 
        "no_bias": "True", 
        "num_filter": "32", 
        "pad": "(0, 0)", 
        "stride": "(1, 1)"
      }, 
      "inputs": [[269, 0, 0], [270, 0, 0]]
    }, 
    {
      "op": "null", 
      "name": "inception_resnet_v2_a4_1x1_bn_gamma", 
      "attrs": {
        "eps": "0.001", 
        "fix_gamma": "False", 
        "use_global_stats": "True"
      }, 
      "inputs": []
    }, 
    {
      "op": "null", 
      "name": "inception_resnet_v2_a4_1x1_bn_beta", 
      "attrs": {
        "eps": "0.001", 
        "fix_gamma": "False", 
        "use_global_stats": "True"
      }, 
      "inputs": []
    }, 
    {
      "op": "null", 
      "name": "inception_resnet_v2_a4_1x1_bn_moving_mean", 
      "attrs": {
        "__init__": "[\"zero\", {}]", 
        "eps": "0.001", 
        "fix_gamma": "False", 
        "use_global_stats": "True"
      }, 
      "inputs": []
    }, 
    {
      "op": "null", 
      "name": "inception_resnet_v2_a4_1x1_bn_moving_var", 
      "attrs": {
        "__init__": "[\"one\", {}]", 
        "eps": "0.001", 
        "fix_gamma": "False", 
        "use_global_stats": "True"
      }, 
      "inputs": []
    }, 
    {
      "op": "BatchNorm", 
      "name": "inception_resnet_v2_a4_1x1_bn", 
      "attrs": {
        "eps": "0.001", 
        "fix_gamma": "False", 
        "use_global_stats": "True"
      }, 
      "inputs": [[271, 0, 0], [272, 0, 0], [273, 0, 0], [274, 0, 1], [275, 0, 1]]
    }, 
    {
      "op": "Activation", 
      "name": "inception_resnet_v2_a4_1x1_relu", 
      "attrs": {"act_type": "relu"}, 
      "inputs": [[276, 0, 0]]
    }, 
    {
      "op": "null", 
      "name": "inception_resnet_v2_a4_3x3_reduce_weight", 
      "attrs": {
        "kernel": "(1, 1)", 
        "no_bias": "True", 
        "num_filter": "32", 
        "pad": "(0, 0)", 
        "stride": "(1, 1)"
      }, 
      "inputs": []
    }, 
    {
      "op": "Convolution", 
      "name": "inception_resnet_v2_a4_3x3_reduce", 
      "attrs": {
        "kernel": "(1, 1)", 
        "no_bias": "True", 
        "num_filter": "32", 
        "pad": "(0, 0)", 
        "stride": "(1, 1)"
      }, 
      "inputs": [[269, 0, 0], [278, 0, 0]]
    }, 
    {
      "op": "null", 
      "name": "inception_resnet_v2_a4_3x3_reduce_bn_gamma", 
      "attrs": {
        "eps": "0.001", 
        "fix_gamma": "False", 
        "use_global_stats": "True"
      }, 
      "inputs": []
    }, 
    {
      "op": "null", 
      "name": "inception_resnet_v2_a4_3x3_reduce_bn_beta", 
      "attrs": {
        "eps": "0.001", 
        "fix_gamma": "False", 
        "use_global_stats": "True"
      }, 
      "inputs": []
    }, 
    {
      "op": "null", 
      "name": "inception_resnet_v2_a4_3x3_reduce_bn_moving_mean", 
      "attrs": {
        "__init__": "[\"zero\", {}]", 
        "eps": "0.001", 
        "fix_gamma": "False", 
        "use_global_stats": "True"
      }, 
      "inputs": []
    }, 
    {
      "op": "null", 
      "name": "inception_resnet_v2_a4_3x3_reduce_bn_moving_var", 
      "attrs": {
        "__init__": "[\"one\", {}]", 
        "eps": "0.001", 
        "fix_gamma": "False", 
        "use_global_stats": "True"
      }, 
      "inputs": []
    }, 
    {
      "op": "BatchNorm", 
      "name": "inception_resnet_v2_a4_3x3_reduce_bn", 
      "attrs": {
        "eps": "0.001", 
        "fix_gamma": "False", 
        "use_global_stats": "True"
      }, 
      "inputs": [[279, 0, 0], [280, 0, 0], [281, 0, 0], [282, 0, 1], [283, 0, 1]]
    }, 
    {
      "op": "Activation", 
      "name": "inception_resnet_v2_a4_3x3_reduce_relu", 
      "attrs": {"act_type": "relu"}, 
      "inputs": [[284, 0, 0]]
    }, 
    {
      "op": "null", 
      "name": "inception_resnet_v2_a4_3x3_weight", 
      "attrs": {
        "kernel": "(3, 3)", 
        "no_bias": "True", 
        "num_filter": "32", 
        "pad": "(1, 1)", 
        "stride": "(1, 1)"
      }, 
      "inputs": []
    }, 
    {
      "op": "Convolution", 
      "name": "inception_resnet_v2_a4_3x3", 
      "attrs": {
        "kernel": "(3, 3)", 
        "no_bias": "True", 
        "num_filter": "32", 
        "pad": "(1, 1)", 
        "stride": "(1, 1)"
      }, 
      "inputs": [[285, 0, 0], [286, 0, 0]]
    }, 
    {
      "op": "null", 
      "name": "inception_resnet_v2_a4_3x3_bn_gamma", 
      "attrs": {
        "eps": "0.001", 
        "fix_gamma": "False", 
        "use_global_stats": "True"
      }, 
      "inputs": []
    }, 
    {
      "op": "null", 
      "name": "inception_resnet_v2_a4_3x3_bn_beta", 
      "attrs": {
        "eps": "0.001", 
        "fix_gamma": "False", 
        "use_global_stats": "True"
      }, 
      "inputs": []
    }, 
    {
      "op": "null", 
      "name": "inception_resnet_v2_a4_3x3_bn_moving_mean", 
      "attrs": {
        "__init__": "[\"zero\", {}]", 
        "eps": "0.001", 
        "fix_gamma": "False", 
        "use_global_stats": "True"
      }, 
      "inputs": []
    }, 
    {
      "op": "null", 
      "name": "inception_resnet_v2_a4_3x3_bn_moving_var", 
      "attrs": {
        "__init__": "[\"one\", {}]", 
        "eps": "0.001", 
        "fix_gamma": "False", 
        "use_global_stats": "True"
      }, 
      "inputs": []
    }, 
    {
      "op": "BatchNorm", 
      "name": "inception_resnet_v2_a4_3x3_bn", 
      "attrs": {
        "eps": "0.001", 
        "fix_gamma": "False", 
        "use_global_stats": "True"
      }, 
      "inputs": [[287, 0, 0], [288, 0, 0], [289, 0, 0], [290, 0, 1], [291, 0, 1]]
    }, 
    {
      "op": "Activation", 
      "name": "inception_resnet_v2_a4_3x3_relu", 
      "attrs": {"act_type": "relu"}, 
      "inputs": [[292, 0, 0]]
    }, 
    {
      "op": "null", 
      "name": "inception_resnet_v2_a4_3x3_2_reduce_weight", 
      "attrs": {
        "kernel": "(1, 1)", 
        "no_bias": "True", 
        "num_filter": "32", 
        "pad": "(0, 0)", 
        "stride": "(1, 1)"
      }, 
      "inputs": []
    }, 
    {
      "op": "Convolution", 
      "name": "inception_resnet_v2_a4_3x3_2_reduce", 
      "attrs": {
        "kernel": "(1, 1)", 
        "no_bias": "True", 
        "num_filter": "32", 
        "pad": "(0, 0)", 
        "stride": "(1, 1)"
      }, 
      "inputs": [[269, 0, 0], [294, 0, 0]]
    }, 
    {
      "op": "null", 
      "name": "inception_resnet_v2_a4_3x3_2_reduce_bn_gamma", 
      "attrs": {
        "eps": "0.001", 
        "fix_gamma": "False", 
        "use_global_stats": "True"
      }, 
      "inputs": []
    }, 
    {
      "op": "null", 
      "name": "inception_resnet_v2_a4_3x3_2_reduce_bn_beta", 
      "attrs": {
        "eps": "0.001", 
        "fix_gamma": "False", 
        "use_global_stats": "True"
      }, 
      "inputs": []
    }, 
    {
      "op": "null", 
      "name": "inception_resnet_v2_a4_3x3_2_reduce_bn_moving_mean", 
      "attrs": {
        "__init__": "[\"zero\", {}]", 
        "eps": "0.001", 
        "fix_gamma": "False", 
        "use_global_stats": "True"
      }, 
      "inputs": []
    }, 
    {
      "op": "null", 
      "name": "inception_resnet_v2_a4_3x3_2_reduce_bn_moving_var", 
      "attrs": {
        "__init__": "[\"one\", {}]", 
        "eps": "0.001", 
        "fix_gamma": "False", 
        "use_global_stats": "True"
      }, 
      "inputs": []
    }, 
    {
      "op": "BatchNorm", 
      "name": "inception_resnet_v2_a4_3x3_2_reduce_bn", 
      "attrs": {
        "eps": "0.001", 
        "fix_gamma": "False", 
        "use_global_stats": "True"
      }, 
      "inputs": [[295, 0, 0], [296, 0, 0], [297, 0, 0], [298, 0, 1], [299, 0, 1]]
    }, 
    {
      "op": "Activation", 
      "name": "inception_resnet_v2_a4_3x3_2_reduce_relu", 
      "attrs": {"act_type": "relu"}, 
      "inputs": [[300, 0, 0]]
    }, 
    {
      "op": "null", 
      "name": "inception_resnet_v2_a4_3x3_2_weight", 
      "attrs": {
        "kernel": "(3, 3)", 
        "no_bias": "True", 
        "num_filter": "48", 
        "pad": "(1, 1)", 
        "stride": "(1, 1)"
      }, 
      "inputs": []
    }, 
    {
      "op": "Convolution", 
      "name": "inception_resnet_v2_a4_3x3_2", 
      "attrs": {
        "kernel": "(3, 3)", 
        "no_bias": "True", 
        "num_filter": "48", 
        "pad": "(1, 1)", 
        "stride": "(1, 1)"
      }, 
      "inputs": [[301, 0, 0], [302, 0, 0]]
    }, 
    {
      "op": "null", 
      "name": "inception_resnet_v2_a4_3x3_2_bn_gamma", 
      "attrs": {
        "eps": "0.001", 
        "fix_gamma": "False", 
        "use_global_stats": "True"
      }, 
      "inputs": []
    }, 
    {
      "op": "null", 
      "name": "inception_resnet_v2_a4_3x3_2_bn_beta", 
      "attrs": {
        "eps": "0.001", 
        "fix_gamma": "False", 
        "use_global_stats": "True"
      }, 
      "inputs": []
    }, 
    {
      "op": "null", 
      "name": "inception_resnet_v2_a4_3x3_2_bn_moving_mean", 
      "attrs": {
        "__init__": "[\"zero\", {}]", 
        "eps": "0.001", 
        "fix_gamma": "False", 
        "use_global_stats": "True"
      }, 
      "inputs": []
    }, 
    {
      "op": "null", 
      "name": "inception_resnet_v2_a4_3x3_2_bn_moving_var", 
      "attrs": {
        "__init__": "[\"one\", {}]", 
        "eps": "0.001", 
        "fix_gamma": "False", 
        "use_global_stats": "True"
      }, 
      "inputs": []
    }, 
    {
      "op": "BatchNorm", 
      "name": "inception_resnet_v2_a4_3x3_2_bn", 
      "attrs": {
        "eps": "0.001", 
        "fix_gamma": "False", 
        "use_global_stats": "True"
      }, 
      "inputs": [[303, 0, 0], [304, 0, 0], [305, 0, 0], [306, 0, 1], [307, 0, 1]]
    }, 
    {
      "op": "Activation", 
      "name": "inception_resnet_v2_a4_3x3_2_relu", 
      "attrs": {"act_type": "relu"}, 
      "inputs": [[308, 0, 0]]
    }, 
    {
      "op": "null", 
      "name": "inception_resnet_v2_a4_3x3_3_weight", 
      "attrs": {
        "kernel": "(3, 3)", 
        "no_bias": "True", 
        "num_filter": "64", 
        "pad": "(1, 1)", 
        "stride": "(1, 1)"
      }, 
      "inputs": []
    }, 
    {
      "op": "Convolution", 
      "name": "inception_resnet_v2_a4_3x3_3", 
      "attrs": {
        "kernel": "(3, 3)", 
        "no_bias": "True", 
        "num_filter": "64", 
        "pad": "(1, 1)", 
        "stride": "(1, 1)"
      }, 
      "inputs": [[309, 0, 0], [310, 0, 0]]
    }, 
    {
      "op": "null", 
      "name": "inception_resnet_v2_a4_3x3_3_bn_gamma", 
      "attrs": {
        "eps": "0.001", 
        "fix_gamma": "False", 
        "use_global_stats": "True"
      }, 
      "inputs": []
    }, 
    {
      "op": "null", 
      "name": "inception_resnet_v2_a4_3x3_3_bn_beta", 
      "attrs": {
        "eps": "0.001", 
        "fix_gamma": "False", 
        "use_global_stats": "True"
      }, 
      "inputs": []
    }, 
    {
      "op": "null", 
      "name": "inception_resnet_v2_a4_3x3_3_bn_moving_mean", 
      "attrs": {
        "__init__": "[\"zero\", {}]", 
        "eps": "0.001", 
        "fix_gamma": "False", 
        "use_global_stats": "True"
      }, 
      "inputs": []
    }, 
    {
      "op": "null", 
      "name": "inception_resnet_v2_a4_3x3_3_bn_moving_var", 
      "attrs": {
        "__init__": "[\"one\", {}]", 
        "eps": "0.001", 
        "fix_gamma": "False", 
        "use_global_stats": "True"
      }, 
      "inputs": []
    }, 
    {
      "op": "BatchNorm", 
      "name": "inception_resnet_v2_a4_3x3_3_bn", 
      "attrs": {
        "eps": "0.001", 
        "fix_gamma": "False", 
        "use_global_stats": "True"
      }, 
      "inputs": [[311, 0, 0], [312, 0, 0], [313, 0, 0], [314, 0, 1], [315, 0, 1]]
    }, 
    {
      "op": "Activation", 
      "name": "inception_resnet_v2_a4_3x3_3_relu", 
      "attrs": {"act_type": "relu"}, 
      "inputs": [[316, 0, 0]]
    }, 
    {
      "op": "Concat", 
      "name": "inception_resnet_v2_a4_concat", 
      "attrs": {"num_args": "3"}, 
      "inputs": [[277, 0, 0], [293, 0, 0], [317, 0, 0]]
    }, 
    {
      "op": "null", 
      "name": "inception_resnet_v2_a4_up_weight", 
      "attrs": {
        "kernel": "(1, 1)", 
        "no_bias": "False", 
        "num_filter": "320", 
        "pad": "(0, 0)", 
        "stride": "(1, 1)"
      }, 
      "inputs": []
    }, 
    {
      "op": "null", 
      "name": "inception_resnet_v2_a4_up_bias", 
      "attrs": {
        "kernel": "(1, 1)", 
        "no_bias": "False", 
        "num_filter": "320", 
        "pad": "(0, 0)", 
        "stride": "(1, 1)"
      }, 
      "inputs": []
    }, 
    {
      "op": "Convolution", 
      "name": "inception_resnet_v2_a4_up", 
      "attrs": {
        "kernel": "(1, 1)", 
        "no_bias": "False", 
        "num_filter": "320", 
        "pad": "(0, 0)", 
        "stride": "(1, 1)"
      }, 
      "inputs": [[318, 0, 0], [319, 0, 0], [320, 0, 0]]
    }, 
    {
      "op": "_mul_scalar", 
      "name": "_mulscalar7", 
      "attrs": {"scalar": "0.170000001788"}, 
      "inputs": [[321, 0, 0]]
    }, 
    {
      "op": "elemwise_add", 
      "name": "inception_resnet_v2_a4_residual_eltwise", 
      "inputs": [[269, 0, 0], [322, 0, 0]]
    }, 
    {
      "op": "Activation", 
      "name": "inception_resnet_v2_a4_residual_eltwise_relu", 
      "attrs": {"act_type": "relu"}, 
      "inputs": [[323, 0, 0]]
    }, 
    {
      "op": "_mul_scalar", 
      "name": "_mulscalar8", 
      "attrs": {"scalar": "1.0"}, 
      "inputs": [[324, 0, 0]]
    }, 
    {
      "op": "null", 
      "name": "inception_resnet_v2_a5_1x1_weight", 
      "attrs": {
        "kernel": "(1, 1)", 
        "no_bias": "True", 
        "num_filter": "32", 
        "pad": "(0, 0)", 
        "stride": "(1, 1)"
      }, 
      "inputs": []
    }, 
    {
      "op": "Convolution", 
      "name": "inception_resnet_v2_a5_1x1", 
      "attrs": {
        "kernel": "(1, 1)", 
        "no_bias": "True", 
        "num_filter": "32", 
        "pad": "(0, 0)", 
        "stride": "(1, 1)"
      }, 
      "inputs": [[325, 0, 0], [326, 0, 0]]
    }, 
    {
      "op": "null", 
      "name": "inception_resnet_v2_a5_1x1_bn_gamma", 
      "attrs": {
        "eps": "0.001", 
        "fix_gamma": "False", 
        "use_global_stats": "True"
      }, 
      "inputs": []
    }, 
    {
      "op": "null", 
      "name": "inception_resnet_v2_a5_1x1_bn_beta", 
      "attrs": {
        "eps": "0.001", 
        "fix_gamma": "False", 
        "use_global_stats": "True"
      }, 
      "inputs": []
    }, 
    {
      "op": "null", 
      "name": "inception_resnet_v2_a5_1x1_bn_moving_mean", 
      "attrs": {
        "__init__": "[\"zero\", {}]", 
        "eps": "0.001", 
        "fix_gamma": "False", 
        "use_global_stats": "True"
      }, 
      "inputs": []
    }, 
    {
      "op": "null", 
      "name": "inception_resnet_v2_a5_1x1_bn_moving_var", 
      "attrs": {
        "__init__": "[\"one\", {}]", 
        "eps": "0.001", 
        "fix_gamma": "False", 
        "use_global_stats": "True"
      }, 
      "inputs": []
    }, 
    {
      "op": "BatchNorm", 
      "name": "inception_resnet_v2_a5_1x1_bn", 
      "attrs": {
        "eps": "0.001", 
        "fix_gamma": "False", 
        "use_global_stats": "True"
      }, 
      "inputs": [[327, 0, 0], [328, 0, 0], [329, 0, 0], [330, 0, 1], [331, 0, 1]]
    }, 
    {
      "op": "Activation", 
      "name": "inception_resnet_v2_a5_1x1_relu", 
      "attrs": {"act_type": "relu"}, 
      "inputs": [[332, 0, 0]]
    }, 
    {
      "op": "null", 
      "name": "inception_resnet_v2_a5_3x3_reduce_weight", 
      "attrs": {
        "kernel": "(1, 1)", 
        "no_bias": "True", 
        "num_filter": "32", 
        "pad": "(0, 0)", 
        "stride": "(1, 1)"
      }, 
      "inputs": []
    }, 
    {
      "op": "Convolution", 
      "name": "inception_resnet_v2_a5_3x3_reduce", 
      "attrs": {
        "kernel": "(1, 1)", 
        "no_bias": "True", 
        "num_filter": "32", 
        "pad": "(0, 0)", 
        "stride": "(1, 1)"
      }, 
      "inputs": [[325, 0, 0], [334, 0, 0]]
    }, 
    {
      "op": "null", 
      "name": "inception_resnet_v2_a5_3x3_reduce_bn_gamma", 
      "attrs": {
        "eps": "0.001", 
        "fix_gamma": "False", 
        "use_global_stats": "True"
      }, 
      "inputs": []
    }, 
    {
      "op": "null", 
      "name": "inception_resnet_v2_a5_3x3_reduce_bn_beta", 
      "attrs": {
        "eps": "0.001", 
        "fix_gamma": "False", 
        "use_global_stats": "True"
      }, 
      "inputs": []
    }, 
    {
      "op": "null", 
      "name": "inception_resnet_v2_a5_3x3_reduce_bn_moving_mean", 
      "attrs": {
        "__init__": "[\"zero\", {}]", 
        "eps": "0.001", 
        "fix_gamma": "False", 
        "use_global_stats": "True"
      }, 
      "inputs": []
    }, 
    {
      "op": "null", 
      "name": "inception_resnet_v2_a5_3x3_reduce_bn_moving_var", 
      "attrs": {
        "__init__": "[\"one\", {}]", 
        "eps": "0.001", 
        "fix_gamma": "False", 
        "use_global_stats": "True"
      }, 
      "inputs": []
    }, 
    {
      "op": "BatchNorm", 
      "name": "inception_resnet_v2_a5_3x3_reduce_bn", 
      "attrs": {
        "eps": "0.001", 
        "fix_gamma": "False", 
        "use_global_stats": "True"
      }, 
      "inputs": [[335, 0, 0], [336, 0, 0], [337, 0, 0], [338, 0, 1], [339, 0, 1]]
    }, 
    {
      "op": "Activation", 
      "name": "inception_resnet_v2_a5_3x3_reduce_relu", 
      "attrs": {"act_type": "relu"}, 
      "inputs": [[340, 0, 0]]
    }, 
    {
      "op": "null", 
      "name": "inception_resnet_v2_a5_3x3_weight", 
      "attrs": {
        "kernel": "(3, 3)", 
        "no_bias": "True", 
        "num_filter": "32", 
        "pad": "(1, 1)", 
        "stride": "(1, 1)"
      }, 
      "inputs": []
    }, 
    {
      "op": "Convolution", 
      "name": "inception_resnet_v2_a5_3x3", 
      "attrs": {
        "kernel": "(3, 3)", 
        "no_bias": "True", 
        "num_filter": "32", 
        "pad": "(1, 1)", 
        "stride": "(1, 1)"
      }, 
      "inputs": [[341, 0, 0], [342, 0, 0]]
    }, 
    {
      "op": "null", 
      "name": "inception_resnet_v2_a5_3x3_bn_gamma", 
      "attrs": {
        "eps": "0.001", 
        "fix_gamma": "False", 
        "use_global_stats": "True"
      }, 
      "inputs": []
    }, 
    {
      "op": "null", 
      "name": "inception_resnet_v2_a5_3x3_bn_beta", 
      "attrs": {
        "eps": "0.001", 
        "fix_gamma": "False", 
        "use_global_stats": "True"
      }, 
      "inputs": []
    }, 
    {
      "op": "null", 
      "name": "inception_resnet_v2_a5_3x3_bn_moving_mean", 
      "attrs": {
        "__init__": "[\"zero\", {}]", 
        "eps": "0.001", 
        "fix_gamma": "False", 
        "use_global_stats": "True"
      }, 
      "inputs": []
    }, 
    {
      "op": "null", 
      "name": "inception_resnet_v2_a5_3x3_bn_moving_var", 
      "attrs": {
        "__init__": "[\"one\", {}]", 
        "eps": "0.001", 
        "fix_gamma": "False", 
        "use_global_stats": "True"
      }, 
      "inputs": []
    }, 
    {
      "op": "BatchNorm", 
      "name": "inception_resnet_v2_a5_3x3_bn", 
      "attrs": {
        "eps": "0.001", 
        "fix_gamma": "False", 
        "use_global_stats": "True"
      }, 
      "inputs": [[343, 0, 0], [344, 0, 0], [345, 0, 0], [346, 0, 1], [347, 0, 1]]
    }, 
    {
      "op": "Activation", 
      "name": "inception_resnet_v2_a5_3x3_relu", 
      "attrs": {"act_type": "relu"}, 
      "inputs": [[348, 0, 0]]
    }, 
    {
      "op": "null", 
      "name": "inception_resnet_v2_a5_3x3_2_reduce_weight", 
      "attrs": {
        "kernel": "(1, 1)", 
        "no_bias": "True", 
        "num_filter": "32", 
        "pad": "(0, 0)", 
        "stride": "(1, 1)"
      }, 
      "inputs": []
    }, 
    {
      "op": "Convolution", 
      "name": "inception_resnet_v2_a5_3x3_2_reduce", 
      "attrs": {
        "kernel": "(1, 1)", 
        "no_bias": "True", 
        "num_filter": "32", 
        "pad": "(0, 0)", 
        "stride": "(1, 1)"
      }, 
      "inputs": [[325, 0, 0], [350, 0, 0]]
    }, 
    {
      "op": "null", 
      "name": "inception_resnet_v2_a5_3x3_2_reduce_bn_gamma", 
      "attrs": {
        "eps": "0.001", 
        "fix_gamma": "False", 
        "use_global_stats": "True"
      }, 
      "inputs": []
    }, 
    {
      "op": "null", 
      "name": "inception_resnet_v2_a5_3x3_2_reduce_bn_beta", 
      "attrs": {
        "eps": "0.001", 
        "fix_gamma": "False", 
        "use_global_stats": "True"
      }, 
      "inputs": []
    }, 
    {
      "op": "null", 
      "name": "inception_resnet_v2_a5_3x3_2_reduce_bn_moving_mean", 
      "attrs": {
        "__init__": "[\"zero\", {}]", 
        "eps": "0.001", 
        "fix_gamma": "False", 
        "use_global_stats": "True"
      }, 
      "inputs": []
    }, 
    {
      "op": "null", 
      "name": "inception_resnet_v2_a5_3x3_2_reduce_bn_moving_var", 
      "attrs": {
        "__init__": "[\"one\", {}]", 
        "eps": "0.001", 
        "fix_gamma": "False", 
        "use_global_stats": "True"
      }, 
      "inputs": []
    }, 
    {
      "op": "BatchNorm", 
      "name": "inception_resnet_v2_a5_3x3_2_reduce_bn", 
      "attrs": {
        "eps": "0.001", 
        "fix_gamma": "False", 
        "use_global_stats": "True"
      }, 
      "inputs": [[351, 0, 0], [352, 0, 0], [353, 0, 0], [354, 0, 1], [355, 0, 1]]
    }, 
    {
      "op": "Activation", 
      "name": "inception_resnet_v2_a5_3x3_2_reduce_relu", 
      "attrs": {"act_type": "relu"}, 
      "inputs": [[356, 0, 0]]
    }, 
    {
      "op": "null", 
      "name": "inception_resnet_v2_a5_3x3_2_weight", 
      "attrs": {
        "kernel": "(3, 3)", 
        "no_bias": "True", 
        "num_filter": "48", 
        "pad": "(1, 1)", 
        "stride": "(1, 1)"
      }, 
      "inputs": []
    }, 
    {
      "op": "Convolution", 
      "name": "inception_resnet_v2_a5_3x3_2", 
      "attrs": {
        "kernel": "(3, 3)", 
        "no_bias": "True", 
        "num_filter": "48", 
        "pad": "(1, 1)", 
        "stride": "(1, 1)"
      }, 
      "inputs": [[357, 0, 0], [358, 0, 0]]
    }, 
    {
      "op": "null", 
      "name": "inception_resnet_v2_a5_3x3_2_bn_gamma", 
      "attrs": {
        "eps": "0.001", 
        "fix_gamma": "False", 
        "use_global_stats": "True"
      }, 
      "inputs": []
    }, 
    {
      "op": "null", 
      "name": "inception_resnet_v2_a5_3x3_2_bn_beta", 
      "attrs": {
        "eps": "0.001", 
        "fix_gamma": "False", 
        "use_global_stats": "True"
      }, 
      "inputs": []
    }, 
    {
      "op": "null", 
      "name": "inception_resnet_v2_a5_3x3_2_bn_moving_mean", 
      "attrs": {
        "__init__": "[\"zero\", {}]", 
        "eps": "0.001", 
        "fix_gamma": "False", 
        "use_global_stats": "True"
      }, 
      "inputs": []
    }, 
    {
      "op": "null", 
      "name": "inception_resnet_v2_a5_3x3_2_bn_moving_var", 
      "attrs": {
        "__init__": "[\"one\", {}]", 
        "eps": "0.001", 
        "fix_gamma": "False", 
        "use_global_stats": "True"
      }, 
      "inputs": []
    }, 
    {
      "op": "BatchNorm", 
      "name": "inception_resnet_v2_a5_3x3_2_bn", 
      "attrs": {
        "eps": "0.001", 
        "fix_gamma": "False", 
        "use_global_stats": "True"
      }, 
      "inputs": [[359, 0, 0], [360, 0, 0], [361, 0, 0], [362, 0, 1], [363, 0, 1]]
    }, 
    {
      "op": "Activation", 
      "name": "inception_resnet_v2_a5_3x3_2_relu", 
      "attrs": {"act_type": "relu"}, 
      "inputs": [[364, 0, 0]]
    }, 
    {
      "op": "null", 
      "name": "inception_resnet_v2_a5_3x3_3_weight", 
      "attrs": {
        "kernel": "(3, 3)", 
        "no_bias": "True", 
        "num_filter": "64", 
        "pad": "(1, 1)", 
        "stride": "(1, 1)"
      }, 
      "inputs": []
    }, 
    {
      "op": "Convolution", 
      "name": "inception_resnet_v2_a5_3x3_3", 
      "attrs": {
        "kernel": "(3, 3)", 
        "no_bias": "True", 
        "num_filter": "64", 
        "pad": "(1, 1)", 
        "stride": "(1, 1)"
      }, 
      "inputs": [[365, 0, 0], [366, 0, 0]]
    }, 
    {
      "op": "null", 
      "name": "inception_resnet_v2_a5_3x3_3_bn_gamma", 
      "attrs": {
        "eps": "0.001", 
        "fix_gamma": "False", 
        "use_global_stats": "True"
      }, 
      "inputs": []
    }, 
    {
      "op": "null", 
      "name": "inception_resnet_v2_a5_3x3_3_bn_beta", 
      "attrs": {
        "eps": "0.001", 
        "fix_gamma": "False", 
        "use_global_stats": "True"
      }, 
      "inputs": []
    }, 
    {
      "op": "null", 
      "name": "inception_resnet_v2_a5_3x3_3_bn_moving_mean", 
      "attrs": {
        "__init__": "[\"zero\", {}]", 
        "eps": "0.001", 
        "fix_gamma": "False", 
        "use_global_stats": "True"
      }, 
      "inputs": []
    }, 
    {
      "op": "null", 
      "name": "inception_resnet_v2_a5_3x3_3_bn_moving_var", 
      "attrs": {
        "__init__": "[\"one\", {}]", 
        "eps": "0.001", 
        "fix_gamma": "False", 
        "use_global_stats": "True"
      }, 
      "inputs": []
    }, 
    {
      "op": "BatchNorm", 
      "name": "inception_resnet_v2_a5_3x3_3_bn", 
      "attrs": {
        "eps": "0.001", 
        "fix_gamma": "False", 
        "use_global_stats": "True"
      }, 
      "inputs": [[367, 0, 0], [368, 0, 0], [369, 0, 0], [370, 0, 1], [371, 0, 1]]
    }, 
    {
      "op": "Activation", 
      "name": "inception_resnet_v2_a5_3x3_3_relu", 
      "attrs": {"act_type": "relu"}, 
      "inputs": [[372, 0, 0]]
    }, 
    {
      "op": "Concat", 
      "name": "inception_resnet_v2_a5_concat", 
      "attrs": {"num_args": "3"}, 
      "inputs": [[333, 0, 0], [349, 0, 0], [373, 0, 0]]
    }, 
    {
      "op": "null", 
      "name": "inception_resnet_v2_a5_up_weight", 
      "attrs": {
        "kernel": "(1, 1)", 
        "no_bias": "False", 
        "num_filter": "320", 
        "pad": "(0, 0)", 
        "stride": "(1, 1)"
      }, 
      "inputs": []
    }, 
    {
      "op": "null", 
      "name": "inception_resnet_v2_a5_up_bias", 
      "attrs": {
        "kernel": "(1, 1)", 
        "no_bias": "False", 
        "num_filter": "320", 
        "pad": "(0, 0)", 
        "stride": "(1, 1)"
      }, 
      "inputs": []
    }, 
    {
      "op": "Convolution", 
      "name": "inception_resnet_v2_a5_up", 
      "attrs": {
        "kernel": "(1, 1)", 
        "no_bias": "False", 
        "num_filter": "320", 
        "pad": "(0, 0)", 
        "stride": "(1, 1)"
      }, 
      "inputs": [[374, 0, 0], [375, 0, 0], [376, 0, 0]]
    }, 
    {
      "op": "_mul_scalar", 
      "name": "_mulscalar9", 
      "attrs": {"scalar": "0.170000001788"}, 
      "inputs": [[377, 0, 0]]
    }, 
    {
      "op": "elemwise_add", 
      "name": "inception_resnet_v2_a5_residual_eltwise", 
      "inputs": [[325, 0, 0], [378, 0, 0]]
    }, 
    {
      "op": "Activation", 
      "name": "inception_resnet_v2_a5_residual_eltwise_relu", 
      "attrs": {"act_type": "relu"}, 
      "inputs": [[379, 0, 0]]
    }, 
    {
      "op": "_mul_scalar", 
      "name": "_mulscalar10", 
      "attrs": {"scalar": "1.0"}, 
      "inputs": [[380, 0, 0]]
    }, 
    {
      "op": "null", 
      "name": "inception_resnet_v2_a6_1x1_weight", 
      "attrs": {
        "kernel": "(1, 1)", 
        "no_bias": "True", 
        "num_filter": "32", 
        "pad": "(0, 0)", 
        "stride": "(1, 1)"
      }, 
      "inputs": []
    }, 
    {
      "op": "Convolution", 
      "name": "inception_resnet_v2_a6_1x1", 
      "attrs": {
        "kernel": "(1, 1)", 
        "no_bias": "True", 
        "num_filter": "32", 
        "pad": "(0, 0)", 
        "stride": "(1, 1)"
      }, 
      "inputs": [[381, 0, 0], [382, 0, 0]]
    }, 
    {
      "op": "null", 
      "name": "inception_resnet_v2_a6_1x1_bn_gamma", 
      "attrs": {
        "eps": "0.001", 
        "fix_gamma": "False", 
        "use_global_stats": "True"
      }, 
      "inputs": []
    }, 
    {
      "op": "null", 
      "name": "inception_resnet_v2_a6_1x1_bn_beta", 
      "attrs": {
        "eps": "0.001", 
        "fix_gamma": "False", 
        "use_global_stats": "True"
      }, 
      "inputs": []
    }, 
    {
      "op": "null", 
      "name": "inception_resnet_v2_a6_1x1_bn_moving_mean", 
      "attrs": {
        "__init__": "[\"zero\", {}]", 
        "eps": "0.001", 
        "fix_gamma": "False", 
        "use_global_stats": "True"
      }, 
      "inputs": []
    }, 
    {
      "op": "null", 
      "name": "inception_resnet_v2_a6_1x1_bn_moving_var", 
      "attrs": {
        "__init__": "[\"one\", {}]", 
        "eps": "0.001", 
        "fix_gamma": "False", 
        "use_global_stats": "True"
      }, 
      "inputs": []
    }, 
    {
      "op": "BatchNorm", 
      "name": "inception_resnet_v2_a6_1x1_bn", 
      "attrs": {
        "eps": "0.001", 
        "fix_gamma": "False", 
        "use_global_stats": "True"
      }, 
      "inputs": [[383, 0, 0], [384, 0, 0], [385, 0, 0], [386, 0, 1], [387, 0, 1]]
    }, 
    {
      "op": "Activation", 
      "name": "inception_resnet_v2_a6_1x1_relu", 
      "attrs": {"act_type": "relu"}, 
      "inputs": [[388, 0, 0]]
    }, 
    {
      "op": "null", 
      "name": "inception_resnet_v2_a6_3x3_reduce_weight", 
      "attrs": {
        "kernel": "(1, 1)", 
        "no_bias": "True", 
        "num_filter": "32", 
        "pad": "(0, 0)", 
        "stride": "(1, 1)"
      }, 
      "inputs": []
    }, 
    {
      "op": "Convolution", 
      "name": "inception_resnet_v2_a6_3x3_reduce", 
      "attrs": {
        "kernel": "(1, 1)", 
        "no_bias": "True", 
        "num_filter": "32", 
        "pad": "(0, 0)", 
        "stride": "(1, 1)"
      }, 
      "inputs": [[381, 0, 0], [390, 0, 0]]
    }, 
    {
      "op": "null", 
      "name": "inception_resnet_v2_a6_3x3_reduce_bn_gamma", 
      "attrs": {
        "eps": "0.001", 
        "fix_gamma": "False", 
        "use_global_stats": "True"
      }, 
      "inputs": []
    }, 
    {
      "op": "null", 
      "name": "inception_resnet_v2_a6_3x3_reduce_bn_beta", 
      "attrs": {
        "eps": "0.001", 
        "fix_gamma": "False", 
        "use_global_stats": "True"
      }, 
      "inputs": []
    }, 
    {
      "op": "null", 
      "name": "inception_resnet_v2_a6_3x3_reduce_bn_moving_mean", 
      "attrs": {
        "__init__": "[\"zero\", {}]", 
        "eps": "0.001", 
        "fix_gamma": "False", 
        "use_global_stats": "True"
      }, 
      "inputs": []
    }, 
    {
      "op": "null", 
      "name": "inception_resnet_v2_a6_3x3_reduce_bn_moving_var", 
      "attrs": {
        "__init__": "[\"one\", {}]", 
        "eps": "0.001", 
        "fix_gamma": "False", 
        "use_global_stats": "True"
      }, 
      "inputs": []
    }, 
    {
      "op": "BatchNorm", 
      "name": "inception_resnet_v2_a6_3x3_reduce_bn", 
      "attrs": {
        "eps": "0.001", 
        "fix_gamma": "False", 
        "use_global_stats": "True"
      }, 
      "inputs": [[391, 0, 0], [392, 0, 0], [393, 0, 0], [394, 0, 1], [395, 0, 1]]
    }, 
    {
      "op": "Activation", 
      "name": "inception_resnet_v2_a6_3x3_reduce_relu", 
      "attrs": {"act_type": "relu"}, 
      "inputs": [[396, 0, 0]]
    }, 
    {
      "op": "null", 
      "name": "inception_resnet_v2_a6_3x3_weight", 
      "attrs": {
        "kernel": "(3, 3)", 
        "no_bias": "True", 
        "num_filter": "32", 
        "pad": "(1, 1)", 
        "stride": "(1, 1)"
      }, 
      "inputs": []
    }, 
    {
      "op": "Convolution", 
      "name": "inception_resnet_v2_a6_3x3", 
      "attrs": {
        "kernel": "(3, 3)", 
        "no_bias": "True", 
        "num_filter": "32", 
        "pad": "(1, 1)", 
        "stride": "(1, 1)"
      }, 
      "inputs": [[397, 0, 0], [398, 0, 0]]
    }, 
    {
      "op": "null", 
      "name": "inception_resnet_v2_a6_3x3_bn_gamma", 
      "attrs": {
        "eps": "0.001", 
        "fix_gamma": "False", 
        "use_global_stats": "True"
      }, 
      "inputs": []
    }, 
    {
      "op": "null", 
      "name": "inception_resnet_v2_a6_3x3_bn_beta", 
      "attrs": {
        "eps": "0.001", 
        "fix_gamma": "False", 
        "use_global_stats": "True"
      }, 
      "inputs": []
    }, 
    {
      "op": "null", 
      "name": "inception_resnet_v2_a6_3x3_bn_moving_mean", 
      "attrs": {
        "__init__": "[\"zero\", {}]", 
        "eps": "0.001", 
        "fix_gamma": "False", 
        "use_global_stats": "True"
      }, 
      "inputs": []
    }, 
    {
      "op": "null", 
      "name": "inception_resnet_v2_a6_3x3_bn_moving_var", 
      "attrs": {
        "__init__": "[\"one\", {}]", 
        "eps": "0.001", 
        "fix_gamma": "False", 
        "use_global_stats": "True"
      }, 
      "inputs": []
    }, 
    {
      "op": "BatchNorm", 
      "name": "inception_resnet_v2_a6_3x3_bn", 
      "attrs": {
        "eps": "0.001", 
        "fix_gamma": "False", 
        "use_global_stats": "True"
      }, 
      "inputs": [[399, 0, 0], [400, 0, 0], [401, 0, 0], [402, 0, 1], [403, 0, 1]]
    }, 
    {
      "op": "Activation", 
      "name": "inception_resnet_v2_a6_3x3_relu", 
      "attrs": {"act_type": "relu"}, 
      "inputs": [[404, 0, 0]]
    }, 
    {
      "op": "null", 
      "name": "inception_resnet_v2_a6_3x3_2_reduce_weight", 
      "attrs": {
        "kernel": "(1, 1)", 
        "no_bias": "True", 
        "num_filter": "32", 
        "pad": "(0, 0)", 
        "stride": "(1, 1)"
      }, 
      "inputs": []
    }, 
    {
      "op": "Convolution", 
      "name": "inception_resnet_v2_a6_3x3_2_reduce", 
      "attrs": {
        "kernel": "(1, 1)", 
        "no_bias": "True", 
        "num_filter": "32", 
        "pad": "(0, 0)", 
        "stride": "(1, 1)"
      }, 
      "inputs": [[381, 0, 0], [406, 0, 0]]
    }, 
    {
      "op": "null", 
      "name": "inception_resnet_v2_a6_3x3_2_reduce_bn_gamma", 
      "attrs": {
        "eps": "0.001", 
        "fix_gamma": "False", 
        "use_global_stats": "True"
      }, 
      "inputs": []
    }, 
    {
      "op": "null", 
      "name": "inception_resnet_v2_a6_3x3_2_reduce_bn_beta", 
      "attrs": {
        "eps": "0.001", 
        "fix_gamma": "False", 
        "use_global_stats": "True"
      }, 
      "inputs": []
    }, 
    {
      "op": "null", 
      "name": "inception_resnet_v2_a6_3x3_2_reduce_bn_moving_mean", 
      "attrs": {
        "__init__": "[\"zero\", {}]", 
        "eps": "0.001", 
        "fix_gamma": "False", 
        "use_global_stats": "True"
      }, 
      "inputs": []
    }, 
    {
      "op": "null", 
      "name": "inception_resnet_v2_a6_3x3_2_reduce_bn_moving_var", 
      "attrs": {
        "__init__": "[\"one\", {}]", 
        "eps": "0.001", 
        "fix_gamma": "False", 
        "use_global_stats": "True"
      }, 
      "inputs": []
    }, 
    {
      "op": "BatchNorm", 
      "name": "inception_resnet_v2_a6_3x3_2_reduce_bn", 
      "attrs": {
        "eps": "0.001", 
        "fix_gamma": "False", 
        "use_global_stats": "True"
      }, 
      "inputs": [[407, 0, 0], [408, 0, 0], [409, 0, 0], [410, 0, 1], [411, 0, 1]]
    }, 
    {
      "op": "Activation", 
      "name": "inception_resnet_v2_a6_3x3_2_reduce_relu", 
      "attrs": {"act_type": "relu"}, 
      "inputs": [[412, 0, 0]]
    }, 
    {
      "op": "null", 
      "name": "inception_resnet_v2_a6_3x3_2_weight", 
      "attrs": {
        "kernel": "(3, 3)", 
        "no_bias": "True", 
        "num_filter": "48", 
        "pad": "(1, 1)", 
        "stride": "(1, 1)"
      }, 
      "inputs": []
    }, 
    {
      "op": "Convolution", 
      "name": "inception_resnet_v2_a6_3x3_2", 
      "attrs": {
        "kernel": "(3, 3)", 
        "no_bias": "True", 
        "num_filter": "48", 
        "pad": "(1, 1)", 
        "stride": "(1, 1)"
      }, 
      "inputs": [[413, 0, 0], [414, 0, 0]]
    }, 
    {
      "op": "null", 
      "name": "inception_resnet_v2_a6_3x3_2_bn_gamma", 
      "attrs": {
        "eps": "0.001", 
        "fix_gamma": "False", 
        "use_global_stats": "True"
      }, 
      "inputs": []
    }, 
    {
      "op": "null", 
      "name": "inception_resnet_v2_a6_3x3_2_bn_beta", 
      "attrs": {
        "eps": "0.001", 
        "fix_gamma": "False", 
        "use_global_stats": "True"
      }, 
      "inputs": []
    }, 
    {
      "op": "null", 
      "name": "inception_resnet_v2_a6_3x3_2_bn_moving_mean", 
      "attrs": {
        "__init__": "[\"zero\", {}]", 
        "eps": "0.001", 
        "fix_gamma": "False", 
        "use_global_stats": "True"
      }, 
      "inputs": []
    }, 
    {
      "op": "null", 
      "name": "inception_resnet_v2_a6_3x3_2_bn_moving_var", 
      "attrs": {
        "__init__": "[\"one\", {}]", 
        "eps": "0.001", 
        "fix_gamma": "False", 
        "use_global_stats": "True"
      }, 
      "inputs": []
    }, 
    {
      "op": "BatchNorm", 
      "name": "inception_resnet_v2_a6_3x3_2_bn", 
      "attrs": {
        "eps": "0.001", 
        "fix_gamma": "False", 
        "use_global_stats": "True"
      }, 
      "inputs": [[415, 0, 0], [416, 0, 0], [417, 0, 0], [418, 0, 1], [419, 0, 1]]
    }, 
    {
      "op": "Activation", 
      "name": "inception_resnet_v2_a6_3x3_2_relu", 
      "attrs": {"act_type": "relu"}, 
      "inputs": [[420, 0, 0]]
    }, 
    {
      "op": "null", 
      "name": "inception_resnet_v2_a6_3x3_3_weight", 
      "attrs": {
        "kernel": "(3, 3)", 
        "no_bias": "True", 
        "num_filter": "64", 
        "pad": "(1, 1)", 
        "stride": "(1, 1)"
      }, 
      "inputs": []
    }, 
    {
      "op": "Convolution", 
      "name": "inception_resnet_v2_a6_3x3_3", 
      "attrs": {
        "kernel": "(3, 3)", 
        "no_bias": "True", 
        "num_filter": "64", 
        "pad": "(1, 1)", 
        "stride": "(1, 1)"
      }, 
      "inputs": [[421, 0, 0], [422, 0, 0]]
    }, 
    {
      "op": "null", 
      "name": "inception_resnet_v2_a6_3x3_3_bn_gamma", 
      "attrs": {
        "eps": "0.001", 
        "fix_gamma": "False", 
        "use_global_stats": "True"
      }, 
      "inputs": []
    }, 
    {
      "op": "null", 
      "name": "inception_resnet_v2_a6_3x3_3_bn_beta", 
      "attrs": {
        "eps": "0.001", 
        "fix_gamma": "False", 
        "use_global_stats": "True"
      }, 
      "inputs": []
    }, 
    {
      "op": "null", 
      "name": "inception_resnet_v2_a6_3x3_3_bn_moving_mean", 
      "attrs": {
        "__init__": "[\"zero\", {}]", 
        "eps": "0.001", 
        "fix_gamma": "False", 
        "use_global_stats": "True"
      }, 
      "inputs": []
    }, 
    {
      "op": "null", 
      "name": "inception_resnet_v2_a6_3x3_3_bn_moving_var", 
      "attrs": {
        "__init__": "[\"one\", {}]", 
        "eps": "0.001", 
        "fix_gamma": "False", 
        "use_global_stats": "True"
      }, 
      "inputs": []
    }, 
    {
      "op": "BatchNorm", 
      "name": "inception_resnet_v2_a6_3x3_3_bn", 
      "attrs": {
        "eps": "0.001", 
        "fix_gamma": "False", 
        "use_global_stats": "True"
      }, 
      "inputs": [[423, 0, 0], [424, 0, 0], [425, 0, 0], [426, 0, 1], [427, 0, 1]]
    }, 
    {
      "op": "Activation", 
      "name": "inception_resnet_v2_a6_3x3_3_relu", 
      "attrs": {"act_type": "relu"}, 
      "inputs": [[428, 0, 0]]
    }, 
    {
      "op": "Concat", 
      "name": "inception_resnet_v2_a6_concat", 
      "attrs": {"num_args": "3"}, 
      "inputs": [[389, 0, 0], [405, 0, 0], [429, 0, 0]]
    }, 
    {
      "op": "null", 
      "name": "inception_resnet_v2_a6_up_weight", 
      "attrs": {
        "kernel": "(1, 1)", 
        "no_bias": "False", 
        "num_filter": "320", 
        "pad": "(0, 0)", 
        "stride": "(1, 1)"
      }, 
      "inputs": []
    }, 
    {
      "op": "null", 
      "name": "inception_resnet_v2_a6_up_bias", 
      "attrs": {
        "kernel": "(1, 1)", 
        "no_bias": "False", 
        "num_filter": "320", 
        "pad": "(0, 0)", 
        "stride": "(1, 1)"
      }, 
      "inputs": []
    }, 
    {
      "op": "Convolution", 
      "name": "inception_resnet_v2_a6_up", 
      "attrs": {
        "kernel": "(1, 1)", 
        "no_bias": "False", 
        "num_filter": "320", 
        "pad": "(0, 0)", 
        "stride": "(1, 1)"
      }, 
      "inputs": [[430, 0, 0], [431, 0, 0], [432, 0, 0]]
    }, 
    {
      "op": "_mul_scalar", 
      "name": "_mulscalar11", 
      "attrs": {"scalar": "0.170000001788"}, 
      "inputs": [[433, 0, 0]]
    }, 
    {
      "op": "elemwise_add", 
      "name": "inception_resnet_v2_a6_residual_eltwise", 
      "inputs": [[381, 0, 0], [434, 0, 0]]
    }, 
    {
      "op": "Activation", 
      "name": "inception_resnet_v2_a6_residual_eltwise_relu", 
      "attrs": {"act_type": "relu"}, 
      "inputs": [[435, 0, 0]]
    }, 
    {
      "op": "_mul_scalar", 
      "name": "_mulscalar12", 
      "attrs": {"scalar": "1.0"}, 
      "inputs": [[436, 0, 0]]
    }, 
    {
      "op": "null", 
      "name": "inception_resnet_v2_a7_1x1_weight", 
      "attrs": {
        "kernel": "(1, 1)", 
        "no_bias": "True", 
        "num_filter": "32", 
        "pad": "(0, 0)", 
        "stride": "(1, 1)"
      }, 
      "inputs": []
    }, 
    {
      "op": "Convolution", 
      "name": "inception_resnet_v2_a7_1x1", 
      "attrs": {
        "kernel": "(1, 1)", 
        "no_bias": "True", 
        "num_filter": "32", 
        "pad": "(0, 0)", 
        "stride": "(1, 1)"
      }, 
      "inputs": [[437, 0, 0], [438, 0, 0]]
    }, 
    {
      "op": "null", 
      "name": "inception_resnet_v2_a7_1x1_bn_gamma", 
      "attrs": {
        "eps": "0.001", 
        "fix_gamma": "False", 
        "use_global_stats": "True"
      }, 
      "inputs": []
    }, 
    {
      "op": "null", 
      "name": "inception_resnet_v2_a7_1x1_bn_beta", 
      "attrs": {
        "eps": "0.001", 
        "fix_gamma": "False", 
        "use_global_stats": "True"
      }, 
      "inputs": []
    }, 
    {
      "op": "null", 
      "name": "inception_resnet_v2_a7_1x1_bn_moving_mean", 
      "attrs": {
        "__init__": "[\"zero\", {}]", 
        "eps": "0.001", 
        "fix_gamma": "False", 
        "use_global_stats": "True"
      }, 
      "inputs": []
    }, 
    {
      "op": "null", 
      "name": "inception_resnet_v2_a7_1x1_bn_moving_var", 
      "attrs": {
        "__init__": "[\"one\", {}]", 
        "eps": "0.001", 
        "fix_gamma": "False", 
        "use_global_stats": "True"
      }, 
      "inputs": []
    }, 
    {
      "op": "BatchNorm", 
      "name": "inception_resnet_v2_a7_1x1_bn", 
      "attrs": {
        "eps": "0.001", 
        "fix_gamma": "False", 
        "use_global_stats": "True"
      }, 
      "inputs": [[439, 0, 0], [440, 0, 0], [441, 0, 0], [442, 0, 1], [443, 0, 1]]
    }, 
    {
      "op": "Activation", 
      "name": "inception_resnet_v2_a7_1x1_relu", 
      "attrs": {"act_type": "relu"}, 
      "inputs": [[444, 0, 0]]
    }, 
    {
      "op": "null", 
      "name": "inception_resnet_v2_a7_3x3_reduce_weight", 
      "attrs": {
        "kernel": "(1, 1)", 
        "no_bias": "True", 
        "num_filter": "32", 
        "pad": "(0, 0)", 
        "stride": "(1, 1)"
      }, 
      "inputs": []
    }, 
    {
      "op": "Convolution", 
      "name": "inception_resnet_v2_a7_3x3_reduce", 
      "attrs": {
        "kernel": "(1, 1)", 
        "no_bias": "True", 
        "num_filter": "32", 
        "pad": "(0, 0)", 
        "stride": "(1, 1)"
      }, 
      "inputs": [[437, 0, 0], [446, 0, 0]]
    }, 
    {
      "op": "null", 
      "name": "inception_resnet_v2_a7_3x3_reduce_bn_gamma", 
      "attrs": {
        "eps": "0.001", 
        "fix_gamma": "False", 
        "use_global_stats": "True"
      }, 
      "inputs": []
    }, 
    {
      "op": "null", 
      "name": "inception_resnet_v2_a7_3x3_reduce_bn_beta", 
      "attrs": {
        "eps": "0.001", 
        "fix_gamma": "False", 
        "use_global_stats": "True"
      }, 
      "inputs": []
    }, 
    {
      "op": "null", 
      "name": "inception_resnet_v2_a7_3x3_reduce_bn_moving_mean", 
      "attrs": {
        "__init__": "[\"zero\", {}]", 
        "eps": "0.001", 
        "fix_gamma": "False", 
        "use_global_stats": "True"
      }, 
      "inputs": []
    }, 
    {
      "op": "null", 
      "name": "inception_resnet_v2_a7_3x3_reduce_bn_moving_var", 
      "attrs": {
        "__init__": "[\"one\", {}]", 
        "eps": "0.001", 
        "fix_gamma": "False", 
        "use_global_stats": "True"
      }, 
      "inputs": []
    }, 
    {
      "op": "BatchNorm", 
      "name": "inception_resnet_v2_a7_3x3_reduce_bn", 
      "attrs": {
        "eps": "0.001", 
        "fix_gamma": "False", 
        "use_global_stats": "True"
      }, 
      "inputs": [[447, 0, 0], [448, 0, 0], [449, 0, 0], [450, 0, 1], [451, 0, 1]]
    }, 
    {
      "op": "Activation", 
      "name": "inception_resnet_v2_a7_3x3_reduce_relu", 
      "attrs": {"act_type": "relu"}, 
      "inputs": [[452, 0, 0]]
    }, 
    {
      "op": "null", 
      "name": "inception_resnet_v2_a7_3x3_weight", 
      "attrs": {
        "kernel": "(3, 3)", 
        "no_bias": "True", 
        "num_filter": "32", 
        "pad": "(1, 1)", 
        "stride": "(1, 1)"
      }, 
      "inputs": []
    }, 
    {
      "op": "Convolution", 
      "name": "inception_resnet_v2_a7_3x3", 
      "attrs": {
        "kernel": "(3, 3)", 
        "no_bias": "True", 
        "num_filter": "32", 
        "pad": "(1, 1)", 
        "stride": "(1, 1)"
      }, 
      "inputs": [[453, 0, 0], [454, 0, 0]]
    }, 
    {
      "op": "null", 
      "name": "inception_resnet_v2_a7_3x3_bn_gamma", 
      "attrs": {
        "eps": "0.001", 
        "fix_gamma": "False", 
        "use_global_stats": "True"
      }, 
      "inputs": []
    }, 
    {
      "op": "null", 
      "name": "inception_resnet_v2_a7_3x3_bn_beta", 
      "attrs": {
        "eps": "0.001", 
        "fix_gamma": "False", 
        "use_global_stats": "True"
      }, 
      "inputs": []
    }, 
    {
      "op": "null", 
      "name": "inception_resnet_v2_a7_3x3_bn_moving_mean", 
      "attrs": {
        "__init__": "[\"zero\", {}]", 
        "eps": "0.001", 
        "fix_gamma": "False", 
        "use_global_stats": "True"
      }, 
      "inputs": []
    }, 
    {
      "op": "null", 
      "name": "inception_resnet_v2_a7_3x3_bn_moving_var", 
      "attrs": {
        "__init__": "[\"one\", {}]", 
        "eps": "0.001", 
        "fix_gamma": "False", 
        "use_global_stats": "True"
      }, 
      "inputs": []
    }, 
    {
      "op": "BatchNorm", 
      "name": "inception_resnet_v2_a7_3x3_bn", 
      "attrs": {
        "eps": "0.001", 
        "fix_gamma": "False", 
        "use_global_stats": "True"
      }, 
      "inputs": [[455, 0, 0], [456, 0, 0], [457, 0, 0], [458, 0, 1], [459, 0, 1]]
    }, 
    {
      "op": "Activation", 
      "name": "inception_resnet_v2_a7_3x3_relu", 
      "attrs": {"act_type": "relu"}, 
      "inputs": [[460, 0, 0]]
    }, 
    {
      "op": "null", 
      "name": "inception_resnet_v2_a7_3x3_2_reduce_weight", 
      "attrs": {
        "kernel": "(1, 1)", 
        "no_bias": "True", 
        "num_filter": "32", 
        "pad": "(0, 0)", 
        "stride": "(1, 1)"
      }, 
      "inputs": []
    }, 
    {
      "op": "Convolution", 
      "name": "inception_resnet_v2_a7_3x3_2_reduce", 
      "attrs": {
        "kernel": "(1, 1)", 
        "no_bias": "True", 
        "num_filter": "32", 
        "pad": "(0, 0)", 
        "stride": "(1, 1)"
      }, 
      "inputs": [[437, 0, 0], [462, 0, 0]]
    }, 
    {
      "op": "null", 
      "name": "inception_resnet_v2_a7_3x3_2_reduce_bn_gamma", 
      "attrs": {
        "eps": "0.001", 
        "fix_gamma": "False", 
        "use_global_stats": "True"
      }, 
      "inputs": []
    }, 
    {
      "op": "null", 
      "name": "inception_resnet_v2_a7_3x3_2_reduce_bn_beta", 
      "attrs": {
        "eps": "0.001", 
        "fix_gamma": "False", 
        "use_global_stats": "True"
      }, 
      "inputs": []
    }, 
    {
      "op": "null", 
      "name": "inception_resnet_v2_a7_3x3_2_reduce_bn_moving_mean", 
      "attrs": {
        "__init__": "[\"zero\", {}]", 
        "eps": "0.001", 
        "fix_gamma": "False", 
        "use_global_stats": "True"
      }, 
      "inputs": []
    }, 
    {
      "op": "null", 
      "name": "inception_resnet_v2_a7_3x3_2_reduce_bn_moving_var", 
      "attrs": {
        "__init__": "[\"one\", {}]", 
        "eps": "0.001", 
        "fix_gamma": "False", 
        "use_global_stats": "True"
      }, 
      "inputs": []
    }, 
    {
      "op": "BatchNorm", 
      "name": "inception_resnet_v2_a7_3x3_2_reduce_bn", 
      "attrs": {
        "eps": "0.001", 
        "fix_gamma": "False", 
        "use_global_stats": "True"
      }, 
      "inputs": [[463, 0, 0], [464, 0, 0], [465, 0, 0], [466, 0, 1], [467, 0, 1]]
    }, 
    {
      "op": "Activation", 
      "name": "inception_resnet_v2_a7_3x3_2_reduce_relu", 
      "attrs": {"act_type": "relu"}, 
      "inputs": [[468, 0, 0]]
    }, 
    {
      "op": "null", 
      "name": "inception_resnet_v2_a7_3x3_2_weight", 
      "attrs": {
        "kernel": "(3, 3)", 
        "no_bias": "True", 
        "num_filter": "48", 
        "pad": "(1, 1)", 
        "stride": "(1, 1)"
      }, 
      "inputs": []
    }, 
    {
      "op": "Convolution", 
      "name": "inception_resnet_v2_a7_3x3_2", 
      "attrs": {
        "kernel": "(3, 3)", 
        "no_bias": "True", 
        "num_filter": "48", 
        "pad": "(1, 1)", 
        "stride": "(1, 1)"
      }, 
      "inputs": [[469, 0, 0], [470, 0, 0]]
    }, 
    {
      "op": "null", 
      "name": "inception_resnet_v2_a7_3x3_2_bn_gamma", 
      "attrs": {
        "eps": "0.001", 
        "fix_gamma": "False", 
        "use_global_stats": "True"
      }, 
      "inputs": []
    }, 
    {
      "op": "null", 
      "name": "inception_resnet_v2_a7_3x3_2_bn_beta", 
      "attrs": {
        "eps": "0.001", 
        "fix_gamma": "False", 
        "use_global_stats": "True"
      }, 
      "inputs": []
    }, 
    {
      "op": "null", 
      "name": "inception_resnet_v2_a7_3x3_2_bn_moving_mean", 
      "attrs": {
        "__init__": "[\"zero\", {}]", 
        "eps": "0.001", 
        "fix_gamma": "False", 
        "use_global_stats": "True"
      }, 
      "inputs": []
    }, 
    {
      "op": "null", 
      "name": "inception_resnet_v2_a7_3x3_2_bn_moving_var", 
      "attrs": {
        "__init__": "[\"one\", {}]", 
        "eps": "0.001", 
        "fix_gamma": "False", 
        "use_global_stats": "True"
      }, 
      "inputs": []
    }, 
    {
      "op": "BatchNorm", 
      "name": "inception_resnet_v2_a7_3x3_2_bn", 
      "attrs": {
        "eps": "0.001", 
        "fix_gamma": "False", 
        "use_global_stats": "True"
      }, 
      "inputs": [[471, 0, 0], [472, 0, 0], [473, 0, 0], [474, 0, 1], [475, 0, 1]]
    }, 
    {
      "op": "Activation", 
      "name": "inception_resnet_v2_a7_3x3_2_relu", 
      "attrs": {"act_type": "relu"}, 
      "inputs": [[476, 0, 0]]
    }, 
    {
      "op": "null", 
      "name": "inception_resnet_v2_a7_3x3_3_weight", 
      "attrs": {
        "kernel": "(3, 3)", 
        "no_bias": "True", 
        "num_filter": "64", 
        "pad": "(1, 1)", 
        "stride": "(1, 1)"
      }, 
      "inputs": []
    }, 
    {
      "op": "Convolution", 
      "name": "inception_resnet_v2_a7_3x3_3", 
      "attrs": {
        "kernel": "(3, 3)", 
        "no_bias": "True", 
        "num_filter": "64", 
        "pad": "(1, 1)", 
        "stride": "(1, 1)"
      }, 
      "inputs": [[477, 0, 0], [478, 0, 0]]
    }, 
    {
      "op": "null", 
      "name": "inception_resnet_v2_a7_3x3_3_bn_gamma", 
      "attrs": {
        "eps": "0.001", 
        "fix_gamma": "False", 
        "use_global_stats": "True"
      }, 
      "inputs": []
    }, 
    {
      "op": "null", 
      "name": "inception_resnet_v2_a7_3x3_3_bn_beta", 
      "attrs": {
        "eps": "0.001", 
        "fix_gamma": "False", 
        "use_global_stats": "True"
      }, 
      "inputs": []
    }, 
    {
      "op": "null", 
      "name": "inception_resnet_v2_a7_3x3_3_bn_moving_mean", 
      "attrs": {
        "__init__": "[\"zero\", {}]", 
        "eps": "0.001", 
        "fix_gamma": "False", 
        "use_global_stats": "True"
      }, 
      "inputs": []
    }, 
    {
      "op": "null", 
      "name": "inception_resnet_v2_a7_3x3_3_bn_moving_var", 
      "attrs": {
        "__init__": "[\"one\", {}]", 
        "eps": "0.001", 
        "fix_gamma": "False", 
        "use_global_stats": "True"
      }, 
      "inputs": []
    }, 
    {
      "op": "BatchNorm", 
      "name": "inception_resnet_v2_a7_3x3_3_bn", 
      "attrs": {
        "eps": "0.001", 
        "fix_gamma": "False", 
        "use_global_stats": "True"
      }, 
      "inputs": [[479, 0, 0], [480, 0, 0], [481, 0, 0], [482, 0, 1], [483, 0, 1]]
    }, 
    {
      "op": "Activation", 
      "name": "inception_resnet_v2_a7_3x3_3_relu", 
      "attrs": {"act_type": "relu"}, 
      "inputs": [[484, 0, 0]]
    }, 
    {
      "op": "Concat", 
      "name": "inception_resnet_v2_a7_concat", 
      "attrs": {"num_args": "3"}, 
      "inputs": [[445, 0, 0], [461, 0, 0], [485, 0, 0]]
    }, 
    {
      "op": "null", 
      "name": "inception_resnet_v2_a7_up_weight", 
      "attrs": {
        "kernel": "(1, 1)", 
        "no_bias": "False", 
        "num_filter": "320", 
        "pad": "(0, 0)", 
        "stride": "(1, 1)"
      }, 
      "inputs": []
    }, 
    {
      "op": "null", 
      "name": "inception_resnet_v2_a7_up_bias", 
      "attrs": {
        "kernel": "(1, 1)", 
        "no_bias": "False", 
        "num_filter": "320", 
        "pad": "(0, 0)", 
        "stride": "(1, 1)"
      }, 
      "inputs": []
    }, 
    {
      "op": "Convolution", 
      "name": "inception_resnet_v2_a7_up", 
      "attrs": {
        "kernel": "(1, 1)", 
        "no_bias": "False", 
        "num_filter": "320", 
        "pad": "(0, 0)", 
        "stride": "(1, 1)"
      }, 
      "inputs": [[486, 0, 0], [487, 0, 0], [488, 0, 0]]
    }, 
    {
      "op": "_mul_scalar", 
      "name": "_mulscalar13", 
      "attrs": {"scalar": "0.170000001788"}, 
      "inputs": [[489, 0, 0]]
    }, 
    {
      "op": "elemwise_add", 
      "name": "inception_resnet_v2_a7_residual_eltwise", 
      "inputs": [[437, 0, 0], [490, 0, 0]]
    }, 
    {
      "op": "Activation", 
      "name": "inception_resnet_v2_a7_residual_eltwise_relu", 
      "attrs": {"act_type": "relu"}, 
      "inputs": [[491, 0, 0]]
    }, 
    {
      "op": "_mul_scalar", 
      "name": "_mulscalar14", 
      "attrs": {"scalar": "1.0"}, 
      "inputs": [[492, 0, 0]]
    }, 
    {
      "op": "null", 
      "name": "inception_resnet_v2_a8_1x1_weight", 
      "attrs": {
        "kernel": "(1, 1)", 
        "no_bias": "True", 
        "num_filter": "32", 
        "pad": "(0, 0)", 
        "stride": "(1, 1)"
      }, 
      "inputs": []
    }, 
    {
      "op": "Convolution", 
      "name": "inception_resnet_v2_a8_1x1", 
      "attrs": {
        "kernel": "(1, 1)", 
        "no_bias": "True", 
        "num_filter": "32", 
        "pad": "(0, 0)", 
        "stride": "(1, 1)"
      }, 
      "inputs": [[493, 0, 0], [494, 0, 0]]
    }, 
    {
      "op": "null", 
      "name": "inception_resnet_v2_a8_1x1_bn_gamma", 
      "attrs": {
        "eps": "0.001", 
        "fix_gamma": "False", 
        "use_global_stats": "True"
      }, 
      "inputs": []
    }, 
    {
      "op": "null", 
      "name": "inception_resnet_v2_a8_1x1_bn_beta", 
      "attrs": {
        "eps": "0.001", 
        "fix_gamma": "False", 
        "use_global_stats": "True"
      }, 
      "inputs": []
    }, 
    {
      "op": "null", 
      "name": "inception_resnet_v2_a8_1x1_bn_moving_mean", 
      "attrs": {
        "__init__": "[\"zero\", {}]", 
        "eps": "0.001", 
        "fix_gamma": "False", 
        "use_global_stats": "True"
      }, 
      "inputs": []
    }, 
    {
      "op": "null", 
      "name": "inception_resnet_v2_a8_1x1_bn_moving_var", 
      "attrs": {
        "__init__": "[\"one\", {}]", 
        "eps": "0.001", 
        "fix_gamma": "False", 
        "use_global_stats": "True"
      }, 
      "inputs": []
    }, 
    {
      "op": "BatchNorm", 
      "name": "inception_resnet_v2_a8_1x1_bn", 
      "attrs": {
        "eps": "0.001", 
        "fix_gamma": "False", 
        "use_global_stats": "True"
      }, 
      "inputs": [[495, 0, 0], [496, 0, 0], [497, 0, 0], [498, 0, 1], [499, 0, 1]]
    }, 
    {
      "op": "Activation", 
      "name": "inception_resnet_v2_a8_1x1_relu", 
      "attrs": {"act_type": "relu"}, 
      "inputs": [[500, 0, 0]]
    }, 
    {
      "op": "null", 
      "name": "inception_resnet_v2_a8_3x3_reduce_weight", 
      "attrs": {
        "kernel": "(1, 1)", 
        "no_bias": "True", 
        "num_filter": "32", 
        "pad": "(0, 0)", 
        "stride": "(1, 1)"
      }, 
      "inputs": []
    }, 
    {
      "op": "Convolution", 
      "name": "inception_resnet_v2_a8_3x3_reduce", 
      "attrs": {
        "kernel": "(1, 1)", 
        "no_bias": "True", 
        "num_filter": "32", 
        "pad": "(0, 0)", 
        "stride": "(1, 1)"
      }, 
      "inputs": [[493, 0, 0], [502, 0, 0]]
    }, 
    {
      "op": "null", 
      "name": "inception_resnet_v2_a8_3x3_reduce_bn_gamma", 
      "attrs": {
        "eps": "0.001", 
        "fix_gamma": "False", 
        "use_global_stats": "True"
      }, 
      "inputs": []
    }, 
    {
      "op": "null", 
      "name": "inception_resnet_v2_a8_3x3_reduce_bn_beta", 
      "attrs": {
        "eps": "0.001", 
        "fix_gamma": "False", 
        "use_global_stats": "True"
      }, 
      "inputs": []
    }, 
    {
      "op": "null", 
      "name": "inception_resnet_v2_a8_3x3_reduce_bn_moving_mean", 
      "attrs": {
        "__init__": "[\"zero\", {}]", 
        "eps": "0.001", 
        "fix_gamma": "False", 
        "use_global_stats": "True"
      }, 
      "inputs": []
    }, 
    {
      "op": "null", 
      "name": "inception_resnet_v2_a8_3x3_reduce_bn_moving_var", 
      "attrs": {
        "__init__": "[\"one\", {}]", 
        "eps": "0.001", 
        "fix_gamma": "False", 
        "use_global_stats": "True"
      }, 
      "inputs": []
    }, 
    {
      "op": "BatchNorm", 
      "name": "inception_resnet_v2_a8_3x3_reduce_bn", 
      "attrs": {
        "eps": "0.001", 
        "fix_gamma": "False", 
        "use_global_stats": "True"
      }, 
      "inputs": [[503, 0, 0], [504, 0, 0], [505, 0, 0], [506, 0, 1], [507, 0, 1]]
    }, 
    {
      "op": "Activation", 
      "name": "inception_resnet_v2_a8_3x3_reduce_relu", 
      "attrs": {"act_type": "relu"}, 
      "inputs": [[508, 0, 0]]
    }, 
    {
      "op": "null", 
      "name": "inception_resnet_v2_a8_3x3_weight", 
      "attrs": {
        "kernel": "(3, 3)", 
        "no_bias": "True", 
        "num_filter": "32", 
        "pad": "(1, 1)", 
        "stride": "(1, 1)"
      }, 
      "inputs": []
    }, 
    {
      "op": "Convolution", 
      "name": "inception_resnet_v2_a8_3x3", 
      "attrs": {
        "kernel": "(3, 3)", 
        "no_bias": "True", 
        "num_filter": "32", 
        "pad": "(1, 1)", 
        "stride": "(1, 1)"
      }, 
      "inputs": [[509, 0, 0], [510, 0, 0]]
    }, 
    {
      "op": "null", 
      "name": "inception_resnet_v2_a8_3x3_bn_gamma", 
      "attrs": {
        "eps": "0.001", 
        "fix_gamma": "False", 
        "use_global_stats": "True"
      }, 
      "inputs": []
    }, 
    {
      "op": "null", 
      "name": "inception_resnet_v2_a8_3x3_bn_beta", 
      "attrs": {
        "eps": "0.001", 
        "fix_gamma": "False", 
        "use_global_stats": "True"
      }, 
      "inputs": []
    }, 
    {
      "op": "null", 
      "name": "inception_resnet_v2_a8_3x3_bn_moving_mean", 
      "attrs": {
        "__init__": "[\"zero\", {}]", 
        "eps": "0.001", 
        "fix_gamma": "False", 
        "use_global_stats": "True"
      }, 
      "inputs": []
    }, 
    {
      "op": "null", 
      "name": "inception_resnet_v2_a8_3x3_bn_moving_var", 
      "attrs": {
        "__init__": "[\"one\", {}]", 
        "eps": "0.001", 
        "fix_gamma": "False", 
        "use_global_stats": "True"
      }, 
      "inputs": []
    }, 
    {
      "op": "BatchNorm", 
      "name": "inception_resnet_v2_a8_3x3_bn", 
      "attrs": {
        "eps": "0.001", 
        "fix_gamma": "False", 
        "use_global_stats": "True"
      }, 
      "inputs": [[511, 0, 0], [512, 0, 0], [513, 0, 0], [514, 0, 1], [515, 0, 1]]
    }, 
    {
      "op": "Activation", 
      "name": "inception_resnet_v2_a8_3x3_relu", 
      "attrs": {"act_type": "relu"}, 
      "inputs": [[516, 0, 0]]
    }, 
    {
      "op": "null", 
      "name": "inception_resnet_v2_a8_3x3_2_reduce_weight", 
      "attrs": {
        "kernel": "(1, 1)", 
        "no_bias": "True", 
        "num_filter": "32", 
        "pad": "(0, 0)", 
        "stride": "(1, 1)"
      }, 
      "inputs": []
    }, 
    {
      "op": "Convolution", 
      "name": "inception_resnet_v2_a8_3x3_2_reduce", 
      "attrs": {
        "kernel": "(1, 1)", 
        "no_bias": "True", 
        "num_filter": "32", 
        "pad": "(0, 0)", 
        "stride": "(1, 1)"
      }, 
      "inputs": [[493, 0, 0], [518, 0, 0]]
    }, 
    {
      "op": "null", 
      "name": "inception_resnet_v2_a8_3x3_2_reduce_bn_gamma", 
      "attrs": {
        "eps": "0.001", 
        "fix_gamma": "False", 
        "use_global_stats": "True"
      }, 
      "inputs": []
    }, 
    {
      "op": "null", 
      "name": "inception_resnet_v2_a8_3x3_2_reduce_bn_beta", 
      "attrs": {
        "eps": "0.001", 
        "fix_gamma": "False", 
        "use_global_stats": "True"
      }, 
      "inputs": []
    }, 
    {
      "op": "null", 
      "name": "inception_resnet_v2_a8_3x3_2_reduce_bn_moving_mean", 
      "attrs": {
        "__init__": "[\"zero\", {}]", 
        "eps": "0.001", 
        "fix_gamma": "False", 
        "use_global_stats": "True"
      }, 
      "inputs": []
    }, 
    {
      "op": "null", 
      "name": "inception_resnet_v2_a8_3x3_2_reduce_bn_moving_var", 
      "attrs": {
        "__init__": "[\"one\", {}]", 
        "eps": "0.001", 
        "fix_gamma": "False", 
        "use_global_stats": "True"
      }, 
      "inputs": []
    }, 
    {
      "op": "BatchNorm", 
      "name": "inception_resnet_v2_a8_3x3_2_reduce_bn", 
      "attrs": {
        "eps": "0.001", 
        "fix_gamma": "False", 
        "use_global_stats": "True"
      }, 
      "inputs": [[519, 0, 0], [520, 0, 0], [521, 0, 0], [522, 0, 1], [523, 0, 1]]
    }, 
    {
      "op": "Activation", 
      "name": "inception_resnet_v2_a8_3x3_2_reduce_relu", 
      "attrs": {"act_type": "relu"}, 
      "inputs": [[524, 0, 0]]
    }, 
    {
      "op": "null", 
      "name": "inception_resnet_v2_a8_3x3_2_weight", 
      "attrs": {
        "kernel": "(3, 3)", 
        "no_bias": "True", 
        "num_filter": "48", 
        "pad": "(1, 1)", 
        "stride": "(1, 1)"
      }, 
      "inputs": []
    }, 
    {
      "op": "Convolution", 
      "name": "inception_resnet_v2_a8_3x3_2", 
      "attrs": {
        "kernel": "(3, 3)", 
        "no_bias": "True", 
        "num_filter": "48", 
        "pad": "(1, 1)", 
        "stride": "(1, 1)"
      }, 
      "inputs": [[525, 0, 0], [526, 0, 0]]
    }, 
    {
      "op": "null", 
      "name": "inception_resnet_v2_a8_3x3_2_bn_gamma", 
      "attrs": {
        "eps": "0.001", 
        "fix_gamma": "False", 
        "use_global_stats": "True"
      }, 
      "inputs": []
    }, 
    {
      "op": "null", 
      "name": "inception_resnet_v2_a8_3x3_2_bn_beta", 
      "attrs": {
        "eps": "0.001", 
        "fix_gamma": "False", 
        "use_global_stats": "True"
      }, 
      "inputs": []
    }, 
    {
      "op": "null", 
      "name": "inception_resnet_v2_a8_3x3_2_bn_moving_mean", 
      "attrs": {
        "__init__": "[\"zero\", {}]", 
        "eps": "0.001", 
        "fix_gamma": "False", 
        "use_global_stats": "True"
      }, 
      "inputs": []
    }, 
    {
      "op": "null", 
      "name": "inception_resnet_v2_a8_3x3_2_bn_moving_var", 
      "attrs": {
        "__init__": "[\"one\", {}]", 
        "eps": "0.001", 
        "fix_gamma": "False", 
        "use_global_stats": "True"
      }, 
      "inputs": []
    }, 
    {
      "op": "BatchNorm", 
      "name": "inception_resnet_v2_a8_3x3_2_bn", 
      "attrs": {
        "eps": "0.001", 
        "fix_gamma": "False", 
        "use_global_stats": "True"
      }, 
      "inputs": [[527, 0, 0], [528, 0, 0], [529, 0, 0], [530, 0, 1], [531, 0, 1]]
    }, 
    {
      "op": "Activation", 
      "name": "inception_resnet_v2_a8_3x3_2_relu", 
      "attrs": {"act_type": "relu"}, 
      "inputs": [[532, 0, 0]]
    }, 
    {
      "op": "null", 
      "name": "inception_resnet_v2_a8_3x3_3_weight", 
      "attrs": {
        "kernel": "(3, 3)", 
        "no_bias": "True", 
        "num_filter": "64", 
        "pad": "(1, 1)", 
        "stride": "(1, 1)"
      }, 
      "inputs": []
    }, 
    {
      "op": "Convolution", 
      "name": "inception_resnet_v2_a8_3x3_3", 
      "attrs": {
        "kernel": "(3, 3)", 
        "no_bias": "True", 
        "num_filter": "64", 
        "pad": "(1, 1)", 
        "stride": "(1, 1)"
      }, 
      "inputs": [[533, 0, 0], [534, 0, 0]]
    }, 
    {
      "op": "null", 
      "name": "inception_resnet_v2_a8_3x3_3_bn_gamma", 
      "attrs": {
        "eps": "0.001", 
        "fix_gamma": "False", 
        "use_global_stats": "True"
      }, 
      "inputs": []
    }, 
    {
      "op": "null", 
      "name": "inception_resnet_v2_a8_3x3_3_bn_beta", 
      "attrs": {
        "eps": "0.001", 
        "fix_gamma": "False", 
        "use_global_stats": "True"
      }, 
      "inputs": []
    }, 
    {
      "op": "null", 
      "name": "inception_resnet_v2_a8_3x3_3_bn_moving_mean", 
      "attrs": {
        "__init__": "[\"zero\", {}]", 
        "eps": "0.001", 
        "fix_gamma": "False", 
        "use_global_stats": "True"
      }, 
      "inputs": []
    }, 
    {
      "op": "null", 
      "name": "inception_resnet_v2_a8_3x3_3_bn_moving_var", 
      "attrs": {
        "__init__": "[\"one\", {}]", 
        "eps": "0.001", 
        "fix_gamma": "False", 
        "use_global_stats": "True"
      }, 
      "inputs": []
    }, 
    {
      "op": "BatchNorm", 
      "name": "inception_resnet_v2_a8_3x3_3_bn", 
      "attrs": {
        "eps": "0.001", 
        "fix_gamma": "False", 
        "use_global_stats": "True"
      }, 
      "inputs": [[535, 0, 0], [536, 0, 0], [537, 0, 0], [538, 0, 1], [539, 0, 1]]
    }, 
    {
      "op": "Activation", 
      "name": "inception_resnet_v2_a8_3x3_3_relu", 
      "attrs": {"act_type": "relu"}, 
      "inputs": [[540, 0, 0]]
    }, 
    {
      "op": "Concat", 
      "name": "inception_resnet_v2_a8_concat", 
      "attrs": {"num_args": "3"}, 
      "inputs": [[501, 0, 0], [517, 0, 0], [541, 0, 0]]
    }, 
    {
      "op": "null", 
      "name": "inception_resnet_v2_a8_up_weight", 
      "attrs": {
        "kernel": "(1, 1)", 
        "no_bias": "False", 
        "num_filter": "320", 
        "pad": "(0, 0)", 
        "stride": "(1, 1)"
      }, 
      "inputs": []
    }, 
    {
      "op": "null", 
      "name": "inception_resnet_v2_a8_up_bias", 
      "attrs": {
        "kernel": "(1, 1)", 
        "no_bias": "False", 
        "num_filter": "320", 
        "pad": "(0, 0)", 
        "stride": "(1, 1)"
      }, 
      "inputs": []
    }, 
    {
      "op": "Convolution", 
      "name": "inception_resnet_v2_a8_up", 
      "attrs": {
        "kernel": "(1, 1)", 
        "no_bias": "False", 
        "num_filter": "320", 
        "pad": "(0, 0)", 
        "stride": "(1, 1)"
      }, 
      "inputs": [[542, 0, 0], [543, 0, 0], [544, 0, 0]]
    }, 
    {
      "op": "_mul_scalar", 
      "name": "_mulscalar15", 
      "attrs": {"scalar": "0.170000001788"}, 
      "inputs": [[545, 0, 0]]
    }, 
    {
      "op": "elemwise_add", 
      "name": "inception_resnet_v2_a8_residual_eltwise", 
      "inputs": [[493, 0, 0], [546, 0, 0]]
    }, 
    {
      "op": "Activation", 
      "name": "inception_resnet_v2_a8_residual_eltwise_relu", 
      "attrs": {"act_type": "relu"}, 
      "inputs": [[547, 0, 0]]
    }, 
    {
      "op": "_mul_scalar", 
      "name": "_mulscalar16", 
      "attrs": {"scalar": "1.0"}, 
      "inputs": [[548, 0, 0]]
    }, 
    {
      "op": "null", 
      "name": "inception_resnet_v2_a9_1x1_weight", 
      "attrs": {
        "kernel": "(1, 1)", 
        "no_bias": "True", 
        "num_filter": "32", 
        "pad": "(0, 0)", 
        "stride": "(1, 1)"
      }, 
      "inputs": []
    }, 
    {
      "op": "Convolution", 
      "name": "inception_resnet_v2_a9_1x1", 
      "attrs": {
        "kernel": "(1, 1)", 
        "no_bias": "True", 
        "num_filter": "32", 
        "pad": "(0, 0)", 
        "stride": "(1, 1)"
      }, 
      "inputs": [[549, 0, 0], [550, 0, 0]]
    }, 
    {
      "op": "null", 
      "name": "inception_resnet_v2_a9_1x1_bn_gamma", 
      "attrs": {
        "eps": "0.001", 
        "fix_gamma": "False", 
        "use_global_stats": "True"
      }, 
      "inputs": []
    }, 
    {
      "op": "null", 
      "name": "inception_resnet_v2_a9_1x1_bn_beta", 
      "attrs": {
        "eps": "0.001", 
        "fix_gamma": "False", 
        "use_global_stats": "True"
      }, 
      "inputs": []
    }, 
    {
      "op": "null", 
      "name": "inception_resnet_v2_a9_1x1_bn_moving_mean", 
      "attrs": {
        "__init__": "[\"zero\", {}]", 
        "eps": "0.001", 
        "fix_gamma": "False", 
        "use_global_stats": "True"
      }, 
      "inputs": []
    }, 
    {
      "op": "null", 
      "name": "inception_resnet_v2_a9_1x1_bn_moving_var", 
      "attrs": {
        "__init__": "[\"one\", {}]", 
        "eps": "0.001", 
        "fix_gamma": "False", 
        "use_global_stats": "True"
      }, 
      "inputs": []
    }, 
    {
      "op": "BatchNorm", 
      "name": "inception_resnet_v2_a9_1x1_bn", 
      "attrs": {
        "eps": "0.001", 
        "fix_gamma": "False", 
        "use_global_stats": "True"
      }, 
      "inputs": [[551, 0, 0], [552, 0, 0], [553, 0, 0], [554, 0, 1], [555, 0, 1]]
    }, 
    {
      "op": "Activation", 
      "name": "inception_resnet_v2_a9_1x1_relu", 
      "attrs": {"act_type": "relu"}, 
      "inputs": [[556, 0, 0]]
    }, 
    {
      "op": "null", 
      "name": "inception_resnet_v2_a9_3x3_reduce_weight", 
      "attrs": {
        "kernel": "(1, 1)", 
        "no_bias": "True", 
        "num_filter": "32", 
        "pad": "(0, 0)", 
        "stride": "(1, 1)"
      }, 
      "inputs": []
    }, 
    {
      "op": "Convolution", 
      "name": "inception_resnet_v2_a9_3x3_reduce", 
      "attrs": {
        "kernel": "(1, 1)", 
        "no_bias": "True", 
        "num_filter": "32", 
        "pad": "(0, 0)", 
        "stride": "(1, 1)"
      }, 
      "inputs": [[549, 0, 0], [558, 0, 0]]
    }, 
    {
      "op": "null", 
      "name": "inception_resnet_v2_a9_3x3_reduce_bn_gamma", 
      "attrs": {
        "eps": "0.001", 
        "fix_gamma": "False", 
        "use_global_stats": "True"
      }, 
      "inputs": []
    }, 
    {
      "op": "null", 
      "name": "inception_resnet_v2_a9_3x3_reduce_bn_beta", 
      "attrs": {
        "eps": "0.001", 
        "fix_gamma": "False", 
        "use_global_stats": "True"
      }, 
      "inputs": []
    }, 
    {
      "op": "null", 
      "name": "inception_resnet_v2_a9_3x3_reduce_bn_moving_mean", 
      "attrs": {
        "__init__": "[\"zero\", {}]", 
        "eps": "0.001", 
        "fix_gamma": "False", 
        "use_global_stats": "True"
      }, 
      "inputs": []
    }, 
    {
      "op": "null", 
      "name": "inception_resnet_v2_a9_3x3_reduce_bn_moving_var", 
      "attrs": {
        "__init__": "[\"one\", {}]", 
        "eps": "0.001", 
        "fix_gamma": "False", 
        "use_global_stats": "True"
      }, 
      "inputs": []
    }, 
    {
      "op": "BatchNorm", 
      "name": "inception_resnet_v2_a9_3x3_reduce_bn", 
      "attrs": {
        "eps": "0.001", 
        "fix_gamma": "False", 
        "use_global_stats": "True"
      }, 
      "inputs": [[559, 0, 0], [560, 0, 0], [561, 0, 0], [562, 0, 1], [563, 0, 1]]
    }, 
    {
      "op": "Activation", 
      "name": "inception_resnet_v2_a9_3x3_reduce_relu", 
      "attrs": {"act_type": "relu"}, 
      "inputs": [[564, 0, 0]]
    }, 
    {
      "op": "null", 
      "name": "inception_resnet_v2_a9_3x3_weight", 
      "attrs": {
        "kernel": "(3, 3)", 
        "no_bias": "True", 
        "num_filter": "32", 
        "pad": "(1, 1)", 
        "stride": "(1, 1)"
      }, 
      "inputs": []
    }, 
    {
      "op": "Convolution", 
      "name": "inception_resnet_v2_a9_3x3", 
      "attrs": {
        "kernel": "(3, 3)", 
        "no_bias": "True", 
        "num_filter": "32", 
        "pad": "(1, 1)", 
        "stride": "(1, 1)"
      }, 
      "inputs": [[565, 0, 0], [566, 0, 0]]
    }, 
    {
      "op": "null", 
      "name": "inception_resnet_v2_a9_3x3_bn_gamma", 
      "attrs": {
        "eps": "0.001", 
        "fix_gamma": "False", 
        "use_global_stats": "True"
      }, 
      "inputs": []
    }, 
    {
      "op": "null", 
      "name": "inception_resnet_v2_a9_3x3_bn_beta", 
      "attrs": {
        "eps": "0.001", 
        "fix_gamma": "False", 
        "use_global_stats": "True"
      }, 
      "inputs": []
    }, 
    {
      "op": "null", 
      "name": "inception_resnet_v2_a9_3x3_bn_moving_mean", 
      "attrs": {
        "__init__": "[\"zero\", {}]", 
        "eps": "0.001", 
        "fix_gamma": "False", 
        "use_global_stats": "True"
      }, 
      "inputs": []
    }, 
    {
      "op": "null", 
      "name": "inception_resnet_v2_a9_3x3_bn_moving_var", 
      "attrs": {
        "__init__": "[\"one\", {}]", 
        "eps": "0.001", 
        "fix_gamma": "False", 
        "use_global_stats": "True"
      }, 
      "inputs": []
    }, 
    {
      "op": "BatchNorm", 
      "name": "inception_resnet_v2_a9_3x3_bn", 
      "attrs": {
        "eps": "0.001", 
        "fix_gamma": "False", 
        "use_global_stats": "True"
      }, 
      "inputs": [[567, 0, 0], [568, 0, 0], [569, 0, 0], [570, 0, 1], [571, 0, 1]]
    }, 
    {
      "op": "Activation", 
      "name": "inception_resnet_v2_a9_3x3_relu", 
      "attrs": {"act_type": "relu"}, 
      "inputs": [[572, 0, 0]]
    }, 
    {
      "op": "null", 
      "name": "inception_resnet_v2_a9_3x3_2_reduce_weight", 
      "attrs": {
        "kernel": "(1, 1)", 
        "no_bias": "True", 
        "num_filter": "32", 
        "pad": "(0, 0)", 
        "stride": "(1, 1)"
      }, 
      "inputs": []
    }, 
    {
      "op": "Convolution", 
      "name": "inception_resnet_v2_a9_3x3_2_reduce", 
      "attrs": {
        "kernel": "(1, 1)", 
        "no_bias": "True", 
        "num_filter": "32", 
        "pad": "(0, 0)", 
        "stride": "(1, 1)"
      }, 
      "inputs": [[549, 0, 0], [574, 0, 0]]
    }, 
    {
      "op": "null", 
      "name": "inception_resnet_v2_a9_3x3_2_reduce_bn_gamma", 
      "attrs": {
        "eps": "0.001", 
        "fix_gamma": "False", 
        "use_global_stats": "True"
      }, 
      "inputs": []
    }, 
    {
      "op": "null", 
      "name": "inception_resnet_v2_a9_3x3_2_reduce_bn_beta", 
      "attrs": {
        "eps": "0.001", 
        "fix_gamma": "False", 
        "use_global_stats": "True"
      }, 
      "inputs": []
    }, 
    {
      "op": "null", 
      "name": "inception_resnet_v2_a9_3x3_2_reduce_bn_moving_mean", 
      "attrs": {
        "__init__": "[\"zero\", {}]", 
        "eps": "0.001", 
        "fix_gamma": "False", 
        "use_global_stats": "True"
      }, 
      "inputs": []
    }, 
    {
      "op": "null", 
      "name": "inception_resnet_v2_a9_3x3_2_reduce_bn_moving_var", 
      "attrs": {
        "__init__": "[\"one\", {}]", 
        "eps": "0.001", 
        "fix_gamma": "False", 
        "use_global_stats": "True"
      }, 
      "inputs": []
    }, 
    {
      "op": "BatchNorm", 
      "name": "inception_resnet_v2_a9_3x3_2_reduce_bn", 
      "attrs": {
        "eps": "0.001", 
        "fix_gamma": "False", 
        "use_global_stats": "True"
      }, 
      "inputs": [[575, 0, 0], [576, 0, 0], [577, 0, 0], [578, 0, 1], [579, 0, 1]]
    }, 
    {
      "op": "Activation", 
      "name": "inception_resnet_v2_a9_3x3_2_reduce_relu", 
      "attrs": {"act_type": "relu"}, 
      "inputs": [[580, 0, 0]]
    }, 
    {
      "op": "null", 
      "name": "inception_resnet_v2_a9_3x3_2_weight", 
      "attrs": {
        "kernel": "(3, 3)", 
        "no_bias": "True", 
        "num_filter": "48", 
        "pad": "(1, 1)", 
        "stride": "(1, 1)"
      }, 
      "inputs": []
    }, 
    {
      "op": "Convolution", 
      "name": "inception_resnet_v2_a9_3x3_2", 
      "attrs": {
        "kernel": "(3, 3)", 
        "no_bias": "True", 
        "num_filter": "48", 
        "pad": "(1, 1)", 
        "stride": "(1, 1)"
      }, 
      "inputs": [[581, 0, 0], [582, 0, 0]]
    }, 
    {
      "op": "null", 
      "name": "inception_resnet_v2_a9_3x3_2_bn_gamma", 
      "attrs": {
        "eps": "0.001", 
        "fix_gamma": "False", 
        "use_global_stats": "True"
      }, 
      "inputs": []
    }, 
    {
      "op": "null", 
      "name": "inception_resnet_v2_a9_3x3_2_bn_beta", 
      "attrs": {
        "eps": "0.001", 
        "fix_gamma": "False", 
        "use_global_stats": "True"
      }, 
      "inputs": []
    }, 
    {
      "op": "null", 
      "name": "inception_resnet_v2_a9_3x3_2_bn_moving_mean", 
      "attrs": {
        "__init__": "[\"zero\", {}]", 
        "eps": "0.001", 
        "fix_gamma": "False", 
        "use_global_stats": "True"
      }, 
      "inputs": []
    }, 
    {
      "op": "null", 
      "name": "inception_resnet_v2_a9_3x3_2_bn_moving_var", 
      "attrs": {
        "__init__": "[\"one\", {}]", 
        "eps": "0.001", 
        "fix_gamma": "False", 
        "use_global_stats": "True"
      }, 
      "inputs": []
    }, 
    {
      "op": "BatchNorm", 
      "name": "inception_resnet_v2_a9_3x3_2_bn", 
      "attrs": {
        "eps": "0.001", 
        "fix_gamma": "False", 
        "use_global_stats": "True"
      }, 
      "inputs": [[583, 0, 0], [584, 0, 0], [585, 0, 0], [586, 0, 1], [587, 0, 1]]
    }, 
    {
      "op": "Activation", 
      "name": "inception_resnet_v2_a9_3x3_2_relu", 
      "attrs": {"act_type": "relu"}, 
      "inputs": [[588, 0, 0]]
    }, 
    {
      "op": "null", 
      "name": "inception_resnet_v2_a9_3x3_3_weight", 
      "attrs": {
        "kernel": "(3, 3)", 
        "no_bias": "True", 
        "num_filter": "64", 
        "pad": "(1, 1)", 
        "stride": "(1, 1)"
      }, 
      "inputs": []
    }, 
    {
      "op": "Convolution", 
      "name": "inception_resnet_v2_a9_3x3_3", 
      "attrs": {
        "kernel": "(3, 3)", 
        "no_bias": "True", 
        "num_filter": "64", 
        "pad": "(1, 1)", 
        "stride": "(1, 1)"
      }, 
      "inputs": [[589, 0, 0], [590, 0, 0]]
    }, 
    {
      "op": "null", 
      "name": "inception_resnet_v2_a9_3x3_3_bn_gamma", 
      "attrs": {
        "eps": "0.001", 
        "fix_gamma": "False", 
        "use_global_stats": "True"
      }, 
      "inputs": []
    }, 
    {
      "op": "null", 
      "name": "inception_resnet_v2_a9_3x3_3_bn_beta", 
      "attrs": {
        "eps": "0.001", 
        "fix_gamma": "False", 
        "use_global_stats": "True"
      }, 
      "inputs": []
    }, 
    {
      "op": "null", 
      "name": "inception_resnet_v2_a9_3x3_3_bn_moving_mean", 
      "attrs": {
        "__init__": "[\"zero\", {}]", 
        "eps": "0.001", 
        "fix_gamma": "False", 
        "use_global_stats": "True"
      }, 
      "inputs": []
    }, 
    {
      "op": "null", 
      "name": "inception_resnet_v2_a9_3x3_3_bn_moving_var", 
      "attrs": {
        "__init__": "[\"one\", {}]", 
        "eps": "0.001", 
        "fix_gamma": "False", 
        "use_global_stats": "True"
      }, 
      "inputs": []
    }, 
    {
      "op": "BatchNorm", 
      "name": "inception_resnet_v2_a9_3x3_3_bn", 
      "attrs": {
        "eps": "0.001", 
        "fix_gamma": "False", 
        "use_global_stats": "True"
      }, 
      "inputs": [[591, 0, 0], [592, 0, 0], [593, 0, 0], [594, 0, 1], [595, 0, 1]]
    }, 
    {
      "op": "Activation", 
      "name": "inception_resnet_v2_a9_3x3_3_relu", 
      "attrs": {"act_type": "relu"}, 
      "inputs": [[596, 0, 0]]
    }, 
    {
      "op": "Concat", 
      "name": "inception_resnet_v2_a9_concat", 
      "attrs": {"num_args": "3"}, 
      "inputs": [[557, 0, 0], [573, 0, 0], [597, 0, 0]]
    }, 
    {
      "op": "null", 
      "name": "inception_resnet_v2_a9_up_weight", 
      "attrs": {
        "kernel": "(1, 1)", 
        "no_bias": "False", 
        "num_filter": "320", 
        "pad": "(0, 0)", 
        "stride": "(1, 1)"
      }, 
      "inputs": []
    }, 
    {
      "op": "null", 
      "name": "inception_resnet_v2_a9_up_bias", 
      "attrs": {
        "kernel": "(1, 1)", 
        "no_bias": "False", 
        "num_filter": "320", 
        "pad": "(0, 0)", 
        "stride": "(1, 1)"
      }, 
      "inputs": []
    }, 
    {
      "op": "Convolution", 
      "name": "inception_resnet_v2_a9_up", 
      "attrs": {
        "kernel": "(1, 1)", 
        "no_bias": "False", 
        "num_filter": "320", 
        "pad": "(0, 0)", 
        "stride": "(1, 1)"
      }, 
      "inputs": [[598, 0, 0], [599, 0, 0], [600, 0, 0]]
    }, 
    {
      "op": "_mul_scalar", 
      "name": "_mulscalar17", 
      "attrs": {"scalar": "0.170000001788"}, 
      "inputs": [[601, 0, 0]]
    }, 
    {
      "op": "elemwise_add", 
      "name": "inception_resnet_v2_a9_residual_eltwise", 
      "inputs": [[549, 0, 0], [602, 0, 0]]
    }, 
    {
      "op": "Activation", 
      "name": "inception_resnet_v2_a9_residual_eltwise_relu", 
      "attrs": {"act_type": "relu"}, 
      "inputs": [[603, 0, 0]]
    }, 
    {
      "op": "_mul_scalar", 
      "name": "_mulscalar18", 
      "attrs": {"scalar": "1.0"}, 
      "inputs": [[604, 0, 0]]
    }, 
    {
      "op": "null", 
      "name": "inception_resnet_v2_a10_1x1_weight", 
      "attrs": {
        "kernel": "(1, 1)", 
        "no_bias": "True", 
        "num_filter": "32", 
        "pad": "(0, 0)", 
        "stride": "(1, 1)"
      }, 
      "inputs": []
    }, 
    {
      "op": "Convolution", 
      "name": "inception_resnet_v2_a10_1x1", 
      "attrs": {
        "kernel": "(1, 1)", 
        "no_bias": "True", 
        "num_filter": "32", 
        "pad": "(0, 0)", 
        "stride": "(1, 1)"
      }, 
      "inputs": [[605, 0, 0], [606, 0, 0]]
    }, 
    {
      "op": "null", 
      "name": "inception_resnet_v2_a10_1x1_bn_gamma", 
      "attrs": {
        "eps": "0.001", 
        "fix_gamma": "False", 
        "use_global_stats": "True"
      }, 
      "inputs": []
    }, 
    {
      "op": "null", 
      "name": "inception_resnet_v2_a10_1x1_bn_beta", 
      "attrs": {
        "eps": "0.001", 
        "fix_gamma": "False", 
        "use_global_stats": "True"
      }, 
      "inputs": []
    }, 
    {
      "op": "null", 
      "name": "inception_resnet_v2_a10_1x1_bn_moving_mean", 
      "attrs": {
        "__init__": "[\"zero\", {}]", 
        "eps": "0.001", 
        "fix_gamma": "False", 
        "use_global_stats": "True"
      }, 
      "inputs": []
    }, 
    {
      "op": "null", 
      "name": "inception_resnet_v2_a10_1x1_bn_moving_var", 
      "attrs": {
        "__init__": "[\"one\", {}]", 
        "eps": "0.001", 
        "fix_gamma": "False", 
        "use_global_stats": "True"
      }, 
      "inputs": []
    }, 
    {
…
      "inputs": []
    }, 
    {
      "op": "null", 
      "name": "inception_resnet_v2_c9_1x3_bn_moving_mean", 
      "attrs": {
        "__init__": "[\"zero\", {}]", 
        "eps": "0.001", 
        "fix_gamma": "False", 
        "use_global_stats": "True"
      }, 
      "inputs": []
    }, 
    {
      "op": "null", 
      "name": "inception_resnet_v2_c9_1x3_bn_moving_var", 
      "attrs": {
        "__init__": "[\"one\", {}]", 
        "eps": "0.001", 
        "fix_gamma": "False", 
        "use_global_stats": "True"
      }, 
      "inputs": []
    }, 
    {
      "op": "BatchNorm", 
      "name": "inception_resnet_v2_c9_1x3_bn", 
      "attrs": {
        "eps": "0.001", 
        "fix_gamma": "False", 
        "use_global_stats": "True"
      }, 
      "inputs": [[1893, 0, 0], [1894, 0, 0], [1895, 0, 0], [1896, 0, 1], [1897, 0, 1]]
    }, 
    {
      "op": "Activation", 
      "name": "inception_resnet_v2_c9_1x3_relu", 
      "attrs": {"act_type": "relu"}, 
      "inputs": [[1898, 0, 0]]
    }, 
    {
      "op": "null", 
      "name": "inception_resnet_v2_c9_3x1_weight", 
      "attrs": {
        "kernel": "(3, 1)", 
        "no_bias": "True", 
        "num_filter": "256", 
        "pad": "(1, 0)", 
        "stride": "(1, 1)"
      }, 
      "inputs": []
    }, 
    {
      "op": "Convolution", 
      "name": "inception_resnet_v2_c9_3x1", 
      "attrs": {
        "kernel": "(3, 1)", 
        "no_bias": "True", 
        "num_filter": "256", 
        "pad": "(1, 0)", 
        "stride": "(1, 1)"
      }, 
      "inputs": [[1899, 0, 0], [1900, 0, 0]]
    }, 
    {
      "op": "null", 
      "name": "inception_resnet_v2_c9_3x1_bn_gamma", 
      "attrs": {
        "eps": "0.001", 
        "fix_gamma": "False", 
        "use_global_stats": "True"
      }, 
      "inputs": []
    }, 
    {
      "op": "null", 
      "name": "inception_resnet_v2_c9_3x1_bn_beta", 
      "attrs": {
        "eps": "0.001", 
        "fix_gamma": "False", 
        "use_global_stats": "True"
      }, 
      "inputs": []
    }, 
    {
      "op": "null", 
      "name": "inception_resnet_v2_c9_3x1_bn_moving_mean", 
      "attrs": {
        "__init__": "[\"zero\", {}]", 
        "eps": "0.001", 
        "fix_gamma": "False", 
        "use_global_stats": "True"
      }, 
      "inputs": []
    }, 
    {
      "op": "null", 
      "name": "inception_resnet_v2_c9_3x1_bn_moving_var", 
      "attrs": {
        "__init__": "[\"one\", {}]", 
        "eps": "0.001", 
        "fix_gamma": "False", 
        "use_global_stats": "True"
      }, 
      "inputs": []
    }, 
    {
      "op": "BatchNorm", 
      "name": "inception_resnet_v2_c9_3x1_bn", 
      "attrs": {
        "eps": "0.001", 
        "fix_gamma": "False", 
        "use_global_stats": "True"
      }, 
      "inputs": [[1901, 0, 0], [1902, 0, 0], [1903, 0, 0], [1904, 0, 1], [1905, 0, 1]]
    }, 
    {
      "op": "Activation", 
      "name": "inception_resnet_v2_c9_3x1_relu", 
      "attrs": {"act_type": "relu"}, 
      "inputs": [[1906, 0, 0]]
    }, 
    {
      "op": "Concat", 
      "name": "inception_resnet_v2_c9_concat", 
      "attrs": {"num_args": "2"}, 
      "inputs": [[1883, 0, 0], [1907, 0, 0]]
    }, 
    {
      "op": "null", 
      "name": "inception_resnet_v2_c9_up_weight", 
      "attrs": {
        "kernel": "(1, 1)", 
        "no_bias": "False", 
        "num_filter": "2080", 
        "pad": "(0, 0)", 
        "stride": "(1, 1)"
      }, 
      "inputs": []
    }, 
    {
      "op": "null", 
      "name": "inception_resnet_v2_c9_up_bias", 
      "attrs": {
        "kernel": "(1, 1)", 
        "no_bias": "False", 
        "num_filter": "2080", 
        "pad": "(0, 0)", 
        "stride": "(1, 1)"
      }, 
      "inputs": []
    }, 
    {
      "op": "Convolution", 
      "name": "inception_resnet_v2_c9_up", 
      "attrs": {
        "kernel": "(1, 1)", 
        "no_bias": "False", 
        "num_filter": "2080", 
        "pad": "(0, 0)", 
        "stride": "(1, 1)"
      }, 
      "inputs": [[1908, 0, 0], [1909, 0, 0], [1910, 0, 0]]
    }, 
    {
      "op": "_mul_scalar", 
      "name": "_mulscalar79", 
      "attrs": {"scalar": "0.20000000298"}, 
      "inputs": [[1911, 0, 0]]
    }, 
    {
      "op": "elemwise_add", 
      "name": "inception_resnet_v2_c9_residual_eltwise", 
      "inputs": [[1875, 0, 0], [1912, 0, 0]]
    }, 
    {
      "op": "Activation", 
      "name": "inception_resnet_v2_c9_residual_eltwise_relu", 
      "attrs": {"act_type": "relu"}, 
      "inputs": [[1913, 0, 0]]
    }, 
    {
      "op": "_mul_scalar", 
      "name": "_mulscalar80", 
      "attrs": {"scalar": "1.0"}, 
      "inputs": [[1914, 0, 0]]
    }, 
    {
      "op": "null", 
      "name": "inception_resnet_v2_c10_1x1_weight", 
      "attrs": {
        "kernel": "(1, 1)", 
        "no_bias": "True", 
        "num_filter": "192", 
        "pad": "(0, 0)", 
        "stride": "(1, 1)"
      }, 
      "inputs": []
    }, 
    {
      "op": "Convolution", 
      "name": "inception_resnet_v2_c10_1x1", 
      "attrs": {
        "kernel": "(1, 1)", 
        "no_bias": "True", 
        "num_filter": "192", 
        "pad": "(0, 0)", 
        "stride": "(1, 1)"
      }, 
      "inputs": [[1915, 0, 0], [1916, 0, 0]]
    }, 
    {
      "op": "null", 
      "name": "inception_resnet_v2_c10_1x1_bn_gamma", 
      "attrs": {
        "eps": "0.001", 
        "fix_gamma": "False", 
        "use_global_stats": "True"
      }, 
      "inputs": []
    }, 
    {
      "op": "null", 
      "name": "inception_resnet_v2_c10_1x1_bn_beta", 
      "attrs": {
        "eps": "0.001", 
        "fix_gamma": "False", 
        "use_global_stats": "True"
      }, 
      "inputs": []
    }, 
    {
      "op": "null", 
      "name": "inception_resnet_v2_c10_1x1_bn_moving_mean", 
      "attrs": {
        "__init__": "[\"zero\", {}]", 
        "eps": "0.001", 
        "fix_gamma": "False", 
        "use_global_stats": "True"
      }, 
      "inputs": []
    }, 
    {
      "op": "null", 
      "name": "inception_resnet_v2_c10_1x1_bn_moving_var", 
      "attrs": {
        "__init__": "[\"one\", {}]", 
        "eps": "0.001", 
        "fix_gamma": "False", 
        "use_global_stats": "True"
      }, 
      "inputs": []
    }, 
    {
      "op": "BatchNorm", 
      "name": "inception_resnet_v2_c10_1x1_bn", 
      "attrs": {
        "eps": "0.001", 
        "fix_gamma": "False", 
        "use_global_stats": "True"
      }, 
      "inputs": [[1917, 0, 0], [1918, 0, 0], [1919, 0, 0], [1920, 0, 1], [1921, 0, 1]]
    }, 
    {
      "op": "Activation", 
      "name": "inception_resnet_v2_c10_1x1_relu", 
      "attrs": {"act_type": "relu"}, 
      "inputs": [[1922, 0, 0]]
    }, 
    {
      "op": "null", 
      "name": "inception_resnet_v2_c10_1x3_reduce_weight", 
      "attrs": {
        "kernel": "(1, 1)", 
        "no_bias": "True", 
        "num_filter": "192", 
        "pad": "(0, 0)", 
        "stride": "(1, 1)"
      }, 
      "inputs": []
    }, 
    {
      "op": "Convolution", 
      "name": "inception_resnet_v2_c10_1x3_reduce", 
      "attrs": {
        "kernel": "(1, 1)", 
        "no_bias": "True", 
        "num_filter": "192", 
        "pad": "(0, 0)", 
        "stride": "(1, 1)"
      }, 
      "inputs": [[1915, 0, 0], [1924, 0, 0]]
    }, 
    {
      "op": "null", 
      "name": "inception_resnet_v2_c10_1x3_reduce_bn_gamma", 
      "attrs": {
        "eps": "0.001", 
        "fix_gamma": "False", 
        "use_global_stats": "True"
      }, 
      "inputs": []
    }, 
    {
      "op": "null", 
      "name": "inception_resnet_v2_c10_1x3_reduce_bn_beta", 
      "attrs": {
        "eps": "0.001", 
        "fix_gamma": "False", 
        "use_global_stats": "True"
      }, 
      "inputs": []
    }, 
    {
      "op": "null", 
      "name": "inception_resnet_v2_c10_1x3_reduce_bn_moving_mean", 
      "attrs": {
        "__init__": "[\"zero\", {}]", 
        "eps": "0.001", 
        "fix_gamma": "False", 
        "use_global_stats": "True"
      }, 
      "inputs": []
    }, 
    {
      "op": "null", 
      "name": "inception_resnet_v2_c10_1x3_reduce_bn_moving_var", 
      "attrs": {
        "__init__": "[\"one\", {}]", 
        "eps": "0.001", 
        "fix_gamma": "False", 
        "use_global_stats": "True"
      }, 
      "inputs": []
    }, 
    {
      "op": "BatchNorm", 
      "name": "inception_resnet_v2_c10_1x3_reduce_bn", 
      "attrs": {
        "eps": "0.001", 
        "fix_gamma": "False", 
        "use_global_stats": "True"
      }, 
      "inputs": [[1925, 0, 0], [1926, 0, 0], [1927, 0, 0], [1928, 0, 1], [1929, 0, 1]]
    }, 
    {
      "op": "Activation", 
      "name": "inception_resnet_v2_c10_1x3_reduce_relu", 
      "attrs": {"act_type": "relu"}, 
      "inputs": [[1930, 0, 0]]
    }, 
    {
      "op": "null", 
      "name": "inception_resnet_v2_c10_1x3_weight", 
      "attrs": {
        "kernel": "(1, 3)", 
        "no_bias": "True", 
        "num_filter": "224", 
        "pad": "(0, 1)", 
        "stride": "(1, 1)"
      }, 
      "inputs": []
    }, 
    {
      "op": "Convolution", 
      "name": "inception_resnet_v2_c10_1x3", 
      "attrs": {
        "kernel": "(1, 3)", 
        "no_bias": "True", 
        "num_filter": "224", 
        "pad": "(0, 1)", 
        "stride": "(1, 1)"
      }, 
      "inputs": [[1931, 0, 0], [1932, 0, 0]]
    }, 
    {
      "op": "null", 
      "name": "inception_resnet_v2_c10_1x3_bn_gamma", 
      "attrs": {
        "eps": "0.001", 
        "fix_gamma": "False", 
        "use_global_stats": "True"
      }, 
      "inputs": []
    }, 
    {
      "op": "null", 
      "name": "inception_resnet_v2_c10_1x3_bn_beta", 
      "attrs": {
        "eps": "0.001", 
        "fix_gamma": "False", 
        "use_global_stats": "True"
      }, 
      "inputs": []
    }, 
    {
      "op": "null", 
      "name": "inception_resnet_v2_c10_1x3_bn_moving_mean", 
      "attrs": {
        "__init__": "[\"zero\", {}]", 
        "eps": "0.001", 
        "fix_gamma": "False", 
        "use_global_stats": "True"
      }, 
      "inputs": []
    }, 
    {
      "op": "null", 
      "name": "inception_resnet_v2_c10_1x3_bn_moving_var", 
      "attrs": {
        "__init__": "[\"one\", {}]", 
        "eps": "0.001", 
        "fix_gamma": "False", 
        "use_global_stats": "True"
      }, 
      "inputs": []
    }, 
    {
      "op": "BatchNorm", 
      "name": "inception_resnet_v2_c10_1x3_bn", 
      "attrs": {
        "eps": "0.001", 
        "fix_gamma": "False", 
        "use_global_stats": "True"
      }, 
      "inputs": [[1933, 0, 0], [1934, 0, 0], [1935, 0, 0], [1936, 0, 1], [1937, 0, 1]]
    }, 
    {
      "op": "Activation", 
      "name": "inception_resnet_v2_c10_1x3_relu", 
      "attrs": {"act_type": "relu"}, 
      "inputs": [[1938, 0, 0]]
    }, 
    {
      "op": "null", 
      "name": "inception_resnet_v2_c10_3x1_weight", 
      "attrs": {
        "kernel": "(3, 1)", 
        "no_bias": "True", 
        "num_filter": "256", 
        "pad": "(1, 0)", 
        "stride": "(1, 1)"
      }, 
      "inputs": []
    }, 
    {
      "op": "Convolution", 
      "name": "inception_resnet_v2_c10_3x1", 
      "attrs": {
        "kernel": "(3, 1)", 
        "no_bias": "True", 
        "num_filter": "256", 
        "pad": "(1, 0)", 
        "stride": "(1, 1)"
      }, 
      "inputs": [[1939, 0, 0], [1940, 0, 0]]
    }, 
    {
      "op": "null", 
      "name": "inception_resnet_v2_c10_3x1_bn_gamma", 
      "attrs": {
        "eps": "0.001", 
        "fix_gamma": "False", 
        "use_global_stats": "True"
      }, 
      "inputs": []
    }, 
    {
      "op": "null", 
      "name": "inception_resnet_v2_c10_3x1_bn_beta", 
      "attrs": {
        "eps": "0.001", 
        "fix_gamma": "False", 
        "use_global_stats": "True"
      }, 
      "inputs": []
    }, 
    {
      "op": "null", 
      "name": "inception_resnet_v2_c10_3x1_bn_moving_mean", 
      "attrs": {
        "__init__": "[\"zero\", {}]", 
        "eps": "0.001", 
        "fix_gamma": "False", 
        "use_global_stats": "True"
      }, 
      "inputs": []
    }, 
    {
      "op": "null", 
      "name": "inception_resnet_v2_c10_3x1_bn_moving_var", 
      "attrs": {
        "__init__": "[\"one\", {}]", 
        "eps": "0.001", 
        "fix_gamma": "False", 
        "use_global_stats": "True"
      }, 
      "inputs": []
    }, 
    {
      "op": "BatchNorm", 
      "name": "inception_resnet_v2_c10_3x1_bn", 
      "attrs": {
        "eps": "0.001", 
        "fix_gamma": "False", 
        "use_global_stats": "True"
      }, 
      "inputs": [[1941, 0, 0], [1942, 0, 0], [1943, 0, 0], [1944, 0, 1], [1945, 0, 1]]
    }, 
    {
      "op": "Activation", 
      "name": "inception_resnet_v2_c10_3x1_relu", 
      "attrs": {"act_type": "relu"}, 
      "inputs": [[1946, 0, 0]]
    }, 
    {
      "op": "Concat", 
      "name": "inception_resnet_v2_c10_concat", 
      "attrs": {"num_args": "2"}, 
      "inputs": [[1923, 0, 0], [1947, 0, 0]]
    }, 
    {
      "op": "null", 
      "name": "inception_resnet_v2_c10_up_weight", 
      "attrs": {
        "kernel": "(1, 1)", 
        "no_bias": "False", 
        "num_filter": "2080", 
        "pad": "(0, 0)", 
        "stride": "(1, 1)"
      }, 
      "inputs": []
    }, 
    {
      "op": "null", 
      "name": "inception_resnet_v2_c10_up_bias", 
      "attrs": {
        "kernel": "(1, 1)", 
        "no_bias": "False", 
        "num_filter": "2080", 
        "pad": "(0, 0)", 
        "stride": "(1, 1)"
      }, 
      "inputs": []
    }, 
    {
      "op": "Convolution", 
      "name": "inception_resnet_v2_c10_up", 
      "attrs": {
        "kernel": "(1, 1)", 
        "no_bias": "False", 
        "num_filter": "2080", 
        "pad": "(0, 0)", 
        "stride": "(1, 1)"
      }, 
      "inputs": [[1948, 0, 0], [1949, 0, 0], [1950, 0, 0]]
    }, 
    {
      "op": "_mul_scalar", 
      "name": "_mulscalar81", 
      "attrs": {"scalar": "0.20000000298"}, 
      "inputs": [[1951, 0, 0]]
    }, 
    {
      "op": "elemwise_add", 
      "name": "inception_resnet_v2_c10_residual_eltwise", 
      "inputs": [[1915, 0, 0], [1952, 0, 0]]
    }, 
    {
      "op": "Activation", 
      "name": "inception_resnet_v2_c10_residual_eltwise_relu", 
      "attrs": {"act_type": "relu"}, 
      "inputs": [[1953, 0, 0]]
    }, 
    {
      "op": "_mul_scalar", 
      "name": "_mulscalar82", 
      "attrs": {"scalar": "1.0"}, 
      "inputs": [[1954, 0, 0]]
    }, 
    {
      "op": "null", 
      "name": "conv6_1x1_weight", 
      "attrs": {
        "kernel": "(1, 1)", 
        "no_bias": "True", 
        "num_filter": "1536", 
        "pad": "(0, 0)", 
        "stride": "(1, 1)"
      }, 
      "inputs": []
    }, 
    {
      "op": "Convolution", 
      "name": "conv6_1x1", 
      "attrs": {
        "kernel": "(1, 1)", 
        "no_bias": "True", 
        "num_filter": "1536", 
        "pad": "(0, 0)", 
        "stride": "(1, 1)"
      }, 
      "inputs": [[1955, 0, 0], [1956, 0, 0]]
    }, 
    {
      "op": "null", 
      "name": "conv6_1x1_bn_gamma", 
      "attrs": {
        "eps": "0.001", 
        "fix_gamma": "False", 
        "use_global_stats": "True"
      }, 
      "inputs": []
    }, 
    {
      "op": "null", 
      "name": "conv6_1x1_bn_beta", 
      "attrs": {
        "eps": "0.001", 
        "fix_gamma": "False", 
        "use_global_stats": "True"
      }, 
      "inputs": []
    }, 
    {
      "op": "null", 
      "name": "conv6_1x1_bn_moving_mean", 
      "attrs": {
        "__init__": "[\"zero\", {}]", 
        "eps": "0.001", 
        "fix_gamma": "False", 
        "use_global_stats": "True"
      }, 
      "inputs": []
    }, 
    {
      "op": "null", 
      "name": "conv6_1x1_bn_moving_var", 
      "attrs": {
        "__init__": "[\"one\", {}]", 
        "eps": "0.001", 
        "fix_gamma": "False", 
        "use_global_stats": "True"
      }, 
      "inputs": []
    }, 
    {
      "op": "BatchNorm", 
      "name": "conv6_1x1_bn", 
      "attrs": {
        "eps": "0.001", 
        "fix_gamma": "False", 
        "use_global_stats": "True"
      }, 
      "inputs": [[1957, 0, 0], [1958, 0, 0], [1959, 0, 0], [1960, 0, 1], [1961, 0, 1]]
    }, 
    {
      "op": "Activation", 
      "name": "conv6_1x1_relu", 
      "attrs": {"act_type": "relu"}, 
      "inputs": [[1962, 0, 0]]
    }, 
    {
      "op": "Pooling", 
      "name": "pool_8x8_s1", 
      "attrs": {
        "global_pool": "True", 
        "kernel": "(1, 1)", 
        "pool_type": "avg", 
        "pooling_convention": "full"
      }, 
      "inputs": [[1963, 0, 0]]
    }, 
    {
      "op": "Dropout", 
      "name": "pool_8x8_s1_drop", 
      "attrs": {"p": "0.2"}, 
      "inputs": [[1964, 0, 0]]
    }, 
    {
      "op": "Flatten", 
      "name": "flatten_0", 
      "inputs": [[1965, 0, 0]]
    }, 
    {
      "op": "null", 
      "name": "classifier_weight", 
      "attrs": {
        "no_bias": "False", 
        "num_hidden": "1000"
      }, 
      "inputs": []
    }, 
    {
      "op": "null", 
      "name": "classifier_bias", 
      "attrs": {
        "no_bias": "False", 
        "num_hidden": "1000"
      }, 
      "inputs": []
    }, 
    {
      "op": "FullyConnected", 
      "name": "classifier", 
      "attrs": {
        "no_bias": "False", 
        "num_hidden": "1000"
      }, 
      "inputs": [[1966, 0, 0], [1967, 0, 0], [1968, 0, 0]]
    }, 
    {
      "op": "null", 
      "name": "prob_label", 
      "inputs": []
    }, 
    {
      "op": "SoftmaxOutput", 
      "name": "prob", 
      "inputs": [[1969, 0, 0], [1970, 0, 0]]
    }
  ], 
  "arg_nodes": [
    0, 
    1, 
    3, 
    4, 
    5, 
    6, 
    9, 
    11, 
    12, 
    13, 
    14, 
    17, 
    19, 
    20, 
    21, 
    22, 
    26, 
    28, 
    29, 
    30, 
    31, 
    34, 
    36, 
    37, 
    38, 
    39, 
    43, 
    45, 
    46, 
    47, 
    48, 
    51, 
    53, 
    54, 
    55, 
    56, 
    59, 
    61, 
    62, 
    63, 
    64, 
    67, 
    69, 
    70, 
    71, 
    72, 
    75, 
    77, 
    78, 
    79, 
    80, 
    83, 
    85, 
    86, 
    87, 
    88, 
    92, 
    94, 
    95, 
    96, 
    97, 
    102, 
    104, 
    105, 
    106, 
    107, 
    110, 
    112, 
    113, 
    114, 
    115, 
    118, 
    120, 
    121, 
    122, 
    123, 
    126, 
    128, 
    129, 
    130, 
    131, 
    134, 
    136, 
    137, 
    138, 
    139, 
    142, 
    144, 
    145, 
    146, 
    147, 
    151, 
    152, 
    158, 
    160, 
    161, 
    162, 
    163, 
    166, 
    168, 
    169, 
    170, 
    171, 
    174, 
    176, 
    177, 
    178, 
    179, 
    182, 
    184, 
    185, 
    186, 
    187, 
    190, 
    192, 
    193, 
    194, 
    195, 
    198, 
    200, 
    201, 
    202, 
    203, 
    207, 
    208, 
    214, 
    216, 
    217, 
    218, 
    219, 
    222, 
    224, 
    225, 
    226, 
    227, 
    230, 
    232, 
    233, 
    234, 
    235, 
    238, 
    240, 
    241, 
    242, 
    243, 
    246, 
    248, 
    249, 
    250, 
    251, 
    254, 
    256, 
    257, 
    258, 
    259, 
    263, 
    264, 
    270, 
    272, 
    273, 
    274, 
    275, 
    278, 
    280, 
    281, 
    282, 
    283, 
    286, 
    288, 
    289, 
    290, 
    291, 
    294, 
    296, 
    297, 
    298, 
    299, 
    302, 
    304, 
    305, 
    306, 
    307, 
    310, 
    312, 
    313, 
    314, 
    315, 
    319, 
    320, 
    326, 
    328, 
    329, 
    330, 
    331, 
    334, 
    336, 
    337, 
    338, 
    339, 
    342, 
    344, 
    345, 
    346, 
    347, 
    350, 
    352, 
    353, 
    354, 
    355, 
    358, 
    360, 
    361, 
    362, 
    363, 
    366, 
    368, 
    369, 
    370, 
    371, 
    375, 
    376, 
    382, 
    384, 
    385, 
    386, 
    387, 
    390, 
    392, 
    393, 
    394, 
    395, 
    398, 
    400, 
    401, 
    402, 
    403, 
    406, 
    408, 
    409, 
    410, 
    411, 
    414, 
    416, 
    417, 
    418, 
    419, 
    422, 
    424, 
    425, 
    426, 
    427, 
    431, 
    432, 
    438, 
    440, 
    441, 
    442, 
    443, 
    446, 
    448, 
    449, 
    450, 
    451, 
    454, 
    456, 
    457, 
    458, 
    459, 
    462, 
    464, 
    465, 
    466, 
    467, 
    470, 
    472, 
    473, 
    474, 
    475, 
    478, 
    480, 
    481, 
    482, 
    483, 
    487, 
    488, 
    494, 
    496, 
    497, 
    498, 
    499, 
    502, 
    504, 
    505, 
    506, 
    507, 
    510, 
    512, 
    513, 
    514, 
    515, 
    518, 
    520, 
    521, 
    522, 
    523, 
    526, 
    528, 
    529, 
    530, 
    531, 
    534, 
    536, 
    537, 
    538, 
    539, 
    543, 
    544, 
    550, 
    552, 
    553, 
    554, 
    555, 
    558, 
    560, 
    561, 
    562, 
    563, 
    566, 
    568, 
    569, 
    570, 
    571, 
    574, 
    576, 
    577, 
    578, 
    579, 
    582, 
    584, 
    585, 
    586, 
    587, 
    590, 
    592, 
    593, 
    594, 
    595, 
    599, 
    600, 
    606, 
    608, 
    609, 
    610, 
    611, 
    614, 
    616, 
    617, 
    618, 
    619, 
    622, 
    624, 
    625, 
    626, 
    627, 
    630, 
    632, 
    633, 
    634, 
    635, 
    638, 
    640, 
    641, 
    642, 
    643, 
    646, 
    648, 
    649, 
    650, 
    651, 
    655, 
    656, 
    662, 
    664, 
    665, 
    666, 
    667, 
    670, 
    672, 
    673, 
    674, 
    675, 
    678, 
    680, 
    681, 
    682, 
    683, 
    686, 
    688, 
    689, 
    690, 
    691, 
    697, 
    699, 
    700, 
    701, 
    702, 
    705, 
    707, 
    708, 
    709, 
    710, 
    713, 
    715, 
    716, 
    717, 
    718, 
    721, 
    723, 
    724, 
    725, 
    726, 
    730, 
    731, 
    737, 
    739, 
    740, 
    741, 
    742, 
    745, 
    747, 
    748, 
    749, 
    750, 
    753, 
    755, 
    756, 
    757, 
    758, 
    761, 
    763, 
    764, 
    765, 
    766, 
    770, 
    771, 
    777, 
    779, 
    780, 
    781, 
    782, 
    785, 
    787, 
    788, 
    789, 
    790, 
    793, 
    795, 
    796, 
    797, 
    798, 
    801, 
    803, 
    804, 
    805, 
    806, 
    810, 
    811, 
    817, 
    819, 
    820, 
    821, 
    822, 
    825, 
    827, 
    828, 
    829, 
    830, 
    833, 
    835, 
    836, 
    837, 
    838, 
    841, 
    843, 
    844, 
    845, 
    846, 
    850, 
    851, 
    857, 
    859, 
    860, 
    861, 
    862, 
    865, 
    867, 
    868, 
    869, 
    870, 
    873, 
    875, 
    876, 
    877, 
    878, 
    881, 
    883, 
    884, 
    885, 
    886, 
    890, 
    891, 
    897, 
    899, 
    900, 
    901, 
    902, 
    905, 
    907, 
    908, 
    909, 
    910, 
    913, 
    915, 
    916, 
    917, 
    918, 
    921, 
    923, 
    924, 
    925, 
    926, 
    930, 
    931, 
    937, 
    939, 
    940, 
    941, 
    942, 
    945, 
    947, 
    948, 
    949, 
    950, 
    953, 
    955, 
    956, 
    957, 
    958, 
    961, 
    963, 
    964, 
    965, 
    966, 
    970, 
    971, 
    977, 
    979, 
    980, 
    981, 
    982, 
    985, 
    987, 
    988, 
    989, 
    990, 
    993, 
    995, 
    996, 
    997, 
    998, 
    1001, 
    1003, 
    1004, 
    1005, 
    1006, 
    1010, 
    1011, 
    1017, 
    1019, 
    1020, 
    1021, 
    1022, 
    1025, 
    1027, 
    1028, 
    1029, 
    1030, 
    1033, 
    1035, 
    1036, 
    1037, 
    1038, 
    1041, 
    1043, 
    1044, 
    1045, 
    1046, 
    1050, 
    1051, 
    1057, 
    1059, 
    1060, 
    1061, 
    1062, 
    1065, 
    1067, 
    1068, 
    1069, 
    1070, 
    1073, 
    1075, 
    1076, 
    1077, 
    1078, 
    1081, 
    1083, 
    1084, 
    1085, 
    1086, 
    1090, 
    1091, 
    1097, 
    1099, 
    1100, 
    1101, 
    1102, 
    1105, 
    1107, 
    1108, 
    1109, 
    1110, 
    1113, 
    1115, 
    1116, 
    1117, 
    1118, 
    1121, 
    1123, 
    1124, 
    1125, 
    1126, 
    1130, 
    1131, 
    1137, 
    1139, 
    1140, 
    1141, 
    1142, 
    1145, 
    1147, 
    1148, 
    1149, 
    1150, 
    1153, 
    1155, 
    1156, 
    1157, 
    1158, 
    1161, 
    1163, 
    1164, 
    1165, 
    1166, 
    1170, 
    1171, 
    1177, 
    1179, 
    1180, 
    1181, 
    1182, 
    1185, 
    1187, 
    1188, 
    1189, 
    1190, 
    1193, 
    1195, 
    1196, 
    1197, 
    1198, 
    1201, 
    1203, 
    1204, 
    1205, 
    1206, 
    1210, 
    1211, 
    1217, 
    1219, 
    1220, 
    1221, 
    1222, 
    1225, 
    1227, 
    1228, 
    1229, 
    1230, 
    1233, 
    1235, 
    1236, 
    1237, 
    1238, 
    1241, 
    1243, 
    1244, 
    1245, 
    1246, 
    1250, 
    1251, 
    1257, 
    1259, 
    1260, 
    1261, 
    1262, 
    1265, 
    1267, 
    1268, 
    1269, 
    1270, 
    1273, 
    1275, 
    1276, 
    1277, 
    1278, 
    1281, 
    1283, 
    1284, 
    1285, 
    1286, 
    1290, 
    1291, 
    1297, 
    1299, 
    1300, 
    1301, 
    1302, 
    1305, 
    1307, 
    1308, 
    1309, 
    1310, 
    1313, 
    1315, 
    1316, 
    1317, 
    1318, 
    1321, 
    1323, 
    1324, 
    1325, 
    1326, 
    1330, 
    1331, 
    1337, 
    1339, 
    1340, 
    1341, 
    1342, 
    1345, 
    1347, 
    1348, 
    1349, 
    1350, 
    1353, 
    1355, 
    1356, 
    1357, 
    1358, 
    1361, 
    1363, 
    1364, 
    1365, 
    1366, 
    1370, 
    1371, 
    1377, 
    1379, 
    1380, 
    1381, 
    1382, 
    1385, 
    1387, 
    1388, 
    1389, 
    1390, 
    1393, 
    1395, 
    1396, 
    1397, 
    1398, 
    1401, 
    1403, 
    1404, 
    1405, 
    1406, 
    1410, 
    1411, 
    1417, 
    1419, 
    1420, 
    1421, 
    1422, 
    1425, 
    1427, 
    1428, 
    1429, 
    1430, 
    1433, 
    1435, 
    1436, 
    1437, 
    1438, 
    1441, 
    1443, 
    1444, 
    1445, 
    1446, 
    1450, 
    1451, 
    1457, 
    1459, 
    1460, 
    1461, 
    1462, 
    1465, 
    1467, 
    1468, 
    1469, 
    1470, 
    1473, 
    1475, 
    1476, 
    1477, 
    1478, 
    1481, 
    1483, 
    1484, 
    1485, 
    1486, 
    1490, 
    1491, 
    1497, 
    1499, 
    1500, 
    1501, 
    1502, 
    1505, 
    1507, 
    1508, 
    1509, 
    1510, 
    1513, 
    1515, 
    1516, 
    1517, 
    1518, 
    1521, 
    1523, 
    1524, 
    1525, 
    1526, 
    1529, 
    1531, 
    1532, 
    1533, 
    1534, 
    1537, 
    1539, 
    1540, 
    1541, 
    1542, 
    1545, 
    1547, 
    1548, 
    1549, 
    1550, 
    1556, 
    1558, 
    1559, 
    1560, 
    1561, 
    1564, 
    1566, 
    1567, 
    1568, 
    1569, 
    1572, 
    1574, 
    1575, 
    1576, 
    1577, 
    1580, 
    1582, 
    1583, 
    1584, 
    1585, 
    1589, 
    1590, 
    1596, 
    1598, 
    1599, 
    1600, 
    1601, 
    1604, 
    1606, 
    1607, 
    1608, 
    1609, 
    1612, 
    1614, 
    1615, 
    1616, 
    1617, 
    1620, 
    1622, 
    1623, 
    1624, 
    1625, 
    1629, 
    1630, 
    1636, 
    1638, 
    1639, 
    1640, 
    1641, 
    1644, 
    1646, 
    1647, 
    1648, 
    1649, 
    1652, 
    1654, 
    1655, 
    1656, 
    1657, 
    1660, 
    1662, 
    1663, 
    1664, 
    1665, 
    1669, 
    1670, 
    1676, 
    1678, 
    1679, 
    1680, 
    1681, 
    1684, 
    1686, 
    1687, 
    1688, 
    1689, 
    1692, 
    1694, 
    1695, 
    1696, 
    1697, 
    1700, 
    1702, 
    1703, 
    1704, 
    1705, 
    1709, 
    1710, 
    1716, 
    1718, 
    1719, 
    1720, 
    1721, 
    1724, 
    1726, 
    1727, 
    1728, 
    1729, 
    1732, 
    1734, 
    1735, 
    1736, 
    1737, 
    1740, 
    1742, 
    1743, 
    1744, 
    1745, 
    1749, 
    1750, 
    1756, 
    1758, 
    1759, 
    1760, 
    1761, 
    1764, 
    1766, 
    1767, 
    1768, 
    1769, 
    1772, 
    1774, 
    1775, 
    1776, 
    1777, 
    1780, 
    1782, 
    1783, 
    1784, 
    1785, 
    1789, 
    1790, 
    1796, 
    1798, 
    1799, 
    1800, 
    1801, 
    1804, 
    1806, 
    1807, 
    1808, 
    1809, 
    1812, 
    1814, 
    1815, 
    1816, 
    1817, 
    1820, 
    1822, 
    1823, 
    1824, 
    1825, 
    1829, 
    1830, 
    1836, 
    1838, 
    1839, 
    1840, 
    1841, 
    1844, 
    1846, 
    1847, 
    1848, 
    1849, 
    1852, 
    1854, 
    1855, 
    1856, 
    1857, 
    1860, 
    1862, 
    1863, 
    1864, 
    1865, 
    1869, 
    1870, 
    1876, 
    1878, 
    1879, 
    1880, 
    1881, 
    1884, 
    1886, 
    1887, 
    1888, 
    1889, 
    1892, 
    1894, 
    1895, 
    1896, 
    1897, 
    1900, 
    1902, 
    1903, 
    1904, 
    1905, 
    1909, 
    1910, 
    1916, 
    1918, 
    1919, 
    1920, 
    1921, 
    1924, 
    1926, 
    1927, 
    1928, 
    1929, 
    1932, 
    1934, 
    1935, 
    1936, 
    1937, 
    1940, 
    1942, 
    1943, 
    1944, 
    1945, 
    1949, 
    1950, 
    1956, 
    1958, 
    1959, 
    1960, 
    1961, 
    1967, 
    1968, 
    1970
  ], 
  "node_row_ptr": [
    0, 
    1, 
    2, 
    3, 
    4, 
    5, 
    6, 
    7, 
    10, 
    11, 
    12, 
    13, 
    14, 
    15, 
    16, 
    17, 
    20, 
    21, 
    22, 
    23, 
    24, 
    25, 
    26, 
    27, 
    30, 
    31, 
    32, 
    33, 
    34, 
    35, 
    36, 
    37, 
    38, 
    41, 
    42, 
    43, 
    44, 
    45, 
    46, 
    47, 
    48, 
    51, 
    52, 
    53, 
    54, 
    55, 
    56, 
    57, 
    58, 
    59, 
    62, 
    63, 
    64, 
    65, 
    66, 
    67, 
    68, 
    69, 
    72, 
    73, 
    74, 
    75, 
    76, 
    77, 
    78, 
    79, 
    82, 
    83, 
    84, 
    85, 
    86, 
    87, 
    88, 
    89, 
    92, 
    93, 
    94, 
    95, 
    96, 
    97, 
    98, 
    99, 
    102, 
    103, 
    104, 
    105, 
    106, 
    107, 
    108, 
    109, 
    112, 
    113, 
    114, 
    115, 
    116, 
    117, 
    118, 
    119, 
    120, 
    123, 
    124, 
    125, 
    126, 
    127, 
    128, 
    129, 
    130, 
    131, 
    132, 
    135, 
    136, 
    137, 
    138, 
    139, 
    140, 
    141, 
    142, 
    145, 
    146, 
    147, 
    148, 
    149, 
    150, 
    151, 
    152, 
    155, 
    156, 
    157, 
    158, 
    159, 
    160, 
    161, 
    162, 
    165, 
    166, 
    167, 
    168, 
    169, 
    170, 
    171, 
    172, 
    175, 
    176, 
    177, 
    178, 
    179, 
    180, 
    181, 
    182, 
    185, 
    186, 
    187, 
    188, 
    189, 
    190, 
    191, 
    192, 
    193, 
    194, 
    195, 
    196, 
    197, 
    198, 
    199, 
    200, 
    203, 
    204, 
    205, 
    206, 
    207, 
    208, 
    209, 
    210, 
    213, 
    214, 
    215, 
    216, 
    217, 
    218, 
    219, 
    220, 
    223, 
    224, 
    225, 
    226, 
    227, 
    228, 
    229, 
    230, 
    233, 
    234, 
    235, 
    236, 
    237, 
    238, 
    239, 
    240, 
    243, 
    244, 
    245, 
    246, 
    247, 
    248, 
    249, 
    250, 
    253, 
    254, 
    255, 
    256, 
    257, 
    258, 
    259, 
    260, 
    261, 
    262, 
    263, 
    264, 
    265, 
    266, 
    267, 
    268, 
    271, 
    272, 
    273, 
    274, 
    275, 
    276, 
    277, 
    278, 
    281, 
    282, 
    283, 
    284, 
    285, 
    286, 
    287, 
    288, 
    291, 
    292, 
    293, 
    294, 
    295, 
    296, 
    297, 
    298, 
    301, 
    302, 
    303, 
    304, 
    305, 
    306, 
    307, 
    308, 
    311, 
    312, 
    313, 
    314, 
    315, 
    316, 
    317, 
    318, 
    321, 
    322, 
    323, 
    324, 
    325, 
    326, 
    327, 
    328, 
    329, 
    330, 
    331, 
    332, 
    333, 
    334, 
    335, 
    336, 
    339, 
    340, 
    341, 
    342, 
    343, 
    344, 
    345, 
    346, 
    349, 
    350, 
    351, 
    352, 
    353, 
    354, 
    355, 
    356, 
    359, 
    360, 
    361, 
    362, 
    363, 
    364, 
    365, 
    366, 
    369, 
    370, 
    371, 
    372, 
    373, 
    374, 
    375, 
    376, 
    379, 
    380, 
    381, 
    382, 
    383, 
    384, 
    385, 
    386, 
    389, 
    390, 
    391, 
    392, 
    393, 
    394, 
    395, 
    396, 
    397, 
    398, 
    399, 
    400, 
    401, 
    402, 
    403, 
    404, 
    407, 
    408, 
    409, 
    410, 
    411, 
    412, 
    413, 
    414, 
    417, 
    418, 
    419, 
    420, 
    421, 
    422, 
    423, 
    424, 
    427, 
    428, 
    429, 
    430, 
    431, 
    432, 
    433, 
    434, 
    437, 
    438, 
    439, 
    440, 
    441, 
    442, 
    443, 
    444, 
    447, 
    448, 
    449, 
    450, 
    451, 
    452, 
    453, 
    454, 
    457, 
    458, 
    459, 
    460, 
    461, 
    462, 
    463, 
    464, 
    465, 
    466, 
    467, 
    468, 
    469, 
    470, 
    471, 
    472, 
    475, 
    476, 
    477, 
    478, 
    479, 
    480, 
    481, 
    482, 
    485, 
    486, 
    487, 
    488, 
    489, 
    490, 
    491, 
    492, 
    495, 
    496, 
    497, 
    498, 
    499, 
    500, 
    501, 
    502, 
    505, 
    506, 
    507, 
    508, 
    509, 
    510, 
    511, 
    512, 
    515, 
    516, 
    517, 
    518, 
    519, 
    520, 
    521, 
    522, 
    525, 
    526, 
    527, 
    528, 
    529, 
    530, 
    531, 
    532, 
    533, 
    534, 
    535, 
    536, 
    537, 
    538, 
    539, 
    540, 
    543, 
    544, 
    545, 
    546, 
    547, 
    548, 
    549, 
    550, 
    553, 
    554, 
    555, 
    556, 
    557, 
    558, 
    559, 
    560, 
    563, 
    564, 
    565, 
    566, 
    567, 
    568, 
    569, 
    570, 
    573, 
    574, 
    575, 
    576, 
    577, 
    578, 
    579, 
    580, 
    583, 
    584, 
    585, 
    586, 
    587, 
    588, 
    589, 
    590, 
    593, 
    594, 
    595, 
    596, 
    597, 
    598, 
    599, 
    600, 
    601, 
    602, 
    603, 
    604, 
    605, 
    606, 
    607, 
    608, 
    611, 
    612, 
    613, 
    614, 
    615, 
    616, 
    617, 
    618, 
    621, 
    622, 
    623, 
    624, 
    625, 
    626, 
    627, 
    628, 
    631, 
    632, 
    633, 
    634, 
    635, 
    636, 
    637, 
    638, 
    641, 
    642, 
    643, 
    644, 
    645, 
    646, 
    647, 
    648, 
    651, 
    652, 
    653, 
    654, 
    655, 
    656, 
    657, 
    658, 
    661, 
    662, 
    663, 
    664, 
    665, 
    666, 
    667, 
    668, 
    669, 
    670, 
    671, 
    672, 
    673, 
    674, 
    675, 
    676, 
    679, 
    680, 
    681, 
    682, 
    683, 
    684, 
    685, 
    686, 
    689, 
    690, 
    691, 
    692, 
    693, 
    694, 
    695, 
    696, 
    699, 
    700, 
    701, 
    702, 
    703, 
    704, 
    705, 
    706, 
    709, 
    710, 
    711, 
    712, 
    713, 
    714, 
    715, 
    716, 
    719, 
    720, 
    721, 
    722, 
    723, 
    724, 
    725, 
    726, 
    729, 
    730, 
    731, 
    732, 
    733, 
    734, 
    735, 
    736, 
    737, 
    738, 
    739, 
    740, 
    741, 
    742, 
    743, 
    744, 
    747, 
    748, 
    749, 
    750, 
    751, 
    752, 
    753, 
    754, 
    757, 
    758, 
    759, 
    760, 
    761, 
    762, 
    763, 
    764, 
    767, 
    768, 
    769, 
    770, 
    771, 
    772, 
    773, 
    774, 
    777, 
    778, 
    779, 
    780, 
    781, 
    782, 
    783, 
    784, 
    787, 
    788, 
    789, 
    790, 
    791, 
    792, 
    793, 
    794, 
    797, 
    798, 
    799, 
    800, 
    801, 
    802, 
    803, 
    804, 
    805, 
    806, 
    807, 
    808, 
    809, 
    810, 
    811, 
    812, 
    815, 
    816, 
    817, 
    818, 
    819, 
    820, 
    821, 
    822, 
    825, 
    826, 
    827, 
    828, 
    829, 
    830, 
    831, 
    832, 
    835, 
    836, 
    837, 
    838, 
    839, 
    840, 
    841, 
    842, 
    845, 
    846, 
    847, 
    848, 
    849, 
    850, 
    851, 
    852, 
    853, 
    854, 
    855, 
    858, 
    859, 
    860, 
    861, 
    862, 
    863, 
    864, 
    865, 
    868, 
    869, 
    870, 
    871, 
    872, 
    873, 
    874, 
    875, 
    878, 
    879, 
    880, 
    881, 
    882, 
    883, 
    884, 
    885, 
    888, 
    889, 
    890, 
    891, 
    892, 
    893, 
    894, 
    895, 
    896, 
    897, 
    898, 
    899, 
    900, 
    901, 
    902, 
    903, 
    906, 
    907, 
    908, 
    909, 
    910, 
    911, 
    912, 
    913, 
    916, 
    917, 
    918, 
    919, 
    920, 
    921, 
    922, 
    923, 
    926, 
    927, 
    928, 
    929, 
    930, 
    931, 
    932, 
    933, 
    936, 
    937, 
    938, 
    939, 
    940, 
    941, 
    942, 
    943, 
    944, 
    945, 
    946, 
    947, 
    948, 
    949, 
    950, 
    951, 
    954, 
    955, 
    956, 
    957, 
    958, 
    959, 
    960, 
    961, 
    964, 
    965, 
    966, 
    967, 
    968, 
    969, 
    970, 
    971, 
    974, 
    975, 
    976, 
    977, 
    978, 
    979, 
    980, 
    981, 
    984, 
    985, 
    986, 
    987, 
    988, 
    989, 
    990, 
    991, 
    992, 
    993, 
    994, 
    995, 
    996, 
    997, 
    998, 
    999, 
    1002, 
    1003, 
    1004, 
    1005, 
    1006, 
    1007, 
    1008, 
    1009, 
    1012, 
    1013, 
    1014, 
    1015, 
    1016, 
    1017, 
    1018, 
    1019, 
    1022, 
    1023, 
    1024, 
    1025, 
    1026, 
    1027, 
    1028, 
    1029, 
    1032, 
    1033, 
    1034, 
    1035, 
    1036, 
    1037, 
    1038, 
    1039, 
    1040, 
    1041, 
    1042, 
    1043, 
    1044, 
    1045, 
    1046, 
    1047, 
    1050, 
    1051, 
    1052, 
    1053, 
    1054, 
    1055, 
    1056, 
    1057, 
    1060, 
    1061, 
    1062, 
    1063, 
    1064, 
    1065, 
    1066, 
    1067, 
    1070, 
    1071, 
    1072, 
    1073, 
    1074, 
    1075, 
    1076, 
    1077, 
    1080, 
    1081, 
    1082, 
    1083, 
    1084, 
    1085, 
    1086, 
    1087, 
    1088, 
    1089, 
    1090, 
    1091, 
    1092, 
    1093, 
    1094, 
    1095, 
    1098, 
    1099, 
    1100, 
    1101, 
    1102, 
    1103, 
    1104, 
    1105, 
    1108, 
    1109, 
    1110, 
    1111, 
    1112, 
    1113, 
    1114, 
    1115, 
    1118, 
    1119, 
    1120, 
    1121, 
    1122, 
    1123, 
    1124, 
    1125, 
    1128, 
    1129, 
    1130, 
    1131, 
    1132, 
    1133, 
    1134, 
    1135, 
    1136, 
    1137, 
    1138, 
    1139, 
    1140, 
    1141, 
    1142, 
    1143, 
    1146, 
    1147, 
    1148, 
    1149, 
    1150, 
    1151, 
    1152, 
    1153, 
    1156, 
    1157, 
    1158, 
    1159, 
    1160, 
    1161, 
    1162, 
    1163, 
    1166, 
    1167, 
    1168, 
    1169, 
    1170, 
    1171, 
    1172, 
    1173, 
    1176, 
    1177, 
    1178, 
    1179, 
    1180, 
    1181, 
    1182, 
    1183, 
    1184, 
    1185, 
    1186, 
    1187, 
    1188, 
    1189, 
    1190, 
    1191, 
    1194, 
    1195, 
    1196, 
    1197, 
    1198, 
    1199, 
    1200, 
    1201, 
    1204, 
    1205, 
    1206, 
    1207, 
    1208, 
    1209, 
    1210, 
    1211, 
    1214, 
    1215, 
    1216, 
    1217, 
    1218, 
    1219, 
    1220, 
    1221, 
    1224, 
    1225, 
    1226, 
    1227, 
    1228, 
    1229, 
    1230, 
    1231, 
    1232, 
    1233, 
    1234, 
    1235, 
    1236, 
    1237, 
    1238, 
    1239, 
    1242, 
    1243, 
    1244, 
    1245, 
    1246, 
    1247, 
    1248, 
    1249, 
    1252, 
    1253, 
    1254, 
    1255, 
    1256, 
    1257, 
    1258, 
    1259, 
    1262, 
    1263, 
    1264, 
    1265, 
    1266, 
    1267, 
    1268, 
    1269, 
    1272, 
    1273, 
    1274, 
    1275, 
    1276, 
    1277, 
    1278, 
    1279, 
    1280, 
    1281, 
    1282, 
    1283, 
    1284, 
    1285, 
    1286, 
    1287, 
    1290, 
    1291, 
    1292, 
    1293, 
    1294, 
    1295, 
    1296, 
    1297, 
    1300, 
    1301, 
    1302, 
    1303, 
    1304, 
    1305, 
    1306, 
    1307, 
    1310, 
    1311, 
    1312, 
    1313, 
    1314, 
    1315, 
    1316, 
    1317, 
    1320, 
    1321, 
    1322, 
    1323, 
    1324, 
    1325, 
    1326, 
    1327, 
    1328, 
    1329, 
    1330, 
    1331, 
    1332, 
    1333, 
    1334, 
    1335, 
    1338, 
    1339, 
    1340, 
    1341, 
    1342, 
    1343, 
    1344, 
    1345, 
    1348, 
    1349, 
    1350, 
    1351, 
    1352, 
    1353, 
    1354, 
    1355, 
    1358, 
    1359, 
    1360, 
    1361, 
    1362, 
    1363, 
    1364, 
    1365, 
    1368, 
    1369, 
    1370, 
    1371, 
    1372, 
    1373, 
    1374, 
    1375, 
    1376, 
    1377, 
    1378, 
    1379, 
    1380, 
    1381, 
    1382, 
    1383, 
    1386, 
    1387, 
    1388, 
    1389, 
    1390, 
    1391, 
    1392, 
    1393, 
    1396, 
    1397, 
    1398, 
    1399, 
    1400, 
    1401, 
    1402, 
    1403, 
    1406, 
    1407, 
    1408, 
    1409, 
    1410, 
    1411, 
    1412, 
    1413, 
    1416, 
    1417, 
    1418, 
    1419, 
    1420, 
    1421, 
    1422, 
    1423, 
    1424, 
    1425, 
    1426, 
    1427, 
    1428, 
    1429, 
    1430, 
    1431, 
    1434, 
    1435, 
    1436, 
    1437, 
    1438, 
    1439, 
    1440, 
    1441, 
    1444, 
    1445, 
    1446, 
    1447, 
    1448, 
    1449, 
    1450, 
    1451, 
    1454, 
    1455, 
    1456, 
    1457, 
    1458, 
    1459, 
    1460, 
    1461, 
    1464, 
    1465, 
    1466, 
    1467, 
    1468, 
    1469, 
    1470, 
    1471, 
    1472, 
    1473, 
    1474, 
    1475, 
    1476, 
    1477, 
    1478, 
    1479, 
    1482, 
    1483, 
    1484, 
    1485, 
    1486, 
    1487, 
    1488, 
    1489, 
    1492, 
    1493, 
    1494, 
    1495, 
    1496, 
    1497, 
    1498, 
    1499, 
    1502, 
    1503, 
    1504, 
    1505, 
    1506, 
    1507, 
    1508, 
    1509, 
    1512, 
    1513, 
    1514, 
    1515, 
    1516, 
    1517, 
    1518, 
    1519, 
    1520, 
    1521, 
    1522, 
    1523, 
    1524, 
    1525, 
    1526, 
    1527, 
    1530, 
    1531, 
    1532, 
    1533, 
    1534, 
    1535, 
    1536, 
    1537, 
    1540, 
    1541, 
    1542, 
    1543, 
    1544, 
    1545, 
    1546, 
    1547, 
    1550, 
    1551, 
    1552, 
    1553, 
    1554, 
    1555, 
    1556, 
    1557, 
    1560, 
    1561, 
    1562, 
    1563, 
    1564, 
    1565, 
    1566, 
    1567, 
    1568, 
    1569, 
    1570, 
    1571, 
    1572, 
    1573, 
    1574, 
    1575, 
    1578, 
    1579, 
    1580, 
    1581, 
    1582, 
    1583, 
    1584, 
    1585, 
    1588, 
    1589, 
    1590, 
    1591, 
    1592, 
    1593, 
    1594, 
    1595, 
    1598, 
    1599, 
    1600, 
    1601, 
    1602, 
    1603, 
    1604, 
    1605, 
    1608, 
    1609, 
    1610, 
    1611, 
    1612, 
    1613, 
    1614, 
    1615, 
    1616, 
    1617, 
    1618, 
    1619, 
    1620, 
    1621, 
    1622, 
    1623, 
    1626, 
    1627, 
    1628, 
    1629, 
    1630, 
    1631, 
    1632, 
    1633, 
    1636, 
    1637, 
    1638, 
    1639, 
    1640, 
    1641, 
    1642, 
    1643, 
    1646, 
    1647, 
    1648, 
    1649, 
    1650, 
    1651, 
    1652, 
    1653, 
    1656, 
    1657, 
    1658, 
    1659, 
    1660, 
    1661, 
    1662, 
    1663, 
    1664, 
    1665, 
    1666, 
    1667, 
    1668, 
    1669, 
    1670, 
    1671, 
    1674, 
    1675, 
    1676, 
    1677, 
    1678, 
    1679, 
    1680, 
    1681, 
    1684, 
    1685, 
    1686, 
    1687, 
    1688, 
    1689, 
    1690, 
    1691, 
    1694, 
    1695, 
    1696, 
    1697, 
    1698, 
    1699, 
    1700, 
    1701, 
    1704, 
    1705, 
    1706, 
    1707, 
    1708, 
    1709, 
    1710, 
    1711, 
    1712, 
    1713, 
    1714, 
    1715, 
    1716, 
    1717, 
    1718, 
    1719, 
    1722, 
    1723, 
    1724, 
    1725, 
    1726, 
    1727, 
    1728, 
    1729, 
    1732, 
    1733, 
    1734, 
    1735, 
    1736, 
    1737, 
    1738, 
    1739, 
    1742, 
    1743, 
    1744, 
    1745, 
    1746, 
    1747, 
    1748, 
    1749, 
    1752, 
    1753, 
    1754, 
    1755, 
    1756, 
    1757, 
    1758, 
    1759, 
    1760, 
    1761, 
    1762, 
    1763, 
    1764, 
    1765, 
    1766, 
    1767, 
    1770, 
    1771, 
    1772, 
    1773, 
    1774, 
    1775, 
    1776, 
    1777, 
    1780, 
    1781, 
    1782, 
    1783, 
    1784, 
    1785, 
    1786, 
    1787, 
    1790, 
    1791, 
    1792, 
    1793, 
    1794, 
    1795, 
    1796, 
    1797, 
    1800, 
    1801, 
    1802, 
    1803, 
    1804, 
    1805, 
    1806, 
    1807, 
    1808, 
    1809, 
    1810, 
    1811, 
    1812, 
    1813, 
    1814, 
    1815, 
    1818, 
    1819, 
    1820, 
    1821, 
    1822, 
    1823, 
    1824, 
    1825, 
    1828, 
    1829, 
    1830, 
    1831, 
    1832, 
    1833, 
    1834, 
    1835, 
    1838, 
    1839, 
    1840, 
    1841, 
    1842, 
    1843, 
    1844, 
    1845, 
    1848, 
    1849, 
    1850, 
    1851, 
    1852, 
    1853, 
    1854, 
    1855, 
    1858, 
    1859, 
    1860, 
    1861, 
    1862, 
    1863, 
    1864, 
    1865, 
    1868, 
    1869, 
    1870, 
    1871, 
    1872, 
    1873, 
    1874, 
    1875, 
    1878, 
    1879, 
    1880, 
    1881, 
    1882, 
    1883, 
    1884, 
    1885, 
    1886, 
    1887, 
    1888, 
    1891, 
    1892, 
    1893, 
    1894, 
    1895, 
    1896, 
    1897, 
    1898, 
    1901, 
    1902, 
    1903, 
    1904, 
    1905, 
    1906, 
    1907, 
    1908, 
    1911, 
    1912, 
    1913, 
    1914, 
    1915, 
    1916, 
    1917, 
    1918, 
    1921, 
    1922, 
    1923, 
    1924, 
    1925, 
    1926, 
    1927, 
    1928, 
    1929, 
    1930, 
    1931, 
    1932, 
    1933, 
    1934, 
    1935, 
    1936, 
    1939, 
    1940, 
    1941, 
    1942, 
    1943, 
    1944, 
    1945, 
    1946, 
    1949, 
    1950, 
    1951, 
    1952, 
    1953, 
    1954, 
    1955, 
    1956, 
    1959, 
    1960, 
    1961, 
    1962, 
    1963, 
    1964, 
    1965, 
    1966, 
    1969, 
    1970, 
    1971, 
    1972, 
    1973, 
    1974, 
    1975, 
    1976, 
    1977, 
    1978, 
    1979, 
    1980, 
    1981, 
    1982, 
    1983, 
    1984, 
    1987, 
    1988, 
    1989, 
    1990, 
    1991, 
    1992, 
    1993, 
    1994, 
    1997, 
    1998, 
    1999, 
    2000, 
    2001, 
    2002, 
    2003, 
    2004, 
    2007, 
    2008, 
    2009, 
    2010, 
    2011, 
    2012, 
    2013, 
    2014, 
    2017, 
    2018, 
    2019, 
    2020, 
    2021, 
    2022, 
    2023, 
    2024, 
    2025, 
    2026, 
    2027, 
    2028, 
    2029, 
    2030, 
    2031, 
    2032, 
    2035, 
    2036, 
    2037, 
    2038, 
    2039, 
    2040, 
    2041, 
    2042, 
    2045, 
    2046, 
    2047, 
    2048, 
    2049, 
    2050, 
    2051, 
    2052, 
    2055, 
    2056, 
    2057, 
    2058, 
    2059, 
    2060, 
    2061, 
    2062, 
    2065, 
    2066, 
    2067, 
    2068, 
    2069, 
    2070, 
    2071, 
    2072, 
    2073, 
    2074, 
    2075, 
    2076, 
    2077, 
    2078, 
    2079, 
    2080, 
    2083, 
    2084, 
    2085, 
    2086, 
    2087, 
    2088, 
    2089, 
    2090, 
    2093, 
    2094, 
    2095, 
    2096, 
    2097, 
    2098, 
    2099, 
    2100, 
    2103, 
    2104, 
    2105, 
    2106, 
    2107, 
    2108, 
    2109, 
    2110, 
    2113, 
    2114, 
    2115, 
    2116, 
    2117, 
    2118, 
    2119, 
    2120, 
    2121, 
    2122, 
    2123, 
    2124, 
    2125, 
    2126, 
    2127, 
    2128, 
    2131, 
    2132, 
    2133, 
    2134, 
    2135, 
    2136, 
    2137, 
    2138, 
    2141, 
    2142, 
    2143, 
    2144, 
    2145, 
    2146, 
    2147, 
    2148, 
    2151, 
    2152, 
    2153, 
    2154, 
    2155, 
    2156, 
    2157, 
    2158, 
    2161, 
    2162, 
    2163, 
    2164, 
    2165, 
    2166, 
    2167, 
    2168, 
    2169, 
    2170, 
    2171, 
    2172, 
    2173, 
    2174, 
    2175, 
    2176, 
    2179, 
    2180, 
    2181, 
    2182, 
    2183, 
    2184, 
    2185, 
    2186, 
    2189, 
    2190, 
    2191, 
    2192, 
    2193, 
    2194, 
    2195, 
    2196, 
    2199, 
    2200, 
    2201, 
    2202, 
    2203, 
    2204, 
    2205, 
    2206, 
    2209, 
    2210, 
    2211, 
    2212, 
    2213, 
    2214, 
    2215, 
    2216, 
    2217, 
    2218, 
    2219, 
    2220, 
    2221, 
    2222, 
    2223, 
    2224, 
    2227, 
    2228, 
    2229, 
    2230, 
    2231, 
    2232, 
    2233, 
    2234, 
    2237, 
    2238, 
    2239, 
    2240, 
    2241, 
    2242, 
    2243, 
    2244, 
    2247, 
    2248, 
    2249, 
    2250, 
    2251, 
    2252, 
    2253, 
    2254, 
    2257, 
    2258, 
    2259, 
    2260, 
    2261, 
    2262, 
    2263, 
    2264, 
    2265, 
    2266, 
    2267, 
    2268, 
    2269, 
    2270, 
    2271, 
    2272, 
    2275, 
    2276, 
    2277, 
    2278, 
    2279, 
    2280, 
    2281, 
    2282, 
    2285, 
    2286, 
    2287, 
    2288, 
    2289, 
    2290, 
    2291, 
    2292, 
    2295, 
    2296, 
    2297, 
    2298, 
    2299, 
    2300, 
    2301, 
    2302, 
    2305, 
    2306, 
    2307, 
    2308, 
    2309, 
    2310, 
    2311, 
    2312, 
    2313, 
    2314, 
    2315, 
    2316, 
    2317, 
    2318, 
    2319, 
    2320, 
    2323, 
    2324, 
    2325, 
    2326, 
    2327, 
    2328, 
    2329, 
    2330, 
    2333, 
    2334, 
    2335, 
    2336, 
    2337, 
    2338, 
    2339, 
    2340, 
    2343, 
    2344, 
    2345, 
    2346, 
    2347, 
    2348, 
    2349, 
    2350, 
    2353, 
    2354, 
    2355, 
    2356, 
    2357, 
    2358, 
    2359, 
    2360, 
    2361, 
    2362, 
    2363, 
    2364, 
    2365, 
    2366, 
    2367, 
    2368, 
    2371, 
    2372, 
    2373, 
    2375, 
    2376, 
    2377, 
    2378, 
    2379, 
    2380, 
    2381
  ], 
  "heads": [[1971, 0, 0]], 
  "attrs": {"mxnet_version": ["int", 10001]}
}