{
  "nodes": [
    {
      "op": "null", 
      "name": "data", 
      "inputs": []
    }, 
    {
      "op": "null", 
      "name": "conv1_3x3_s2_weight", 
      "attr": {
        "kernel": "(3, 3)", 
        "no_bias": "True", 
        "num_filter": "32", 
        "pad": "(0, 0)", 
        "stride": "(2, 2)"
      }, 
      "inputs": []
    }, 
    {
      "op": "Convolution", 
      "name": "conv1_3x3_s2", 
      "attr": {
        "kernel": "(3, 3)", 
        "no_bias": "True", 
        "num_filter": "32", 
        "pad": "(0, 0)", 
        "stride": "(2, 2)"
      }, 
      "inputs": [[0, 0, 0], [1, 0, 0]]
    }, 
    {
      "op": "null", 
      "name": "conv1_3x3_s2_bn_gamma", 
      "attr": {
        "eps": "0.001", 
        "fix_gamma": "False", 
        "use_global_stats": "True"
      }, 
      "inputs": []
    }, 
    {
      "op": "null", 
      "name": "conv1_3x3_s2_bn_beta", 
      "attr": {
        "eps": "0.001", 
        "fix_gamma": "False", 
        "use_global_stats": "True"
      }, 
      "inputs": []
    }, 
    {
      "op": "null", 
      "name": "conv1_3x3_s2_bn_moving_mean", 
      "attr": {
        "__init__": "[\"zero\", {}]", 
        "eps": "0.001", 
        "fix_gamma": "False", 
        "use_global_stats": "True"
      }, 
      "inputs": []
    }, 
    {
      "op": "null", 
      "name": "conv1_3x3_s2_bn_moving_var", 
      "attr": {
        "__init__": "[\"one\", {}]", 
        "eps": "0.001", 
        "fix_gamma": "False", 
        "use_global_stats": "True"
      }, 
      "inputs": []
    }, 
    {
      "op": "BatchNorm", 
      "name": "conv1_3x3_s2_bn", 
      "attr": {
        "eps": "0.001", 
        "fix_gamma": "False", 
        "use_global_stats": "True"
      }, 
      "inputs": [[2, 0, 0], [3, 0, 0], [4, 0, 0], [5, 0, 1], [6, 0, 1]]
    }, 
    {
      "op": "Activation", 
      "name": "conv1_3x3_s2_relu", 
      "attr": {"act_type": "relu"}, 
      "inputs": [[7, 0, 0]]
    }, 
    {
      "op": "null", 
      "name": "conv2_3x3_s1_weight", 
      "attr": {
        "kernel": "(3, 3)", 
        "no_bias": "True", 
        "num_filter": "32", 
        "pad": "(0, 0)", 
        "stride": "(1, 1)"
      }, 
      "inputs": []
    }, 
    {
      "op": "Convolution", 
      "name": "conv2_3x3_s1", 
      "attr": {
        "kernel": "(3, 3)", 
        "no_bias": "True", 
        "num_filter": "32", 
        "pad": "(0, 0)", 
        "stride": "(1, 1)"
      }, 
      "inputs": [[8, 0, 0], [9, 0, 0]]
    }, 
    {
      "op": "null", 
      "name": "conv2_3x3_s1_bn_gamma", 
      "attr": {
        "eps": "0.001", 
        "fix_gamma": "False", 
        "use_global_stats": "True"
      }, 
      "inputs": []
    }, 
    {
      "op": "null", 
      "name": "conv2_3x3_s1_bn_beta", 
      "attr": {
        "eps": "0.001", 
        "fix_gamma": "False", 
        "use_global_stats": "True"
      }, 
      "inputs": []
    }, 
    {
      "op": "null", 
      "name": "conv2_3x3_s1_bn_moving_mean", 
      "attr": {
        "__init__": "[\"zero\", {}]", 
        "eps": "0.001", 
        "fix_gamma": "False", 
        "use_global_stats": "True"
      }, 
      "inputs": []
    }, 
    {
      "op": "null", 
      "name": "conv2_3x3_s1_bn_moving_var", 
      "attr": {
        "__init__": "[\"one\", {}]", 
        "eps": "0.001", 
        "fix_gamma": "False", 
        "use_global_stats": "True"
      }, 
      "inputs": []
    }, 
    {
      "op": "BatchNorm", 
      "name": "conv2_3x3_s1_bn", 
      "attr": {
        "eps": "0.001", 
        "fix_gamma": "False", 
        "use_global_stats": "True"
      }, 
      "inputs": [[10, 0, 0], [11, 0, 0], [12, 0, 0], [13, 0, 1], [14, 0, 1]]
    }, 
    {
      "op": "Activation", 
      "name": "conv2_3x3_s1_relu", 
      "attr": {"act_type": "relu"}, 
      "inputs": [[15, 0, 0]]
    }, 
    {
      "op": "null", 
      "name": "conv3_3x3_s1_weight", 
      "attr": {
        "kernel": "(3, 3)", 
        "no_bias": "True", 
        "num_filter": "64", 
        "pad": "(1, 1)", 
        "stride": "(1, 1)"
      }, 
      "inputs": []
    }, 
    {
      "op": "Convolution", 
      "name": "conv3_3x3_s1", 
      "attr": {
        "kernel": "(3, 3)", 
        "no_bias": "True", 
        "num_filter": "64", 
        "pad": "(1, 1)", 
        "stride": "(1, 1)"
      }, 
      "inputs": [[16, 0, 0], [17, 0, 0]]
    }, 
    {
      "op": "null", 
      "name": "conv3_3x3_s1_bn_gamma", 
      "attr": {
        "eps": "0.001", 
        "fix_gamma": "False", 
        "use_global_stats": "True"
      }, 
      "inputs": []
    }, 
    {
      "op": "null", 
      "name": "conv3_3x3_s1_bn_beta", 
      "attr": {
        "eps": "0.001", 
        "fix_gamma": "False", 
        "use_global_stats": "True"
      }, 
      "inputs": []
    }, 
    {
      "op": "null", 
      "name": "conv3_3x3_s1_bn_moving_mean", 
      "attr": {
        "__init__": "[\"zero\", {}]", 
        "eps": "0.001", 
        "fix_gamma": "False", 
        "use_global_stats": "True"
      }, 
      "inputs": []
    }, 
    {
      "op": "null", 
      "name": "conv3_3x3_s1_bn_moving_var", 
      "attr": {
        "__init__": "[\"one\", {}]", 
        "eps": "0.001", 
        "fix_gamma": "False", 
        "use_global_stats": "True"
      }, 
      "inputs": []
    }, 
    {
      "op": "BatchNorm", 
      "name": "conv3_3x3_s1_bn", 
      "attr": {
        "eps": "0.001", 
        "fix_gamma": "False", 
        "use_global_stats": "True"
      }, 
      "inputs": [[18, 0, 0], [19, 0, 0], [20, 0, 0], [21, 0, 1], [22, 0, 1]]
    }, 
    {
      "op": "Activation", 
      "name": "conv3_3x3_s1_relu", 
      "attr": {"act_type": "relu"}, 
      "inputs": [[23, 0, 0]]
    }, 
    {
      "op": "Pooling", 
      "name": "inception_stem1_pool", 
      "attr": {
        "kernel": "(3, 3)", 
        "pad": "(0, 0)", 
        "pool_type": "max", 
        "pooling_convention": "full", 
        "stride": "(2, 2)"
      }, 
      "inputs": [[24, 0, 0]]
    }, 
    {
      "op": "null", 
      "name": "inception_stem1_3x3_s2_weight", 
      "attr": {
        "kernel": "(3, 3)", 
        "no_bias": "True", 
        "num_filter": "96", 
        "pad": "(0, 0)", 
        "stride": "(2, 2)"
      }, 
      "inputs": []
    }, 
    {
      "op": "Convolution", 
      "name": "inception_stem1_3x3_s2", 
      "attr": {
        "kernel": "(3, 3)", 
        "no_bias": "True", 
        "num_filter": "96", 
        "pad": "(0, 0)", 
        "stride": "(2, 2)"
      }, 
      "inputs": [[24, 0, 0], [26, 0, 0]]
    }, 
    {
      "op": "null", 
      "name": "inception_stem1_3x3_s2_bn_gamma", 
      "attr": {
        "eps": "0.001", 
        "fix_gamma": "False", 
        "use_global_stats": "True"
      }, 
      "inputs": []
    }, 
    {
      "op": "null", 
      "name": "inception_stem1_3x3_s2_bn_beta", 
      "attr": {
        "eps": "0.001", 
        "fix_gamma": "False", 
        "use_global_stats": "True"
      }, 
      "inputs": []
    }, 
    {
      "op": "null", 
      "name": "inception_stem1_3x3_s2_bn_moving_mean", 
      "attr": {
        "__init__": "[\"zero\", {}]", 
        "eps": "0.001", 
        "fix_gamma": "False", 
        "use_global_stats": "True"
      }, 
      "inputs": []
    }, 
    {
      "op": "null", 
      "name": "inception_stem1_3x3_s2_bn_moving_var", 
      "attr": {
        "__init__": "[\"one\", {}]", 
        "eps": "0.001", 
        "fix_gamma": "False", 
        "use_global_stats": "True"
      }, 
      "inputs": []
    }, 
    {
      "op": "BatchNorm", 
      "name": "inception_stem1_3x3_s2_bn", 
      "attr": {
        "eps": "0.001", 
        "fix_gamma": "False", 
        "use_global_stats": "True"
      }, 
      "inputs": [[27, 0, 0], [28, 0, 0], [29, 0, 0], [30, 0, 1], [31, 0, 1]]
    }, 
    {
      "op": "Activation", 
      "name": "inception_stem1_3x3_s2_relu", 
      "attr": {"act_type": "relu"}, 
      "inputs": [[32, 0, 0]]
    }, 
    {
      "op": "Concat", 
      "name": "inception_stem1", 
      "attr": {"num_args": "2"}, 
      "inputs": [[25, 0, 0], [33, 0, 0]]
    }, 
    {
      "op": "null", 
      "name": "inception_stem2_3x3_reduce_weight", 
      "attr": {
        "kernel": "(1, 1)", 
        "no_bias": "True", 
        "num_filter": "64", 
        "pad": "(0, 0)", 
        "stride": "(1, 1)"
      }, 
      "inputs": []
    }, 
    {
      "op": "Convolution", 
      "name": "inception_stem2_3x3_reduce", 
      "attr": {
        "kernel": "(1, 1)", 
        "no_bias": "True", 
        "num_filter": "64", 
        "pad": "(0, 0)", 
        "stride": "(1, 1)"
      }, 
      "inputs": [[34, 0, 0], [35, 0, 0]]
    }, 
    {
      "op": "null", 
      "name": "inception_stem2_3x3_reduce_bn_gamma", 
      "attr": {
        "eps": "0.001", 
        "fix_gamma": "False", 
        "use_global_stats": "True"
      }, 
      "inputs": []
    }, 
    {
      "op": "null", 
      "name": "inception_stem2_3x3_reduce_bn_beta", 
      "attr": {
        "eps": "0.001", 
        "fix_gamma": "False", 
        "use_global_stats": "True"
      }, 
      "inputs": []
    }, 
    {
      "op": "null", 
      "name": "inception_stem2_3x3_reduce_bn_moving_mean", 
      "attr": {
        "__init__": "[\"zero\", {}]", 
        "eps": "0.001", 
        "fix_gamma": "False", 
        "use_global_stats": "True"
      }, 
      "inputs": []
    }, 
    {
      "op": "null", 
      "name": "inception_stem2_3x3_reduce_bn_moving_var", 
      "attr": {
        "__init__": "[\"one\", {}]", 
        "eps": "0.001", 
        "fix_gamma": "False", 
        "use_global_stats": "True"
      }, 
      "inputs": []
    }, 
    {
      "op": "BatchNorm", 
      "name": "inception_stem2_3x3_reduce_bn", 
      "attr": {
        "eps": "0.001", 
        "fix_gamma": "False", 
        "use_global_stats": "True"
      }, 
      "inputs": [[36, 0, 0], [37, 0, 0], [38, 0, 0], [39, 0, 1], [40, 0, 1]]
    }, 
    {
      "op": "Activation", 
      "name": "inception_stem2_3x3_reduce_relu", 
      "attr": {"act_type": "relu"}, 
      "inputs": [[41, 0, 0]]
    }, 
    {
      "op": "null", 
      "name": "inception_stem2_3x3_weight", 
      "attr": {
        "kernel": "(3, 3)", 
        "no_bias": "True", 
        "num_filter": "96", 
        "pad": "(0, 0)", 
        "stride": "(1, 1)"
      }, 
      "inputs": []
    }, 
    {
      "op": "Convolution", 
      "name": "inception_stem2_3x3", 
      "attr": {
        "kernel": "(3, 3)", 
        "no_bias": "True", 
        "num_filter": "96", 
        "pad": "(0, 0)", 
        "stride": "(1, 1)"
      }, 
      "inputs": [[42, 0, 0], [43, 0, 0]]
    }, 
    {
      "op": "null", 
      "name": "inception_stem2_3x3_bn_gamma", 
      "attr": {
        "eps": "0.001", 
        "fix_gamma": "False", 
        "use_global_stats": "True"
      }, 
      "inputs": []
    }, 
    {
      "op": "null", 
      "name": "inception_stem2_3x3_bn_beta", 
      "attr": {
        "eps": "0.001", 
        "fix_gamma": "False", 
        "use_global_stats": "True"
      }, 
      "inputs": []
    }, 
    {
      "op": "null", 
      "name": "inception_stem2_3x3_bn_moving_mean", 
      "attr": {
        "__init__": "[\"zero\", {}]", 
        "eps": "0.001", 
        "fix_gamma": "False", 
        "use_global_stats": "True"
      }, 
      "inputs": []
    }, 
    {
      "op": "null", 
      "name": "inception_stem2_3x3_bn_moving_var", 
      "attr": {
        "__init__": "[\"one\", {}]", 
        "eps": "0.001", 
        "fix_gamma": "False", 
        "use_global_stats": "True"
      }, 
      "inputs": []
    }, 
    {
      "op": "BatchNorm", 
      "name": "inception_stem2_3x3_bn", 
      "attr": {
        "eps": "0.001", 
        "fix_gamma": "False", 
        "use_global_stats": "True"
      }, 
      "inputs": [[44, 0, 0], [45, 0, 0], [46, 0, 0], [47, 0, 1], [48, 0, 1]]
    }, 
    {
      "op": "Activation", 
      "name": "inception_stem2_3x3_relu", 
      "attr": {"act_type": "relu"}, 
      "inputs": [[49, 0, 0]]
    }, 
    {
      "op": "null", 
      "name": "inception_stem2_1x7_reduce_weight", 
      "attr": {
        "kernel": "(1, 1)", 
        "no_bias": "True", 
        "num_filter": "64", 
        "pad": "(0, 0)", 
        "stride": "(1, 1)"
      }, 
      "inputs": []
    }, 
    {
      "op": "Convolution", 
      "name": "inception_stem2_1x7_reduce", 
      "attr": {
        "kernel": "(1, 1)", 
        "no_bias": "True", 
        "num_filter": "64", 
        "pad": "(0, 0)", 
        "stride": "(1, 1)"
      }, 
      "inputs": [[34, 0, 0], [51, 0, 0]]
    }, 
    {
      "op": "null", 
      "name": "inception_stem2_1x7_reduce_bn_gamma", 
      "attr": {
        "eps": "0.001", 
        "fix_gamma": "False", 
        "use_global_stats": "True"
      }, 
      "inputs": []
    }, 
    {
      "op": "null", 
      "name": "inception_stem2_1x7_reduce_bn_beta", 
      "attr": {
        "eps": "0.001", 
        "fix_gamma": "False", 
        "use_global_stats": "True"
      }, 
      "inputs": []
    }, 
    {
      "op": "null", 
      "name": "inception_stem2_1x7_reduce_bn_moving_mean", 
      "attr": {
        "__init__": "[\"zero\", {}]", 
        "eps": "0.001", 
        "fix_gamma": "False", 
        "use_global_stats": "True"
      }, 
      "inputs": []
    }, 
    {
      "op": "null", 
      "name": "inception_stem2_1x7_reduce_bn_moving_var", 
      "attr": {
        "__init__": "[\"one\", {}]", 
        "eps": "0.001", 
        "fix_gamma": "False", 
        "use_global_stats": "True"
      }, 
      "inputs": []
    }, 
    {
      "op": "BatchNorm", 
      "name": "inception_stem2_1x7_reduce_bn", 
      "attr": {
        "eps": "0.001", 
        "fix_gamma": "False", 
        "use_global_stats": "True"
      }, 
      "inputs": [[52, 0, 0], [53, 0, 0], [54, 0, 0], [55, 0, 1], [56, 0, 1]]
    }, 
    {
      "op": "Activation", 
      "name": "inception_stem2_1x7_reduce_relu", 
      "attr": {"act_type": "relu"}, 
      "inputs": [[57, 0, 0]]
    }, 
    {
      "op": "null", 
      "name": "inception_stem2_1x7_weight", 
      "attr": {
        "kernel": "(1, 7)", 
        "no_bias": "True", 
        "num_filter": "64", 
        "pad": "(0, 3)", 
        "stride": "(1, 1)"
      }, 
      "inputs": []
    }, 
    {
      "op": "Convolution", 
      "name": "inception_stem2_1x7", 
      "attr": {
        "kernel": "(1, 7)", 
        "no_bias": "True", 
        "num_filter": "64", 
        "pad": "(0, 3)", 
        "stride": "(1, 1)"
      }, 
      "inputs": [[58, 0, 0], [59, 0, 0]]
    }, 
    {
      "op": "null", 
      "name": "inception_stem2_1x7_bn_gamma", 
      "attr": {
        "eps": "0.001", 
        "fix_gamma": "False", 
        "use_global_stats": "True"
      }, 
      "inputs": []
    }, 
    {
      "op": "null", 
      "name": "inception_stem2_1x7_bn_beta", 
      "attr": {
        "eps": "0.001", 
        "fix_gamma": "False", 
        "use_global_stats": "True"
      }, 
      "inputs": []
    }, 
    {
      "op": "null", 
      "name": "inception_stem2_1x7_bn_moving_mean", 
      "attr": {
        "__init__": "[\"zero\", {}]", 
        "eps": "0.001", 
        "fix_gamma": "False", 
        "use_global_stats": "True"
      }, 
      "inputs": []
    }, 
    {
      "op": "null", 
      "name": "inception_stem2_1x7_bn_moving_var", 
      "attr": {
        "__init__": "[\"one\", {}]", 
        "eps": "0.001", 
        "fix_gamma": "False", 
        "use_global_stats": "True"
      }, 
      "inputs": []
    }, 
    {
      "op": "BatchNorm", 
      "name": "inception_stem2_1x7_bn", 
      "attr": {
        "eps": "0.001", 
        "fix_gamma": "False", 
        "use_global_stats": "True"
      }, 
      "inputs": [[60, 0, 0], [61, 0, 0], [62, 0, 0], [63, 0, 1], [64, 0, 1]]
    }, 
    {
      "op": "Activation", 
      "name": "inception_stem2_1x7_relu", 
      "attr": {"act_type": "relu"}, 
      "inputs": [[65, 0, 0]]
    }, 
    {
      "op": "null", 
      "name": "inception_stem2_7x1_weight", 
      "attr": {
        "kernel": "(7, 1)", 
        "no_bias": "True", 
        "num_filter": "64", 
        "pad": "(3, 0)", 
        "stride": "(1, 1)"
      }, 
      "inputs": []
    }, 
    {
      "op": "Convolution", 
      "name": "inception_stem2_7x1", 
      "attr": {
        "kernel": "(7, 1)", 
        "no_bias": "True", 
        "num_filter": "64", 
        "pad": "(3, 0)", 
        "stride": "(1, 1)"
      }, 
      "inputs": [[66, 0, 0], [67, 0, 0]]
    }, 
    {
      "op": "null", 
      "name": "inception_stem2_7x1_bn_gamma", 
      "attr": {
        "eps": "0.001", 
        "fix_gamma": "False", 
        "use_global_stats": "True"
      }, 
      "inputs": []
    }, 
    {
      "op": "null", 
      "name": "inception_stem2_7x1_bn_beta", 
      "attr": {
        "eps": "0.001", 
        "fix_gamma": "False", 
        "use_global_stats": "True"
      }, 
      "inputs": []
    }, 
    {
      "op": "null", 
      "name": "inception_stem2_7x1_bn_moving_mean", 
      "attr": {
        "__init__": "[\"zero\", {}]", 
        "eps": "0.001", 
        "fix_gamma": "False", 
        "use_global_stats": "True"
      }, 
      "inputs": []
    }, 
    {
      "op": "null", 
      "name": "inception_stem2_7x1_bn_moving_var", 
      "attr": {
        "__init__": "[\"one\", {}]", 
        "eps": "0.001", 
        "fix_gamma": "False", 
        "use_global_stats": "True"
      }, 
      "inputs": []
    }, 
    {
      "op": "BatchNorm", 
      "name": "inception_stem2_7x1_bn", 
      "attr": {
        "eps": "0.001", 
        "fix_gamma": "False", 
        "use_global_stats": "True"
      }, 
      "inputs": [[68, 0, 0], [69, 0, 0], [70, 0, 0], [71, 0, 1], [72, 0, 1]]
    }, 
    {
      "op": "Activation", 
      "name": "inception_stem2_7x1_relu", 
      "attr": {"act_type": "relu"}, 
      "inputs": [[73, 0, 0]]
    }, 
    {
      "op": "null", 
      "name": "inception_stem2_3x3_2_weight", 
      "attr": {
        "kernel": "(3, 3)", 
        "no_bias": "True", 
        "num_filter": "96", 
        "pad": "(0, 0)", 
        "stride": "(1, 1)"
      }, 
      "inputs": []
    }, 
    {
      "op": "Convolution", 
      "name": "inception_stem2_3x3_2", 
      "attr": {
        "kernel": "(3, 3)", 
        "no_bias": "True", 
        "num_filter": "96", 
        "pad": "(0, 0)", 
        "stride": "(1, 1)"
      }, 
      "inputs": [[74, 0, 0], [75, 0, 0]]
    }, 
    {
      "op": "null", 
      "name": "inception_stem2_3x3_2_bn_gamma", 
      "attr": {
        "eps": "0.001", 
        "fix_gamma": "False", 
        "use_global_stats": "True"
      }, 
      "inputs": []
    }, 
    {
      "op": "null", 
      "name": "inception_stem2_3x3_2_bn_beta", 
      "attr": {
        "eps": "0.001", 
        "fix_gamma": "False", 
        "use_global_stats": "True"
      }, 
      "inputs": []
    }, 
    {
      "op": "null", 
      "name": "inception_stem2_3x3_2_bn_moving_mean", 
      "attr": {
        "__init__": "[\"zero\", {}]", 
        "eps": "0.001", 
        "fix_gamma": "False", 
        "use_global_stats": "True"
      }, 
      "inputs": []
    }, 
    {
      "op": "null", 
      "name": "inception_stem2_3x3_2_bn_moving_var", 
      "attr": {
        "__init__": "[\"one\", {}]", 
        "eps": "0.001", 
        "fix_gamma": "False", 
        "use_global_stats": "True"
      }, 
      "inputs": []
    }, 
    {
      "op": "BatchNorm", 
      "name": "inception_stem2_3x3_2_bn", 
      "attr": {
        "eps": "0.001", 
        "fix_gamma": "False", 
        "use_global_stats": "True"
      }, 
      "inputs": [[76, 0, 0], [77, 0, 0], [78, 0, 0], [79, 0, 1], [80, 0, 1]]
    }, 
    {
      "op": "Activation", 
      "name": "inception_stem2_3x3_2_relu", 
      "attr": {"act_type": "relu"}, 
      "inputs": [[81, 0, 0]]
    }, 
    {
      "op": "Concat", 
      "name": "inception_stem2", 
      "attr": {"num_args": "2"}, 
      "inputs": [[50, 0, 0], [82, 0, 0]]
    }, 
    {
      "op": "null", 
      "name": "inception_stem3_3x3_s2_weight", 
      "attr": {
        "kernel": "(3, 3)", 
        "no_bias": "True", 
        "num_filter": "192", 
        "pad": "(0, 0)", 
        "stride": "(2, 2)"
      }, 
      "inputs": []
    }, 
    {
      "op": "Convolution", 
      "name": "inception_stem3_3x3_s2", 
      "attr": {
        "kernel": "(3, 3)", 
        "no_bias": "True", 
        "num_filter": "192", 
        "pad": "(0, 0)", 
        "stride": "(2, 2)"
      }, 
      "inputs": [[83, 0, 0], [84, 0, 0]]
    }, 
    {
      "op": "null", 
      "name": "inception_stem3_3x3_s2_bn_gamma", 
      "attr": {
        "eps": "0.001", 
        "fix_gamma": "False", 
        "use_global_stats": "True"
      }, 
      "inputs": []
    }, 
    {
      "op": "null", 
      "name": "inception_stem3_3x3_s2_bn_beta", 
      "attr": {
        "eps": "0.001", 
        "fix_gamma": "False", 
        "use_global_stats": "True"
      }, 
      "inputs": []
    }, 
    {
      "op": "null", 
      "name": "inception_stem3_3x3_s2_bn_moving_mean", 
      "attr": {
        "__init__": "[\"zero\", {}]", 
        "eps": "0.001", 
        "fix_gamma": "False", 
        "use_global_stats": "True"
      }, 
      "inputs": []
    }, 
    {
      "op": "null", 
      "name": "inception_stem3_3x3_s2_bn_moving_var", 
      "attr": {
        "__init__": "[\"one\", {}]", 
        "eps": "0.001", 
        "fix_gamma": "False", 
        "use_global_stats": "True"
      }, 
      "inputs": []
    }, 
    {
      "op": "BatchNorm", 
      "name": "inception_stem3_3x3_s2_bn", 
      "attr": {
        "eps": "0.001", 
        "fix_gamma": "False", 
        "use_global_stats": "True"
      }, 
      "inputs": [[85, 0, 0], [86, 0, 0], [87, 0, 0], [88, 0, 1], [89, 0, 1]]
    }, 
    {
      "op": "Activation", 
      "name": "inception_stem3_3x3_s2_relu", 
      "attr": {"act_type": "relu"}, 
      "inputs": [[90, 0, 0]]
    }, 
    {
      "op": "Pooling", 
      "name": "inception_stem3_pool", 
      "attr": {
        "kernel": "(3, 3)", 
        "pad": "(0, 0)", 
        "pool_type": "max", 
        "pooling_convention": "full", 
        "stride": "(2, 2)"
      }, 
      "inputs": [[83, 0, 0]]
    }, 
    {
      "op": "Concat", 
      "name": "inception_stem3", 
      "attr": {"num_args": "2"}, 
      "inputs": [[91, 0, 0], [92, 0, 0]]
    }, 
    {
      "op": "null", 
      "name": "inception_a1_1x1_2_weight", 
      "attr": {
        "kernel": "(1, 1)", 
        "no_bias": "True", 
        "num_filter": "96", 
        "pad": "(0, 0)", 
        "stride": "(1, 1)"
      }, 
      "inputs": []
    }, 
    {
      "op": "Convolution", 
      "name": "inception_a1_1x1_2", 
      "attr": {
        "kernel": "(1, 1)", 
        "no_bias": "True", 
        "num_filter": "96", 
        "pad": "(0, 0)", 
        "stride": "(1, 1)"
      }, 
      "inputs": [[93, 0, 0], [94, 0, 0]]
    }, 
    {
      "op": "null", 
      "name": "inception_a1_1x1_2_bn_gamma", 
      "attr": {
        "eps": "0.001", 
        "fix_gamma": "False", 
        "use_global_stats": "True"
      }, 
      "inputs": []
    }, 
    {
      "op": "null", 
      "name": "inception_a1_1x1_2_bn_beta", 
      "attr": {
        "eps": "0.001", 
        "fix_gamma": "False", 
        "use_global_stats": "True"
      }, 
      "inputs": []
    }, 
    {
      "op": "null", 
      "name": "inception_a1_1x1_2_bn_moving_mean", 
      "attr": {
        "__init__": "[\"zero\", {}]", 
        "eps": "0.001", 
        "fix_gamma": "False", 
        "use_global_stats": "True"
      }, 
      "inputs": []
    }, 
    {
      "op": "null", 
      "name": "inception_a1_1x1_2_bn_moving_var", 
      "attr": {
        "__init__": "[\"one\", {}]", 
        "eps": "0.001", 
        "fix_gamma": "False", 
        "use_global_stats": "True"
      }, 
      "inputs": []
    }, 
    {
      "op": "BatchNorm", 
      "name": "inception_a1_1x1_2_bn", 
      "attr": {
        "eps": "0.001", 
        "fix_gamma": "False", 
        "use_global_stats": "True"
      }, 
      "inputs": [[95, 0, 0], [96, 0, 0], [97, 0, 0], [98, 0, 1], [99, 0, 1]]
    }, 
    {
      "op": "Activation", 
      "name": "inception_a1_1x1_2_relu", 
      "attr": {"act_type": "relu"}, 
      "inputs": [[100, 0, 0]]
    }, 
    {
      "op": "null", 
      "name": "inception_a1_3x3_reduce_weight", 
      "attr": {
        "kernel": "(1, 1)", 
        "no_bias": "True", 
        "num_filter": "64", 
        "pad": "(0, 0)", 
        "stride": "(1, 1)"
      }, 
      "inputs": []
    }, 
    {
      "op": "Convolution", 
      "name": "inception_a1_3x3_reduce", 
      "attr": {
        "kernel": "(1, 1)", 
        "no_bias": "True", 
        "num_filter": "64", 
        "pad": "(0, 0)", 
        "stride": "(1, 1)"
      }, 
      "inputs": [[93, 0, 0], [102, 0, 0]]
    }, 
    {
      "op": "null", 
      "name": "inception_a1_3x3_reduce_bn_gamma", 
      "attr": {
        "eps": "0.001", 
        "fix_gamma": "False", 
        "use_global_stats": "True"
      }, 
      "inputs": []
    }, 
    {
      "op": "null", 
      "name": "inception_a1_3x3_reduce_bn_beta", 
      "attr": {
        "eps": "0.001", 
        "fix_gamma": "False", 
        "use_global_stats": "True"
      }, 
      "inputs": []
    }, 
    {
      "op": "null", 
      "name": "inception_a1_3x3_reduce_bn_moving_mean", 
      "attr": {
        "__init__": "[\"zero\", {}]", 
        "eps": "0.001", 
        "fix_gamma": "False", 
        "use_global_stats": "True"
      }, 
      "inputs": []
    }, 
    {
      "op": "null", 
      "name": "inception_a1_3x3_reduce_bn_moving_var", 
      "attr": {
        "__init__": "[\"one\", {}]", 
        "eps": "0.001", 
        "fix_gamma": "False", 
        "use_global_stats": "True"
      }, 
      "inputs": []
    }, 
    {
      "op": "BatchNorm", 
      "name": "inception_a1_3x3_reduce_bn", 
      "attr": {
        "eps": "0.001", 
        "fix_gamma": "False", 
        "use_global_stats": "True"
      }, 
      "inputs": [[103, 0, 0], [104, 0, 0], [105, 0, 0], [106, 0, 1], [107, 0, 1]]
    }, 
    {
      "op": "Activation", 
      "name": "inception_a1_3x3_reduce_relu", 
      "attr": {"act_type": "relu"}, 
      "inputs": [[108, 0, 0]]
    }, 
    {
      "op": "null", 
      "name": "inception_a1_3x3_weight", 
      "attr": {
        "kernel": "(3, 3)", 
        "no_bias": "True", 
        "num_filter": "96", 
        "pad": "(1, 1)", 
        "stride": "(1, 1)"
      }, 
      "inputs": []
    }, 
    {
      "op": "Convolution", 
      "name": "inception_a1_3x3", 
      "attr": {
        "kernel": "(3, 3)", 
        "no_bias": "True", 
        "num_filter": "96", 
        "pad": "(1, 1)", 
        "stride": "(1, 1)"
      }, 
      "inputs": [[109, 0, 0], [110, 0, 0]]
    }, 
    {
      "op": "null", 
      "name": "inception_a1_3x3_bn_gamma", 
      "attr": {
        "eps": "0.001", 
        "fix_gamma": "False", 
        "use_global_stats": "True"
      }, 
      "inputs": []
    }, 
    {
      "op": "null", 
      "name": "inception_a1_3x3_bn_beta", 
      "attr": {
        "eps": "0.001", 
        "fix_gamma": "False", 
        "use_global_stats": "True"
      }, 
      "inputs": []
    }, 
    {
      "op": "null", 
      "name": "inception_a1_3x3_bn_moving_mean", 
      "attr": {
        "__init__": "[\"zero\", {}]", 
        "eps": "0.001", 
        "fix_gamma": "False", 
        "use_global_stats": "True"
      }, 
      "inputs": []
    }, 
    {
      "op": "null", 
      "name": "inception_a1_3x3_bn_moving_var", 
      "attr": {
        "__init__": "[\"one\", {}]", 
        "eps": "0.001", 
        "fix_gamma": "False", 
        "use_global_stats": "True"
      }, 
      "inputs": []
    }, 
    {
      "op": "BatchNorm", 
      "name": "inception_a1_3x3_bn", 
      "attr": {
        "eps": "0.001", 
        "fix_gamma": "False", 
        "use_global_stats": "True"
      }, 
      "inputs": [[111, 0, 0], [112, 0, 0], [113, 0, 0], [114, 0, 1], [115, 0, 1]]
    }, 
    {
      "op": "Activation", 
      "name": "inception_a1_3x3_relu", 
      "attr": {"act_type": "relu"}, 
      "inputs": [[116, 0, 0]]
    }, 
    {
      "op": "null", 
      "name": "inception_a1_3x3_2_reduce_weight", 
      "attr": {
        "kernel": "(1, 1)", 
        "no_bias": "True", 
        "num_filter": "64", 
        "pad": "(0, 0)", 
        "stride": "(1, 1)"
      }, 
      "inputs": []
    }, 
    {
      "op": "Convolution", 
      "name": "inception_a1_3x3_2_reduce", 
      "attr": {
        "kernel": "(1, 1)", 
        "no_bias": "True", 
        "num_filter": "64", 
        "pad": "(0, 0)", 
        "stride": "(1, 1)"
      }, 
      "inputs": [[93, 0, 0], [118, 0, 0]]
    }, 
    {
      "op": "null", 
      "name": "inception_a1_3x3_2_reduce_bn_gamma", 
      "attr": {
        "eps": "0.001", 
        "fix_gamma": "False", 
        "use_global_stats": "True"
      }, 
      "inputs": []
    }, 
    {
      "op": "null", 
      "name": "inception_a1_3x3_2_reduce_bn_beta", 
      "attr": {
        "eps": "0.001", 
        "fix_gamma": "False", 
        "use_global_stats": "True"
      }, 
      "inputs": []
    }, 
    {
      "op": "null", 
      "name": "inception_a1_3x3_2_reduce_bn_moving_mean", 
      "attr": {
        "__init__": "[\"zero\", {}]", 
        "eps": "0.001", 
        "fix_gamma": "False", 
        "use_global_stats": "True"
      }, 
      "inputs": []
    }, 
    {
      "op": "null", 
      "name": "inception_a1_3x3_2_reduce_bn_moving_var", 
      "attr": {
        "__init__": "[\"one\", {}]", 
        "eps": "0.001", 
        "fix_gamma": "False", 
        "use_global_stats": "True"
      }, 
      "inputs": []
    }, 
    {
      "op": "BatchNorm", 
      "name": "inception_a1_3x3_2_reduce_bn", 
      "attr": {
        "eps": "0.001", 
        "fix_gamma": "False", 
        "use_global_stats": "True"
      }, 
      "inputs": [[119, 0, 0], [120, 0, 0], [121, 0, 0], [122, 0, 1], [123, 0, 1]]
    }, 
    {
      "op": "Activation", 
      "name": "inception_a1_3x3_2_reduce_relu", 
      "attr": {"act_type": "relu"}, 
      "inputs": [[124, 0, 0]]
    }, 
    {
      "op": "null", 
      "name": "inception_a1_3x3_2_weight", 
      "attr": {
        "kernel": "(3, 3)", 
        "no_bias": "True", 
        "num_filter": "96", 
        "pad": "(1, 1)", 
        "stride": "(1, 1)"
      }, 
      "inputs": []
    }, 
    {
      "op": "Convolution", 
      "name": "inception_a1_3x3_2", 
      "attr": {
        "kernel": "(3, 3)", 
        "no_bias": "True", 
        "num_filter": "96", 
        "pad": "(1, 1)", 
        "stride": "(1, 1)"
      }, 
      "inputs": [[125, 0, 0], [126, 0, 0]]
    }, 
    {
      "op": "null", 
      "name": "inception_a1_3x3_2_bn_gamma", 
      "attr": {
        "eps": "0.001", 
        "fix_gamma": "False", 
        "use_global_stats": "True"
      }, 
      "inputs": []
    }, 
    {
      "op": "null", 
      "name": "inception_a1_3x3_2_bn_beta", 
      "attr": {
        "eps": "0.001", 
        "fix_gamma": "False", 
        "use_global_stats": "True"
      }, 
      "inputs": []
    }, 
    {
      "op": "null", 
      "name": "inception_a1_3x3_2_bn_moving_mean", 
      "attr": {
        "__init__": "[\"zero\", {}]", 
        "eps": "0.001", 
        "fix_gamma": "False", 
        "use_global_stats": "True"
      }, 
      "inputs": []
    }, 
    {
      "op": "null", 
      "name": "inception_a1_3x3_2_bn_moving_var", 
      "attr": {
        "__init__": "[\"one\", {}]", 
        "eps": "0.001", 
        "fix_gamma": "False", 
        "use_global_stats": "True"
      }, 
      "inputs": []
    }, 
    {
      "op": "BatchNorm", 
      "name": "inception_a1_3x3_2_bn", 
      "attr": {
        "eps": "0.001", 
        "fix_gamma": "False", 
        "use_global_stats": "True"
      }, 
      "inputs": [[127, 0, 0], [128, 0, 0], [129, 0, 0], [130, 0, 1], [131, 0, 1]]
    }, 
    {
      "op": "Activation", 
      "name": "inception_a1_3x3_2_relu", 
      "attr": {"act_type": "relu"}, 
      "inputs": [[132, 0, 0]]
    }, 
    {
      "op": "null", 
      "name": "inception_a1_3x3_3_weight", 
      "attr": {
        "kernel": "(3, 3)", 
        "no_bias": "True", 
        "num_filter": "96", 
        "pad": "(1, 1)", 
        "stride": "(1, 1)"
      }, 
      "inputs": []
    }, 
    {
      "op": "Convolution", 
      "name": "inception_a1_3x3_3", 
      "attr": {
        "kernel": "(3, 3)", 
        "no_bias": "True", 
        "num_filter": "96", 
        "pad": "(1, 1)", 
        "stride": "(1, 1)"
      }, 
      "inputs": [[133, 0, 0], [134, 0, 0]]
    }, 
    {
      "op": "null", 
      "name": "inception_a1_3x3_3_bn_gamma", 
      "attr": {
        "eps": "0.001", 
        "fix_gamma": "False", 
        "use_global_stats": "True"
      }, 
      "inputs": []
    }, 
    {
      "op": "null", 
      "name": "inception_a1_3x3_3_bn_beta", 
      "attr": {
        "eps": "0.001", 
        "fix_gamma": "False", 
        "use_global_stats": "True"
      }, 
      "inputs": []
    }, 
    {
      "op": "null", 
      "name": "inception_a1_3x3_3_bn_moving_mean", 
      "attr": {
        "__init__": "[\"zero\", {}]", 
        "eps": "0.001", 
        "fix_gamma": "False", 
        "use_global_stats": "True"
      }, 
      "inputs": []
    }, 
    {
      "op": "null", 
      "name": "inception_a1_3x3_3_bn_moving_var", 
      "attr": {
        "__init__": "[\"one\", {}]", 
        "eps": "0.001", 
        "fix_gamma": "False", 
        "use_global_stats": "True"
      }, 
      "inputs": []
    }, 
    {
      "op": "BatchNorm", 
      "name": "inception_a1_3x3_3_bn", 
      "attr": {
        "eps": "0.001", 
        "fix_gamma": "False", 
        "use_global_stats": "True"
      }, 
      "inputs": [[135, 0, 0], [136, 0, 0], [137, 0, 0], [138, 0, 1], [139, 0, 1]]
    }, 
    {
      "op": "Activation", 
      "name": "inception_a1_3x3_3_relu", 
      "attr": {"act_type": "relu"}, 
      "inputs": [[140, 0, 0]]
    }, 
    {
      "op": "Pooling", 
      "name": "inception_a1_pool_ave", 
      "attr": {
        "kernel": "(3, 3)", 
        "pad": "(1, 1)", 
        "pool_type": "avg", 
        "pooling_convention": "full", 
        "stride": "(1, 1)"
      }, 
      "inputs": [[93, 0, 0]]
    }, 
    {
      "op": "null", 
      "name": "inception_a1_1x1_weight", 
      "attr": {
        "kernel": "(1, 1)", 
        "no_bias": "True", 
        "num_filter": "96", 
        "pad": "(0, 0)", 
        "stride": "(1, 1)"
      }, 
      "inputs": []
    }, 
    {
      "op": "Convolution", 
      "name": "inception_a1_1x1", 
      "attr": {
        "kernel": "(1, 1)", 
        "no_bias": "True", 
        "num_filter": "96", 
        "pad": "(0, 0)", 
        "stride": "(1, 1)"
      }, 
      "inputs": [[142, 0, 0], [143, 0, 0]]
    }, 
    {
      "op": "null", 
      "name": "inception_a1_1x1_bn_gamma", 
      "attr": {
        "eps": "0.001", 
        "fix_gamma": "False", 
        "use_global_stats": "True"
      }, 
      "inputs": []
    }, 
    {
      "op": "null", 
      "name": "inception_a1_1x1_bn_beta", 
      "attr": {
        "eps": "0.001", 
        "fix_gamma": "False", 
        "use_global_stats": "True"
      }, 
      "inputs": []
    }, 
    {
      "op": "null", 
      "name": "inception_a1_1x1_bn_moving_mean", 
      "attr": {
        "__init__": "[\"zero\", {}]", 
        "eps": "0.001", 
        "fix_gamma": "False", 
        "use_global_stats": "True"
      }, 
      "inputs": []
    }, 
    {
      "op": "null", 
      "name": "inception_a1_1x1_bn_moving_var", 
      "attr": {
        "__init__": "[\"one\", {}]", 
        "eps": "0.001", 
        "fix_gamma": "False", 
        "use_global_stats": "True"
      }, 
      "inputs": []
    }, 
    {
      "op": "BatchNorm", 
      "name": "inception_a1_1x1_bn", 
      "attr": {
        "eps": "0.001", 
        "fix_gamma": "False", 
        "use_global_stats": "True"
      }, 
      "inputs": [[144, 0, 0], [145, 0, 0], [146, 0, 0], [147, 0, 1], [148, 0, 1]]
    }, 
    {
      "op": "Activation", 
      "name": "inception_a1_1x1_relu", 
      "attr": {"act_type": "relu"}, 
      "inputs": [[149, 0, 0]]
    }, 
    {
      "op": "Concat", 
      "name": "inception_a1_concat", 
      "attr": {"num_args": "4"}, 
      "inputs": [[101, 0, 0], [117, 0, 0], [141, 0, 0], [150, 0, 0]]
    }, 
    {
      "op": "null", 
      "name": "inception_a2_1x1_2_weight", 
      "attr": {
        "kernel": "(1, 1)", 
        "no_bias": "True", 
        "num_filter": "96", 
        "pad": "(0, 0)", 
        "stride": "(1, 1)"
      }, 
      "inputs": []
    }, 
    {
      "op": "Convolution", 
      "name": "inception_a2_1x1_2", 
      "attr": {
        "kernel": "(1, 1)", 
        "no_bias": "True", 
        "num_filter": "96", 
        "pad": "(0, 0)", 
        "stride": "(1, 1)"
      }, 
      "inputs": [[151, 0, 0], [152, 0, 0]]
    }, 
    {
      "op": "null", 
      "name": "inception_a2_1x1_2_bn_gamma", 
      "attr": {
        "eps": "0.001", 
        "fix_gamma": "False", 
        "use_global_stats": "True"
      }, 
      "inputs": []
    }, 
    {
      "op": "null", 
      "name": "inception_a2_1x1_2_bn_beta", 
      "attr": {
        "eps": "0.001", 
        "fix_gamma": "False", 
        "use_global_stats": "True"
      }, 
      "inputs": []
    }, 
    {
      "op": "null", 
      "name": "inception_a2_1x1_2_bn_moving_mean", 
      "attr": {
        "__init__": "[\"zero\", {}]", 
        "eps": "0.001", 
        "fix_gamma": "False", 
        "use_global_stats": "True"
      }, 
      "inputs": []
    }, 
    {
      "op": "null", 
      "name": "inception_a2_1x1_2_bn_moving_var", 
      "attr": {
        "__init__": "[\"one\", {}]", 
        "eps": "0.001", 
        "fix_gamma": "False", 
        "use_global_stats": "True"
      }, 
      "inputs": []
    }, 
    {
      "op": "BatchNorm", 
      "name": "inception_a2_1x1_2_bn", 
      "attr": {
        "eps": "0.001", 
        "fix_gamma": "False", 
        "use_global_stats": "True"
      }, 
      "inputs": [[153, 0, 0], [154, 0, 0], [155, 0, 0], [156, 0, 1], [157, 0, 1]]
    }, 
    {
      "op": "Activation", 
      "name": "inception_a2_1x1_2_relu", 
      "attr": {"act_type": "relu"}, 
      "inputs": [[158, 0, 0]]
    }, 
    {
      "op": "null", 
      "name": "inception_a2_3x3_reduce_weight", 
      "attr": {
        "kernel": "(1, 1)", 
        "no_bias": "True", 
        "num_filter": "64", 
        "pad": "(0, 0)", 
        "stride": "(1, 1)"
      }, 
      "inputs": []
    }, 
    {
      "op": "Convolution", 
      "name": "inception_a2_3x3_reduce", 
      "attr": {
        "kernel": "(1, 1)", 
        "no_bias": "True", 
        "num_filter": "64", 
        "pad": "(0, 0)", 
        "stride": "(1, 1)"
      }, 
      "inputs": [[151, 0, 0], [160, 0, 0]]
    }, 
    {
      "op": "null", 
      "name": "inception_a2_3x3_reduce_bn_gamma", 
      "attr": {
        "eps": "0.001", 
        "fix_gamma": "False", 
        "use_global_stats": "True"
      }, 
      "inputs": []
    }, 
    {
      "op": "null", 
      "name": "inception_a2_3x3_reduce_bn_beta", 
      "attr": {
        "eps": "0.001", 
        "fix_gamma": "False", 
        "use_global_stats": "True"
      }, 
      "inputs": []
    }, 
    {
      "op": "null", 
      "name": "inception_a2_3x3_reduce_bn_moving_mean", 
      "attr": {
        "__init__": "[\"zero\", {}]", 
        "eps": "0.001", 
        "fix_gamma": "False", 
        "use_global_stats": "True"
      }, 
      "inputs": []
    }, 
    {
      "op": "null", 
      "name": "inception_a2_3x3_reduce_bn_moving_var", 
      "attr": {
        "__init__": "[\"one\", {}]", 
        "eps": "0.001", 
        "fix_gamma": "False", 
        "use_global_stats": "True"
      }, 
      "inputs": []
    }, 
    {
      "op": "BatchNorm", 
      "name": "inception_a2_3x3_reduce_bn", 
      "attr": {
        "eps": "0.001", 
        "fix_gamma": "False", 
        "use_global_stats": "True"
      }, 
      "inputs": [[161, 0, 0], [162, 0, 0], [163, 0, 0], [164, 0, 1], [165, 0, 1]]
    }, 
    {
      "op": "Activation", 
      "name": "inception_a2_3x3_reduce_relu", 
      "attr": {"act_type": "relu"}, 
      "inputs": [[166, 0, 0]]
    }, 
    {
      "op": "null", 
      "name": "inception_a2_3x3_weight", 
      "attr": {
        "kernel": "(3, 3)", 
        "no_bias": "True", 
        "num_filter": "96", 
        "pad": "(1, 1)", 
        "stride": "(1, 1)"
      }, 
      "inputs": []
    }, 
    {
      "op": "Convolution", 
      "name": "inception_a2_3x3", 
      "attr": {
        "kernel": "(3, 3)", 
        "no_bias": "True", 
        "num_filter": "96", 
        "pad": "(1, 1)", 
        "stride": "(1, 1)"
      }, 
      "inputs": [[167, 0, 0], [168, 0, 0]]
    }, 
    {
      "op": "null", 
      "name": "inception_a2_3x3_bn_gamma", 
      "attr": {
        "eps": "0.001", 
        "fix_gamma": "False", 
        "use_global_stats": "True"
      }, 
      "inputs": []
    }, 
    {
      "op": "null", 
      "name": "inception_a2_3x3_bn_beta", 
      "attr": {
        "eps": "0.001", 
        "fix_gamma": "False", 
        "use_global_stats": "True"
      }, 
      "inputs": []
    }, 
    {
      "op": "null", 
      "name": "inception_a2_3x3_bn_moving_mean", 
      "attr": {
        "__init__": "[\"zero\", {}]", 
        "eps": "0.001", 
        "fix_gamma": "False", 
        "use_global_stats": "True"
      }, 
      "inputs": []
    }, 
    {
      "op": "null", 
      "name": "inception_a2_3x3_bn_moving_var", 
      "attr": {
        "__init__": "[\"one\", {}]", 
        "eps": "0.001", 
        "fix_gamma": "False", 
        "use_global_stats": "True"
      }, 
      "inputs": []
    }, 
    {
      "op": "BatchNorm", 
      "name": "inception_a2_3x3_bn", 
      "attr": {
        "eps": "0.001", 
        "fix_gamma": "False", 
        "use_global_stats": "True"
      }, 
      "inputs": [[169, 0, 0], [170, 0, 0], [171, 0, 0], [172, 0, 1], [173, 0, 1]]
    }, 
    {
      "op": "Activation", 
      "name": "inception_a2_3x3_relu", 
      "attr": {"act_type": "relu"}, 
      "inputs": [[174, 0, 0]]
    }, 
    {
      "op": "null", 
      "name": "inception_a2_3x3_2_reduce_weight", 
      "attr": {
        "kernel": "(1, 1)", 
        "no_bias": "True", 
        "num_filter": "64", 
        "pad": "(0, 0)", 
        "stride": "(1, 1)"
      }, 
      "inputs": []
    }, 
    {
      "op": "Convolution", 
      "name": "inception_a2_3x3_2_reduce", 
      "attr": {
        "kernel": "(1, 1)", 
        "no_bias": "True", 
        "num_filter": "64", 
        "pad": "(0, 0)", 
        "stride": "(1, 1)"
      }, 
      "inputs": [[151, 0, 0], [176, 0, 0]]
    }, 
    {
      "op": "null", 
      "name": "inception_a2_3x3_2_reduce_bn_gamma", 
      "attr": {
        "eps": "0.001", 
        "fix_gamma": "False", 
        "use_global_stats": "True"
      }, 
      "inputs": []
    }, 
    {
      "op": "null", 
      "name": "inception_a2_3x3_2_reduce_bn_beta", 
      "attr": {
        "eps": "0.001", 
        "fix_gamma": "False", 
        "use_global_stats": "True"
      }, 
      "inputs": []
    }, 
    {
      "op": "null", 
      "name": "inception_a2_3x3_2_reduce_bn_moving_mean", 
      "attr": {
        "__init__": "[\"zero\", {}]", 
        "eps": "0.001", 
        "fix_gamma": "False", 
        "use_global_stats": "True"
      }, 
      "inputs": []
    }, 
    {
      "op": "null", 
      "name": "inception_a2_3x3_2_reduce_bn_moving_var", 
      "attr": {
        "__init__": "[\"one\", {}]", 
        "eps": "0.001", 
        "fix_gamma": "False", 
        "use_global_stats": "True"
      }, 
      "inputs": []
    }, 
    {
      "op": "BatchNorm", 
      "name": "inception_a2_3x3_2_reduce_bn", 
      "attr": {
        "eps": "0.001", 
        "fix_gamma": "False", 
        "use_global_stats": "True"
      }, 
      "inputs": [[177, 0, 0], [178, 0, 0], [179, 0, 0], [180, 0, 1], [181, 0, 1]]
    }, 
    {
      "op": "Activation", 
      "name": "inception_a2_3x3_2_reduce_relu", 
      "attr": {"act_type": "relu"}, 
      "inputs": [[182, 0, 0]]
    }, 
    {
      "op": "null", 
      "name": "inception_a2_3x3_2_weight", 
      "attr": {
        "kernel": "(3, 3)", 
        "no_bias": "True", 
        "num_filter": "96", 
        "pad": "(1, 1)", 
        "stride": "(1, 1)"
      }, 
      "inputs": []
    }, 
    {
      "op": "Convolution", 
      "name": "inception_a2_3x3_2", 
      "attr": {
        "kernel": "(3, 3)", 
        "no_bias": "True", 
        "num_filter": "96", 
        "pad": "(1, 1)", 
        "stride": "(1, 1)"
      }, 
      "inputs": [[183, 0, 0], [184, 0, 0]]
    }, 
    {
      "op": "null", 
      "name": "inception_a2_3x3_2_bn_gamma", 
      "attr": {
        "eps": "0.001", 
        "fix_gamma": "False", 
        "use_global_stats": "True"
      }, 
      "inputs": []
    }, 
    {
      "op": "null", 
      "name": "inception_a2_3x3_2_bn_beta", 
      "attr": {
        "eps": "0.001", 
        "fix_gamma": "False", 
        "use_global_stats": "True"
      }, 
      "inputs": []
    }, 
    {
      "op": "null", 
      "name": "inception_a2_3x3_2_bn_moving_mean", 
      "attr": {
        "__init__": "[\"zero\", {}]", 
        "eps": "0.001", 
        "fix_gamma": "False", 
        "use_global_stats": "True"
      }, 
      "inputs": []
    }, 
    {
      "op": "null", 
      "name": "inception_a2_3x3_2_bn_moving_var", 
      "attr": {
        "__init__": "[\"one\", {}]", 
        "eps": "0.001", 
        "fix_gamma": "False", 
        "use_global_stats": "True"
      }, 
      "inputs": []
    }, 
    {
      "op": "BatchNorm", 
      "name": "inception_a2_3x3_2_bn", 
      "attr": {
        "eps": "0.001", 
        "fix_gamma": "False", 
        "use_global_stats": "True"
      }, 
      "inputs": [[185, 0, 0], [186, 0, 0], [187, 0, 0], [188, 0, 1], [189, 0, 1]]
    }, 
    {
      "op": "Activation", 
      "name": "inception_a2_3x3_2_relu", 
      "attr": {"act_type": "relu"}, 
      "inputs": [[190, 0, 0]]
    }, 
    {
      "op": "null", 
      "name": "inception_a2_3x3_3_weight", 
      "attr": {
        "kernel": "(3, 3)", 
        "no_bias": "True", 
        "num_filter": "96", 
        "pad": "(1, 1)", 
        "stride": "(1, 1)"
      }, 
      "inputs": []
    }, 
    {
      "op": "Convolution", 
      "name": "inception_a2_3x3_3", 
      "attr": {
        "kernel": "(3, 3)", 
        "no_bias": "True", 
        "num_filter": "96", 
        "pad": "(1, 1)", 
        "stride": "(1, 1)"
      }, 
      "inputs": [[191, 0, 0], [192, 0, 0]]
    }, 
    {
      "op": "null", 
      "name": "inception_a2_3x3_3_bn_gamma", 
      "attr": {
        "eps": "0.001", 
        "fix_gamma": "False", 
        "use_global_stats": "True"
      }, 
      "inputs": []
    }, 
    {
      "op": "null", 
      "name": "inception_a2_3x3_3_bn_beta", 
      "attr": {
        "eps": "0.001", 
        "fix_gamma": "False", 
        "use_global_stats": "True"
      }, 
      "inputs": []
    }, 
    {
      "op": "null", 
      "name": "inception_a2_3x3_3_bn_moving_mean", 
      "attr": {
        "__init__": "[\"zero\", {}]", 
        "eps": "0.001", 
        "fix_gamma": "False", 
        "use_global_stats": "True"
      }, 
      "inputs": []
    }, 
    {
      "op": "null", 
      "name": "inception_a2_3x3_3_bn_moving_var", 
      "attr": {
        "__init__": "[\"one\", {}]", 
        "eps": "0.001", 
        "fix_gamma": "False", 
        "use_global_stats": "True"
      }, 
      "inputs": []
    }, 
    {
      "op": "BatchNorm", 
      "name": "inception_a2_3x3_3_bn", 
      "attr": {
        "eps": "0.001", 
        "fix_gamma": "False", 
        "use_global_stats": "True"
      }, 
      "inputs": [[193, 0, 0], [194, 0, 0], [195, 0, 0], [196, 0, 1], [197, 0, 1]]
    }, 
    {
      "op": "Activation", 
      "name": "inception_a2_3x3_3_relu", 
      "attr": {"act_type": "relu"}, 
      "inputs": [[198, 0, 0]]
    }, 
    {
      "op": "Pooling", 
      "name": "inception_a2_pool_ave", 
      "attr": {
        "kernel": "(3, 3)", 
        "pad": "(1, 1)", 
        "pool_type": "avg", 
        "pooling_convention": "full", 
        "stride": "(1, 1)"
      }, 
      "inputs": [[151, 0, 0]]
    }, 
    {
      "op": "null", 
      "name": "inception_a2_1x1_weight", 
      "attr": {
        "kernel": "(1, 1)", 
        "no_bias": "True", 
        "num_filter": "96", 
        "pad": "(0, 0)", 
        "stride": "(1, 1)"
      }, 
      "inputs": []
    }, 
    {
      "op": "Convolution", 
      "name": "inception_a2_1x1", 
      "attr": {
        "kernel": "(1, 1)", 
        "no_bias": "True", 
        "num_filter": "96", 
        "pad": "(0, 0)", 
        "stride": "(1, 1)"
      }, 
      "inputs": [[200, 0, 0], [201, 0, 0]]
    }, 
    {
      "op": "null", 
      "name": "inception_a2_1x1_bn_gamma", 
      "attr": {
        "eps": "0.001", 
        "fix_gamma": "False", 
        "use_global_stats": "True"
      }, 
      "inputs": []
    }, 
    {
      "op": "null", 
      "name": "inception_a2_1x1_bn_beta", 
      "attr": {
        "eps": "0.001", 
        "fix_gamma": "False", 
        "use_global_stats": "True"
      }, 
      "inputs": []
    }, 
    {
      "op": "null", 
      "name": "inception_a2_1x1_bn_moving_mean", 
      "attr": {
        "__init__": "[\"zero\", {}]", 
        "eps": "0.001", 
        "fix_gamma": "False", 
        "use_global_stats": "True"
      }, 
      "inputs": []
    }, 
    {
      "op": "null", 
      "name": "inception_a2_1x1_bn_moving_var", 
      "attr": {
        "__init__": "[\"one\", {}]", 
        "eps": "0.001", 
        "fix_gamma": "False", 
        "use_global_stats": "True"
      }, 
      "inputs": []
    }, 
    {
      "op": "BatchNorm", 
      "name": "inception_a2_1x1_bn", 
      "attr": {
        "eps": "0.001", 
        "fix_gamma": "False", 
        "use_global_stats": "True"
      }, 
      "inputs": [[202, 0, 0], [203, 0, 0], [204, 0, 0], [205, 0, 1], [206, 0, 1]]
    }, 
    {
      "op": "Activation", 
      "name": "inception_a2_1x1_relu", 
      "attr": {"act_type": "relu"}, 
      "inputs": [[207, 0, 0]]
    }, 
    {
      "op": "Concat", 
      "name": "inception_a2_concat", 
      "attr": {"num_args": "4"}, 
      "inputs": [[159, 0, 0], [175, 0, 0], [199, 0, 0], [208, 0, 0]]
    }, 
    {
      "op": "null", 
      "name": "inception_a3_1x1_2_weight", 
      "attr": {
        "kernel": "(1, 1)", 
        "no_bias": "True", 
        "num_filter": "96", 
        "pad": "(0, 0)", 
        "stride": "(1, 1)"
      }, 
      "inputs": []
    }, 
    {
      "op": "Convolution", 
      "name": "inception_a3_1x1_2", 
      "attr": {
        "kernel": "(1, 1)", 
        "no_bias": "True", 
        "num_filter": "96", 
        "pad": "(0, 0)", 
        "stride": "(1, 1)"
      }, 
      "inputs": [[209, 0, 0], [210, 0, 0]]
    }, 
    {
      "op": "null", 
      "name": "inception_a3_1x1_2_bn_gamma", 
      "attr": {
        "eps": "0.001", 
        "fix_gamma": "False", 
        "use_global_stats": "True"
      }, 
      "inputs": []
    }, 
    {
      "op": "null", 
      "name": "inception_a3_1x1_2_bn_beta", 
      "attr": {
        "eps": "0.001", 
        "fix_gamma": "False", 
        "use_global_stats": "True"
      }, 
      "inputs": []
    }, 
    {
      "op": "null", 
      "name": "inception_a3_1x1_2_bn_moving_mean", 
      "attr": {
        "__init__": "[\"zero\", {}]", 
        "eps": "0.001", 
        "fix_gamma": "False", 
        "use_global_stats": "True"
      }, 
      "inputs": []
    }, 
    {
      "op": "null", 
      "name": "inception_a3_1x1_2_bn_moving_var", 
      "attr": {
        "__init__": "[\"one\", {}]", 
        "eps": "0.001", 
        "fix_gamma": "False", 
        "use_global_stats": "True"
      }, 
      "inputs": []
    }, 
    {
      "op": "BatchNorm", 
      "name": "inception_a3_1x1_2_bn", 
      "attr": {
        "eps": "0.001", 
        "fix_gamma": "False", 
        "use_global_stats": "True"
      }, 
      "inputs": [[211, 0, 0], [212, 0, 0], [213, 0, 0], [214, 0, 1], [215, 0, 1]]
    }, 
    {
      "op": "Activation", 
      "name": "inception_a3_1x1_2_relu", 
      "attr": {"act_type": "relu"}, 
      "inputs": [[216, 0, 0]]
    }, 
    {
      "op": "null", 
      "name": "inception_a3_3x3_reduce_weight", 
      "attr": {
        "kernel": "(1, 1)", 
        "no_bias": "True", 
        "num_filter": "64", 
        "pad": "(0, 0)", 
        "stride": "(1, 1)"
      }, 
      "inputs": []
    }, 
    {
      "op": "Convolution", 
      "name": "inception_a3_3x3_reduce", 
      "attr": {
        "kernel": "(1, 1)", 
        "no_bias": "True", 
        "num_filter": "64", 
        "pad": "(0, 0)", 
        "stride": "(1, 1)"
      }, 
      "inputs": [[209, 0, 0], [218, 0, 0]]
    }, 
    {
      "op": "null", 
      "name": "inception_a3_3x3_reduce_bn_gamma", 
      "attr": {
        "eps": "0.001", 
        "fix_gamma": "False", 
        "use_global_stats": "True"
      }, 
      "inputs": []
    }, 
    {
      "op": "null", 
      "name": "inception_a3_3x3_reduce_bn_beta", 
      "attr": {
        "eps": "0.001", 
        "fix_gamma": "False", 
        "use_global_stats": "True"
      }, 
      "inputs": []
    }, 
    {
      "op": "null", 
      "name": "inception_a3_3x3_reduce_bn_moving_mean", 
      "attr": {
        "__init__": "[\"zero\", {}]", 
        "eps": "0.001", 
        "fix_gamma": "False", 
        "use_global_stats": "True"
      }, 
      "inputs": []
    }, 
    {
      "op": "null", 
      "name": "inception_a3_3x3_reduce_bn_moving_var", 
      "attr": {
        "__init__": "[\"one\", {}]", 
        "eps": "0.001", 
        "fix_gamma": "False", 
        "use_global_stats": "True"
      }, 
      "inputs": []
    }, 
    {
      "op": "BatchNorm", 
      "name": "inception_a3_3x3_reduce_bn", 
      "attr": {
        "eps": "0.001", 
        "fix_gamma": "False", 
        "use_global_stats": "True"
      }, 
      "inputs": [[219, 0, 0], [220, 0, 0], [221, 0, 0], [222, 0, 1], [223, 0, 1]]
    }, 
    {
      "op": "Activation", 
      "name": "inception_a3_3x3_reduce_relu", 
      "attr": {"act_type": "relu"}, 
      "inputs": [[224, 0, 0]]
    }, 
    {
      "op": "null", 
      "name": "inception_a3_3x3_weight", 
      "attr": {
        "kernel": "(3, 3)", 
        "no_bias": "True", 
        "num_filter": "96", 
        "pad": "(1, 1)", 
        "stride": "(1, 1)"
      }, 
      "inputs": []
    }, 
    {
      "op": "Convolution", 
      "name": "inception_a3_3x3", 
      "attr": {
        "kernel": "(3, 3)", 
        "no_bias": "True", 
        "num_filter": "96", 
        "pad": "(1, 1)", 
        "stride": "(1, 1)"
      }, 
      "inputs": [[225, 0, 0], [226, 0, 0]]
    }, 
    {
      "op": "null", 
      "name": "inception_a3_3x3_bn_gamma", 
      "attr": {
        "eps": "0.001", 
        "fix_gamma": "False", 
        "use_global_stats": "True"
      }, 
      "inputs": []
    }, 
    {
      "op": "null", 
      "name": "inception_a3_3x3_bn_beta", 
      "attr": {
        "eps": "0.001", 
        "fix_gamma": "False", 
        "use_global_stats": "True"
      }, 
      "inputs": []
    }, 
    {
      "op": "null", 
      "name": "inception_a3_3x3_bn_moving_mean", 
      "attr": {
        "__init__": "[\"zero\", {}]", 
        "eps": "0.001", 
        "fix_gamma": "False", 
        "use_global_stats": "True"
      }, 
      "inputs": []
    }, 
    {
      "op": "null", 
      "name": "inception_a3_3x3_bn_moving_var", 
      "attr": {
        "__init__": "[\"one\", {}]", 
        "eps": "0.001", 
        "fix_gamma": "False", 
        "use_global_stats": "True"
      }, 
      "inputs": []
    }, 
    {
      "op": "BatchNorm", 
      "name": "inception_a3_3x3_bn", 
      "attr": {
        "eps": "0.001", 
        "fix_gamma": "False", 
        "use_global_stats": "True"
      }, 
      "inputs": [[227, 0, 0], [228, 0, 0], [229, 0, 0], [230, 0, 1], [231, 0, 1]]
    }, 
    {
      "op": "Activation", 
      "name": "inception_a3_3x3_relu", 
      "attr": {"act_type": "relu"}, 
      "inputs": [[232, 0, 0]]
    }, 
    {
      "op": "null", 
      "name": "inception_a3_3x3_2_reduce_weight", 
      "attr": {
        "kernel": "(1, 1)", 
        "no_bias": "True", 
        "num_filter": "64", 
        "pad": "(0, 0)", 
        "stride": "(1, 1)"
      }, 
      "inputs": []
    }, 
    {
      "op": "Convolution", 
      "name": "inception_a3_3x3_2_reduce", 
      "attr": {
        "kernel": "(1, 1)", 
        "no_bias": "True", 
        "num_filter": "64", 
        "pad": "(0, 0)", 
        "stride": "(1, 1)"
      }, 
      "inputs": [[209, 0, 0], [234, 0, 0]]
    }, 
    {
      "op": "null", 
      "name": "inception_a3_3x3_2_reduce_bn_gamma", 
      "attr": {
        "eps": "0.001", 
        "fix_gamma": "False", 
        "use_global_stats": "True"
      }, 
      "inputs": []
    }, 
    {
      "op": "null", 
      "name": "inception_a3_3x3_2_reduce_bn_beta", 
      "attr": {
        "eps": "0.001", 
        "fix_gamma": "False", 
        "use_global_stats": "True"
      }, 
      "inputs": []
    }, 
    {
      "op": "null", 
      "name": "inception_a3_3x3_2_reduce_bn_moving_mean", 
      "attr": {
        "__init__": "[\"zero\", {}]", 
        "eps": "0.001", 
        "fix_gamma": "False", 
        "use_global_stats": "True"
      }, 
      "inputs": []
    }, 
    {
      "op": "null", 
      "name": "inception_a3_3x3_2_reduce_bn_moving_var", 
      "attr": {
        "__init__": "[\"one\", {}]", 
        "eps": "0.001", 
        "fix_gamma": "False", 
        "use_global_stats": "True"
      }, 
      "inputs": []
    }, 
    {
      "op": "BatchNorm", 
      "name": "inception_a3_3x3_2_reduce_bn", 
      "attr": {
        "eps": "0.001", 
        "fix_gamma": "False", 
        "use_global_stats": "True"
      }, 
      "inputs": [[235, 0, 0], [236, 0, 0], [237, 0, 0], [238, 0, 1], [239, 0, 1]]
    }, 
    {
      "op": "Activation", 
      "name": "inception_a3_3x3_2_reduce_relu", 
      "attr": {"act_type": "relu"}, 
      "inputs": [[240, 0, 0]]
    }, 
    {
      "op": "null", 
      "name": "inception_a3_3x3_2_weight", 
      "attr": {
        "kernel": "(3, 3)", 
        "no_bias": "True", 
        "num_filter": "96", 
        "pad": "(1, 1)", 
        "stride": "(1, 1)"
      }, 
      "inputs": []
    }, 
    {
      "op": "Convolution", 
      "name": "inception_a3_3x3_2", 
      "attr": {
        "kernel": "(3, 3)", 
        "no_bias": "True", 
        "num_filter": "96", 
        "pad": "(1, 1)", 
        "stride": "(1, 1)"
      }, 
      "inputs": [[241, 0, 0], [242, 0, 0]]
    }, 
    {
      "op": "null", 
      "name": "inception_a3_3x3_2_bn_gamma", 
      "attr": {
        "eps": "0.001", 
        "fix_gamma": "False", 
        "use_global_stats": "True"
      }, 
      "inputs": []
    }, 
    {
      "op": "null", 
      "name": "inception_a3_3x3_2_bn_beta", 
      "attr": {
        "eps": "0.001", 
        "fix_gamma": "False", 
        "use_global_stats": "True"
      }, 
      "inputs": []
    }, 
    {
      "op": "null", 
      "name": "inception_a3_3x3_2_bn_moving_mean", 
      "attr": {
        "__init__": "[\"zero\", {}]", 
        "eps": "0.001", 
        "fix_gamma": "False", 
        "use_global_stats": "True"
      }, 
      "inputs": []
    }, 
    {
      "op": "null", 
      "name": "inception_a3_3x3_2_bn_moving_var", 
      "attr": {
        "__init__": "[\"one\", {}]", 
        "eps": "0.001", 
        "fix_gamma": "False", 
        "use_global_stats": "True"
      }, 
      "inputs": []
    }, 
    {
      "op": "BatchNorm", 
      "name": "inception_a3_3x3_2_bn", 
      "attr": {
        "eps": "0.001", 
        "fix_gamma": "False", 
        "use_global_stats": "True"
      }, 
      "inputs": [[243, 0, 0], [244, 0, 0], [245, 0, 0], [246, 0, 1], [247, 0, 1]]
    }, 
    {
      "op": "Activation", 
      "name": "inception_a3_3x3_2_relu", 
      "attr": {"act_type": "relu"}, 
      "inputs": [[248, 0, 0]]
    }, 
    {
      "op": "null", 
      "name": "inception_a3_3x3_3_weight", 
      "attr": {
        "kernel": "(3, 3)", 
        "no_bias": "True", 
        "num_filter": "96", 
        "pad": "(1, 1)", 
        "stride": "(1, 1)"
      }, 
      "inputs": []
    }, 
    {
      "op": "Convolution", 
      "name": "inception_a3_3x3_3", 
      "attr": {
        "kernel": "(3, 3)", 
        "no_bias": "True", 
        "num_filter": "96", 
        "pad": "(1, 1)", 
        "stride": "(1, 1)"
      }, 
      "inputs": [[249, 0, 0], [250, 0, 0]]
    }, 
    {
      "op": "null", 
      "name": "inception_a3_3x3_3_bn_gamma", 
      "attr": {
        "eps": "0.001", 
        "fix_gamma": "False", 
        "use_global_stats": "True"
      }, 
      "inputs": []
    }, 
    {
      "op": "null", 
      "name": "inception_a3_3x3_3_bn_beta", 
      "attr": {
        "eps": "0.001", 
        "fix_gamma": "False", 
        "use_global_stats": "True"
      }, 
      "inputs": []
    }, 
    {
      "op": "null", 
      "name": "inception_a3_3x3_3_bn_moving_mean", 
      "attr": {
        "__init__": "[\"zero\", {}]", 
        "eps": "0.001", 
        "fix_gamma": "False", 
        "use_global_stats": "True"
      }, 
      "inputs": []
    }, 
    {
      "op": "null", 
      "name": "inception_a3_3x3_3_bn_moving_var", 
      "attr": {
        "__init__": "[\"one\", {}]", 
        "eps": "0.001", 
        "fix_gamma": "False", 
        "use_global_stats": "True"
      }, 
      "inputs": []
    }, 
    {
      "op": "BatchNorm", 
      "name": "inception_a3_3x3_3_bn", 
      "attr": {
        "eps": "0.001", 
        "fix_gamma": "False", 
        "use_global_stats": "True"
      }, 
      "inputs": [[251, 0, 0], [252, 0, 0], [253, 0, 0], [254, 0, 1], [255, 0, 1]]
    }, 
    {
      "op": "Activation", 
      "name": "inception_a3_3x3_3_relu", 
      "attr": {"act_type": "relu"}, 
      "inputs": [[256, 0, 0]]
    }, 
    {
      "op": "Pooling", 
      "name": "inception_a3_pool_ave", 
      "attr": {
        "kernel": "(3, 3)", 
        "pad": "(1, 1)", 
        "pool_type": "avg", 
        "pooling_convention": "full", 
        "stride": "(1, 1)"
      }, 
      "inputs": [[209, 0, 0]]
    }, 
    {
      "op": "null", 
      "name": "inception_a3_1x1_weight", 
      "attr": {
        "kernel": "(1, 1)", 
        "no_bias": "True", 
        "num_filter": "96", 
        "pad": "(0, 0)", 
        "stride": "(1, 1)"
      }, 
      "inputs": []
    }, 
    {
      "op": "Convolution", 
      "name": "inception_a3_1x1", 
      "attr": {
        "kernel": "(1, 1)", 
        "no_bias": "True", 
        "num_filter": "96", 
        "pad": "(0, 0)", 
        "stride": "(1, 1)"
      }, 
      "inputs": [[258, 0, 0], [259, 0, 0]]
    }, 
    {
      "op": "null", 
      "name": "inception_a3_1x1_bn_gamma", 
      "attr": {
        "eps": "0.001", 
        "fix_gamma": "False", 
        "use_global_stats": "True"
      }, 
      "inputs": []
    }, 
    {
      "op": "null", 
      "name": "inception_a3_1x1_bn_beta", 
      "attr": {
        "eps": "0.001", 
        "fix_gamma": "False", 
        "use_global_stats": "True"
      }, 
      "inputs": []
    }, 
    {
      "op": "null", 
      "name": "inception_a3_1x1_bn_moving_mean", 
      "attr": {
        "__init__": "[\"zero\", {}]", 
        "eps": "0.001", 
        "fix_gamma": "False", 
        "use_global_stats": "True"
      }, 
      "inputs": []
    }, 
    {
      "op": "null", 
      "name": "inception_a3_1x1_bn_moving_var", 
      "attr": {
        "__init__": "[\"one\", {}]", 
        "eps": "0.001", 
        "fix_gamma": "False", 
        "use_global_stats": "True"
      }, 
      "inputs": []
    }, 
    {
      "op": "BatchNorm", 
      "name": "inception_a3_1x1_bn", 
      "attr": {
        "eps": "0.001", 
        "fix_gamma": "False", 
        "use_global_stats": "True"
      }, 
      "inputs": [[260, 0, 0], [261, 0, 0], [262, 0, 0], [263, 0, 1], [264, 0, 1]]
    }, 
    {
      "op": "Activation", 
      "name": "inception_a3_1x1_relu", 
      "attr": {"act_type": "relu"}, 
      "inputs": [[265, 0, 0]]
    }, 
    {
      "op": "Concat", 
      "name": "inception_a3_concat", 
      "attr": {"num_args": "4"}, 
      "inputs": [[217, 0, 0], [233, 0, 0], [257, 0, 0], [266, 0, 0]]
    }, 
    {
      "op": "null", 
      "name": "inception_a4_1x1_2_weight", 
      "attr": {
        "kernel": "(1, 1)", 
        "no_bias": "True", 
        "num_filter": "96", 
        "pad": "(0, 0)", 
        "stride": "(1, 1)"
      }, 
      "inputs": []
    }, 
    {
      "op": "Convolution", 
      "name": "inception_a4_1x1_2", 
      "attr": {
        "kernel": "(1, 1)", 
        "no_bias": "True", 
        "num_filter": "96", 
        "pad": "(0, 0)", 
        "stride": "(1, 1)"
      }, 
      "inputs": [[267, 0, 0], [268, 0, 0]]
    }, 
    {
      "op": "null", 
      "name": "inception_a4_1x1_2_bn_gamma", 
      "attr": {
        "eps": "0.001", 
        "fix_gamma": "False", 
        "use_global_stats": "True"
      }, 
      "inputs": []
    }, 
    {
      "op": "null", 
      "name": "inception_a4_1x1_2_bn_beta", 
      "attr": {
        "eps": "0.001", 
        "fix_gamma": "False", 
        "use_global_stats": "True"
      }, 
      "inputs": []
    }, 
    {
      "op": "null", 
      "name": "inception_a4_1x1_2_bn_moving_mean", 
      "attr": {
        "__init__": "[\"zero\", {}]", 
        "eps": "0.001", 
        "fix_gamma": "False", 
        "use_global_stats": "True"
      }, 
      "inputs": []
    }, 
    {
      "op": "null", 
      "name": "inception_a4_1x1_2_bn_moving_var", 
      "attr": {
        "__init__": "[\"one\", {}]", 
        "eps": "0.001", 
        "fix_gamma": "False", 
        "use_global_stats": "True"
      }, 
      "inputs": []
    }, 
    {
      "op": "BatchNorm", 
      "name": "inception_a4_1x1_2_bn", 
      "attr": {
        "eps": "0.001", 
        "fix_gamma": "False", 
        "use_global_stats": "True"
      }, 
      "inputs": [[269, 0, 0], [270, 0, 0], [271, 0, 0], [272, 0, 1], [273, 0, 1]]
    }, 
    {
      "op": "Activation", 
      "name": "inception_a4_1x1_2_relu", 
      "attr": {"act_type": "relu"}, 
      "inputs": [[274, 0, 0]]
    }, 
    {
      "op": "null", 
      "name": "inception_a4_3x3_reduce_weight", 
      "attr": {
        "kernel": "(1, 1)", 
        "no_bias": "True", 
        "num_filter": "64", 
        "pad": "(0, 0)", 
        "stride": "(1, 1)"
      }, 
      "inputs": []
    }, 
    {
      "op": "Convolution", 
      "name": "inception_a4_3x3_reduce", 
      "attr": {
        "kernel": "(1, 1)", 
        "no_bias": "True", 
        "num_filter": "64", 
        "pad": "(0, 0)", 
        "stride": "(1, 1)"
      }, 
      "inputs": [[267, 0, 0], [276, 0, 0]]
    }, 
    {
      "op": "null", 
      "name": "inception_a4_3x3_reduce_bn_gamma", 
      "attr": {
        "eps": "0.001", 
        "fix_gamma": "False", 
        "use_global_stats": "True"
      }, 
      "inputs": []
    }, 
    {
      "op": "null", 
      "name": "inception_a4_3x3_reduce_bn_beta", 
      "attr": {
        "eps": "0.001", 
        "fix_gamma": "False", 
        "use_global_stats": "True"
      }, 
      "inputs": []
    }, 
    {
      "op": "null", 
      "name": "inception_a4_3x3_reduce_bn_moving_mean", 
      "attr": {
        "__init__": "[\"zero\", {}]", 
        "eps": "0.001", 
        "fix_gamma": "False", 
        "use_global_stats": "True"
      }, 
      "inputs": []
    }, 
    {
      "op": "null", 
      "name": "inception_a4_3x3_reduce_bn_moving_var", 
      "attr": {
        "__init__": "[\"one\", {}]", 
        "eps": "0.001", 
        "fix_gamma": "False", 
        "use_global_stats": "True"
      }, 
      "inputs": []
    }, 
    {
      "op": "BatchNorm", 
      "name": "inception_a4_3x3_reduce_bn", 
      "attr": {
        "eps": "0.001", 
        "fix_gamma": "False", 
        "use_global_stats": "True"
      }, 
      "inputs": [[277, 0, 0], [278, 0, 0], [279, 0, 0], [280, 0, 1], [281, 0, 1]]
    }, 
    {
      "op": "Activation", 
      "name": "inception_a4_3x3_reduce_relu", 
      "attr": {"act_type": "relu"}, 
      "inputs": [[282, 0, 0]]
    }, 
    {
      "op": "null", 
      "name": "inception_a4_3x3_weight", 
      "attr": {
        "kernel": "(3, 3)", 
        "no_bias": "True", 
        "num_filter": "96", 
        "pad": "(1, 1)", 
        "stride": "(1, 1)"
      }, 
      "inputs": []
    }, 
    {
      "op": "Convolution", 
      "name": "inception_a4_3x3", 
      "attr": {
        "kernel": "(3, 3)", 
        "no_bias": "True", 
        "num_filter": "96", 
        "pad": "(1, 1)", 
        "stride": "(1, 1)"
      }, 
      "inputs": [[283, 0, 0], [284, 0, 0]]
    }, 
    {
      "op": "null", 
      "name": "inception_a4_3x3_bn_gamma", 
      "attr": {
        "eps": "0.001", 
        "fix_gamma": "False", 
        "use_global_stats": "True"
      }, 
      "inputs": []
    }, 
    {
      "op": "null", 
      "name": "inception_a4_3x3_bn_beta", 
      "attr": {
        "eps": "0.001", 
        "fix_gamma": "False", 
        "use_global_stats": "True"
      }, 
      "inputs": []
    }, 
    {
      "op": "null", 
      "name": "inception_a4_3x3_bn_moving_mean", 
      "attr": {
        "__init__": "[\"zero\", {}]", 
        "eps": "0.001", 
        "fix_gamma": "False", 
        "use_global_stats": "True"
      }, 
      "inputs": []
    }, 
    {
      "op": "null", 
      "name": "inception_a4_3x3_bn_moving_var", 
      "attr": {
        "__init__": "[\"one\", {}]", 
        "eps": "0.001", 
        "fix_gamma": "False", 
        "use_global_stats": "True"
      }, 
      "inputs": []
    }, 
    {
      "op": "BatchNorm", 
      "name": "inception_a4_3x3_bn", 
      "attr": {
        "eps": "0.001", 
        "fix_gamma": "False", 
        "use_global_stats": "True"
      }, 
      "inputs": [[285, 0, 0], [286, 0, 0], [287, 0, 0], [288, 0, 1], [289, 0, 1]]
    }, 
    {
      "op": "Activation", 
      "name": "inception_a4_3x3_relu", 
      "attr": {"act_type": "relu"}, 
      "inputs": [[290, 0, 0]]
    }, 
    {
      "op": "null", 
      "name": "inception_a4_3x3_2_reduce_weight", 
      "attr": {
        "kernel": "(1, 1)", 
        "no_bias": "True", 
        "num_filter": "64", 
        "pad": "(0, 0)", 
        "stride": "(1, 1)"
      }, 
      "inputs": []
    }, 
    {
      "op": "Convolution", 
      "name": "inception_a4_3x3_2_reduce", 
      "attr": {
        "kernel": "(1, 1)", 
        "no_bias": "True", 
        "num_filter": "64", 
        "pad": "(0, 0)", 
        "stride": "(1, 1)"
      }, 
      "inputs": [[267, 0, 0], [292, 0, 0]]
    }, 
    {
      "op": "null", 
      "name": "inception_a4_3x3_2_reduce_bn_gamma", 
      "attr": {
        "eps": "0.001", 
        "fix_gamma": "False", 
        "use_global_stats": "True"
      }, 
      "inputs": []
    }, 
    {
      "op": "null", 
      "name": "inception_a4_3x3_2_reduce_bn_beta", 
      "attr": {
        "eps": "0.001", 
        "fix_gamma": "False", 
        "use_global_stats": "True"
      }, 
      "inputs": []
    }, 
    {
      "op": "null", 
      "name": "inception_a4_3x3_2_reduce_bn_moving_mean", 
      "attr": {
        "__init__": "[\"zero\", {}]", 
        "eps": "0.001", 
        "fix_gamma": "False", 
        "use_global_stats": "True"
      }, 
      "inputs": []
    }, 
    {
      "op": "null", 
      "name": "inception_a4_3x3_2_reduce_bn_moving_var", 
      "attr": {
        "__init__": "[\"one\", {}]", 
        "eps": "0.001", 
        "fix_gamma": "False", 
        "use_global_stats": "True"
      }, 
      "inputs": []
    }, 
    {
      "op": "BatchNorm", 
      "name": "inception_a4_3x3_2_reduce_bn", 
      "attr": {
        "eps": "0.001", 
        "fix_gamma": "False", 
        "use_global_stats": "True"
      }, 
      "inputs": [[293, 0, 0], [294, 0, 0], [295, 0, 0], [296, 0, 1], [297, 0, 1]]
    }, 
    {
      "op": "Activation", 
      "name": "inception_a4_3x3_2_reduce_relu", 
      "attr": {"act_type": "relu"}, 
      "inputs": [[298, 0, 0]]
    }, 
    {
      "op": "null", 
      "name": "inception_a4_3x3_2_weight", 
      "attr": {
        "kernel": "(3, 3)", 
        "no_bias": "True", 
        "num_filter": "96", 
        "pad": "(1, 1)", 
        "stride": "(1, 1)"
      }, 
      "inputs": []
    }, 
    {
      "op": "Convolution", 
      "name": "inception_a4_3x3_2", 
      "attr": {
        "kernel": "(3, 3)", 
        "no_bias": "True", 
        "num_filter": "96", 
        "pad": "(1, 1)", 
        "stride": "(1, 1)"
      }, 
      "inputs": [[299, 0, 0], [300, 0, 0]]
    }, 
    {
      "op": "null", 
      "name": "inception_a4_3x3_2_bn_gamma", 
      "attr": {
        "eps": "0.001", 
        "fix_gamma": "False", 
        "use_global_stats": "True"
      }, 
      "inputs": []
    }, 
    {
      "op": "null", 
      "name": "inception_a4_3x3_2_bn_beta", 
      "attr": {
        "eps": "0.001", 
        "fix_gamma": "False", 
        "use_global_stats": "True"
      }, 
      "inputs": []
    }, 
    {
      "op": "null", 
      "name": "inception_a4_3x3_2_bn_moving_mean", 
      "attr": {
        "__init__": "[\"zero\", {}]", 
        "eps": "0.001", 
        "fix_gamma": "False", 
        "use_global_stats": "True"
      }, 
      "inputs": []
    }, 
    {
      "op": "null", 
      "name": "inception_a4_3x3_2_bn_moving_var", 
      "attr": {
        "__init__": "[\"one\", {}]", 
        "eps": "0.001", 
        "fix_gamma": "False", 
        "use_global_stats": "True"
      }, 
      "inputs": []
    }, 
    {
      "op": "BatchNorm", 
      "name": "inception_a4_3x3_2_bn", 
      "attr": {
        "eps": "0.001", 
        "fix_gamma": "False", 
        "use_global_stats": "True"
      }, 
      "inputs": [[301, 0, 0], [302, 0, 0], [303, 0, 0], [304, 0, 1], [305, 0, 1]]
    }, 
    {
      "op": "Activation", 
      "name": "inception_a4_3x3_2_relu", 
      "attr": {"act_type": "relu"}, 
      "inputs": [[306, 0, 0]]
    }, 
    {
      "op": "null", 
      "name": "inception_a4_3x3_3_weight", 
      "attr": {
        "kernel": "(3, 3)", 
        "no_bias": "True", 
        "num_filter": "96", 
        "pad": "(1, 1)", 
        "stride": "(1, 1)"
      }, 
      "inputs": []
    }, 
    {
      "op": "Convolution", 
      "name": "inception_a4_3x3_3", 
      "attr": {
        "kernel": "(3, 3)", 
        "no_bias": "True", 
        "num_filter": "96", 
        "pad": "(1, 1)", 
        "stride": "(1, 1)"
      }, 
      "inputs": [[307, 0, 0], [308, 0, 0]]
    }, 
    {
      "op": "null", 
      "name": "inception_a4_3x3_3_bn_gamma", 
      "attr": {
        "eps": "0.001", 
        "fix_gamma": "False", 
        "use_global_stats": "True"
      }, 
      "inputs": []
    }, 
    {
      "op": "null", 
      "name": "inception_a4_3x3_3_bn_beta", 
      "attr": {
        "eps": "0.001", 
        "fix_gamma": "False", 
        "use_global_stats": "True"
      }, 
      "inputs": []
    }, 
    {
      "op": "null", 
      "name": "inception_a4_3x3_3_bn_moving_mean", 
      "attr": {
        "__init__": "[\"zero\", {}]", 
        "eps": "0.001", 
        "fix_gamma": "False", 
        "use_global_stats": "True"
      }, 
      "inputs": []
    }, 
    {
      "op": "null", 
      "name": "inception_a4_3x3_3_bn_moving_var", 
      "attr": {
        "__init__": "[\"one\", {}]", 
        "eps": "0.001", 
        "fix_gamma": "False", 
        "use_global_stats": "True"
      }, 
      "inputs": []
    }, 
    {
      "op": "BatchNorm", 
      "name": "inception_a4_3x3_3_bn", 
      "attr": {
        "eps": "0.001", 
        "fix_gamma": "False", 
        "use_global_stats": "True"
      }, 
      "inputs": [[309, 0, 0], [310, 0, 0], [311, 0, 0], [312, 0, 1], [313, 0, 1]]
    }, 
    {
      "op": "Activation", 
      "name": "inception_a4_3x3_3_relu", 
      "attr": {"act_type": "relu"}, 
      "inputs": [[314, 0, 0]]
    }, 
    {
      "op": "Pooling", 
      "name": "inception_a4_pool_ave", 
      "attr": {
        "kernel": "(3, 3)", 
        "pad": "(1, 1)", 
        "pool_type": "avg", 
        "pooling_convention": "full", 
        "stride": "(1, 1)"
      }, 
      "inputs": [[267, 0, 0]]
    }, 
    {
      "op": "null", 
      "name": "inception_a4_1x1_weight", 
      "attr": {
        "kernel": "(1, 1)", 
        "no_bias": "True", 
        "num_filter": "96", 
        "pad": "(0, 0)", 
        "stride": "(1, 1)"
      }, 
      "inputs": []
    }, 
    {
      "op": "Convolution", 
      "name": "inception_a4_1x1", 
      "attr": {
        "kernel": "(1, 1)", 
        "no_bias": "True", 
        "num_filter": "96", 
        "pad": "(0, 0)", 
        "stride": "(1, 1)"
      }, 
      "inputs": [[316, 0, 0], [317, 0, 0]]
    }, 
    {
      "op": "null", 
      "name": "inception_a4_1x1_bn_gamma", 
      "attr": {
        "eps": "0.001", 
        "fix_gamma": "False", 
        "use_global_stats": "True"
      }, 
      "inputs": []
    }, 
    {
      "op": "null", 
      "name": "inception_a4_1x1_bn_beta", 
      "attr": {
        "eps": "0.001", 
        "fix_gamma": "False", 
        "use_global_stats": "True"
      }, 
      "inputs": []
    }, 
    {
      "op": "null", 
      "name": "inception_a4_1x1_bn_moving_mean", 
      "attr": {
        "__init__": "[\"zero\", {}]", 
        "eps": "0.001", 
        "fix_gamma": "False", 
        "use_global_stats": "True"
      }, 
      "inputs": []
    }, 
    {
      "op": "null", 
      "name": "inception_a4_1x1_bn_moving_var", 
      "attr": {
        "__init__": "[\"one\", {}]", 
        "eps": "0.001", 
        "fix_gamma": "False", 
        "use_global_stats": "True"
      }, 
      "inputs": []
    }, 
    {
      "op": "BatchNorm", 
      "name": "inception_a4_1x1_bn", 
      "attr": {
        "eps": "0.001", 
        "fix_gamma": "False", 
        "use_global_stats": "True"
      }, 
      "inputs": [[318, 0, 0], [319, 0, 0], [320, 0, 0], [321, 0, 1], [322, 0, 1]]
    }, 
    {
      "op": "Activation", 
      "name": "inception_a4_1x1_relu", 
      "attr": {"act_type": "relu"}, 
      "inputs": [[323, 0, 0]]
    }, 
    {
      "op": "Concat", 
      "name": "inception_a4_concat", 
      "attr": {"num_args": "4"}, 
      "inputs": [[275, 0, 0], [291, 0, 0], [315, 0, 0], [324, 0, 0]]
    }, 
    {
      "op": "null", 
      "name": "reduction_a_3x3_weight", 
      "attr": {
        "kernel": "(3, 3)", 
        "no_bias": "True", 
        "num_filter": "384", 
        "pad": "(0, 0)", 
        "stride": "(2, 2)"
      }, 
      "inputs": []
    }, 
    {
      "op": "Convolution", 
      "name": "reduction_a_3x3", 
      "attr": {
        "kernel": "(3, 3)", 
        "no_bias": "True", 
        "num_filter": "384", 
        "pad": "(0, 0)", 
        "stride": "(2, 2)"
      }, 
      "inputs": [[325, 0, 0], [326, 0, 0]]
    }, 
    {
      "op": "null", 
      "name": "reduction_a_3x3_bn_gamma", 
      "attr": {
        "eps": "0.001", 
        "fix_gamma": "False", 
        "use_global_stats": "True"
      }, 
      "inputs": []
    }, 
    {
      "op": "null", 
      "name": "reduction_a_3x3_bn_beta", 
      "attr": {
        "eps": "0.001", 
        "fix_gamma": "False", 
        "use_global_stats": "True"
      }, 
      "inputs": []
    }, 
    {
      "op": "null", 
      "name": "reduction_a_3x3_bn_moving_mean", 
      "attr": {
        "__init__": "[\"zero\", {}]", 
        "eps": "0.001", 
        "fix_gamma": "False", 
        "use_global_stats": "True"
      }, 
      "inputs": []
    }, 
    {
      "op": "null", 
      "name": "reduction_a_3x3_bn_moving_var", 
      "attr": {
        "__init__": "[\"one\", {}]", 
        "eps": "0.001", 
        "fix_gamma": "False", 
        "use_global_stats": "True"
      }, 
      "inputs": []
    }, 
    {
      "op": "BatchNorm", 
      "name": "reduction_a_3x3_bn", 
      "attr": {
        "eps": "0.001", 
        "fix_gamma": "False", 
        "use_global_stats": "True"
      }, 
      "inputs": [[327, 0, 0], [328, 0, 0], [329, 0, 0], [330, 0, 1], [331, 0, 1]]
    }, 
    {
      "op": "Activation", 
      "name": "reduction_a_3x3_relu", 
      "attr": {"act_type": "relu"}, 
      "inputs": [[332, 0, 0]]
    }, 
    {
      "op": "null", 
      "name": "reduction_a_3x3_2_reduce_weight", 
      "attr": {
        "kernel": "(1, 1)", 
        "no_bias": "True", 
        "num_filter": "192", 
        "pad": "(0, 0)", 
        "stride": "(1, 1)"
      }, 
      "inputs": []
    }, 
    {
      "op": "Convolution", 
      "name": "reduction_a_3x3_2_reduce", 
      "attr": {
        "kernel": "(1, 1)", 
        "no_bias": "True", 
        "num_filter": "192", 
        "pad": "(0, 0)", 
        "stride": "(1, 1)"
      }, 
      "inputs": [[325, 0, 0], [334, 0, 0]]
    }, 
    {
      "op": "null", 
      "name": "reduction_a_3x3_2_reduce_bn_gamma", 
      "attr": {
        "eps": "0.001", 
        "fix_gamma": "False", 
        "use_global_stats": "True"
      }, 
      "inputs": []
    }, 
    {
      "op": "null", 
      "name": "reduction_a_3x3_2_reduce_bn_beta", 
      "attr": {
        "eps": "0.001", 
        "fix_gamma": "False", 
        "use_global_stats": "True"
      }, 
      "inputs": []
    }, 
    {
      "op": "null", 
      "name": "reduction_a_3x3_2_reduce_bn_moving_mean", 
      "attr": {
        "__init__": "[\"zero\", {}]", 
        "eps": "0.001", 
        "fix_gamma": "False", 
        "use_global_stats": "True"
      }, 
      "inputs": []
    }, 
    {
      "op": "null", 
      "name": "reduction_a_3x3_2_reduce_bn_moving_var", 
      "attr": {
        "__init__": "[\"one\", {}]", 
        "eps": "0.001", 
        "fix_gamma": "False", 
        "use_global_stats": "True"
      }, 
      "inputs": []
    }, 
    {
      "op": "BatchNorm", 
      "name": "reduction_a_3x3_2_reduce_bn", 
      "attr": {
        "eps": "0.001", 
        "fix_gamma": "False", 
        "use_global_stats": "True"
      }, 
      "inputs": [[335, 0, 0], [336, 0, 0], [337, 0, 0], [338, 0, 1], [339, 0, 1]]
    }, 
    {
      "op": "Activation", 
      "name": "reduction_a_3x3_2_reduce_relu", 
      "attr": {"act_type": "relu"}, 
      "inputs": [[340, 0, 0]]
    }, 
    {
      "op": "null", 
      "name": "reduction_a_3x3_2_weight", 
      "attr": {
        "kernel": "(3, 3)", 
        "no_bias": "True", 
        "num_filter": "224", 
        "pad": "(1, 1)", 
        "stride": "(1, 1)"
      }, 
      "inputs": []
    }, 
    {
      "op": "Convolution", 
      "name": "reduction_a_3x3_2", 
      "attr": {
        "kernel": "(3, 3)", 
        "no_bias": "True", 
        "num_filter": "224", 
        "pad": "(1, 1)", 
        "stride": "(1, 1)"
      }, 
      "inputs": [[341, 0, 0], [342, 0, 0]]
    }, 
    {
      "op": "null", 
      "name": "reduction_a_3x3_2_bn_gamma", 
      "attr": {
        "eps": "0.001", 
        "fix_gamma": "False", 
        "use_global_stats": "True"
      }, 
      "inputs": []
    }, 
    {
      "op": "null", 
      "name": "reduction_a_3x3_2_bn_beta", 
      "attr": {
        "eps": "0.001", 
        "fix_gamma": "False", 
        "use_global_stats": "True"
      }, 
      "inputs": []
    }, 
    {
      "op": "null", 
      "name": "reduction_a_3x3_2_bn_moving_mean", 
      "attr": {
        "__init__": "[\"zero\", {}]", 
        "eps": "0.001", 
        "fix_gamma": "False", 
        "use_global_stats": "True"
      }, 
      "inputs": []
    }, 
    {
      "op": "null", 
      "name": "reduction_a_3x3_2_bn_moving_var", 
      "attr": {
        "__init__": "[\"one\", {}]", 
        "eps": "0.001", 
        "fix_gamma": "False", 
        "use_global_stats": "True"
      }, 
      "inputs": []
    }, 
    {
      "op": "BatchNorm", 
      "name": "reduction_a_3x3_2_bn", 
      "attr": {
        "eps": "0.001", 
        "fix_gamma": "False", 
        "use_global_stats": "True"
      }, 
      "inputs": [[343, 0, 0], [344, 0, 0], [345, 0, 0], [346, 0, 1], [347, 0, 1]]
    }, 
    {
      "op": "Activation", 
      "name": "reduction_a_3x3_2_relu", 
      "attr": {"act_type": "relu"}, 
      "inputs": [[348, 0, 0]]
    }, 
    {
      "op": "null", 
      "name": "reduction_a_3x3_3_weight", 
      "attr": {
        "kernel": "(3, 3)", 
        "no_bias": "True", 
        "num_filter": "256", 
        "pad": "(0, 0)", 
        "stride": "(2, 2)"
      }, 
      "inputs": []
    }, 
    {
      "op": "Convolution", 
      "name": "reduction_a_3x3_3", 
      "attr": {
        "kernel": "(3, 3)", 
        "no_bias": "True", 
        "num_filter": "256", 
        "pad": "(0, 0)", 
        "stride": "(2, 2)"
      }, 
      "inputs": [[349, 0, 0], [350, 0, 0]]
    }, 
    {
      "op": "null", 
      "name": "reduction_a_3x3_3_bn_gamma", 
      "attr": {
        "eps": "0.001", 
        "fix_gamma": "False", 
        "use_global_stats": "True"
      }, 
      "inputs": []
    }, 
    {
      "op": "null", 
      "name": "reduction_a_3x3_3_bn_beta", 
      "attr": {
        "eps": "0.001", 
        "fix_gamma": "False", 
        "use_global_stats": "True"
      }, 
      "inputs": []
    }, 
    {
      "op": "null", 
      "name": "reduction_a_3x3_3_bn_moving_mean", 
      "attr": {
        "__init__": "[\"zero\", {}]", 
        "eps": "0.001", 
        "fix_gamma": "False", 
        "use_global_stats": "True"
      }, 
      "inputs": []
    }, 
    {
      "op": "null", 
      "name": "reduction_a_3x3_3_bn_moving_var", 
      "attr": {
        "__init__": "[\"one\", {}]", 
        "eps": "0.001", 
        "fix_gamma": "False", 
        "use_global_stats": "True"
      }, 
      "inputs": []
    }, 
    {
      "op": "BatchNorm", 
      "name": "reduction_a_3x3_3_bn", 
      "attr": {
        "eps": "0.001", 
        "fix_gamma": "False", 
        "use_global_stats": "True"
      }, 
      "inputs": [[351, 0, 0], [352, 0, 0], [353, 0, 0], [354, 0, 1], [355, 0, 1]]
    }, 
    {
      "op": "Activation", 
      "name": "reduction_a_3x3_3_relu", 
      "attr": {"act_type": "relu"}, 
      "inputs": [[356, 0, 0]]
    }, 
    {
      "op": "Pooling", 
      "name": "reduction_a_pool", 
      "attr": {
        "kernel": "(3, 3)", 
        "pad": "(0, 0)", 
        "pool_type": "max", 
        "pooling_convention": "full", 
        "stride": "(2, 2)"
      }, 
      "inputs": [[325, 0, 0]]
    }, 
    {
      "op": "Concat", 
      "name": "reduction_a_concat", 
      "attr": {"num_args": "3"}, 
      "inputs": [[333, 0, 0], [357, 0, 0], [358, 0, 0]]
    }, 
    {
      "op": "null", 
      "name": "inception_b1_1x1_2_weight", 
      "attr": {
        "kernel": "(1, 1)", 
        "no_bias": "True", 
        "num_filter": "384", 
        "pad": "(0, 0)", 
        "stride": "(1, 1)"
      }, 
      "inputs": []
    }, 
    {
      "op": "Convolution", 
      "name": "inception_b1_1x1_2", 
      "attr": {
        "kernel": "(1, 1)", 
        "no_bias": "True", 
        "num_filter": "384", 
        "pad": "(0, 0)", 
        "stride": "(1, 1)"
      }, 
      "inputs": [[359, 0, 0], [360, 0, 0]]
    }, 
    {
      "op": "null", 
      "name": "inception_b1_1x1_2_bn_gamma", 
      "attr": {
        "eps": "0.001", 
        "fix_gamma": "False", 
        "use_global_stats": "True"
      }, 
      "inputs": []
    }, 
    {
      "op": "null", 
      "name": "inception_b1_1x1_2_bn_beta", 
      "attr": {
        "eps": "0.001", 
        "fix_gamma": "False", 
        "use_global_stats": "True"
      }, 
      "inputs": []
    }, 
    {
      "op": "null", 
      "name": "inception_b1_1x1_2_bn_moving_mean", 
      "attr": {
        "__init__": "[\"zero\", {}]", 
        "eps": "0.001", 
        "fix_gamma": "False", 
        "use_global_stats": "True"
      }, 
      "inputs": []
    }, 
    {
      "op": "null", 
      "name": "inception_b1_1x1_2_bn_moving_var", 
      "attr": {
        "__init__": "[\"one\", {}]", 
        "eps": "0.001", 
        "fix_gamma": "False", 
        "use_global_stats": "True"
      }, 
      "inputs": []
    }, 
    {
      "op": "BatchNorm", 
      "name": "inception_b1_1x1_2_bn", 
      "attr": {
        "eps": "0.001", 
        "fix_gamma": "False", 
        "use_global_stats": "True"
      }, 
      "inputs": [[361, 0, 0], [362, 0, 0], [363, 0, 0], [364, 0, 1], [365, 0, 1]]
    }, 
    {
      "op": "Activation", 
      "name": "inception_b1_1x1_2_relu", 
      "attr": {"act_type": "relu"}, 
      "inputs": [[366, 0, 0]]
    }, 
    {
      "op": "null", 
      "name": "inception_b1_1x7_reduce_weight", 
      "attr": {
        "kernel": "(1, 1)", 
        "no_bias": "True", 
        "num_filter": "192", 
        "pad": "(0, 0)", 
        "stride": "(1, 1)"
      }, 
      "inputs": []
    }, 
    {
      "op": "Convolution", 
      "name": "inception_b1_1x7_reduce", 
      "attr": {
        "kernel": "(1, 1)", 
        "no_bias": "True", 
        "num_filter": "192", 
        "pad": "(0, 0)", 
        "stride": "(1, 1)"
      }, 
      "inputs": [[359, 0, 0], [368, 0, 0]]
    }, 
    {
      "op": "null", 
      "name": "inception_b1_1x7_reduce_bn_gamma", 
      "attr": {
        "eps": "0.001", 
        "fix_gamma": "False", 
        "use_global_stats": "True"
      }, 
      "inputs": []
    }, 
    {
      "op": "null", 
      "name": "inception_b1_1x7_reduce_bn_beta", 
      "attr": {
        "eps": "0.001", 
        "fix_gamma": "False", 
        "use_global_stats": "True"
      }, 
      "inputs": []
    }, 
    {
      "op": "null", 
      "name": "inception_b1_1x7_reduce_bn_moving_mean", 
      "attr": {
        "__init__": "[\"zero\", {}]", 
        "eps": "0.001", 
        "fix_gamma": "False", 
        "use_global_stats": "True"
      }, 
      "inputs": []
    }, 
    {
      "op": "null", 
      "name": "inception_b1_1x7_reduce_bn_moving_var", 
      "attr": {
        "__init__": "[\"one\", {}]", 
        "eps": "0.001", 
        "fix_gamma": "False", 
        "use_global_stats": "True"
      }, 
      "inputs": []
    }, 
    {
      "op": "BatchNorm", 
      "name": "inception_b1_1x7_reduce_bn", 
      "attr": {
        "eps": "0.001", 
        "fix_gamma": "False", 
        "use_global_stats": "True"
      }, 
      "inputs": [[369, 0, 0], [370, 0, 0], [371, 0, 0], [372, 0, 1], [373, 0, 1]]
    }, 
    {
      "op": "Activation", 
      "name": "inception_b1_1x7_reduce_relu", 
      "attr": {"act_type": "relu"}, 
      "inputs": [[374, 0, 0]]
    }, 
    {
      "op": "null", 
      "name": "inception_b1_1x7_weight", 
      "attr": {
        "kernel": "(1, 7)", 
        "no_bias": "True", 
        "num_filter": "224", 
        "pad": "(0, 3)", 
        "stride": "(1, 1)"
      }, 
      "inputs": []
    }, 
    {
      "op": "Convolution", 
      "name": "inception_b1_1x7", 
      "attr": {
        "kernel": "(1, 7)", 
        "no_bias": "True", 
        "num_filter": "224", 
        "pad": "(0, 3)", 
        "stride": "(1, 1)"
      }, 
      "inputs": [[375, 0, 0], [376, 0, 0]]
    }, 
    {
      "op": "null", 
      "name": "inception_b1_1x7_bn_gamma", 
      "attr": {
        "eps": "0.001", 
        "fix_gamma": "False", 
        "use_global_stats": "True"
      }, 
      "inputs": []
    }, 
    {
      "op": "null", 
      "name": "inception_b1_1x7_bn_beta", 
      "attr": {
        "eps": "0.001", 
        "fix_gamma": "False", 
        "use_global_stats": "True"
      }, 
      "inputs": []
    }, 
    {
      "op": "null", 
      "name": "inception_b1_1x7_bn_moving_mean", 
      "attr": {
        "__init__": "[\"zero\", {}]", 
        "eps": "0.001", 
        "fix_gamma": "False", 
        "use_global_stats": "True"
      }, 
      "inputs": []
    }, 
    {
      "op": "null", 
      "name": "inception_b1_1x7_bn_moving_var", 
      "attr": {
        "__init__": "[\"one\", {}]", 
        "eps": "0.001", 
        "fix_gamma": "False", 
        "use_global_stats": "True"
      }, 
      "inputs": []
    }, 
    {
      "op": "BatchNorm", 
      "name": "inception_b1_1x7_bn", 
      "attr": {
        "eps": "0.001", 
        "fix_gamma": "False", 
        "use_global_stats": "True"
      }, 
      "inputs": [[377, 0, 0], [378, 0, 0], [379, 0, 0], [380, 0, 1], [381, 0, 1]]
    }, 
    {
      "op": "Activation", 
      "name": "inception_b1_1x7_relu", 
      "attr": {"act_type": "relu"}, 
      "inputs": [[382, 0, 0]]
    }, 
    {
      "op": "null", 
      "name": "inception_b1_7x1_weight", 
      "attr": {
        "kernel": "(7, 1)", 
        "no_bias": "True", 
        "num_filter": "256", 
        "pad": "(3, 0)", 
        "stride": "(1, 1)"
      }, 
      "inputs": []
    }, 
    {
      "op": "Convolution", 
      "name": "inception_b1_7x1", 
      "attr": {
        "kernel": "(7, 1)", 
        "no_bias": "True", 
        "num_filter": "256", 
        "pad": "(3, 0)", 
        "stride": "(1, 1)"
      }, 
      "inputs": [[383, 0, 0], [384, 0, 0]]
    }, 
    {
      "op": "null", 
      "name": "inception_b1_7x1_bn_gamma", 
      "attr": {
        "eps": "0.001", 
        "fix_gamma": "False", 
        "use_global_stats": "True"
      }, 
      "inputs": []
    }, 
    {
      "op": "null", 
      "name": "inception_b1_7x1_bn_beta", 
      "attr": {
        "eps": "0.001", 
        "fix_gamma": "False", 
        "use_global_stats": "True"
      }, 
      "inputs": []
    }, 
    {
      "op": "null", 
      "name": "inception_b1_7x1_bn_moving_mean", 
      "attr": {
        "__init__": "[\"zero\", {}]", 
        "eps": "0.001", 
        "fix_gamma": "False", 
        "use_global_stats": "True"
      }, 
      "inputs": []
    }, 
    {
      "op": "null", 
      "name": "inception_b1_7x1_bn_moving_var", 
      "attr": {
        "__init__": "[\"one\", {}]", 
        "eps": "0.001", 
        "fix_gamma": "False", 
        "use_global_stats": "True"
      }, 
      "inputs": []
    }, 
    {
      "op": "BatchNorm", 
      "name": "inception_b1_7x1_bn", 
      "attr": {
        "eps": "0.001", 
        "fix_gamma": "False", 
        "use_global_stats": "True"
      }, 
      "inputs": [[385, 0, 0], [386, 0, 0], [387, 0, 0], [388, 0, 1], [389, 0, 1]]
    }, 
    {
      "op": "Activation", 
      "name": "inception_b1_7x1_relu", 
      "attr": {"act_type": "relu"}, 
      "inputs": [[390, 0, 0]]
    }, 
    {
      "op": "null", 
      "name": "inception_b1_7x1_2_reduce_weight", 
      "attr": {
        "kernel": "(1, 1)", 
        "no_bias": "True", 
        "num_filter": "192", 
        "pad": "(0, 0)", 
        "stride": "(1, 1)"
      }, 
      "inputs": []
    }, 
    {
      "op": "Convolution", 
      "name": "inception_b1_7x1_2_reduce", 
      "attr": {
        "kernel": "(1, 1)", 
        "no_bias": "True", 
        "num_filter": "192", 
        "pad": "(0, 0)", 
        "stride": "(1, 1)"
      }, 
      "inputs": [[359, 0, 0], [392, 0, 0]]
    }, 
    {
      "op": "null", 
      "name": "inception_b1_7x1_2_reduce_bn_gamma", 
      "attr": {
        "eps": "0.001", 
        "fix_gamma": "False", 
        "use_global_stats": "True"
      }, 
      "inputs": []
    }, 
    {
      "op": "null", 
      "name": "inception_b1_7x1_2_reduce_bn_beta", 
      "attr": {
        "eps": "0.001", 
        "fix_gamma": "False", 
        "use_global_stats": "True"
      }, 
      "inputs": []
    }, 
    {
      "op": "null", 
      "name": "inception_b1_7x1_2_reduce_bn_moving_mean", 
      "attr": {
        "__init__": "[\"zero\", {}]", 
        "eps": "0.001", 
        "fix_gamma": "False", 
        "use_global_stats": "True"
      }, 
      "inputs": []
    }, 
    {
      "op": "null", 
      "name": "inception_b1_7x1_2_reduce_bn_moving_var", 
      "attr": {
        "__init__": "[\"one\", {}]", 
        "eps": "0.001", 
        "fix_gamma": "False", 
        "use_global_stats": "True"
      }, 
      "inputs": []
    }, 
    {
      "op": "BatchNorm", 
      "name": "inception_b1_7x1_2_reduce_bn", 
      "attr": {
        "eps": "0.001", 
        "fix_gamma": "False", 
        "use_global_stats": "True"
      }, 
      "inputs": [[393, 0, 0], [394, 0, 0], [395, 0, 0], [396, 0, 1], [397, 0, 1]]
    }, 
    {
      "op": "Activation", 
      "name": "inception_b1_7x1_2_reduce_relu", 
      "attr": {"act_type": "relu"}, 
      "inputs": [[398, 0, 0]]
    }, 
    {
      "op": "null", 
      "name": "inception_b1_7x1_2_weight", 
      "attr": {
        "kernel": "(7, 1)", 
        "no_bias": "True", 
        "num_filter": "192", 
        "pad": "(3, 0)", 
        "stride": "(1, 1)"
      }, 
      "inputs": []
    }, 
    {
      "op": "Convolution", 
      "name": "inception_b1_7x1_2", 
      "attr": {
        "kernel": "(7, 1)", 
        "no_bias": "True", 
        "num_filter": "192", 
        "pad": "(3, 0)", 
        "stride": "(1, 1)"
      }, 
      "inputs": [[399, 0, 0], [400, 0, 0]]
    }, 
    {
      "op": "null", 
      "name": "inception_b1_7x1_2_bn_gamma", 
      "attr": {
        "eps": "0.001", 
        "fix_gamma": "False", 
        "use_global_stats": "True"
      }, 
      "inputs": []
    }, 
    {
      "op": "null", 
      "name": "inception_b1_7x1_2_bn_beta", 
      "attr": {
        "eps": "0.001", 
        "fix_gamma": "False", 
        "use_global_stats": "True"
      }, 
      "inputs": []
    }, 
    {
      "op": "null", 
      "name": "inception_b1_7x1_2_bn_moving_mean", 
      "attr": {
        "__init__": "[\"zero\", {}]", 
        "eps": "0.001", 
        "fix_gamma": "False", 
        "use_global_stats": "True"
      }, 
      "inputs": []
    }, 
    {
      "op": "null", 
      "name": "inception_b1_7x1_2_bn_moving_var", 
      "attr": {
        "__init__": "[\"one\", {}]", 
        "eps": "0.001", 
        "fix_gamma": "False", 
        "use_global_stats": "True"
      }, 
      "inputs": []
    }, 
    {
      "op": "BatchNorm", 
      "name": "inception_b1_7x1_2_bn", 
      "attr": {
        "eps": "0.001", 
        "fix_gamma": "False", 
        "use_global_stats": "True"
      }, 
      "inputs": [[401, 0, 0], [402, 0, 0], [403, 0, 0], [404, 0, 1], [405, 0, 1]]
    }, 
    {
      "op": "Activation", 
      "name": "inception_b1_7x1_2_relu", 
      "attr": {"act_type": "relu"}, 
      "inputs": [[406, 0, 0]]
    }, 
    {
      "op": "null", 
      "name": "inception_b1_1x7_2_weight", 
      "attr": {
        "kernel": "(1, 7)", 
        "no_bias": "True", 
        "num_filter": "224", 
        "pad": "(0, 3)", 
        "stride": "(1, 1)"
      }, 
      "inputs": []
    }, 
    {
      "op": "Convolution", 
      "name": "inception_b1_1x7_2", 
      "attr": {
        "kernel": "(1, 7)", 
        "no_bias": "True", 
        "num_filter": "224", 
        "pad": "(0, 3)", 
        "stride": "(1, 1)"
      }, 
      "inputs": [[407, 0, 0], [408, 0, 0]]
    }, 
    {
      "op": "null", 
      "name": "inception_b1_1x7_2_bn_gamma", 
      "attr": {
        "eps": "0.001", 
        "fix_gamma": "False", 
        "use_global_stats": "True"
      }, 
      "inputs": []
    }, 
    {
      "op": "null", 
      "name": "inception_b1_1x7_2_bn_beta", 
      "attr": {
        "eps": "0.001", 
        "fix_gamma": "False", 
        "use_global_stats": "True"
      }, 
      "inputs": []
    }, 
    {
      "op": "null", 
      "name": "inception_b1_1x7_2_bn_moving_mean", 
      "attr": {
        "__init__": "[\"zero\", {}]", 
        "eps": "0.001", 
        "fix_gamma": "False", 
        "use_global_stats": "True"
      }, 
      "inputs": []
    }, 
    {
      "op": "null", 
      "name": "inception_b1_1x7_2_bn_moving_var", 
      "attr": {
        "__init__": "[\"one\", {}]", 
        "eps": "0.001", 
        "fix_gamma": "False", 
        "use_global_stats": "True"
      }, 
      "inputs": []
    }, 
    {
      "op": "BatchNorm", 
      "name": "inception_b1_1x7_2_bn", 
      "attr": {
        "eps": "0.001", 
        "fix_gamma": "False", 
        "use_global_stats": "True"
      }, 
      "inputs": [[409, 0, 0], [410, 0, 0], [411, 0, 0], [412, 0, 1], [413, 0, 1]]
    }, 
    {
      "op": "Activation", 
      "name": "inception_b1_1x7_2_relu", 
      "attr": {"act_type": "relu"}, 
      "inputs": [[414, 0, 0]]
    }, 
    {
      "op": "null", 
      "name": "inception_b1_7x1_3_weight", 
      "attr": {
        "kernel": "(7, 1)", 
        "no_bias": "True", 
        "num_filter": "224", 
        "pad": "(3, 0)", 
        "stride": "(1, 1)"
      }, 
      "inputs": []
    }, 
    {
      "op": "Convolution", 
      "name": "inception_b1_7x1_3", 
      "attr": {
        "kernel": "(7, 1)", 
        "no_bias": "True", 
        "num_filter": "224", 
        "pad": "(3, 0)", 
        "stride": "(1, 1)"
      }, 
      "inputs": [[415, 0, 0], [416, 0, 0]]
    }, 
    {
      "op": "null", 
      "name": "inception_b1_7x1_3_bn_gamma", 
      "attr": {
        "eps": "0.001", 
        "fix_gamma": "False", 
        "use_global_stats": "True"
      }, 
      "inputs": []
    }, 
    {
      "op": "null", 
      "name": "inception_b1_7x1_3_bn_beta", 
      "attr": {
        "eps": "0.001", 
        "fix_gamma": "False", 
        "use_global_stats": "True"
      }, 
      "inputs": []
    }, 
    {
      "op": "null", 
      "name": "inception_b1_7x1_3_bn_moving_mean", 
      "attr": {
        "__init__": "[\"zero\", {}]", 
        "eps": "0.001", 
        "fix_gamma": "False", 
        "use_global_stats": "True"
      }, 
      "inputs": []
    }, 
    {
      "op": "null", 
      "name": "inception_b1_7x1_3_bn_moving_var", 
      "attr": {
        "__init__": "[\"one\", {}]", 
        "eps": "0.001", 
        "fix_gamma": "False", 
        "use_global_stats": "True"
      }, 
      "inputs": []
    }, 
    {
      "op": "BatchNorm", 
      "name": "inception_b1_7x1_3_bn", 
      "attr": {
        "eps": "0.001", 
        "fix_gamma": "False", 
        "use_global_stats": "True"
      }, 
      "inputs": [[417, 0, 0], [418, 0, 0], [419, 0, 0], [420, 0, 1], [421, 0, 1]]
    }, 
    {
      "op": "Activation", 
      "name": "inception_b1_7x1_3_relu", 
      "attr": {"act_type": "relu"}, 
      "inputs": [[422, 0, 0]]
    }, 
    {
      "op": "null", 
      "name": "inception_b1_1x7_3_weight", 
      "attr": {
        "kernel": "(1, 7)", 
        "no_bias": "True", 
        "num_filter": "256", 
        "pad": "(0, 3)", 
        "stride": "(1, 1)"
      }, 
      "inputs": []
    }, 
    {
      "op": "Convolution", 
      "name": "inception_b1_1x7_3", 
      "attr": {
        "kernel": "(1, 7)", 
        "no_bias": "True", 
        "num_filter": "256", 
        "pad": "(0, 3)", 
        "stride": "(1, 1)"
      }, 
      "inputs": [[423, 0, 0], [424, 0, 0]]
    }, 
    {
      "op": "null", 
      "name": "inception_b1_1x7_3_bn_gamma", 
      "attr": {
        "eps": "0.001", 
        "fix_gamma": "False", 
        "use_global_stats": "True"
      }, 
      "inputs": []
    }, 
    {
      "op": "null", 
      "name": "inception_b1_1x7_3_bn_beta", 
      "attr": {
        "eps": "0.001", 
        "fix_gamma": "False", 
        "use_global_stats": "True"
      }, 
      "inputs": []
    }, 
    {
      "op": "null", 
      "name": "inception_b1_1x7_3_bn_moving_mean", 
      "attr": {
        "__init__": "[\"zero\", {}]", 
        "eps": "0.001", 
        "fix_gamma": "False", 
        "use_global_stats": "True"
      }, 
      "inputs": []
    }, 
    {
      "op": "null", 
      "name": "inception_b1_1x7_3_bn_moving_var", 
      "attr": {
        "__init__": "[\"one\", {}]", 
        "eps": "0.001", 
        "fix_gamma": "False", 
        "use_global_stats": "True"
      }, 
      "inputs": []
    }, 
    {
      "op": "BatchNorm", 
      "name": "inception_b1_1x7_3_bn", 
      "attr": {
        "eps": "0.001", 
        "fix_gamma": "False", 
        "use_global_stats": "True"
      }, 
      "inputs": [[425, 0, 0], [426, 0, 0], [427, 0, 0], [428, 0, 1], [429, 0, 1]]
    }, 
    {
      "op": "Activation", 
      "name": "inception_b1_1x7_3_relu", 
      "attr": {"act_type": "relu"}, 
      "inputs": [[430, 0, 0]]
    }, 
    {
      "op": "Pooling", 
      "name": "inception_b1_pool_ave", 
      "attr": {
        "kernel": "(3, 3)", 
        "pad": "(1, 1)", 
        "pool_type": "avg", 
        "pooling_convention": "full", 
        "stride": "(1, 1)"
      }, 
      "inputs": [[359, 0, 0]]
    }, 
    {
      "op": "null", 
      "name": "inception_b1_1x1_weight", 
      "attr": {
        "kernel": "(1, 1)", 
        "no_bias": "True", 
        "num_filter": "128", 
        "pad": "(0, 0)", 
        "stride": "(1, 1)"
      }, 
      "inputs": []
    }, 
    {
      "op": "Convolution", 
      "name": "inception_b1_1x1", 
      "attr": {
        "kernel": "(1, 1)", 
        "no_bias": "True", 
        "num_filter": "128", 
        "pad": "(0, 0)", 
        "stride": "(1, 1)"
      }, 
      "inputs": [[432, 0, 0], [433, 0, 0]]
    }, 
    {
      "op": "null", 
      "name": "inception_b1_1x1_bn_gamma", 
      "attr": {
        "eps": "0.001", 
        "fix_gamma": "False", 
        "use_global_stats": "True"
      }, 
      "inputs": []
    }, 
    {
      "op": "null", 
      "name": "inception_b1_1x1_bn_beta", 
      "attr": {
        "eps": "0.001", 
        "fix_gamma": "False", 
        "use_global_stats": "True"
      }, 
      "inputs": []
    }, 
    {
      "op": "null", 
      "name": "inception_b1_1x1_bn_moving_mean", 
      "attr": {
        "__init__": "[\"zero\", {}]", 
        "eps": "0.001", 
        "fix_gamma": "False", 
        "use_global_stats": "True"
      }, 
      "inputs": []
    }, 
    {
      "op": "null", 
      "name": "inception_b1_1x1_bn_moving_var", 
      "attr": {
        "__init__": "[\"one\", {}]", 
        "eps": "0.001", 
        "fix_gamma": "False", 
        "use_global_stats": "True"
      }, 
      "inputs": []
    }, 
    {
      "op": "BatchNorm", 
      "name": "inception_b1_1x1_bn", 
      "attr": {
        "eps": "0.001", 
        "fix_gamma": "False", 
        "use_global_stats": "True"
      }, 
      "inputs": [[434, 0, 0], [435, 0, 0], [436, 0, 0], [437, 0, 1], [438, 0, 1]]
    }, 
    {
      "op": "Activation", 
      "name": "inception_b1_1x1_relu", 
      "attr": {"act_type": "relu"}, 
      "inputs": [[439, 0, 0]]
    }, 
    {
      "op": "Concat", 
      "name": "inception_b1_concat", 
      "attr": {"num_args": "4"}, 
      "inputs": [[367, 0, 0], [391, 0, 0], [431, 0, 0], [440, 0, 0]]
    }, 
    {
      "op": "null", 
      "name": "inception_b2_1x1_2_weight", 
      "attr": {
        "kernel": "(1, 1)", 
        "no_bias": "True", 
        "num_filter": "384", 
        "pad": "(0, 0)", 
        "stride": "(1, 1)"
      }, 
      "inputs": []
    }, 
    {
      "op": "Convolution", 
      "name": "inception_b2_1x1_2", 
      "attr": {
        "kernel": "(1, 1)", 
        "no_bias": "True", 
        "num_filter": "384", 
        "pad": "(0, 0)", 
        "stride": "(1, 1)"
      }, 
      "inputs": [[441, 0, 0], [442, 0, 0]]
    }, 
    {
      "op": "null", 
      "name": "inception_b2_1x1_2_bn_gamma", 
      "attr": {
        "eps": "0.001", 
        "fix_gamma": "False", 
        "use_global_stats": "True"
      }, 
      "inputs": []
    }, 
    {
      "op": "null", 
      "name": "inception_b2_1x1_2_bn_beta", 
      "attr": {
        "eps": "0.001", 
        "fix_gamma": "False", 
        "use_global_stats": "True"
      }, 
      "inputs": []
    }, 
    {
      "op": "null", 
      "name": "inception_b2_1x1_2_bn_moving_mean", 
      "attr": {
        "__init__": "[\"zero\", {}]", 
        "eps": "0.001", 
        "fix_gamma": "False", 
        "use_global_stats": "True"
      }, 
      "inputs": []
    }, 
    {
      "op": "null", 
      "name": "inception_b2_1x1_2_bn_moving_var", 
      "attr": {
        "__init__": "[\"one\", {}]", 
        "eps": "0.001", 
        "fix_gamma": "False", 
        "use_global_stats": "True"
      }, 
      "inputs": []
    }, 
    {
      "op": "BatchNorm", 
      "name": "inception_b2_1x1_2_bn", 
      "attr": {
        "eps": "0.001", 
        "fix_gamma": "False", 
        "use_global_stats": "True"
      }, 
      "inputs": [[443, 0, 0], [444, 0, 0], [445, 0, 0], [446, 0, 1], [447, 0, 1]]
    }, 
    {
      "op": "Activation", 
      "name": "inception_b2_1x1_2_relu", 
      "attr": {"act_type": "relu"}, 
      "inputs": [[448, 0, 0]]
    }, 
    {
      "op": "null", 
      "name": "inception_b2_1x7_reduce_weight", 
      "attr": {
        "kernel": "(1, 1)", 
        "no_bias": "True", 
        "num_filter": "192", 
        "pad": "(0, 0)", 
        "stride": "(1, 1)"
      }, 
      "inputs": []
    }, 
    {
      "op": "Convolution", 
      "name": "inception_b2_1x7_reduce", 
      "attr": {
        "kernel": "(1, 1)", 
        "no_bias": "True", 
        "num_filter": "192", 
        "pad": "(0, 0)", 
        "stride": "(1, 1)"
      }, 
      "inputs": [[441, 0, 0], [450, 0, 0]]
    }, 
    {
      "op": "null", 
      "name": "inception_b2_1x7_reduce_bn_gamma", 
      "attr": {
        "eps": "0.001", 
        "fix_gamma": "False", 
        "use_global_stats": "True"
      }, 
      "inputs": []
    }, 
    {
      "op": "null", 
      "name": "inception_b2_1x7_reduce_bn_beta", 
      "attr": {
        "eps": "0.001", 
        "fix_gamma": "False", 
        "use_global_stats": "True"
      }, 
      "inputs": []
    }, 
    {
      "op": "null", 
      "name": "inception_b2_1x7_reduce_bn_moving_mean", 
      "attr": {
        "__init__": "[\"zero\", {}]", 
        "eps": "0.001", 
        "fix_gamma": "False", 
        "use_global_stats": "True"
      }, 
      "inputs": []
    }, 
    {
      "op": "null", 
      "name": "inception_b2_1x7_reduce_bn_moving_var", 
      "attr": {
        "__init__": "[\"one\", {}]", 
        "eps": "0.001", 
        "fix_gamma": "False", 
        "use_global_stats": "True"
      }, 
      "inputs": []
    }, 
    {
      "op": "BatchNorm", 
      "name": "inception_b2_1x7_reduce_bn", 
      "attr": {
        "eps": "0.001", 
        "fix_gamma": "False", 
        "use_global_stats": "True"
      }, 
      "inputs": [[451, 0, 0], [452, 0, 0], [453, 0, 0], [454, 0, 1], [455, 0, 1]]
    }, 
    {
      "op": "Activation", 
      "name": "inception_b2_1x7_reduce_relu", 
      "attr": {"act_type": "relu"}, 
      "inputs": [[456, 0, 0]]
    }, 
    {
      "op": "null", 
      "name": "inception_b2_1x7_weight", 
      "attr": {
        "kernel": "(1, 7)", 
        "no_bias": "True", 
        "num_filter": "224", 
        "pad": "(0, 3)", 
        "stride": "(1, 1)"
      }, 
      "inputs": []
    }, 
    {
      "op": "Convolution", 
      "name": "inception_b2_1x7", 
      "attr": {
        "kernel": "(1, 7)", 
        "no_bias": "True", 
        "num_filter": "224", 
        "pad": "(0, 3)", 
        "stride": "(1, 1)"
      }, 
      "inputs": [[457, 0, 0], [458, 0, 0]]
    }, 
    {
      "op": "null", 
      "name": "inception_b2_1x7_bn_gamma", 
      "attr": {
        "eps": "0.001", 
        "fix_gamma": "False", 
        "use_global_stats": "True"
      }, 
      "inputs": []
    }, 
    {
      "op": "null", 
      "name": "inception_b2_1x7_bn_beta", 
      "attr": {
        "eps": "0.001", 
        "fix_gamma": "False", 
        "use_global_stats": "True"
      }, 
      "inputs": []
    }, 
    {
      "op": "null", 
      "name": "inception_b2_1x7_bn_moving_mean", 
      "attr": {
        "__init__": "[\"zero\", {}]", 
        "eps": "0.001", 
        "fix_gamma": "False", 
        "use_global_stats": "True"
      }, 
      "inputs": []
    }, 
    {
      "op": "null", 
      "name": "inception_b2_1x7_bn_moving_var", 
      "attr": {
        "__init__": "[\"one\", {}]", 
        "eps": "0.001", 
        "fix_gamma": "False", 
        "use_global_stats": "True"
      }, 
      "inputs": []
    }, 
    {
      "op": "BatchNorm", 
      "name": "inception_b2_1x7_bn", 
      "attr": {
        "eps": "0.001", 
        "fix_gamma": "False", 
        "use_global_stats": "True"
      }, 
      "inputs": [[459, 0, 0], [460, 0, 0], [461, 0, 0], [462, 0, 1], [463, 0, 1]]
    }, 
    {
      "op": "Activation", 
      "name": "inception_b2_1x7_relu", 
      "attr": {"act_type": "relu"}, 
      "inputs": [[464, 0, 0]]
    }, 
    {
      "op": "null", 
      "name": "inception_b2_7x1_weight", 
      "attr": {
        "kernel": "(7, 1)", 
        "no_bias": "True", 
        "num_filter": "256", 
        "pad": "(3, 0)", 
        "stride": "(1, 1)"
      }, 
      "inputs": []
    }, 
    {
      "op": "Convolution", 
      "name": "inception_b2_7x1", 
      "attr": {
        "kernel": "(7, 1)", 
        "no_bias": "True", 
        "num_filter": "256", 
        "pad": "(3, 0)", 
        "stride": "(1, 1)"
      }, 
      "inputs": [[465, 0, 0], [466, 0, 0]]
    }, 
    {
      "op": "null", 
      "name": "inception_b2_7x1_bn_gamma", 
      "attr": {
        "eps": "0.001", 
        "fix_gamma": "False", 
        "use_global_stats": "True"
      }, 
      "inputs": []
    }, 
    {
      "op": "null", 
      "name": "inception_b2_7x1_bn_beta", 
      "attr": {
        "eps": "0.001", 
        "fix_gamma": "False", 
        "use_global_stats": "True"
      }, 
      "inputs": []
    }, 
    {
      "op": "null", 
      "name": "inception_b2_7x1_bn_moving_mean", 
      "attr": {
        "__init__": "[\"zero\", {}]", 
        "eps": "0.001", 
        "fix_gamma": "False", 
        "use_global_stats": "True"
      }, 
      "inputs": []
    }, 
    {
      "op": "null", 
      "name": "inception_b2_7x1_bn_moving_var", 
      "attr": {
        "__init__": "[\"one\", {}]", 
        "eps": "0.001", 
        "fix_gamma": "False", 
        "use_global_stats": "True"
      }, 
      "inputs": []
    }, 
    {
      "op": "BatchNorm", 
      "name": "inception_b2_7x1_bn", 
      "attr": {
        "eps": "0.001", 
        "fix_gamma": "False", 
        "use_global_stats": "True"
      }, 
      "inputs": [[467, 0, 0], [468, 0, 0], [469, 0, 0], [470, 0, 1], [471, 0, 1]]
    }, 
    {
      "op": "Activation", 
      "name": "inception_b2_7x1_relu", 
      "attr": {"act_type": "relu"}, 
      "inputs": [[472, 0, 0]]
    }, 
    {
      "op": "null", 
      "name": "inception_b2_7x1_2_reduce_weight", 
      "attr": {
        "kernel": "(1, 1)", 
        "no_bias": "True", 
        "num_filter": "192", 
        "pad": "(0, 0)", 
        "stride": "(1, 1)"
      }, 
      "inputs": []
    }, 
    {
      "op": "Convolution", 
      "name": "inception_b2_7x1_2_reduce", 
      "attr": {
        "kernel": "(1, 1)", 
        "no_bias": "True", 
        "num_filter": "192", 
        "pad": "(0, 0)", 
        "stride": "(1, 1)"
      }, 
      "inputs": [[441, 0, 0], [474, 0, 0]]
    }, 
    {
      "op": "null", 
      "name": "inception_b2_7x1_2_reduce_bn_gamma", 
      "attr": {
        "eps": "0.001", 
        "fix_gamma": "False", 
        "use_global_stats": "True"
      }, 
      "inputs": []
    }, 
    {
      "op": "null", 
      "name": "inception_b2_7x1_2_reduce_bn_beta", 
      "attr": {
        "eps": "0.001", 
        "fix_gamma": "False", 
        "use_global_stats": "True"
      }, 
      "inputs": []
    }, 
    {
      "op": "null", 
      "name": "inception_b2_7x1_2_reduce_bn_moving_mean", 
      "attr": {
        "__init__": "[\"zero\", {}]", 
        "eps": "0.001", 
        "fix_gamma": "False", 
        "use_global_stats": "True"
      }, 
      "inputs": []
    }, 
    {
      "op": "null", 
      "name": "inception_b2_7x1_2_reduce_bn_moving_var", 
      "attr": {
        "__init__": "[\"one\", {}]", 
        "eps": "0.001", 
        "fix_gamma": "False", 
        "use_global_stats": "True"
      }, 
      "inputs": []
    }, 
    {
      "op": "BatchNorm", 
      "name": "inception_b2_7x1_2_reduce_bn", 
      "attr": {
        "eps": "0.001", 
        "fix_gamma": "False", 
        "use_global_stats": "True"
      }, 
      "inputs": [[475, 0, 0], [476, 0, 0], [477, 0, 0], [478, 0, 1], [479, 0, 1]]
    }, 
    {
      "op": "Activation", 
      "name": "inception_b2_7x1_2_reduce_relu", 
      "attr": {"act_type": "relu"}, 
      "inputs": [[480, 0, 0]]
    }, 
    {
      "op": "null", 
      "name": "inception_b2_7x1_2_weight", 
      "attr": {
        "kernel": "(7, 1)", 
        "no_bias": "True", 
        "num_filter": "192", 
        "pad": "(3, 0)", 
        "stride": "(1, 1)"
      }, 
      "inputs": []
    }, 
    {
      "op": "Convolution", 
      "name": "inception_b2_7x1_2", 
      "attr": {
        "kernel": "(7, 1)", 
        "no_bias": "True", 
        "num_filter": "192", 
        "pad": "(3, 0)", 
        "stride": "(1, 1)"
      }, 
      "inputs": [[481, 0, 0], [482, 0, 0]]
    }, 
    {
      "op": "null", 
      "name": "inception_b2_7x1_2_bn_gamma", 
      "attr": {
        "eps": "0.001", 
        "fix_gamma": "False", 
        "use_global_stats": "True"
      }, 
      "inputs": []
    }, 
    {
      "op": "null", 
      "name": "inception_b2_7x1_2_bn_beta", 
      "attr": {
        "eps": "0.001", 
        "fix_gamma": "False", 
        "use_global_stats": "True"
      }, 
      "inputs": []
    }, 
    {
      "op": "null", 
      "name": "inception_b2_7x1_2_bn_moving_mean", 
      "attr": {
        "__init__": "[\"zero\", {}]", 
        "eps": "0.001", 
        "fix_gamma": "False", 
        "use_global_stats": "True"
      }, 
      "inputs": []
    }, 
    {
      "op": "null", 
      "name": "inception_b2_7x1_2_bn_moving_var", 
      "attr": {
        "__init__": "[\"one\", {}]", 
        "eps": "0.001", 
        "fix_gamma": "False", 
        "use_global_stats": "True"
      }, 
      "inputs": []
    }, 
    {
      "op": "BatchNorm", 
      "name": "inception_b2_7x1_2_bn", 
      "attr": {
        "eps": "0.001", 
        "fix_gamma": "False", 
        "use_global_stats": "True"
      }, 
      "inputs": [[483, 0, 0], [484, 0, 0], [485, 0, 0], [486, 0, 1], [487, 0, 1]]
    }, 
    {
      "op": "Activation", 
      "name": "inception_b2_7x1_2_relu", 
      "attr": {"act_type": "relu"}, 
      "inputs": [[488, 0, 0]]
    }, 
    {
      "op": "null", 
      "name": "inception_b2_1x7_2_weight", 
      "attr": {
        "kernel": "(1, 7)", 
        "no_bias": "True", 
        "num_filter": "224", 
        "pad": "(0, 3)", 
        "stride": "(1, 1)"
      }, 
      "inputs": []
    }, 
    {
      "op": "Convolution", 
      "name": "inception_b2_1x7_2", 
      "attr": {
        "kernel": "(1, 7)", 
        "no_bias": "True", 
        "num_filter": "224", 
        "pad": "(0, 3)", 
        "stride": "(1, 1)"
      }, 
      "inputs": [[489, 0, 0], [490, 0, 0]]
    }, 
    {
      "op": "null", 
      "name": "inception_b2_1x7_2_bn_gamma", 
      "attr": {
        "eps": "0.001", 
        "fix_gamma": "False", 
        "use_global_stats": "True"
      }, 
      "inputs": []
    }, 
    {
      "op": "null", 
      "name": "inception_b2_1x7_2_bn_beta", 
      "attr": {
        "eps": "0.001", 
        "fix_gamma": "False", 
        "use_global_stats": "True"
      }, 
      "inputs": []
    }, 
    {
      "op": "null", 
      "name": "inception_b2_1x7_2_bn_moving_mean", 
      "attr": {
        "__init__": "[\"zero\", {}]", 
        "eps": "0.001", 
        "fix_gamma": "False", 
        "use_global_stats": "True"
      }, 
      "inputs": []
    }, 
    {
      "op": "null", 
      "name": "inception_b2_1x7_2_bn_moving_var", 
      "attr": {
        "__init__": "[\"one\", {}]", 
        "eps": "0.001", 
        "fix_gamma": "False", 
        "use_global_stats": "True"
      }, 
      "inputs": []
    }, 
    {
      "op": "BatchNorm", 
      "name": "inception_b2_1x7_2_bn", 
      "attr": {
        "eps": "0.001", 
        "fix_gamma": "False", 
        "use_global_stats": "True"
      }, 
      "inputs": [[491, 0, 0], [492, 0, 0], [493, 0, 0], [494, 0, 1], [495, 0, 1]]
    }, 
    {
      "op": "Activation", 
      "name": "inception_b2_1x7_2_relu", 
      "attr": {"act_type": "relu"}, 
      "inputs": [[496, 0, 0]]
    }, 
    {
      "op": "null", 
      "name": "inception_b2_7x1_3_weight", 
      "attr": {
        "kernel": "(7, 1)", 
        "no_bias": "True", 
        "num_filter": "224", 
        "pad": "(3, 0)", 
        "stride": "(1, 1)"
      }, 
      "inputs": []
    }, 
    {
      "op": "Convolution", 
      "name": "inception_b2_7x1_3", 
      "attr": {
        "kernel": "(7, 1)", 
        "no_bias": "True", 
        "num_filter": "224", 
        "pad": "(3, 0)", 
        "stride": "(1, 1)"
      }, 
      "inputs": [[497, 0, 0], [498, 0, 0]]
    }, 
    {
      "op": "null", 
      "name": "inception_b2_7x1_3_bn_gamma", 
      "attr": {
        "eps": "0.001", 
        "fix_gamma": "False", 
        "use_global_stats": "True"
      }, 
      "inputs": []
    }, 
    {
      "op": "null", 
      "name": "inception_b2_7x1_3_bn_beta", 
      "attr": {
        "eps": "0.001", 
        "fix_gamma": "False", 
        "use_global_stats": "True"
      }, 
      "inputs": []
    }, 
    {
      "op": "null", 
      "name": "inception_b2_7x1_3_bn_moving_mean", 
      "attr": {
        "__init__": "[\"zero\", {}]", 
        "eps": "0.001", 
        "fix_gamma": "False", 
        "use_global_stats": "True"
      }, 
      "inputs": []
    }, 
    {
      "op": "null", 
      "name": "inception_b2_7x1_3_bn_moving_var", 
      "attr": {
        "__init__": "[\"one\", {}]", 
        "eps": "0.001", 
        "fix_gamma": "False", 
        "use_global_stats": "True"
      }, 
      "inputs": []
    }, 
    {
      "op": "BatchNorm", 
      "name": "inception_b2_7x1_3_bn", 
      "attr": {
        "eps": "0.001", 
        "fix_gamma": "False", 
        "use_global_stats": "True"
      }, 
      "inputs": [[499, 0, 0], [500, 0, 0], [501, 0, 0], [502, 0, 1], [503, 0, 1]]
    }, 
    {
      "op": "Activation", 
      "name": "inception_b2_7x1_3_relu", 
      "attr": {"act_type": "relu"}, 
      "inputs": [[504, 0, 0]]
    }, 
    {
      "op": "null", 
      "name": "inception_b2_1x7_3_weight", 
      "attr": {
        "kernel": "(1, 7)", 
        "no_bias": "True", 
        "num_filter": "256", 
        "pad": "(0, 3)", 
        "stride": "(1, 1)"
      }, 
      "inputs": []
    }, 
    {
      "op": "Convolution", 
      "name": "inception_b2_1x7_3", 
      "attr": {
        "kernel": "(1, 7)", 
        "no_bias": "True", 
        "num_filter": "256", 
        "pad": "(0, 3)", 
        "stride": "(1, 1)"
      }, 
      "inputs": [[505, 0, 0], [506, 0, 0]]
    }, 
    {
      "op": "null", 
      "name": "inception_b2_1x7_3_bn_gamma", 
      "attr": {
        "eps": "0.001", 
        "fix_gamma": "False", 
        "use_global_stats": "True"
      }, 
      "inputs": []
    }, 
    {
      "op": "null", 
      "name": "inception_b2_1x7_3_bn_beta", 
      "attr": {
        "eps": "0.001", 
        "fix_gamma": "False", 
        "use_global_stats": "True"
      }, 
      "inputs": []
    }, 
    {
      "op": "null", 
      "name": "inception_b2_1x7_3_bn_moving_mean", 
      "attr": {
        "__init__": "[\"zero\", {}]", 
        "eps": "0.001", 
        "fix_gamma": "False", 
        "use_global_stats": "True"
      }, 
      "inputs": []
    }, 
    {
      "op": "null", 
      "name": "inception_b2_1x7_3_bn_moving_var", 
      "attr": {
        "__init__": "[\"one\", {}]", 
        "eps": "0.001", 
        "fix_gamma": "False", 
        "use_global_stats": "True"
      }, 
      "inputs": []
    }, 
    {
      "op": "BatchNorm", 
      "name": "inception_b2_1x7_3_bn", 
      "attr": {
        "eps": "0.001", 
        "fix_gamma": "False", 
        "use_global_stats": "True"
      }, 
      "inputs": [[507, 0, 0], [508, 0, 0], [509, 0, 0], [510, 0, 1], [511, 0, 1]]
    }, 
    {
      "op": "Activation", 
      "name": "inception_b2_1x7_3_relu", 
      "attr": {"act_type": "relu"}, 
      "inputs": [[512, 0, 0]]
    }, 
    {
      "op": "Pooling", 
      "name": "inception_b2_pool_ave", 
      "attr": {
        "kernel": "(3, 3)", 
        "pad": "(1, 1)", 
        "pool_type": "avg", 
        "pooling_convention": "full", 
        "stride": "(1, 1)"
      }, 
      "inputs": [[441, 0, 0]]
    }, 
    {
      "op": "null", 
      "name": "inception_b2_1x1_weight", 
      "attr": {
        "kernel": "(1, 1)", 
        "no_bias": "True", 
        "num_filter": "128", 
        "pad": "(0, 0)", 
        "stride": "(1, 1)"
      }, 
      "inputs": []
    }, 
    {
      "op": "Convolution", 
      "name": "inception_b2_1x1", 
      "attr": {
        "kernel": "(1, 1)", 
        "no_bias": "True", 
        "num_filter": "128", 
        "pad": "(0, 0)", 
        "stride": "(1, 1)"
      }, 
      "inputs": [[514, 0, 0], [515, 0, 0]]
    }, 
    {
      "op": "null", 
      "name": "inception_b2_1x1_bn_gamma", 
      "attr": {
        "eps": "0.001", 
        "fix_gamma": "False", 
        "use_global_stats": "True"
      }, 
      "inputs": []
    }, 
    {
      "op": "null", 
      "name": "inception_b2_1x1_bn_beta", 
      "attr": {
        "eps": "0.001", 
        "fix_gamma": "False", 
        "use_global_stats": "True"
      }, 
      "inputs": []
    }, 
    {
      "op": "null", 
      "name": "inception_b2_1x1_bn_moving_mean", 
      "attr": {
        "__init__": "[\"zero\", {}]", 
        "eps": "0.001", 
        "fix_gamma": "False", 
        "use_global_stats": "True"
      }, 
      "inputs": []
    }, 
    {
      "op": "null", 
      "name": "inception_b2_1x1_bn_moving_var", 
      "attr": {
        "__init__": "[\"one\", {}]", 
        "eps": "0.001", 
        "fix_gamma": "False", 
        "use_global_stats": "True"
      }, 
      "inputs": []
    }, 
    {
      "op": "BatchNorm", 
      "name": "inception_b2_1x1_bn", 
      "attr": {
        "eps": "0.001", 
        "fix_gamma": "False", 
        "use_global_stats": "True"
      }, 
      "inputs": [[516, 0, 0], [517, 0, 0], [518, 0, 0], [519, 0, 1], [520, 0, 1]]
    }, 
    {
      "op": "Activation", 
      "name": "inception_b2_1x1_relu", 
      "attr": {"act_type": "relu"}, 
      "inputs": [[521, 0, 0]]
    }, 
    {
      "op": "Concat", 
      "name": "inception_b2_concat", 
      "attr": {"num_args": "4"}, 
      "inputs": [[449, 0, 0], [473, 0, 0], [513, 0, 0], [522, 0, 0]]
    }, 
    {
      "op": "null", 
      "name": "inception_b3_1x1_2_weight", 
      "attr": {
        "kernel": "(1, 1)", 
        "no_bias": "True", 
        "num_filter": "384", 
        "pad": "(0, 0)", 
        "stride": "(1, 1)"
      }, 
      "inputs": []
    }, 
    {
      "op": "Convolution", 
      "name": "inception_b3_1x1_2", 
      "attr": {
        "kernel": "(1, 1)", 
        "no_bias": "True", 
        "num_filter": "384", 
        "pad": "(0, 0)", 
        "stride": "(1, 1)"
      }, 
      "inputs": [[523, 0, 0], [524, 0, 0]]
    }, 
    {
      "op": "null", 
      "name": "inception_b3_1x1_2_bn_gamma", 
      "attr": {
        "eps": "0.001", 
        "fix_gamma": "False", 
        "use_global_stats": "True"
      }, 
      "inputs": []
    }, 
    {
      "op": "null", 
      "name": "inception_b3_1x1_2_bn_beta", 
      "attr": {
        "eps": "0.001", 
        "fix_gamma": "False", 
        "use_global_stats": "True"
      }, 
      "inputs": []
    }, 
    {
      "op": "null", 
      "name": "inception_b3_1x1_2_bn_moving_mean", 
      "attr": {
        "__init__": "[\"zero\", {}]", 
        "eps": "0.001", 
        "fix_gamma": "False", 
        "use_global_stats": "True"
      }, 
      "inputs": []
    }, 
    {
      "op": "null", 
      "name": "inception_b3_1x1_2_bn_moving_var", 
      "attr": {
        "__init__": "[\"one\", {}]", 
        "eps": "0.001", 
        "fix_gamma": "False", 
        "use_global_stats": "True"
      }, 
      "inputs": []
    }, 
    {
      "op": "BatchNorm", 
      "name": "inception_b3_1x1_2_bn", 
      "attr": {
        "eps": "0.001", 
        "fix_gamma": "False", 
        "use_global_stats": "True"
      }, 
      "inputs": [[525, 0, 0], [526, 0, 0], [527, 0, 0], [528, 0, 1], [529, 0, 1]]
    }, 
    {
      "op": "Activation", 
      "name": "inception_b3_1x1_2_relu", 
      "attr": {"act_type": "relu"}, 
      "inputs": [[530, 0, 0]]
    }, 
    {
      "op": "null", 
      "name": "inception_b3_1x7_reduce_weight", 
      "attr": {
        "kernel": "(1, 1)", 
        "no_bias": "True", 
        "num_filter": "192", 
        "pad": "(0, 0)", 
        "stride": "(1, 1)"
      }, 
      "inputs": []
    }, 
    {
      "op": "Convolution", 
      "name": "inception_b3_1x7_reduce", 
      "attr": {
        "kernel": "(1, 1)", 
        "no_bias": "True", 
        "num_filter": "192", 
        "pad": "(0, 0)", 
        "stride": "(1, 1)"
      }, 
      "inputs": [[523, 0, 0], [532, 0, 0]]
    }, 
    {
      "op": "null", 
      "name": "inception_b3_1x7_reduce_bn_gamma", 
      "attr": {
        "eps": "0.001", 
        "fix_gamma": "False", 
        "use_global_stats": "True"
      }, 
      "inputs": []
    }, 
    {
      "op": "null", 
      "name": "inception_b3_1x7_reduce_bn_beta", 
      "attr": {
        "eps": "0.001", 
        "fix_gamma": "False", 
        "use_global_stats": "True"
      }, 
      "inputs": []
    }, 
    {
      "op": "null", 
      "name": "inception_b3_1x7_reduce_bn_moving_mean", 
      "attr": {
        "__init__": "[\"zero\", {}]", 
        "eps": "0.001", 
        "fix_gamma": "False", 
        "use_global_stats": "True"
      }, 
      "inputs": []
    }, 
    {
      "op": "null", 
      "name": "inception_b3_1x7_reduce_bn_moving_var", 
      "attr": {
        "__init__": "[\"one\", {}]", 
        "eps": "0.001", 
        "fix_gamma": "False", 
        "use_global_stats": "True"
      }, 
      "inputs": []
    }, 
    {
      "op": "BatchNorm", 
      "name": "inception_b3_1x7_reduce_bn", 
      "attr": {
        "eps": "0.001", 
        "fix_gamma": "False", 
        "use_global_stats": "True"
      }, 
      "inputs": [[533, 0, 0], [534, 0, 0], [535, 0, 0], [536, 0, 1], [537, 0, 1]]
    }, 
    {
      "op": "Activation", 
      "name": "inception_b3_1x7_reduce_relu", 
      "attr": {"act_type": "relu"}, 
      "inputs": [[538, 0, 0]]
    }, 
    {
      "op": "null", 
      "name": "inception_b3_1x7_weight", 
      "attr": {
        "kernel": "(1, 7)", 
        "no_bias": "True", 
        "num_filter": "224", 
        "pad": "(0, 3)", 
        "stride": "(1, 1)"
      }, 
      "inputs": []
    }, 
    {
      "op": "Convolution", 
      "name": "inception_b3_1x7", 
      "attr": {
        "kernel": "(1, 7)", 
        "no_bias": "True", 
        "num_filter": "224", 
        "pad": "(0, 3)", 
        "stride": "(1, 1)"
      }, 
      "inputs": [[539, 0, 0], [540, 0, 0]]
    }, 
    {
      "op": "null", 
      "name": "inception_b3_1x7_bn_gamma", 
      "attr": {
        "eps": "0.001", 
        "fix_gamma": "False", 
        "use_global_stats": "True"
      }, 
      "inputs": []
    }, 
    {
      "op": "null", 
      "name": "inception_b3_1x7_bn_beta", 
      "attr": {
        "eps": "0.001", 
        "fix_gamma": "False", 
        "use_global_stats": "True"
      }, 
      "inputs": []
    }, 
    {
      "op": "null", 
      "name": "inception_b3_1x7_bn_moving_mean", 
      "attr": {
        "__init__": "[\"zero\", {}]", 
        "eps": "0.001", 
        "fix_gamma": "False", 
        "use_global_stats": "True"
      }, 
      "inputs": []
    }, 
    {
      "op": "null", 
      "name": "inception_b3_1x7_bn_moving_var", 
      "attr": {
        "__init__": "[\"one\", {}]", 
        "eps": "0.001", 
        "fix_gamma": "False", 
        "use_global_stats": "True"
      }, 
      "inputs": []
    }, 
    {
      "op": "BatchNorm", 
      "name": "inception_b3_1x7_bn", 
      "attr": {
        "eps": "0.001", 
        "fix_gamma": "False", 
        "use_global_stats": "True"
      }, 
      "inputs": [[541, 0, 0], [542, 0, 0], [543, 0, 0], [544, 0, 1], [545, 0, 1]]
    }, 
    {
      "op": "Activation", 
      "name": "inception_b3_1x7_relu", 
      "attr": {"act_type": "relu"}, 
      "inputs": [[546, 0, 0]]
    }, 
    {
      "op": "null", 
      "name": "inception_b3_7x1_weight", 
      "attr": {
        "kernel": "(7, 1)", 
        "no_bias": "True", 
        "num_filter": "256", 
        "pad": "(3, 0)", 
        "stride": "(1, 1)"
      }, 
      "inputs": []
    }, 
    {
      "op": "Convolution", 
      "name": "inception_b3_7x1", 
      "attr": {
        "kernel": "(7, 1)", 
        "no_bias": "True", 
        "num_filter": "256", 
        "pad": "(3, 0)", 
        "stride": "(1, 1)"
      }, 
      "inputs": [[547, 0, 0], [548, 0, 0]]
    }, 
    {
      "op": "null", 
      "name": "inception_b3_7x1_bn_gamma", 
      "attr": {
        "eps": "0.001", 
        "fix_gamma": "False", 
        "use_global_stats": "True"
      }, 
      "inputs": []
    }, 
    {
      "op": "null", 
      "name": "inception_b3_7x1_bn_beta", 
      "attr": {
        "eps": "0.001", 
        "fix_gamma": "False", 
        "use_global_stats": "True"
      }, 
      "inputs": []
    }, 
    {
      "op": "null", 
      "name": "inception_b3_7x1_bn_moving_mean", 
      "attr": {
        "__init__": "[\"zero\", {}]", 
        "eps": "0.001", 
        "fix_gamma": "False", 
        "use_global_stats": "True"
      }, 
      "inputs": []
    }, 
    {
      "op": "null", 
      "name": "inception_b3_7x1_bn_moving_var", 
      "attr": {
        "__init__": "[\"one\", {}]", 
        "eps": "0.001", 
        "fix_gamma": "False", 
        "use_global_stats": "True"
      }, 
      "inputs": []
    }, 
    {
      "op": "BatchNorm", 
      "name": "inception_b3_7x1_bn", 
      "attr": {
        "eps": "0.001", 
        "fix_gamma": "False", 
        "use_global_stats": "True"
      }, 
      "inputs": [[549, 0, 0], [550, 0, 0], [551, 0, 0], [552, 0, 1], [553, 0, 1]]
    }, 
    {
      "op": "Activation", 
      "name": "inception_b3_7x1_relu", 
      "attr": {"act_type": "relu"}, 
      "inputs": [[554, 0, 0]]
    }, 
    {
      "op": "null", 
      "name": "inception_b3_7x1_2_reduce_weight", 
      "attr": {
        "kernel": "(1, 1)", 
        "no_bias": "True", 
        "num_filter": "192", 
        "pad": "(0, 0)", 
        "stride": "(1, 1)"
      }, 
      "inputs": []
    }, 
    {
      "op": "Convolution", 
      "name": "inception_b3_7x1_2_reduce", 
      "attr": {
        "kernel": "(1, 1)", 
        "no_bias": "True", 
        "num_filter": "192", 
        "pad": "(0, 0)", 
        "stride": "(1, 1)"
      }, 
      "inputs": [[523, 0, 0], [556, 0, 0]]
    }, 
    {
      "op": "null", 
      "name": "inception_b3_7x1_2_reduce_bn_gamma", 
      "attr": {
        "eps": "0.001", 
        "fix_gamma": "False", 
        "use_global_stats": "True"
      }, 
      "inputs": []
    }, 
    {
      "op": "null", 
      "name": "inception_b3_7x1_2_reduce_bn_beta", 
      "attr": {
        "eps": "0.001", 
        "fix_gamma": "False", 
        "use_global_stats": "True"
      }, 
      "inputs": []
    }, 
    {
      "op": "null", 
      "name": "inception_b3_7x1_2_reduce_bn_moving_mean", 
      "attr": {
        "__init__": "[\"zero\", {}]", 
        "eps": "0.001", 
        "fix_gamma": "False", 
        "use_global_stats": "True"
      }, 
      "inputs": []
    }, 
    {
      "op": "null", 
      "name": "inception_b3_7x1_2_reduce_bn_moving_var", 
      "attr": {
        "__init__": "[\"one\", {}]", 
        "eps": "0.001", 
        "fix_gamma": "False", 
        "use_global_stats": "True"
      }, 
      "inputs": []
    }, 
    {
      "op": "BatchNorm", 
      "name": "inception_b3_7x1_2_reduce_bn", 
      "attr": {
        "eps": "0.001", 
        "fix_gamma": "False", 
        "use_global_stats": "True"
      }, 
      "inputs": [[557, 0, 0], [558, 0, 0], [559, 0, 0], [560, 0, 1], [561, 0, 1]]
    }, 
    {
      "op": "Activation", 
      "name": "inception_b3_7x1_2_reduce_relu", 
      "attr": {"act_type": "relu"}, 
      "inputs": [[562, 0, 0]]
    }, 
    {
      "op": "null", 
      "name": "inception_b3_7x1_2_weight", 
      "attr": {
        "kernel": "(7, 1)", 
        "no_bias": "True", 
        "num_filter": "192", 
        "pad": "(3, 0)", 
        "stride": "(1, 1)"
      }, 
      "inputs": []
    }, 
    {
      "op": "Convolution", 
      "name": "inception_b3_7x1_2", 
      "attr": {
        "kernel": "(7, 1)", 
        "no_bias": "True", 
        "num_filter": "192", 
        "pad": "(3, 0)", 
        "stride": "(1, 1)"
      }, 
      "inputs": [[563, 0, 0], [564, 0, 0]]
    }, 
    {
      "op": "null", 
      "name": "inception_b3_7x1_2_bn_gamma", 
      "attr": {
        "eps": "0.001", 
        "fix_gamma": "False", 
        "use_global_stats": "True"
      }, 
      "inputs": []
    }, 
    {
      "op": "null", 
      "name": "inception_b3_7x1_2_bn_beta", 
      "attr": {
        "eps": "0.001", 
        "fix_gamma": "False", 
        "use_global_stats": "True"
      }, 
      "inputs": []
    }, 
    {
      "op": "null", 
      "name": "inception_b3_7x1_2_bn_moving_mean", 
      "attr": {
        "__init__": "[\"zero\", {}]", 
        "eps": "0.001", 
        "fix_gamma": "False", 
        "use_global_stats": "True"
      }, 
      "inputs": []
    }, 
    {
      "op": "null", 
      "name": "inception_b3_7x1_2_bn_moving_var", 
      "attr": {
        "__init__": "[\"one\", {}]", 
        "eps": "0.001", 
        "fix_gamma": "False", 
        "use_global_stats": "True"
      }, 
      "inputs": []
    }, 
    {
      "op": "BatchNorm", 
      "name": "inception_b3_7x1_2_bn", 
      "attr": {
        "eps": "0.001", 
        "fix_gamma": "False", 
        "use_global_stats": "True"
      }, 
      "inputs": [[565, 0, 0], [566, 0, 0], [567, 0, 0], [568, 0, 1], [569, 0, 1]]
    }, 
    {
      "op": "Activation", 
      "name": "inception_b3_7x1_2_relu", 
      "attr": {"act_type": "relu"}, 
      "inputs": [[570, 0, 0]]
    }, 
    {
      "op": "null", 
      "name": "inception_b3_1x7_2_weight", 
      "attr": {
        "kernel": "(1, 7)", 
        "no_bias": "True", 
        "num_filter": "224", 
        "pad": "(0, 3)", 
        "stride": "(1, 1)"
      }, 
      "inputs": []
    }, 
    {
      "op": "Convolution", 
      "name": "inception_b3_1x7_2", 
      "attr": {
        "kernel": "(1, 7)", 
        "no_bias": "True", 
        "num_filter": "224", 
        "pad": "(0, 3)", 
        "stride": "(1, 1)"
      }, 
      "inputs": [[571, 0, 0], [572, 0, 0]]
    }, 
    {
      "op": "null", 
      "name": "inception_b3_1x7_2_bn_gamma", 
      "attr": {
        "eps": "0.001", 
        "fix_gamma": "False", 
        "use_global_stats": "True"
      }, 
      "inputs": []
    }, 
    {
      "op": "null", 
      "name": "inception_b3_1x7_2_bn_beta", 
      "attr": {
        "eps": "0.001", 
        "fix_gamma": "False", 
        "use_global_stats": "True"
      }, 
      "inputs": []
    }, 
    {
      "op": "null", 
      "name": "inception_b3_1x7_2_bn_moving_mean", 
      "attr": {
        "__init__": "[\"zero\", {}]", 
        "eps": "0.001", 
        "fix_gamma": "False", 
        "use_global_stats": "True"
      }, 
      "inputs": []
    }, 
    {
      "op": "null", 
      "name": "inception_b3_1x7_2_bn_moving_var", 
      "attr": {
        "__init__": "[\"one\", {}]", 
        "eps": "0.001", 
        "fix_gamma": "False", 
        "use_global_stats": "True"
      }, 
      "inputs": []
    }, 
    {
      "op": "BatchNorm", 
      "name": "inception_b3_1x7_2_bn", 
      "attr": {
        "eps": "0.001", 
        "fix_gamma": "False", 
        "use_global_stats": "True"
      }, 
      "inputs": [[573, 0, 0], [574, 0, 0], [575, 0, 0], [576, 0, 1], [577, 0, 1]]
    }, 
    {
      "op": "Activation", 
      "name": "inception_b3_1x7_2_relu", 
      "attr": {"act_type": "relu"}, 
      "inputs": [[578, 0, 0]]
    }, 
    {
      "op": "null", 
      "name": "inception_b3_7x1_3_weight", 
      "attr": {
        "kernel": "(7, 1)", 
        "no_bias": "True", 
        "num_filter": "224", 
        "pad": "(3, 0)", 
        "stride": "(1, 1)"
      }, 
      "inputs": []
    }, 
    {
      "op": "Convolution", 
      "name": "inception_b3_7x1_3", 
      "attr": {
        "kernel": "(7, 1)", 
        "no_bias": "True", 
        "num_filter": "224", 
        "pad": "(3, 0)", 
        "stride": "(1, 1)"
      }, 
      "inputs": [[579, 0, 0], [580, 0, 0]]
    }, 
    {
      "op": "null", 
      "name": "inception_b3_7x1_3_bn_gamma", 
      "attr": {
        "eps": "0.001", 
        "fix_gamma": "False", 
        "use_global_stats": "True"
      }, 
      "inputs": []
    }, 
    {
      "op": "null", 
      "name": "inception_b3_7x1_3_bn_beta", 
      "attr": {
        "eps": "0.001", 
        "fix_gamma": "False", 
        "use_global_stats": "True"
      }, 
      "inputs": []
    }, 
    {
      "op": "null", 
      "name": "inception_b3_7x1_3_bn_moving_mean", 
      "attr": {
        "__init__": "[\"zero\", {}]", 
        "eps": "0.001", 
        "fix_gamma": "False", 
        "use_global_stats": "True"
      }, 
      "inputs": []
    }, 
    {
      "op": "null", 
      "name": "inception_b3_7x1_3_bn_moving_var", 
      "attr": {
        "__init__": "[\"one\", {}]", 
        "eps": "0.001", 
        "fix_gamma": "False", 
        "use_global_stats": "True"
      }, 
      "inputs": []
    }, 
    {
      "op": "BatchNorm", 
      "name": "inception_b3_7x1_3_bn", 
      "attr": {
        "eps": "0.001", 
        "fix_gamma": "False", 
        "use_global_stats": "True"
      }, 
      "inputs": [[581, 0, 0], [582, 0, 0], [583, 0, 0], [584, 0, 1], [585, 0, 1]]
    }, 
    {
      "op": "Activation", 
      "name": "inception_b3_7x1_3_relu", 
      "attr": {"act_type": "relu"}, 
      "inputs": [[586, 0, 0]]
    }, 
    {
      "op": "null", 
      "name": "inception_b3_1x7_3_weight", 
      "attr": {
        "kernel": "(1, 7)", 
        "no_bias": "True", 
        "num_filter": "256", 
        "pad": "(0, 3)", 
        "stride": "(1, 1)"
      }, 
      "inputs": []
    }, 
    {
      "op": "Convolution", 
      "name": "inception_b3_1x7_3", 
      "attr": {
        "kernel": "(1, 7)", 
        "no_bias": "True", 
        "num_filter": "256", 
        "pad": "(0, 3)", 
        "stride": "(1, 1)"
      }, 
      "inputs": [[587, 0, 0], [588, 0, 0]]
    }, 
    {
      "op": "null", 
      "name": "inception_b3_1x7_3_bn_gamma", 
      "attr": {
        "eps": "0.001", 
        "fix_gamma": "False", 
        "use_global_stats": "True"
      }, 
      "inputs": []
    }, 
    {
      "op": "null", 
      "name": "inception_b3_1x7_3_bn_beta", 
      "attr": {
        "eps": "0.001", 
        "fix_gamma": "False", 
        "use_global_stats": "True"
      }, 
      "inputs": []
    }, 
    {
      "op": "null", 
      "name": "inception_b3_1x7_3_bn_moving_mean", 
      "attr": {
        "__init__": "[\"zero\", {}]", 
        "eps": "0.001", 
        "fix_gamma": "False", 
        "use_global_stats": "True"
      }, 
      "inputs": []
    }, 
    {
      "op": "null", 
      "name": "inception_b3_1x7_3_bn_moving_var", 
      "attr": {
        "__init__": "[\"one\", {}]", 
        "eps": "0.001", 
        "fix_gamma": "False", 
        "use_global_stats": "True"
      }, 
      "inputs": []
    }, 
    {
      "op": "BatchNorm", 
      "name": "inception_b3_1x7_3_bn", 
      "attr": {
        "eps": "0.001", 
        "fix_gamma": "False", 
        "use_global_stats": "True"
      }, 
      "inputs": [[589, 0, 0], [590, 0, 0], [591, 0, 0], [592, 0, 1], [593, 0, 1]]
    }, 
    {
      "op": "Activation", 
      "name": "inception_b3_1x7_3_relu", 
      "attr": {"act_type": "relu"}, 
      "inputs": [[594, 0, 0]]
    }, 
    {
      "op": "Pooling", 
      "name": "inception_b3_pool_ave", 
      "attr": {
        "kernel": "(3, 3)", 
        "pad": "(1, 1)", 
        "pool_type": "avg", 
        "pooling_convention": "full", 
        "stride": "(1, 1)"
      }, 
      "inputs": [[523, 0, 0]]
    }, 
    {
      "op": "null", 
      "name": "inception_b3_1x1_weight", 
      "attr": {
        "kernel": "(1, 1)", 
        "no_bias": "True", 
        "num_filter": "128", 
        "pad": "(0, 0)", 
        "stride": "(1, 1)"
      }, 
      "inputs": []
    }, 
    {
      "op": "Convolution", 
      "name": "inception_b3_1x1", 
      "attr": {
        "kernel": "(1, 1)", 
        "no_bias": "True", 
        "num_filter": "128", 
        "pad": "(0, 0)", 
        "stride": "(1, 1)"
      }, 
      "inputs": [[596, 0, 0], [597, 0, 0]]
    }, 
    {
      "op": "null", 
      "name": "inception_b3_1x1_bn_gamma", 
      "attr": {
        "eps": "0.001", 
        "fix_gamma": "False", 
        "use_global_stats": "True"
      }, 
      "inputs": []
    }, 
    {
      "op": "null", 
      "name": "inception_b3_1x1_bn_beta", 
      "attr": {
        "eps": "0.001", 
        "fix_gamma": "False", 
        "use_global_stats": "True"
      }, 
      "inputs": []
    }, 
    {
      "op": "null", 
      "name": "inception_b3_1x1_bn_moving_mean", 
      "attr": {
        "__init__": "[\"zero\", {}]", 
        "eps": "0.001", 
        "fix_gamma": "False", 
        "use_global_stats": "True"
      }, 
      "inputs": []
    }, 
    {
      "op": "null", 
      "name": "inception_b3_1x1_bn_moving_var", 
      "attr": {
        "__init__": "[\"one\", {}]", 
        "eps": "0.001", 
        "fix_gamma": "False", 
        "use_global_stats": "True"
      }, 
      "inputs": []
    }, 
    {
      "op": "BatchNorm", 
      "name": "inception_b3_1x1_bn", 
      "attr": {
        "eps": "0.001", 
        "fix_gamma": "False", 
        "use_global_stats": "True"
      }, 
      "inputs": [[598, 0, 0], [599, 0, 0], [600, 0, 0], [601, 0, 1], [602, 0, 1]]
    }, 
    {
      "op": "Activation", 
      "name": "inception_b3_1x1_relu", 
      "attr": {"act_type": "relu"}, 
      "inputs": [[603, 0, 0]]
    }, 
    {
      "op": "Concat", 
      "name": "inception_b3_concat", 
      "attr": {"num_args": "4"}, 
      "inputs": [[531, 0, 0], [555, 0, 0], [595, 0, 0], [604, 0, 0]]
    }, 
    {
      "op": "null", 
      "name": "inception_b4_1x1_2_weight", 
      "attr": {
        "kernel": "(1, 1)", 
        "no_bias": "True", 
        "num_filter": "384", 
        "pad": "(0, 0)", 
        "stride": "(1, 1)"
      }, 
      "inputs": []
    }, 
    {
      "op": "Convolution", 
      "name": "inception_b4_1x1_2", 
      "attr": {
        "kernel": "(1, 1)", 
        "no_bias": "True", 
        "num_filter": "384", 
        "pad": "(0, 0)", 
        "stride": "(1, 1)"
      }, 
      "inputs": [[605, 0, 0], [606, 0, 0]]
    }, 
    {
      "op": "null", 
      "name": "inception_b4_1x1_2_bn_gamma", 
      "attr": {
        "eps": "0.001", 
        "fix_gamma": "False", 
        "use_global_stats": "True"
      }, 
      "inputs": []
    }, 
    {
      "op": "null", 
      "name": "inception_b4_1x1_2_bn_beta", 
      "attr": {
        "eps": "0.001", 
        "fix_gamma": "False", 
        "use_global_stats": "True"
      }, 
      "inputs": []
    }, 
    {
      "op": "null", 
      "name": "inception_b4_1x1_2_bn_moving_mean", 
      "attr": {
        "__init__": "[\"zero\", {}]", 
        "eps": "0.001", 
        "fix_gamma": "False", 
        "use_global_stats": "True"
      }, 
      "inputs": []
    }, 
    {
      "op": "null", 
      "name": "inception_b4_1x1_2_bn_moving_var", 
      "attr": {
        "__init__": "[\"one\", {}]", 
        "eps": "0.001", 
        "fix_gamma": "False", 
        "use_global_stats": "True"
      }, 
      "inputs": []
    }, 
    {
      "op": "BatchNorm", 
      "name": "inception_b4_1x1_2_bn", 
      "attr": {
        "eps": "0.001", 
        "fix_gamma": "False", 
        "use_global_stats": "True"
      }, 
      "inputs": [[607, 0, 0], [608, 0, 0], [609, 0, 0], [610, 0, 1], [611, 0, 1]]
    }, 
    {
      "op": "Activation", 
      "name": "inception_b4_1x1_2_relu", 
      "attr": {"act_type": "relu"}, 
      "inputs": [[612, 0, 0]]
    }, 
    {
      "op": "null", 
      "name": "inception_b4_1x7_reduce_weight", 
      "attr": {
        "kernel": "(1, 1)", 
        "no_bias": "True", 
        "num_filter": "192", 
        "pad": "(0, 0)", 
        "stride": "(1, 1)"
      }, 
      "inputs": []
    }, 
    {
      "op": "Convolution", 
      "name": "inception_b4_1x7_reduce", 
      "attr": {
        "kernel": "(1, 1)", 
        "no_bias": "True", 
        "num_filter": "192", 
        "pad": "(0, 0)", 
        "stride": "(1, 1)"
      }, 
      "inputs": [[605, 0, 0], [614, 0, 0]]
    }, 
    {
      "op": "null", 
      "name": "inception_b4_1x7_reduce_bn_gamma", 
      "attr": {
        "eps": "0.001", 
        "fix_gamma": "False", 
        "use_global_stats": "True"
      }, 
      "inputs": []
    }, 
    {
      "op": "null", 
      "name": "inception_b4_1x7_reduce_bn_beta", 
      "attr": {
        "eps": "0.001", 
        "fix_gamma": "False", 
        "use_global_stats": "True"
      }, 
      "inputs": []
    }, 
    {
      "op": "null", 
      "name": "inception_b4_1x7_reduce_bn_moving_mean", 
      "attr": {
        "__init__": "[\"zero\", {}]", 
        "eps": "0.001", 
        "fix_gamma": "False", 
        "use_global_stats": "True"
      }, 
      "inputs": []
    }, 
    {
      "op": "null", 
      "name": "inception_b4_1x7_reduce_bn_moving_var", 
      "attr": {
        "__init__": "[\"one\", {}]", 
        "eps": "0.001", 
        "fix_gamma": "False", 
        "use_global_stats": "True"
      }, 
      "inputs": []
    }, 
    {
      "op": "BatchNorm", 
      "name": "inception_b4_1x7_reduce_bn", 
      "attr": {
…
      "inputs": [[1107, 0, 0], [1108, 0, 0], [1109, 0, 0], [1110, 0, 1], [1111, 0, 1]]
    }, 
    {
      "op": "Activation", 
      "name": "inception_c2_3x1_2_relu", 
      "attr": {"act_type": "relu"}, 
      "inputs": [[1112, 0, 0]]
    }, 
    {
      "op": "null", 
      "name": "inception_c2_1x3_2_weight", 
      "attr": {
        "kernel": "(1, 3)", 
        "no_bias": "True", 
        "num_filter": "512", 
        "pad": "(0, 1)", 
        "stride": "(1, 1)"
      }, 
      "inputs": []
    }, 
    {
      "op": "Convolution", 
      "name": "inception_c2_1x3_2", 
      "attr": {
        "kernel": "(1, 3)", 
        "no_bias": "True", 
        "num_filter": "512", 
        "pad": "(0, 1)", 
        "stride": "(1, 1)"
      }, 
      "inputs": [[1113, 0, 0], [1114, 0, 0]]
    }, 
    {
      "op": "null", 
      "name": "inception_c2_1x3_2_bn_gamma", 
      "attr": {
        "eps": "0.001", 
        "fix_gamma": "False", 
        "use_global_stats": "True"
      }, 
      "inputs": []
    }, 
    {
      "op": "null", 
      "name": "inception_c2_1x3_2_bn_beta", 
      "attr": {
        "eps": "0.001", 
        "fix_gamma": "False", 
        "use_global_stats": "True"
      }, 
      "inputs": []
    }, 
    {
      "op": "null", 
      "name": "inception_c2_1x3_2_bn_moving_mean", 
      "attr": {
        "__init__": "[\"zero\", {}]", 
        "eps": "0.001", 
        "fix_gamma": "False", 
        "use_global_stats": "True"
      }, 
      "inputs": []
    }, 
    {
      "op": "null", 
      "name": "inception_c2_1x3_2_bn_moving_var", 
      "attr": {
        "__init__": "[\"one\", {}]", 
        "eps": "0.001", 
        "fix_gamma": "False", 
        "use_global_stats": "True"
      }, 
      "inputs": []
    }, 
    {
      "op": "BatchNorm", 
      "name": "inception_c2_1x3_2_bn", 
      "attr": {
        "eps": "0.001", 
        "fix_gamma": "False", 
        "use_global_stats": "True"
      }, 
      "inputs": [[1115, 0, 0], [1116, 0, 0], [1117, 0, 0], [1118, 0, 1], [1119, 0, 1]]
    }, 
    {
      "op": "Activation", 
      "name": "inception_c2_1x3_2_relu", 
      "attr": {"act_type": "relu"}, 
      "inputs": [[1120, 0, 0]]
    }, 
    {
      "op": "null", 
      "name": "inception_c2_1x3_3_weight", 
      "attr": {
        "kernel": "(1, 3)", 
        "no_bias": "True", 
        "num_filter": "256", 
        "pad": "(0, 1)", 
        "stride": "(1, 1)"
      }, 
      "inputs": []
    }, 
    {
      "op": "Convolution", 
      "name": "inception_c2_1x3_3", 
      "attr": {
        "kernel": "(1, 3)", 
        "no_bias": "True", 
        "num_filter": "256", 
        "pad": "(0, 1)", 
        "stride": "(1, 1)"
      }, 
      "inputs": [[1121, 0, 0], [1122, 0, 0]]
    }, 
    {
      "op": "null", 
      "name": "inception_c2_1x3_3_bn_gamma", 
      "attr": {
        "eps": "0.001", 
        "fix_gamma": "False", 
        "use_global_stats": "True"
      }, 
      "inputs": []
    }, 
    {
      "op": "null", 
      "name": "inception_c2_1x3_3_bn_beta", 
      "attr": {
        "eps": "0.001", 
        "fix_gamma": "False", 
        "use_global_stats": "True"
      }, 
      "inputs": []
    }, 
    {
      "op": "null", 
      "name": "inception_c2_1x3_3_bn_moving_mean", 
      "attr": {
        "__init__": "[\"zero\", {}]", 
        "eps": "0.001", 
        "fix_gamma": "False", 
        "use_global_stats": "True"
      }, 
      "inputs": []
    }, 
    {
      "op": "null", 
      "name": "inception_c2_1x3_3_bn_moving_var", 
      "attr": {
        "__init__": "[\"one\", {}]", 
        "eps": "0.001", 
        "fix_gamma": "False", 
        "use_global_stats": "True"
      }, 
      "inputs": []
    }, 
    {
      "op": "BatchNorm", 
      "name": "inception_c2_1x3_3_bn", 
      "attr": {
        "eps": "0.001", 
        "fix_gamma": "False", 
        "use_global_stats": "True"
      }, 
      "inputs": [[1123, 0, 0], [1124, 0, 0], [1125, 0, 0], [1126, 0, 1], [1127, 0, 1]]
    }, 
    {
      "op": "Activation", 
      "name": "inception_c2_1x3_3_relu", 
      "attr": {"act_type": "relu"}, 
      "inputs": [[1128, 0, 0]]
    }, 
    {
      "op": "null", 
      "name": "inception_c2_3x1_3_weight", 
      "attr": {
        "kernel": "(3, 1)", 
        "no_bias": "True", 
        "num_filter": "256", 
        "pad": "(1, 0)", 
        "stride": "(1, 1)"
      }, 
      "inputs": []
    }, 
    {
      "op": "Convolution", 
      "name": "inception_c2_3x1_3", 
      "attr": {
        "kernel": "(3, 1)", 
        "no_bias": "True", 
        "num_filter": "256", 
        "pad": "(1, 0)", 
        "stride": "(1, 1)"
      }, 
      "inputs": [[1121, 0, 0], [1130, 0, 0]]
    }, 
    {
      "op": "null", 
      "name": "inception_c2_3x1_3_bn_gamma", 
      "attr": {
        "eps": "0.001", 
        "fix_gamma": "False", 
        "use_global_stats": "True"
      }, 
      "inputs": []
    }, 
    {
      "op": "null", 
      "name": "inception_c2_3x1_3_bn_beta", 
      "attr": {
        "eps": "0.001", 
        "fix_gamma": "False", 
        "use_global_stats": "True"
      }, 
      "inputs": []
    }, 
    {
      "op": "null", 
      "name": "inception_c2_3x1_3_bn_moving_mean", 
      "attr": {
        "__init__": "[\"zero\", {}]", 
        "eps": "0.001", 
        "fix_gamma": "False", 
        "use_global_stats": "True"
      }, 
      "inputs": []
    }, 
    {
      "op": "null", 
      "name": "inception_c2_3x1_3_bn_moving_var", 
      "attr": {
        "__init__": "[\"one\", {}]", 
        "eps": "0.001", 
        "fix_gamma": "False", 
        "use_global_stats": "True"
      }, 
      "inputs": []
    }, 
    {
      "op": "BatchNorm", 
      "name": "inception_c2_3x1_3_bn", 
      "attr": {
        "eps": "0.001", 
        "fix_gamma": "False", 
        "use_global_stats": "True"
      }, 
      "inputs": [[1131, 0, 0], [1132, 0, 0], [1133, 0, 0], [1134, 0, 1], [1135, 0, 1]]
    }, 
    {
      "op": "Activation", 
      "name": "inception_c2_3x1_3_relu", 
      "attr": {"act_type": "relu"}, 
      "inputs": [[1136, 0, 0]]
    }, 
    {
      "op": "Pooling", 
      "name": "inception_c2_pool_ave", 
      "attr": {
        "kernel": "(3, 3)", 
        "pad": "(1, 1)", 
        "pool_type": "avg", 
        "pooling_convention": "full", 
        "stride": "(1, 1)"
      }, 
      "inputs": [[1065, 0, 0]]
    }, 
    {
      "op": "null", 
      "name": "inception_c2_1x1_weight", 
      "attr": {
        "kernel": "(1, 1)", 
        "no_bias": "True", 
        "num_filter": "256", 
        "pad": "(0, 0)", 
        "stride": "(1, 1)"
      }, 
      "inputs": []
    }, 
    {
      "op": "Convolution", 
      "name": "inception_c2_1x1", 
      "attr": {
        "kernel": "(1, 1)", 
        "no_bias": "True", 
        "num_filter": "256", 
        "pad": "(0, 0)", 
        "stride": "(1, 1)"
      }, 
      "inputs": [[1138, 0, 0], [1139, 0, 0]]
    }, 
    {
      "op": "null", 
      "name": "inception_c2_1x1_bn_gamma", 
      "attr": {
        "eps": "0.001", 
        "fix_gamma": "False", 
        "use_global_stats": "True"
      }, 
      "inputs": []
    }, 
    {
      "op": "null", 
      "name": "inception_c2_1x1_bn_beta", 
      "attr": {
        "eps": "0.001", 
        "fix_gamma": "False", 
        "use_global_stats": "True"
      }, 
      "inputs": []
    }, 
    {
      "op": "null", 
      "name": "inception_c2_1x1_bn_moving_mean", 
      "attr": {
        "__init__": "[\"zero\", {}]", 
        "eps": "0.001", 
        "fix_gamma": "False", 
        "use_global_stats": "True"
      }, 
      "inputs": []
    }, 
    {
      "op": "null", 
      "name": "inception_c2_1x1_bn_moving_var", 
      "attr": {
        "__init__": "[\"one\", {}]", 
        "eps": "0.001", 
        "fix_gamma": "False", 
        "use_global_stats": "True"
      }, 
      "inputs": []
    }, 
    {
      "op": "BatchNorm", 
      "name": "inception_c2_1x1_bn", 
      "attr": {
        "eps": "0.001", 
        "fix_gamma": "False", 
        "use_global_stats": "True"
      }, 
      "inputs": [[1140, 0, 0], [1141, 0, 0], [1142, 0, 0], [1143, 0, 1], [1144, 0, 1]]
    }, 
    {
      "op": "Activation", 
      "name": "inception_c2_1x1_relu", 
      "attr": {"act_type": "relu"}, 
      "inputs": [[1145, 0, 0]]
    }, 
    {
      "op": "Concat", 
      "name": "inception_c2_concat", 
      "attr": {"num_args": "6"}, 
      "inputs": [[1073, 0, 0], [1089, 0, 0], [1097, 0, 0], [1129, 0, 0], [1137, 0, 0], [1146, 0, 0]]
    }, 
    {
      "op": "null", 
      "name": "inception_c3_1x1_2_weight", 
      "attr": {
        "kernel": "(1, 1)", 
        "no_bias": "True", 
        "num_filter": "256", 
        "pad": "(0, 0)", 
        "stride": "(1, 1)"
      }, 
      "inputs": []
    }, 
    {
      "op": "Convolution", 
      "name": "inception_c3_1x1_2", 
      "attr": {
        "kernel": "(1, 1)", 
        "no_bias": "True", 
        "num_filter": "256", 
        "pad": "(0, 0)", 
        "stride": "(1, 1)"
      }, 
      "inputs": [[1147, 0, 0], [1148, 0, 0]]
    }, 
    {
      "op": "null", 
      "name": "inception_c3_1x1_2_bn_gamma", 
      "attr": {
        "eps": "0.001", 
        "fix_gamma": "False", 
        "use_global_stats": "True"
      }, 
      "inputs": []
    }, 
    {
      "op": "null", 
      "name": "inception_c3_1x1_2_bn_beta", 
      "attr": {
        "eps": "0.001", 
        "fix_gamma": "False", 
        "use_global_stats": "True"
      }, 
      "inputs": []
    }, 
    {
      "op": "null", 
      "name": "inception_c3_1x1_2_bn_moving_mean", 
      "attr": {
        "__init__": "[\"zero\", {}]", 
        "eps": "0.001", 
        "fix_gamma": "False", 
        "use_global_stats": "True"
      }, 
      "inputs": []
    }, 
    {
      "op": "null", 
      "name": "inception_c3_1x1_2_bn_moving_var", 
      "attr": {
        "__init__": "[\"one\", {}]", 
        "eps": "0.001", 
        "fix_gamma": "False", 
        "use_global_stats": "True"
      }, 
      "inputs": []
    }, 
    {
      "op": "BatchNorm", 
      "name": "inception_c3_1x1_2_bn", 
      "attr": {
        "eps": "0.001", 
        "fix_gamma": "False", 
        "use_global_stats": "True"
      }, 
      "inputs": [[1149, 0, 0], [1150, 0, 0], [1151, 0, 0], [1152, 0, 1], [1153, 0, 1]]
    }, 
    {
      "op": "Activation", 
      "name": "inception_c3_1x1_2_relu", 
      "attr": {"act_type": "relu"}, 
      "inputs": [[1154, 0, 0]]
    }, 
    {
      "op": "null", 
      "name": "inception_c3_1x1_3_weight", 
      "attr": {
        "kernel": "(1, 1)", 
        "no_bias": "True", 
        "num_filter": "384", 
        "pad": "(0, 0)", 
        "stride": "(1, 1)"
      }, 
      "inputs": []
    }, 
    {
      "op": "Convolution", 
      "name": "inception_c3_1x1_3", 
      "attr": {
        "kernel": "(1, 1)", 
        "no_bias": "True", 
        "num_filter": "384", 
        "pad": "(0, 0)", 
        "stride": "(1, 1)"
      }, 
      "inputs": [[1147, 0, 0], [1156, 0, 0]]
    }, 
    {
      "op": "null", 
      "name": "inception_c3_1x1_3_bn_gamma", 
      "attr": {
        "eps": "0.001", 
        "fix_gamma": "False", 
        "use_global_stats": "True"
      }, 
      "inputs": []
    }, 
    {
      "op": "null", 
      "name": "inception_c3_1x1_3_bn_beta", 
      "attr": {
        "eps": "0.001", 
        "fix_gamma": "False", 
        "use_global_stats": "True"
      }, 
      "inputs": []
    }, 
    {
      "op": "null", 
      "name": "inception_c3_1x1_3_bn_moving_mean", 
      "attr": {
        "__init__": "[\"zero\", {}]", 
        "eps": "0.001", 
        "fix_gamma": "False", 
        "use_global_stats": "True"
      }, 
      "inputs": []
    }, 
    {
      "op": "null", 
      "name": "inception_c3_1x1_3_bn_moving_var", 
      "attr": {
        "__init__": "[\"one\", {}]", 
        "eps": "0.001", 
        "fix_gamma": "False", 
        "use_global_stats": "True"
      }, 
      "inputs": []
    }, 
    {
      "op": "BatchNorm", 
      "name": "inception_c3_1x1_3_bn", 
      "attr": {
        "eps": "0.001", 
        "fix_gamma": "False", 
        "use_global_stats": "True"
      }, 
      "inputs": [[1157, 0, 0], [1158, 0, 0], [1159, 0, 0], [1160, 0, 1], [1161, 0, 1]]
    }, 
    {
      "op": "Activation", 
      "name": "inception_c3_1x1_3_relu", 
      "attr": {"act_type": "relu"}, 
      "inputs": [[1162, 0, 0]]
    }, 
    {
      "op": "null", 
      "name": "inception_c3_1x3_weight", 
      "attr": {
        "kernel": "(1, 3)", 
        "no_bias": "True", 
        "num_filter": "256", 
        "pad": "(0, 1)", 
        "stride": "(1, 1)"
      }, 
      "inputs": []
    }, 
    {
      "op": "Convolution", 
      "name": "inception_c3_1x3", 
      "attr": {
        "kernel": "(1, 3)", 
        "no_bias": "True", 
        "num_filter": "256", 
        "pad": "(0, 1)", 
        "stride": "(1, 1)"
      }, 
      "inputs": [[1163, 0, 0], [1164, 0, 0]]
    }, 
    {
      "op": "null", 
      "name": "inception_c3_1x3_bn_gamma", 
      "attr": {
        "eps": "0.001", 
        "fix_gamma": "False", 
        "use_global_stats": "True"
      }, 
      "inputs": []
    }, 
    {
      "op": "null", 
      "name": "inception_c3_1x3_bn_beta", 
      "attr": {
        "eps": "0.001", 
        "fix_gamma": "False", 
        "use_global_stats": "True"
      }, 
      "inputs": []
    }, 
    {
      "op": "null", 
      "name": "inception_c3_1x3_bn_moving_mean", 
      "attr": {
        "__init__": "[\"zero\", {}]", 
        "eps": "0.001", 
        "fix_gamma": "False", 
        "use_global_stats": "True"
      }, 
      "inputs": []
    }, 
    {
      "op": "null", 
      "name": "inception_c3_1x3_bn_moving_var", 
      "attr": {
        "__init__": "[\"one\", {}]", 
        "eps": "0.001", 
        "fix_gamma": "False", 
        "use_global_stats": "True"
      }, 
      "inputs": []
    }, 
    {
      "op": "BatchNorm", 
      "name": "inception_c3_1x3_bn", 
      "attr": {
        "eps": "0.001", 
        "fix_gamma": "False", 
        "use_global_stats": "True"
      }, 
      "inputs": [[1165, 0, 0], [1166, 0, 0], [1167, 0, 0], [1168, 0, 1], [1169, 0, 1]]
    }, 
    {
      "op": "Activation", 
      "name": "inception_c3_1x3_relu", 
      "attr": {"act_type": "relu"}, 
      "inputs": [[1170, 0, 0]]
    }, 
    {
      "op": "null", 
      "name": "inception_c3_3x1_weight", 
      "attr": {
        "kernel": "(3, 1)", 
        "no_bias": "True", 
        "num_filter": "256", 
        "pad": "(1, 0)", 
        "stride": "(1, 1)"
      }, 
      "inputs": []
    }, 
    {
      "op": "Convolution", 
      "name": "inception_c3_3x1", 
      "attr": {
        "kernel": "(3, 1)", 
        "no_bias": "True", 
        "num_filter": "256", 
        "pad": "(1, 0)", 
        "stride": "(1, 1)"
      }, 
      "inputs": [[1163, 0, 0], [1172, 0, 0]]
    }, 
    {
      "op": "null", 
      "name": "inception_c3_3x1_bn_gamma", 
      "attr": {
        "eps": "0.001", 
        "fix_gamma": "False", 
        "use_global_stats": "True"
      }, 
      "inputs": []
    }, 
    {
      "op": "null", 
      "name": "inception_c3_3x1_bn_beta", 
      "attr": {
        "eps": "0.001", 
        "fix_gamma": "False", 
        "use_global_stats": "True"
      }, 
      "inputs": []
    }, 
    {
      "op": "null", 
      "name": "inception_c3_3x1_bn_moving_mean", 
      "attr": {
        "__init__": "[\"zero\", {}]", 
        "eps": "0.001", 
        "fix_gamma": "False", 
        "use_global_stats": "True"
      }, 
      "inputs": []
    }, 
    {
      "op": "null", 
      "name": "inception_c3_3x1_bn_moving_var", 
      "attr": {
        "__init__": "[\"one\", {}]", 
        "eps": "0.001", 
        "fix_gamma": "False", 
        "use_global_stats": "True"
      }, 
      "inputs": []
    }, 
    {
      "op": "BatchNorm", 
      "name": "inception_c3_3x1_bn", 
      "attr": {
        "eps": "0.001", 
        "fix_gamma": "False", 
        "use_global_stats": "True"
      }, 
      "inputs": [[1173, 0, 0], [1174, 0, 0], [1175, 0, 0], [1176, 0, 1], [1177, 0, 1]]
    }, 
    {
      "op": "Activation", 
      "name": "inception_c3_3x1_relu", 
      "attr": {"act_type": "relu"}, 
      "inputs": [[1178, 0, 0]]
    }, 
    {
      "op": "null", 
      "name": "inception_c3_1x1_4_weight", 
      "attr": {
        "kernel": "(1, 1)", 
        "no_bias": "True", 
        "num_filter": "384", 
        "pad": "(0, 0)", 
        "stride": "(1, 1)"
      }, 
      "inputs": []
    }, 
    {
      "op": "Convolution", 
      "name": "inception_c3_1x1_4", 
      "attr": {
        "kernel": "(1, 1)", 
        "no_bias": "True", 
        "num_filter": "384", 
        "pad": "(0, 0)", 
        "stride": "(1, 1)"
      }, 
      "inputs": [[1147, 0, 0], [1180, 0, 0]]
    }, 
    {
      "op": "null", 
      "name": "inception_c3_1x1_4_bn_gamma", 
      "attr": {
        "eps": "0.001", 
        "fix_gamma": "False", 
        "use_global_stats": "True"
      }, 
      "inputs": []
    }, 
    {
      "op": "null", 
      "name": "inception_c3_1x1_4_bn_beta", 
      "attr": {
        "eps": "0.001", 
        "fix_gamma": "False", 
        "use_global_stats": "True"
      }, 
      "inputs": []
    }, 
    {
      "op": "null", 
      "name": "inception_c3_1x1_4_bn_moving_mean", 
      "attr": {
        "__init__": "[\"zero\", {}]", 
        "eps": "0.001", 
        "fix_gamma": "False", 
        "use_global_stats": "True"
      }, 
      "inputs": []
    }, 
    {
      "op": "null", 
      "name": "inception_c3_1x1_4_bn_moving_var", 
      "attr": {
        "__init__": "[\"one\", {}]", 
        "eps": "0.001", 
        "fix_gamma": "False", 
        "use_global_stats": "True"
      }, 
      "inputs": []
    }, 
    {
      "op": "BatchNorm", 
      "name": "inception_c3_1x1_4_bn", 
      "attr": {
        "eps": "0.001", 
        "fix_gamma": "False", 
        "use_global_stats": "True"
      }, 
      "inputs": [[1181, 0, 0], [1182, 0, 0], [1183, 0, 0], [1184, 0, 1], [1185, 0, 1]]
    }, 
    {
      "op": "Activation", 
      "name": "inception_c3_1x1_4_relu", 
      "attr": {"act_type": "relu"}, 
      "inputs": [[1186, 0, 0]]
    }, 
    {
      "op": "null", 
      "name": "inception_c3_3x1_2_weight", 
      "attr": {
        "kernel": "(3, 1)", 
        "no_bias": "True", 
        "num_filter": "448", 
        "pad": "(1, 0)", 
        "stride": "(1, 1)"
      }, 
      "inputs": []
    }, 
    {
      "op": "Convolution", 
      "name": "inception_c3_3x1_2", 
      "attr": {
        "kernel": "(3, 1)", 
        "no_bias": "True", 
        "num_filter": "448", 
        "pad": "(1, 0)", 
        "stride": "(1, 1)"
      }, 
      "inputs": [[1187, 0, 0], [1188, 0, 0]]
    }, 
    {
      "op": "null", 
      "name": "inception_c3_3x1_2_bn_gamma", 
      "attr": {
        "eps": "0.001", 
        "fix_gamma": "False", 
        "use_global_stats": "True"
      }, 
      "inputs": []
    }, 
    {
      "op": "null", 
      "name": "inception_c3_3x1_2_bn_beta", 
      "attr": {
        "eps": "0.001", 
        "fix_gamma": "False", 
        "use_global_stats": "True"
      }, 
      "inputs": []
    }, 
    {
      "op": "null", 
      "name": "inception_c3_3x1_2_bn_moving_mean", 
      "attr": {
        "__init__": "[\"zero\", {}]", 
        "eps": "0.001", 
        "fix_gamma": "False", 
        "use_global_stats": "True"
      }, 
      "inputs": []
    }, 
    {
      "op": "null", 
      "name": "inception_c3_3x1_2_bn_moving_var", 
      "attr": {
        "__init__": "[\"one\", {}]", 
        "eps": "0.001", 
        "fix_gamma": "False", 
        "use_global_stats": "True"
      }, 
      "inputs": []
    }, 
    {
      "op": "BatchNorm", 
      "name": "inception_c3_3x1_2_bn", 
      "attr": {
        "eps": "0.001", 
        "fix_gamma": "False", 
        "use_global_stats": "True"
      }, 
      "inputs": [[1189, 0, 0], [1190, 0, 0], [1191, 0, 0], [1192, 0, 1], [1193, 0, 1]]
    }, 
    {
      "op": "Activation", 
      "name": "inception_c3_3x1_2_relu", 
      "attr": {"act_type": "relu"}, 
      "inputs": [[1194, 0, 0]]
    }, 
    {
      "op": "null", 
      "name": "inception_c3_1x3_2_weight", 
      "attr": {
        "kernel": "(1, 3)", 
        "no_bias": "True", 
        "num_filter": "512", 
        "pad": "(0, 1)", 
        "stride": "(1, 1)"
      }, 
      "inputs": []
    }, 
    {
      "op": "Convolution", 
      "name": "inception_c3_1x3_2", 
      "attr": {
        "kernel": "(1, 3)", 
        "no_bias": "True", 
        "num_filter": "512", 
        "pad": "(0, 1)", 
        "stride": "(1, 1)"
      }, 
      "inputs": [[1195, 0, 0], [1196, 0, 0]]
    }, 
    {
      "op": "null", 
      "name": "inception_c3_1x3_2_bn_gamma", 
      "attr": {
        "eps": "0.001", 
        "fix_gamma": "False", 
        "use_global_stats": "True"
      }, 
      "inputs": []
    }, 
    {
      "op": "null", 
      "name": "inception_c3_1x3_2_bn_beta", 
      "attr": {
        "eps": "0.001", 
        "fix_gamma": "False", 
        "use_global_stats": "True"
      }, 
      "inputs": []
    }, 
    {
      "op": "null", 
      "name": "inception_c3_1x3_2_bn_moving_mean", 
      "attr": {
        "__init__": "[\"zero\", {}]", 
        "eps": "0.001", 
        "fix_gamma": "False", 
        "use_global_stats": "True"
      }, 
      "inputs": []
    }, 
    {
      "op": "null", 
      "name": "inception_c3_1x3_2_bn_moving_var", 
      "attr": {
        "__init__": "[\"one\", {}]", 
        "eps": "0.001", 
        "fix_gamma": "False", 
        "use_global_stats": "True"
      }, 
      "inputs": []
    }, 
    {
      "op": "BatchNorm", 
      "name": "inception_c3_1x3_2_bn", 
      "attr": {
        "eps": "0.001", 
        "fix_gamma": "False", 
        "use_global_stats": "True"
      }, 
      "inputs": [[1197, 0, 0], [1198, 0, 0], [1199, 0, 0], [1200, 0, 1], [1201, 0, 1]]
    }, 
    {
      "op": "Activation", 
      "name": "inception_c3_1x3_2_relu", 
      "attr": {"act_type": "relu"}, 
      "inputs": [[1202, 0, 0]]
    }, 
    {
      "op": "null", 
      "name": "inception_c3_1x3_3_weight", 
      "attr": {
        "kernel": "(1, 3)", 
        "no_bias": "True", 
        "num_filter": "256", 
        "pad": "(0, 1)", 
        "stride": "(1, 1)"
      }, 
      "inputs": []
    }, 
    {
      "op": "Convolution", 
      "name": "inception_c3_1x3_3", 
      "attr": {
        "kernel": "(1, 3)", 
        "no_bias": "True", 
        "num_filter": "256", 
        "pad": "(0, 1)", 
        "stride": "(1, 1)"
      }, 
      "inputs": [[1203, 0, 0], [1204, 0, 0]]
    }, 
    {
      "op": "null", 
      "name": "inception_c3_1x3_3_bn_gamma", 
      "attr": {
        "eps": "0.001", 
        "fix_gamma": "False", 
        "use_global_stats": "True"
      }, 
      "inputs": []
    }, 
    {
      "op": "null", 
      "name": "inception_c3_1x3_3_bn_beta", 
      "attr": {
        "eps": "0.001", 
        "fix_gamma": "False", 
        "use_global_stats": "True"
      }, 
      "inputs": []
    }, 
    {
      "op": "null", 
      "name": "inception_c3_1x3_3_bn_moving_mean", 
      "attr": {
        "__init__": "[\"zero\", {}]", 
        "eps": "0.001", 
        "fix_gamma": "False", 
        "use_global_stats": "True"
      }, 
      "inputs": []
    }, 
    {
      "op": "null", 
      "name": "inception_c3_1x3_3_bn_moving_var", 
      "attr": {
        "__init__": "[\"one\", {}]", 
        "eps": "0.001", 
        "fix_gamma": "False", 
        "use_global_stats": "True"
      }, 
      "inputs": []
    }, 
    {
      "op": "BatchNorm", 
      "name": "inception_c3_1x3_3_bn", 
      "attr": {
        "eps": "0.001", 
        "fix_gamma": "False", 
        "use_global_stats": "True"
      }, 
      "inputs": [[1205, 0, 0], [1206, 0, 0], [1207, 0, 0], [1208, 0, 1], [1209, 0, 1]]
    }, 
    {
      "op": "Activation", 
      "name": "inception_c3_1x3_3_relu", 
      "attr": {"act_type": "relu"}, 
      "inputs": [[1210, 0, 0]]
    }, 
    {
      "op": "null", 
      "name": "inception_c3_3x1_3_weight", 
      "attr": {
        "kernel": "(3, 1)", 
        "no_bias": "True", 
        "num_filter": "256", 
        "pad": "(1, 0)", 
        "stride": "(1, 1)"
      }, 
      "inputs": []
    }, 
    {
      "op": "Convolution", 
      "name": "inception_c3_3x1_3", 
      "attr": {
        "kernel": "(3, 1)", 
        "no_bias": "True", 
        "num_filter": "256", 
        "pad": "(1, 0)", 
        "stride": "(1, 1)"
      }, 
      "inputs": [[1203, 0, 0], [1212, 0, 0]]
    }, 
    {
      "op": "null", 
      "name": "inception_c3_3x1_3_bn_gamma", 
      "attr": {
        "eps": "0.001", 
        "fix_gamma": "False", 
        "use_global_stats": "True"
      }, 
      "inputs": []
    }, 
    {
      "op": "null", 
      "name": "inception_c3_3x1_3_bn_beta", 
      "attr": {
        "eps": "0.001", 
        "fix_gamma": "False", 
        "use_global_stats": "True"
      }, 
      "inputs": []
    }, 
    {
      "op": "null", 
      "name": "inception_c3_3x1_3_bn_moving_mean", 
      "attr": {
        "__init__": "[\"zero\", {}]", 
        "eps": "0.001", 
        "fix_gamma": "False", 
        "use_global_stats": "True"
      }, 
      "inputs": []
    }, 
    {
      "op": "null", 
      "name": "inception_c3_3x1_3_bn_moving_var", 
      "attr": {
        "__init__": "[\"one\", {}]", 
        "eps": "0.001", 
        "fix_gamma": "False", 
        "use_global_stats": "True"
      }, 
      "inputs": []
    }, 
    {
      "op": "BatchNorm", 
      "name": "inception_c3_3x1_3_bn", 
      "attr": {
        "eps": "0.001", 
        "fix_gamma": "False", 
        "use_global_stats": "True"
      }, 
      "inputs": [[1213, 0, 0], [1214, 0, 0], [1215, 0, 0], [1216, 0, 1], [1217, 0, 1]]
    }, 
    {
      "op": "Activation", 
      "name": "inception_c3_3x1_3_relu", 
      "attr": {"act_type": "relu"}, 
      "inputs": [[1218, 0, 0]]
    }, 
    {
      "op": "Pooling", 
      "name": "inception_c3_pool_ave", 
      "attr": {
        "kernel": "(3, 3)", 
        "pad": "(1, 1)", 
        "pool_type": "avg", 
        "pooling_convention": "full", 
        "stride": "(1, 1)"
      }, 
      "inputs": [[1147, 0, 0]]
    }, 
    {
      "op": "null", 
      "name": "inception_c3_1x1_weight", 
      "attr": {
        "kernel": "(1, 1)", 
        "no_bias": "True", 
        "num_filter": "256", 
        "pad": "(0, 0)", 
        "stride": "(1, 1)"
      }, 
      "inputs": []
    }, 
    {
      "op": "Convolution", 
      "name": "inception_c3_1x1", 
      "attr": {
        "kernel": "(1, 1)", 
        "no_bias": "True", 
        "num_filter": "256", 
        "pad": "(0, 0)", 
        "stride": "(1, 1)"
      }, 
      "inputs": [[1220, 0, 0], [1221, 0, 0]]
    }, 
    {
      "op": "null", 
      "name": "inception_c3_1x1_bn_gamma", 
      "attr": {
        "eps": "0.001", 
        "fix_gamma": "False", 
        "use_global_stats": "True"
      }, 
      "inputs": []
    }, 
    {
      "op": "null", 
      "name": "inception_c3_1x1_bn_beta", 
      "attr": {
        "eps": "0.001", 
        "fix_gamma": "False", 
        "use_global_stats": "True"
      }, 
      "inputs": []
    }, 
    {
      "op": "null", 
      "name": "inception_c3_1x1_bn_moving_mean", 
      "attr": {
        "__init__": "[\"zero\", {}]", 
        "eps": "0.001", 
        "fix_gamma": "False", 
        "use_global_stats": "True"
      }, 
      "inputs": []
    }, 
    {
      "op": "null", 
      "name": "inception_c3_1x1_bn_moving_var", 
      "attr": {
        "__init__": "[\"one\", {}]", 
        "eps": "0.001", 
        "fix_gamma": "False", 
        "use_global_stats": "True"
      }, 
      "inputs": []
    }, 
    {
      "op": "BatchNorm", 
      "name": "inception_c3_1x1_bn", 
      "attr": {
        "eps": "0.001", 
        "fix_gamma": "False", 
        "use_global_stats": "True"
      }, 
      "inputs": [[1222, 0, 0], [1223, 0, 0], [1224, 0, 0], [1225, 0, 1], [1226, 0, 1]]
    }, 
    {
      "op": "Activation", 
      "name": "inception_c3_1x1_relu", 
      "attr": {"act_type": "relu"}, 
      "inputs": [[1227, 0, 0]]
    }, 
    {
      "op": "Concat", 
      "name": "inception_c3_concat", 
      "attr": {"num_args": "6"}, 
      "inputs": [[1155, 0, 0], [1171, 0, 0], [1179, 0, 0], [1211, 0, 0], [1219, 0, 0], [1228, 0, 0]]
    }, 
    {
      "op": "Pooling", 
      "name": "pool_8x8_s1", 
      "attr": {
        "global_pool": "True", 
        "kernel": "(1, 1)", 
        "pool_type": "avg", 
        "pooling_convention": "full"
      }, 
      "inputs": [[1229, 0, 0]]
    }, 
    {
      "op": "Dropout", 
      "name": "pool_8x8_s1_drop", 
      "attr": {"p": "0.2"}, 
      "inputs": [[1230, 0, 0]]
    }, 
    {
      "op": "Flatten", 
      "name": "flatten_0", 
      "inputs": [[1231, 0, 0]]
    }, 
    {
      "op": "null", 
      "name": "classifier_weight", 
      "attr": {
        "no_bias": "False", 
        "num_hidden": "1000"
      }, 
      "inputs": []
    }, 
    {
      "op": "null", 
      "name": "classifier_bias", 
      "attr": {
        "no_bias": "False", 
        "num_hidden": "1000"
      }, 
      "inputs": []
    }, 
    {
      "op": "FullyConnected", 
      "name": "classifier", 
      "attr": {
        "no_bias": "False", 
        "num_hidden": "1000"
      }, 
      "inputs": [[1232, 0, 0], [1233, 0, 0], [1234, 0, 0]]
    }, 
    {
      "op": "null", 
      "name": "prob_label", 
      "inputs": []
    }, 
    {
      "op": "SoftmaxOutput", 
      "name": "prob", 
      "inputs": [[1235, 0, 0], [1236, 0, 0]]
    }
  ], 
  "arg_nodes": [
    0, 
    1, 
    3, 
    4, 
    5, 
    6, 
    9, 
    11, 
    12, 
    13, 
    14, 
    17, 
    19, 
    20, 
    21, 
    22, 
    26, 
    28, 
    29, 
    30, 
    31, 
    35, 
    37, 
    38, 
    39, 
    40, 
    43, 
    45, 
    46, 
    47, 
    48, 
    51, 
    53, 
    54, 
    55, 
    56, 
    59, 
    61, 
    62, 
    63, 
    64, 
    67, 
    69, 
    70, 
    71, 
    72, 
    75, 
    77, 
    78, 
    79, 
    80, 
    84, 
    86, 
    87, 
    88, 
    89, 
    94, 
    96, 
    97, 
    98, 
    99, 
    102, 
    104, 
    105, 
    106, 
    107, 
    110, 
    112, 
    113, 
    114, 
    115, 
    118, 
    120, 
    121, 
    122, 
    123, 
    126, 
    128, 
    129, 
    130, 
    131, 
    134, 
    136, 
    137, 
    138, 
    139, 
    143, 
    145, 
    146, 
    147, 
    148, 
    152, 
    154, 
    155, 
    156, 
    157, 
    160, 
    162, 
    163, 
    164, 
    165, 
    168, 
    170, 
    171, 
    172, 
    173, 
    176, 
    178, 
    179, 
    180, 
    181, 
    184, 
    186, 
    187, 
    188, 
    189, 
    192, 
    194, 
    195, 
    196, 
    197, 
    201, 
    203, 
    204, 
    205, 
    206, 
    210, 
    212, 
    213, 
    214, 
    215, 
    218, 
    220, 
    221, 
    222, 
    223, 
    226, 
    228, 
    229, 
    230, 
    231, 
    234, 
    236, 
    237, 
    238, 
    239, 
    242, 
    244, 
    245, 
    246, 
    247, 
    250, 
    252, 
    253, 
    254, 
    255, 
    259, 
    261, 
    262, 
    263, 
    264, 
    268, 
    270, 
    271, 
    272, 
    273, 
    276, 
    278, 
    279, 
    280, 
    281, 
    284, 
    286, 
    287, 
    288, 
    289, 
    292, 
    294, 
    295, 
    296, 
    297, 
    300, 
    302, 
    303, 
    304, 
    305, 
    308, 
    310, 
    311, 
    312, 
    313, 
    317, 
    319, 
    320, 
    321, 
    322, 
    326, 
    328, 
    329, 
    330, 
    331, 
    334, 
    336, 
    337, 
    338, 
    339, 
    342, 
    344, 
    345, 
    346, 
    347, 
    350, 
    352, 
    353, 
    354, 
    355, 
    360, 
    362, 
    363, 
    364, 
    365, 
    368, 
    370, 
    371, 
    372, 
    373, 
    376, 
    378, 
    379, 
    380, 
    381, 
    384, 
    386, 
    387, 
    388, 
    389, 
    392, 
    394, 
    395, 
    396, 
    397, 
    400, 
    402, 
    403, 
    404, 
    405, 
    408, 
    410, 
    411, 
    412, 
    413, 
    416, 
    418, 
    419, 
    420, 
    421, 
    424, 
    426, 
    427, 
    428, 
    429, 
    433, 
    435, 
    436, 
    437, 
    438, 
    442, 
    444, 
    445, 
    446, 
    447, 
    450, 
    452, 
    453, 
    454, 
    455, 
    458, 
    460, 
    461, 
    462, 
    463, 
    466, 
    468, 
    469, 
    470, 
    471, 
    474, 
    476, 
    477, 
    478, 
    479, 
    482, 
    484, 
    485, 
    486, 
    487, 
    490, 
    492, 
    493, 
    494, 
    495, 
    498, 
    500, 
    501, 
    502, 
    503, 
    506, 
    508, 
    509, 
    510, 
    511, 
    515, 
    517, 
    518, 
    519, 
    520, 
    524, 
    526, 
    527, 
    528, 
    529, 
    532, 
    534, 
    535, 
    536, 
    537, 
    540, 
    542, 
    543, 
    544, 
    545, 
    548, 
    550, 
    551, 
    552, 
    553, 
    556, 
    558, 
    559, 
    560, 
    561, 
    564, 
    566, 
    567, 
    568, 
    569, 
    572, 
    574, 
    575, 
    576, 
    577, 
    580, 
    582, 
    583, 
    584, 
    585, 
    588, 
    590, 
    591, 
    592, 
    593, 
    597, 
    599, 
    600, 
    601, 
    602, 
    606, 
    608, 
    609, 
    610, 
    611, 
    614, 
    616, 
    617, 
    618, 
    619, 
    622, 
    624, 
    625, 
    626, 
    627, 
    630, 
    632, 
    633, 
    634, 
    635, 
    638, 
    640, 
    641, 
    642, 
    643, 
    646, 
    648, 
    649, 
    650, 
    651, 
    654, 
    656, 
    657, 
    658, 
    659, 
    662, 
    664, 
    665, 
    666, 
    667, 
    670, 
    672, 
    673, 
    674, 
    675, 
    679, 
    681, 
    682, 
    683, 
    684, 
    688, 
    690, 
    691, 
    692, 
    693, 
    696, 
    698, 
    699, 
    700, 
    701, 
    704, 
    706, 
    707, 
    708, 
    709, 
    712, 
    714, 
    715, 
    716, 
    717, 
    720, 
    722, 
    723, 
    724, 
    725, 
    728, 
    730, 
    731, 
    732, 
    733, 
    736, 
    738, 
    739, 
    740, 
    741, 
    744, 
    746, 
    747, 
    748, 
    749, 
    752, 
    754, 
    755, 
    756, 
    757, 
    761, 
    763, 
    764, 
    765, 
    766, 
    770, 
    772, 
    773, 
    774, 
    775, 
    778, 
    780, 
    781, 
    782, 
    783, 
    786, 
    788, 
    789, 
    790, 
    791, 
    794, 
    796, 
    797, 
    798, 
    799, 
    802, 
    804, 
    805, 
    806, 
    807, 
    810, 
    812, 
    813, 
    814, 
    815, 
    818, 
    820, 
    821, 
    822, 
    823, 
    826, 
    828, 
    829, 
    830, 
    831, 
    834, 
    836, 
    837, 
    838, 
    839, 
    843, 
    845, 
    846, 
    847, 
    848, 
    852, 
    854, 
    855, 
    856, 
    857, 
    860, 
    862, 
    863, 
    864, 
    865, 
    868, 
    870, 
    871, 
    872, 
    873, 
    876, 
    878, 
    879, 
    880, 
    881, 
    884, 
    886, 
    887, 
    888, 
    889, 
    892, 
    894, 
    895, 
    896, 
    897, 
    900, 
    902, 
    903, 
    904, 
    905, 
    908, 
    910, 
    911, 
    912, 
    913, 
    916, 
    918, 
    919, 
    920, 
    921, 
    925, 
    927, 
    928, 
    929, 
    930, 
    934, 
    936, 
    937, 
    938, 
    939, 
    942, 
    944, 
    945, 
    946, 
    947, 
    950, 
    952, 
    953, 
    954, 
    955, 
    958, 
    960, 
    961, 
    962, 
    963, 
    966, 
    968, 
    969, 
    970, 
    971, 
    974, 
    976, 
    977, 
    978, 
    979, 
    984, 
    986, 
    987, 
    988, 
    989, 
    992, 
    994, 
    995, 
    996, 
    997, 
    1000, 
    1002, 
    1003, 
    1004, 
    1005, 
    1008, 
    1010, 
    1011, 
    1012, 
    1013, 
    1016, 
    1018, 
    1019, 
    1020, 
    1021, 
    1024, 
    1026, 
    1027, 
    1028, 
    1029, 
    1032, 
    1034, 
    1035, 
    1036, 
    1037, 
    1040, 
    1042, 
    1043, 
    1044, 
    1045, 
    1048, 
    1050, 
    1051, 
    1052, 
    1053, 
    1057, 
    1059, 
    1060, 
    1061, 
    1062, 
    1066, 
    1068, 
    1069, 
    1070, 
    1071, 
    1074, 
    1076, 
    1077, 
    1078, 
    1079, 
    1082, 
    1084, 
    1085, 
    1086, 
    1087, 
    1090, 
    1092, 
    1093, 
    1094, 
    1095, 
    1098, 
    1100, 
    1101, 
    1102, 
    1103, 
    1106, 
    1108, 
    1109, 
    1110, 
    1111, 
    1114, 
    1116, 
    1117, 
    1118, 
    1119, 
    1122, 
    1124, 
    1125, 
    1126, 
    1127, 
    1130, 
    1132, 
    1133, 
    1134, 
    1135, 
    1139, 
    1141, 
    1142, 
    1143, 
    1144, 
    1148, 
    1150, 
    1151, 
    1152, 
    1153, 
    1156, 
    1158, 
    1159, 
    1160, 
    1161, 
    1164, 
    1166, 
    1167, 
    1168, 
    1169, 
    1172, 
    1174, 
    1175, 
    1176, 
    1177, 
    1180, 
    1182, 
    1183, 
    1184, 
    1185, 
    1188, 
    1190, 
    1191, 
    1192, 
    1193, 
    1196, 
    1198, 
    1199, 
    1200, 
    1201, 
    1204, 
    1206, 
    1207, 
    1208, 
    1209, 
    1212, 
    1214, 
    1215, 
    1216, 
    1217, 
    1221, 
    1223, 
    1224, 
    1225, 
    1226, 
    1233, 
    1234, 
    1236
  ], 
  "node_row_ptr": [
    0, 
    1, 
    2, 
    3, 
    4, 
    5, 
    6, 
    7, 
    10, 
    11, 
    12, 
    13, 
    14, 
    15, 
    16, 
    17, 
    20, 
    21, 
    22, 
    23, 
    24, 
    25, 
    26, 
    27, 
    30, 
    31, 
    32, 
    33, 
    34, 
    35, 
    36, 
    37, 
    38, 
    41, 
    42, 
    43, 
    44, 
    45, 
    46, 
    47, 
    48, 
    49, 
    52, 
    53, 
    54, 
    55, 
    56, 
    57, 
    58, 
    59, 
    62, 
    63, 
    64, 
    65, 
    66, 
    67, 
    68, 
    69, 
    72, 
    73, 
    74, 
    75, 
    76, 
    77, 
    78, 
    79, 
    82, 
    83, 
    84, 
    85, 
    86, 
    87, 
    88, 
    89, 
    92, 
    93, 
    94, 
    95, 
    96, 
    97, 
    98, 
    99, 
    102, 
    103, 
    104, 
    105, 
    106, 
    107, 
    108, 
    109, 
    110, 
    113, 
    114, 
    115, 
    116, 
    117, 
    118, 
    119, 
    120, 
    121, 
    122, 
    125, 
    126, 
    127, 
    128, 
    129, 
    130, 
    131, 
    132, 
    135, 
    136, 
    137, 
    138, 
    139, 
    140, 
    141, 
    142, 
    145, 
    146, 
    147, 
    148, 
    149, 
    150, 
    151, 
    152, 
    155, 
    156, 
    157, 
    158, 
    159, 
    160, 
    161, 
    162, 
    165, 
    166, 
    167, 
    168, 
    169, 
    170, 
    171, 
    172, 
    175, 
    176, 
    177, 
    178, 
    179, 
    180, 
    181, 
    182, 
    183, 
    186, 
    187, 
    188, 
    189, 
    190, 
    191, 
    192, 
    193, 
    194, 
    197, 
    198, 
    199, 
    200, 
    201, 
    202, 
    203, 
    204, 
    207, 
    208, 
    209, 
    210, 
    211, 
    212, 
    213, 
    214, 
    217, 
    218, 
    219, 
    220, 
    221, 
    222, 
    223, 
    224, 
    227, 
    228, 
    229, 
    230, 
    231, 
    232, 
    233, 
    234, 
    237, 
    238, 
    239, 
    240, 
    241, 
    242, 
    243, 
    244, 
    247, 
    248, 
    249, 
    250, 
    251, 
    252, 
    253, 
    254, 
    255, 
    258, 
    259, 
    260, 
    261, 
    262, 
    263, 
    264, 
    265, 
    266, 
    269, 
    270, 
    271, 
    272, 
    273, 
    274, 
    275, 
    276, 
    279, 
    280, 
    281, 
    282, 
    283, 
    284, 
    285, 
    286, 
    289, 
    290, 
    291, 
    292, 
    293, 
    294, 
    295, 
    296, 
    299, 
    300, 
    301, 
    302, 
    303, 
    304, 
    305, 
    306, 
    309, 
    310, 
    311, 
    312, 
    313, 
    314, 
    315, 
    316, 
    319, 
    320, 
    321, 
    322, 
    323, 
    324, 
    325, 
    326, 
    327, 
    330, 
    331, 
    332, 
    333, 
    334, 
    335, 
    336, 
    337, 
    338, 
    341, 
    342, 
    343, 
    344, 
    345, 
    346, 
    347, 
    348, 
    351, 
    352, 
    353, 
    354, 
    355, 
    356, 
    357, 
    358, 
    361, 
    362, 
    363, 
    364, 
    365, 
    366, 
    367, 
    368, 
    371, 
    372, 
    373, 
    374, 
    375, 
    376, 
    377, 
    378, 
    381, 
    382, 
    383, 
    384, 
    385, 
    386, 
    387, 
    388, 
    391, 
    392, 
    393, 
    394, 
    395, 
    396, 
    397, 
    398, 
    399, 
    402, 
    403, 
    404, 
    405, 
    406, 
    407, 
    408, 
    409, 
    410, 
    413, 
    414, 
    415, 
    416, 
    417, 
    418, 
    419, 
    420, 
    423, 
    424, 
    425, 
    426, 
    427, 
    428, 
    429, 
    430, 
    433, 
    434, 
    435, 
    436, 
    437, 
    438, 
    439, 
    440, 
    443, 
    444, 
    445, 
    446, 
    447, 
    448, 
    449, 
    450, 
    451, 
    452, 
    455, 
    456, 
    457, 
    458, 
    459, 
    460, 
    461, 
    462, 
    465, 
    466, 
    467, 
    468, 
    469, 
    470, 
    471, 
    472, 
    475, 
    476, 
    477, 
    478, 
    479, 
    480, 
    481, 
    482, 
    485, 
    486, 
    487, 
    488, 
    489, 
    490, 
    491, 
    492, 
    495, 
    496, 
    497, 
    498, 
    499, 
    500, 
    501, 
    502, 
    505, 
    506, 
    507, 
    508, 
    509, 
    510, 
    511, 
    512, 
    515, 
    516, 
    517, 
    518, 
    519, 
    520, 
    521, 
    522, 
    525, 
    526, 
    527, 
    528, 
    529, 
    530, 
    531, 
    532, 
    535, 
    536, 
    537, 
    538, 
    539, 
    540, 
    541, 
    542, 
    543, 
    546, 
    547, 
    548, 
    549, 
    550, 
    551, 
    552, 
    553, 
    554, 
    557, 
    558, 
    559, 
    560, 
    561, 
    562, 
    563, 
    564, 
    567, 
    568, 
    569, 
    570, 
    571, 
    572, 
    573, 
    574, 
    577, 
    578, 
    579, 
    580, 
    581, 
    582, 
    583, 
    584, 
    587, 
    588, 
    589, 
    590, 
    591, 
    592, 
    593, 
    594, 
    597, 
    598, 
    599, 
    600, 
    601, 
    602, 
    603, 
    604, 
    607, 
    608, 
    609, 
    610, 
    611, 
    612, 
    613, 
    614, 
    617, 
    618, 
    619, 
    620, 
    621, 
    622, 
    623, 
    624, 
    627, 
    628, 
    629, 
    630, 
    631, 
    632, 
    633, 
    634, 
    637, 
    638, 
    639, 
    640, 
    641, 
    642, 
    643, 
    644, 
    645, 
    648, 
    649, 
    650, 
    651, 
    652, 
    653, 
    654, 
    655, 
    656, 
    659, 
    660, 
    661, 
    662, 
    663, 
    664, 
    665, 
    666, 
    669, 
    670, 
    671, 
    672, 
    673, 
    674, 
    675, 
    676, 
    679, 
    680, 
    681, 
    682, 
    683, 
    684, 
    685, 
    686, 
    689, 
    690, 
    691, 
    692, 
    693, 
    694, 
    695, 
    696, 
    699, 
    700, 
    701, 
    702, 
    703, 
    704, 
    705, 
    706, 
    709, 
    710, 
    711, 
    712, 
    713, 
    714, 
    715, 
    716, 
    719, 
    720, 
    721, 
    722, 
    723, 
    724, 
    725, 
    726, 
    729, 
    730, 
    731, 
    732, 
    733, 
    734, 
    735, 
    736, 
    739, 
    740, 
    741, 
    742, 
    743, 
    744, 
    745, 
    746, 
    747, 
    750, 
    751, 
    752, 
    753, 
    754, 
    755, 
    756, 
    757, 
    758, 
    761, 
    762, 
    763, 
    764, 
    765, 
    766, 
    767, 
    768, 
    771, 
    772, 
    773, 
    774, 
    775, 
    776, 
    777, 
    778, 
    781, 
    782, 
    783, 
    784, 
    785, 
    786, 
    787, 
    788, 
    791, 
    792, 
    793, 
    794, 
    795, 
    796, 
    797, 
    798, 
    801, 
    802, 
    803, 
    804, 
    805, 
    806, 
    807, 
    808, 
    811, 
    812, 
    813, 
    814, 
    815, 
    816, 
    817, 
    818, 
    821, 
    822, 
    823, 
    824, 
    825, 
    826, 
    827, 
    828, 
    831, 
    832, 
    833, 
    834, 
    835, 
    836, 
    837, 
    838, 
    841, 
    842, 
    843, 
    844, 
    845, 
    846, 
    847, 
    848, 
    849, 
    852, 
    853, 
    854, 
    855, 
    856, 
    857, 
    858, 
    859, 
    860, 
    863, 
    864, 
    865, 
    866, 
    867, 
    868, 
    869, 
    870, 
    873, 
    874, 
    875, 
    876, 
    877, 
    878, 
    879, 
    880, 
    883, 
    884, 
    885, 
    886, 
    887, 
    888, 
    889, 
    890, 
    893, 
    894, 
    895, 
    896, 
    897, 
    898, 
    899, 
    900, 
    903, 
    904, 
    905, 
    906, 
    907, 
    908, 
    909, 
    910, 
    913, 
    914, 
    915, 
    916, 
    917, 
    918, 
    919, 
    920, 
    923, 
    924, 
    925, 
    926, 
    927, 
    928, 
    929, 
    930, 
    933, 
    934, 
    935, 
    936, 
    937, 
    938, 
    939, 
    940, 
    943, 
    944, 
    945, 
    946, 
    947, 
    948, 
    949, 
    950, 
    951, 
    954, 
    955, 
    956, 
    957, 
    958, 
    959, 
    960, 
    961, 
    962, 
    965, 
    966, 
    967, 
    968, 
    969, 
    970, 
    971, 
    972, 
    975, 
    976, 
    977, 
    978, 
    979, 
    980, 
    981, 
    982, 
    985, 
    986, 
    987, 
    988, 
    989, 
    990, 
    991, 
    992, 
    995, 
    996, 
    997, 
    998, 
    999, 
    1000, 
    1001, 
    1002, 
    1005, 
    1006, 
    1007, 
    1008, 
    1009, 
    1010, 
    1011, 
    1012, 
    1015, 
    1016, 
    1017, 
    1018, 
    1019, 
    1020, 
    1021, 
    1022, 
    1025, 
    1026, 
    1027, 
    1028, 
    1029, 
    1030, 
    1031, 
    1032, 
    1035, 
    1036, 
    1037, 
    1038, 
    1039, 
    1040, 
    1041, 
    1042, 
    1045, 
    1046, 
    1047, 
    1048, 
    1049, 
    1050, 
    1051, 
    1052, 
    1053, 
    1056, 
    1057, 
    1058, 
    1059, 
    1060, 
    1061, 
    1062, 
    1063, 
    1064, 
    1067, 
    1068, 
    1069, 
    1070, 
    1071, 
    1072, 
    1073, 
    1074, 
    1077, 
    1078, 
    1079, 
    1080, 
    1081, 
    1082, 
    1083, 
    1084, 
    1087, 
    1088, 
    1089, 
    1090, 
    1091, 
    1092, 
    1093, 
    1094, 
    1097, 
    1098, 
    1099, 
    1100, 
    1101, 
    1102, 
    1103, 
    1104, 
    1107, 
    1108, 
    1109, 
    1110, 
    1111, 
    1112, 
    1113, 
    1114, 
    1117, 
    1118, 
    1119, 
    1120, 
    1121, 
    1122, 
    1123, 
    1124, 
    1127, 
    1128, 
    1129, 
    1130, 
    1131, 
    1132, 
    1133, 
    1134, 
    1137, 
    1138, 
    1139, 
    1140, 
    1141, 
    1142, 
    1143, 
    1144, 
    1147, 
    1148, 
    1149, 
    1150, 
    1151, 
    1152, 
    1153, 
    1154, 
    1155, 
    1158, 
    1159, 
    1160, 
    1161, 
    1162, 
    1163, 
    1164, 
    1165, 
    1166, 
    1169, 
    1170, 
    1171, 
    1172, 
    1173, 
    1174, 
    1175, 
    1176, 
    1179, 
    1180, 
    1181, 
    1182, 
    1183, 
    1184, 
    1185, 
    1186, 
    1189, 
    1190, 
    1191, 
    1192, 
    1193, 
    1194, 
    1195, 
    1196, 
    1199, 
    1200, 
    1201, 
    1202, 
    1203, 
    1204, 
    1205, 
    1206, 
    1209, 
    1210, 
    1211, 
    1212, 
    1213, 
    1214, 
    1215, 
    1216, 
    1219, 
    1220, 
    1221, 
    1222, 
    1223, 
    1224, 
    1225, 
    1226, 
    1227, 
    1228, 
    1231, 
    1232, 
    1233, 
    1234, 
    1235, 
    1236, 
    1237, 
    1238, 
    1241, 
    1242, 
    1243, 
    1244, 
    1245, 
    1246, 
    1247, 
    1248, 
    1251, 
    1252, 
    1253, 
    1254, 
    1255, 
    1256, 
    1257, 
    1258, 
    1261, 
    1262, 
    1263, 
    1264, 
    1265, 
    1266, 
    1267, 
    1268, 
    1271, 
    1272, 
    1273, 
    1274, 
    1275, 
    1276, 
    1277, 
    1278, 
    1281, 
    1282, 
    1283, 
    1284, 
    1285, 
    1286, 
    1287, 
    1288, 
    1291, 
    1292, 
    1293, 
    1294, 
    1295, 
    1296, 
    1297, 
    1298, 
    1301, 
    1302, 
    1303, 
    1304, 
    1305, 
    1306, 
    1307, 
    1308, 
    1311, 
    1312, 
    1313, 
    1314, 
    1315, 
    1316, 
    1317, 
    1318, 
    1319, 
    1322, 
    1323, 
    1324, 
    1325, 
    1326, 
    1327, 
    1328, 
    1329, 
    1330, 
    1333, 
    1334, 
    1335, 
    1336, 
    1337, 
    1338, 
    1339, 
    1340, 
    1343, 
    1344, 
    1345, 
    1346, 
    1347, 
    1348, 
    1349, 
    1350, 
    1353, 
    1354, 
    1355, 
    1356, 
    1357, 
    1358, 
    1359, 
    1360, 
    1363, 
    1364, 
    1365, 
    1366, 
    1367, 
    1368, 
    1369, 
    1370, 
    1373, 
    1374, 
    1375, 
    1376, 
    1377, 
    1378, 
    1379, 
    1380, 
    1383, 
    1384, 
    1385, 
    1386, 
    1387, 
    1388, 
    1389, 
    1390, 
    1393, 
    1394, 
    1395, 
    1396, 
    1397, 
    1398, 
    1399, 
    1400, 
    1403, 
    1404, 
    1405, 
    1406, 
    1407, 
    1408, 
    1409, 
    1410, 
    1413, 
    1414, 
    1415, 
    1416, 
    1417, 
    1418, 
    1419, 
    1420, 
    1421, 
    1424, 
    1425, 
    1426, 
    1427, 
    1428, 
    1429, 
    1430, 
    1431, 
    1432, 
    1435, 
    1436, 
    1437, 
    1438, 
    1439, 
    1440, 
    1441, 
    1442, 
    1445, 
    1446, 
    1447, 
    1448, 
    1449, 
    1450, 
    1451, 
    1452, 
    1455, 
    1456, 
    1457, 
    1458, 
    1459, 
    1460, 
    1461, 
    1462, 
    1465, 
    1466, 
    1467, 
    1468, 
    1469, 
    1470, 
    1471, 
    1472, 
    1475, 
    1476, 
    1477, 
    1478, 
    1479, 
    1480, 
    1481, 
    1482, 
    1485, 
    1486, 
    1487, 
    1488, 
    1489, 
    1490, 
    1491, 
    1492, 
    1495, 
    1496, 
    1497, 
    1498, 
    1499, 
    1500, 
    1501, 
    1502, 
    1505, 
    1506, 
    1507, 
    1508, 
    1509, 
    1510, 
    1511, 
    1512, 
    1515, 
    1516, 
    1517, 
    1518, 
    1519, 
    1520, 
    1521, 
    1522, 
    1523, 
    1526, 
    1527, 
    1528, 
    1529, 
    1531, 
    1532, 
    1533, 
    1534, 
    1535, 
    1536, 
    1537
  ], 
  "heads": [[1237, 0, 0]], 
  "attrs": {"mxnet_version": ["int", 1100]}
}