{
  "nodes": [
    {
      "op": "null", 
      "name": "data", 
      "inputs": []
    }, 
    {
      "op": "null", 
      "name": "conv1_weight", 
      "attr": {
        "kernel": "(3, 3)", 
        "no_bias": "True", 
        "num_filter": "32", 
        "pad": "(0, 0)", 
        "stride": "(2, 2)"
      }, 
      "inputs": []
    }, 
    {
      "op": "Convolution", 
      "name": "conv1", 
      "attr": {
        "kernel": "(3, 3)", 
        "no_bias": "True", 
        "num_filter": "32", 
        "pad": "(0, 0)", 
        "stride": "(2, 2)"
      }, 
      "inputs": [[0, 0, 0], [1, 0, 0]]
    }, 
    {
      "op": "null", 
      "name": "conv1_bn_gamma", 
      "attr": {
        "eps": "0.001", 
        "fix_gamma": "False", 
        "use_global_stats": "True"
      }, 
      "inputs": []
    }, 
    {
      "op": "null", 
      "name": "conv1_bn_beta", 
      "attr": {
        "eps": "0.001", 
        "fix_gamma": "False", 
        "use_global_stats": "True"
      }, 
      "inputs": []
    }, 
    {
      "op": "null", 
      "name": "conv1_bn_moving_mean", 
      "attr": {
        "__init__": "[\"zero\", {}]", 
        "eps": "0.001", 
        "fix_gamma": "False", 
        "use_global_stats": "True"
      }, 
      "inputs": []
    }, 
    {
      "op": "null", 
      "name": "conv1_bn_moving_var", 
      "attr": {
        "__init__": "[\"one\", {}]", 
        "eps": "0.001", 
        "fix_gamma": "False", 
        "use_global_stats": "True"
      }, 
      "inputs": []
    }, 
    {
      "op": "BatchNorm", 
      "name": "conv1_bn", 
      "attr": {
        "eps": "0.001", 
        "fix_gamma": "False", 
        "use_global_stats": "True"
      }, 
      "inputs": [[2, 0, 0], [3, 0, 0], [4, 0, 0], [5, 0, 1], [6, 0, 1]]
    }, 
    {
      "op": "Activation", 
      "name": "conv1_relu", 
      "attr": {"act_type": "relu"}, 
      "inputs": [[7, 0, 0]]
    }, 
    {
      "op": "null", 
      "name": "conv2_weight", 
      "attr": {
        "kernel": "(3, 3)", 
        "no_bias": "True", 
        "num_filter": "64", 
        "pad": "(0, 0)", 
        "stride": "(1, 1)"
      }, 
      "inputs": []
    }, 
    {
      "op": "Convolution", 
      "name": "conv2", 
      "attr": {
        "kernel": "(3, 3)", 
        "no_bias": "True", 
        "num_filter": "64", 
        "pad": "(0, 0)", 
        "stride": "(1, 1)"
      }, 
      "inputs": [[8, 0, 0], [9, 0, 0]]
    }, 
    {
      "op": "null", 
      "name": "conv2_bn_gamma", 
      "attr": {
        "eps": "0.001", 
        "fix_gamma": "False", 
        "use_global_stats": "True"
      }, 
      "inputs": []
    }, 
    {
      "op": "null", 
      "name": "conv2_bn_beta", 
      "attr": {
        "eps": "0.001", 
        "fix_gamma": "False", 
        "use_global_stats": "True"
      }, 
      "inputs": []
    }, 
    {
      "op": "null", 
      "name": "conv2_bn_moving_mean", 
      "attr": {
        "__init__": "[\"zero\", {}]", 
        "eps": "0.001", 
        "fix_gamma": "False", 
        "use_global_stats": "True"
      }, 
      "inputs": []
    }, 
    {
      "op": "null", 
      "name": "conv2_bn_moving_var", 
      "attr": {
        "__init__": "[\"one\", {}]", 
        "eps": "0.001", 
        "fix_gamma": "False", 
        "use_global_stats": "True"
      }, 
      "inputs": []
    }, 
    {
      "op": "BatchNorm", 
      "name": "conv2_bn", 
      "attr": {
        "eps": "0.001", 
        "fix_gamma": "False", 
        "use_global_stats": "True"
      }, 
      "inputs": [[10, 0, 0], [11, 0, 0], [12, 0, 0], [13, 0, 1], [14, 0, 1]]
    }, 
    {
      "op": "Activation", 
      "name": "conv2_relu", 
      "attr": {"act_type": "relu"}, 
      "inputs": [[15, 0, 0]]
    }, 
    {
      "op": "null", 
      "name": "xception1_match_conv_weight", 
      "attr": {
        "kernel": "(1, 1)", 
        "no_bias": "True", 
        "num_filter": "128", 
        "pad": "(0, 0)", 
        "stride": "(2, 2)"
      }, 
      "inputs": []
    }, 
    {
      "op": "Convolution", 
      "name": "xception1_match_conv", 
      "attr": {
        "kernel": "(1, 1)", 
        "no_bias": "True", 
        "num_filter": "128", 
        "pad": "(0, 0)", 
        "stride": "(2, 2)"
      }, 
      "inputs": [[16, 0, 0], [17, 0, 0]]
    }, 
    {
      "op": "null", 
      "name": "xception1_match_conv_bn_gamma", 
      "attr": {
        "eps": "0.001", 
        "fix_gamma": "False", 
        "use_global_stats": "True"
      }, 
      "inputs": []
    }, 
    {
      "op": "null", 
      "name": "xception1_match_conv_bn_beta", 
      "attr": {
        "eps": "0.001", 
        "fix_gamma": "False", 
        "use_global_stats": "True"
      }, 
      "inputs": []
    }, 
    {
      "op": "null", 
      "name": "xception1_match_conv_bn_moving_mean", 
      "attr": {
        "__init__": "[\"zero\", {}]", 
        "eps": "0.001", 
        "fix_gamma": "False", 
        "use_global_stats": "True"
      }, 
      "inputs": []
    }, 
    {
      "op": "null", 
      "name": "xception1_match_conv_bn_moving_var", 
      "attr": {
        "__init__": "[\"one\", {}]", 
        "eps": "0.001", 
        "fix_gamma": "False", 
        "use_global_stats": "True"
      }, 
      "inputs": []
    }, 
    {
      "op": "BatchNorm", 
      "name": "xception1_match_conv_bn", 
      "attr": {
        "eps": "0.001", 
        "fix_gamma": "False", 
        "use_global_stats": "True"
      }, 
      "inputs": [[18, 0, 0], [19, 0, 0], [20, 0, 0], [21, 0, 1], [22, 0, 1]]
    }, 
    {
      "op": "null", 
      "name": "xception1_conv1_1_weight", 
      "attr": {
        "kernel": "(3, 3)", 
        "no_bias": "True", 
        "num_filter": "64", 
        "num_group": "64", 
        "pad": "(1, 1)", 
        "stride": "(1, 1)"
      }, 
      "inputs": []
    }, 
    {
      "op": "Convolution", 
      "name": "xception1_conv1_1", 
      "attr": {
        "kernel": "(3, 3)", 
        "no_bias": "True", 
        "num_filter": "64", 
        "num_group": "64", 
        "pad": "(1, 1)", 
        "stride": "(1, 1)"
      }, 
      "inputs": [[16, 0, 0], [24, 0, 0]]
    }, 
    {
      "op": "null", 
      "name": "xception1_conv1_2_weight", 
      "attr": {
        "kernel": "(1, 1)", 
        "no_bias": "True", 
        "num_filter": "128", 
        "pad": "(0, 0)", 
        "stride": "(1, 1)"
      }, 
      "inputs": []
    }, 
    {
      "op": "Convolution", 
      "name": "xception1_conv1_2", 
      "attr": {
        "kernel": "(1, 1)", 
        "no_bias": "True", 
        "num_filter": "128", 
        "pad": "(0, 0)", 
        "stride": "(1, 1)"
      }, 
      "inputs": [[25, 0, 0], [26, 0, 0]]
    }, 
    {
      "op": "null", 
      "name": "xception1_conv1_bn_gamma", 
      "attr": {
        "eps": "0.001", 
        "fix_gamma": "False", 
        "use_global_stats": "True"
      }, 
      "inputs": []
    }, 
    {
      "op": "null", 
      "name": "xception1_conv1_bn_beta", 
      "attr": {
        "eps": "0.001", 
        "fix_gamma": "False", 
        "use_global_stats": "True"
      }, 
      "inputs": []
    }, 
    {
      "op": "null", 
      "name": "xception1_conv1_bn_moving_mean", 
      "attr": {
        "__init__": "[\"zero\", {}]", 
        "eps": "0.001", 
        "fix_gamma": "False", 
        "use_global_stats": "True"
      }, 
      "inputs": []
    }, 
    {
      "op": "null", 
      "name": "xception1_conv1_bn_moving_var", 
      "attr": {
        "__init__": "[\"one\", {}]", 
        "eps": "0.001", 
        "fix_gamma": "False", 
        "use_global_stats": "True"
      }, 
      "inputs": []
    }, 
    {
      "op": "BatchNorm", 
      "name": "xception1_conv1_bn", 
      "attr": {
        "eps": "0.001", 
        "fix_gamma": "False", 
        "use_global_stats": "True"
      }, 
      "inputs": [[27, 0, 0], [28, 0, 0], [29, 0, 0], [30, 0, 1], [31, 0, 1]]
    }, 
    {
      "op": "Activation", 
      "name": "xception1_conv1_relu", 
      "attr": {"act_type": "relu"}, 
      "inputs": [[32, 0, 0]]
    }, 
    {
      "op": "null", 
      "name": "xception1_conv2_1_weight", 
      "attr": {
        "kernel": "(3, 3)", 
        "no_bias": "True", 
        "num_filter": "128", 
        "num_group": "128", 
        "pad": "(1, 1)", 
        "stride": "(1, 1)"
      }, 
      "inputs": []
    }, 
    {
      "op": "Convolution", 
      "name": "xception1_conv2_1", 
      "attr": {
        "kernel": "(3, 3)", 
        "no_bias": "True", 
        "num_filter": "128", 
        "num_group": "128", 
        "pad": "(1, 1)", 
        "stride": "(1, 1)"
      }, 
      "inputs": [[33, 0, 0], [34, 0, 0]]
    }, 
    {
      "op": "null", 
      "name": "xception1_conv2_2_weight", 
      "attr": {
        "kernel": "(1, 1)", 
        "no_bias": "True", 
        "num_filter": "128", 
        "pad": "(0, 0)", 
        "stride": "(1, 1)"
      }, 
      "inputs": []
    }, 
    {
      "op": "Convolution", 
      "name": "xception1_conv2_2", 
      "attr": {
        "kernel": "(1, 1)", 
        "no_bias": "True", 
        "num_filter": "128", 
        "pad": "(0, 0)", 
        "stride": "(1, 1)"
      }, 
      "inputs": [[35, 0, 0], [36, 0, 0]]
    }, 
    {
      "op": "null", 
      "name": "xception1_conv2_bn_gamma", 
      "attr": {
        "eps": "0.001", 
        "fix_gamma": "False", 
        "use_global_stats": "True"
      }, 
      "inputs": []
    }, 
    {
      "op": "null", 
      "name": "xception1_conv2_bn_beta", 
      "attr": {
        "eps": "0.001", 
        "fix_gamma": "False", 
        "use_global_stats": "True"
      }, 
      "inputs": []
    }, 
    {
      "op": "null", 
      "name": "xception1_conv2_bn_moving_mean", 
      "attr": {
        "__init__": "[\"zero\", {}]", 
        "eps": "0.001", 
        "fix_gamma": "False", 
        "use_global_stats": "True"
      }, 
      "inputs": []
    }, 
    {
      "op": "null", 
      "name": "xception1_conv2_bn_moving_var", 
      "attr": {
        "__init__": "[\"one\", {}]", 
        "eps": "0.001", 
        "fix_gamma": "False", 
        "use_global_stats": "True"
      }, 
      "inputs": []
    }, 
    {
      "op": "BatchNorm", 
      "name": "xception1_conv2_bn", 
      "attr": {
        "eps": "0.001", 
        "fix_gamma": "False", 
        "use_global_stats": "True"
      }, 
      "inputs": [[37, 0, 0], [38, 0, 0], [39, 0, 0], [40, 0, 1], [41, 0, 1]]
    }, 
    {
      "op": "Pooling", 
      "name": "xception1_pool", 
      "attr": {
        "kernel": "(3, 3)", 
        "pad": "(1, 1)", 
        "pool_type": "max", 
        "pooling_convention": "full", 
        "stride": "(2, 2)"
      }, 
      "inputs": [[42, 0, 0]]
    }, 
    {
      "op": "broadcast_add", 
      "name": "xception1_elewise", 
      "inputs": [[23, 0, 0], [43, 0, 0]]
    }, 
    {
      "op": "null", 
      "name": "xception2_match_conv_weight", 
      "attr": {
        "kernel": "(1, 1)", 
        "no_bias": "True", 
        "num_filter": "256", 
        "pad": "(0, 0)", 
        "stride": "(2, 2)"
      }, 
      "inputs": []
    }, 
    {
      "op": "Convolution", 
      "name": "xception2_match_conv", 
      "attr": {
        "kernel": "(1, 1)", 
        "no_bias": "True", 
        "num_filter": "256", 
        "pad": "(0, 0)", 
        "stride": "(2, 2)"
      }, 
      "inputs": [[44, 0, 0], [45, 0, 0]]
    }, 
    {
      "op": "null", 
      "name": "xception2_match_conv_bn_gamma", 
      "attr": {
        "eps": "0.001", 
        "fix_gamma": "False", 
        "use_global_stats": "True"
      }, 
      "inputs": []
    }, 
    {
      "op": "null", 
      "name": "xception2_match_conv_bn_beta", 
      "attr": {
        "eps": "0.001", 
        "fix_gamma": "False", 
        "use_global_stats": "True"
      }, 
      "inputs": []
    }, 
    {
      "op": "null", 
      "name": "xception2_match_conv_bn_moving_mean", 
      "attr": {
        "__init__": "[\"zero\", {}]", 
        "eps": "0.001", 
        "fix_gamma": "False", 
        "use_global_stats": "True"
      }, 
      "inputs": []
    }, 
    {
      "op": "null", 
      "name": "xception2_match_conv_bn_moving_var", 
      "attr": {
        "__init__": "[\"one\", {}]", 
        "eps": "0.001", 
        "fix_gamma": "False", 
        "use_global_stats": "True"
      }, 
      "inputs": []
    }, 
    {
      "op": "BatchNorm", 
      "name": "xception2_match_conv_bn", 
      "attr": {
        "eps": "0.001", 
        "fix_gamma": "False", 
        "use_global_stats": "True"
      }, 
      "inputs": [[46, 0, 0], [47, 0, 0], [48, 0, 0], [49, 0, 1], [50, 0, 1]]
    }, 
    {
      "op": "Activation", 
      "name": "xception2_relu", 
      "attr": {"act_type": "relu"}, 
      "inputs": [[44, 0, 0]]
    }, 
    {
      "op": "null", 
      "name": "xception2_conv1_1_weight", 
      "attr": {
        "kernel": "(3, 3)", 
        "no_bias": "True", 
        "num_filter": "128", 
        "num_group": "128", 
        "pad": "(1, 1)", 
        "stride": "(1, 1)"
      }, 
      "inputs": []
    }, 
    {
      "op": "Convolution", 
      "name": "xception2_conv1_1", 
      "attr": {
        "kernel": "(3, 3)", 
        "no_bias": "True", 
        "num_filter": "128", 
        "num_group": "128", 
        "pad": "(1, 1)", 
        "stride": "(1, 1)"
      }, 
      "inputs": [[52, 0, 0], [53, 0, 0]]
    }, 
    {
      "op": "null", 
      "name": "xception2_conv1_2_weight", 
      "attr": {
        "kernel": "(1, 1)", 
        "no_bias": "True", 
        "num_filter": "256", 
        "pad": "(0, 0)", 
        "stride": "(1, 1)"
      }, 
      "inputs": []
    }, 
    {
      "op": "Convolution", 
      "name": "xception2_conv1_2", 
      "attr": {
        "kernel": "(1, 1)", 
        "no_bias": "True", 
        "num_filter": "256", 
        "pad": "(0, 0)", 
        "stride": "(1, 1)"
      }, 
      "inputs": [[54, 0, 0], [55, 0, 0]]
    }, 
    {
      "op": "null", 
      "name": "xception2_conv1_bn_gamma", 
      "attr": {
        "eps": "0.001", 
        "fix_gamma": "False", 
        "use_global_stats": "True"
      }, 
      "inputs": []
    }, 
    {
      "op": "null", 
      "name": "xception2_conv1_bn_beta", 
      "attr": {
        "eps": "0.001", 
        "fix_gamma": "False", 
        "use_global_stats": "True"
      }, 
      "inputs": []
    }, 
    {
      "op": "null", 
      "name": "xception2_conv1_bn_moving_mean", 
      "attr": {
        "__init__": "[\"zero\", {}]", 
        "eps": "0.001", 
        "fix_gamma": "False", 
        "use_global_stats": "True"
      }, 
      "inputs": []
    }, 
    {
      "op": "null", 
      "name": "xception2_conv1_bn_moving_var", 
      "attr": {
        "__init__": "[\"one\", {}]", 
        "eps": "0.001", 
        "fix_gamma": "False", 
        "use_global_stats": "True"
      }, 
      "inputs": []
    }, 
    {
      "op": "BatchNorm", 
      "name": "xception2_conv1_bn", 
      "attr": {
        "eps": "0.001", 
        "fix_gamma": "False", 
        "use_global_stats": "True"
      }, 
      "inputs": [[56, 0, 0], [57, 0, 0], [58, 0, 0], [59, 0, 1], [60, 0, 1]]
    }, 
    {
      "op": "Activation", 
      "name": "xception2_conv1_relu", 
      "attr": {"act_type": "relu"}, 
      "inputs": [[61, 0, 0]]
    }, 
    {
      "op": "null", 
      "name": "xception2_conv2_1_weight", 
      "attr": {
        "kernel": "(3, 3)", 
        "no_bias": "True", 
        "num_filter": "256", 
        "num_group": "256", 
        "pad": "(1, 1)", 
        "stride": "(1, 1)"
      }, 
      "inputs": []
    }, 
    {
      "op": "Convolution", 
      "name": "xception2_conv2_1", 
      "attr": {
        "kernel": "(3, 3)", 
        "no_bias": "True", 
        "num_filter": "256", 
        "num_group": "256", 
        "pad": "(1, 1)", 
        "stride": "(1, 1)"
      }, 
      "inputs": [[62, 0, 0], [63, 0, 0]]
    }, 
    {
      "op": "null", 
      "name": "xception2_conv2_2_weight", 
      "attr": {
        "kernel": "(1, 1)", 
        "no_bias": "True", 
        "num_filter": "256", 
        "pad": "(0, 0)", 
        "stride": "(1, 1)"
      }, 
      "inputs": []
    }, 
    {
      "op": "Convolution", 
      "name": "xception2_conv2_2", 
      "attr": {
        "kernel": "(1, 1)", 
        "no_bias": "True", 
        "num_filter": "256", 
        "pad": "(0, 0)", 
        "stride": "(1, 1)"
      }, 
      "inputs": [[64, 0, 0], [65, 0, 0]]
    }, 
    {
      "op": "null", 
      "name": "xception2_conv2_bn_gamma", 
      "attr": {
        "eps": "0.001", 
        "fix_gamma": "False", 
        "use_global_stats": "True"
      }, 
      "inputs": []
    }, 
    {
      "op": "null", 
      "name": "xception2_conv2_bn_beta", 
      "attr": {
        "eps": "0.001", 
        "fix_gamma": "False", 
        "use_global_stats": "True"
      }, 
      "inputs": []
    }, 
    {
      "op": "null", 
      "name": "xception2_conv2_bn_moving_mean", 
      "attr": {
        "__init__": "[\"zero\", {}]", 
        "eps": "0.001", 
        "fix_gamma": "False", 
        "use_global_stats": "True"
      }, 
      "inputs": []
    }, 
    {
      "op": "null", 
      "name": "xception2_conv2_bn_moving_var", 
      "attr": {
        "__init__": "[\"one\", {}]", 
        "eps": "0.001", 
        "fix_gamma": "False", 
        "use_global_stats": "True"
      }, 
      "inputs": []
    }, 
    {
      "op": "BatchNorm", 
      "name": "xception2_conv2_bn", 
      "attr": {
        "eps": "0.001", 
        "fix_gamma": "False", 
        "use_global_stats": "True"
      }, 
      "inputs": [[66, 0, 0], [67, 0, 0], [68, 0, 0], [69, 0, 1], [70, 0, 1]]
    }, 
    {
      "op": "Pooling", 
      "name": "xception2_pool", 
      "attr": {
        "kernel": "(3, 3)", 
        "pad": "(0, 0)", 
        "pool_type": "max", 
        "pooling_convention": "full", 
        "stride": "(2, 2)"
      }, 
      "inputs": [[71, 0, 0]]
    }, 
    {
      "op": "broadcast_add", 
      "name": "xception2_elewise", 
      "inputs": [[51, 0, 0], [72, 0, 0]]
    }, 
    {
      "op": "null", 
      "name": "xception3_match_conv_weight", 
      "attr": {
        "kernel": "(1, 1)", 
        "no_bias": "True", 
        "num_filter": "728", 
        "pad": "(0, 0)", 
        "stride": "(2, 2)"
      }, 
      "inputs": []
    }, 
    {
      "op": "Convolution", 
      "name": "xception3_match_conv", 
      "attr": {
        "kernel": "(1, 1)", 
        "no_bias": "True", 
        "num_filter": "728", 
        "pad": "(0, 0)", 
        "stride": "(2, 2)"
      }, 
      "inputs": [[73, 0, 0], [74, 0, 0]]
    }, 
    {
      "op": "null", 
      "name": "xception3_match_conv_bn_gamma", 
      "attr": {
        "eps": "0.001", 
        "fix_gamma": "False", 
        "use_global_stats": "True"
      }, 
      "inputs": []
    }, 
    {
      "op": "null", 
      "name": "xception3_match_conv_bn_beta", 
      "attr": {
        "eps": "0.001", 
        "fix_gamma": "False", 
        "use_global_stats": "True"
      }, 
      "inputs": []
    }, 
    {
      "op": "null", 
      "name": "xception3_match_conv_bn_moving_mean", 
      "attr": {
        "__init__": "[\"zero\", {}]", 
        "eps": "0.001", 
        "fix_gamma": "False", 
        "use_global_stats": "True"
      }, 
      "inputs": []
    }, 
    {
      "op": "null", 
      "name": "xception3_match_conv_bn_moving_var", 
      "attr": {
        "__init__": "[\"one\", {}]", 
        "eps": "0.001", 
        "fix_gamma": "False", 
        "use_global_stats": "True"
      }, 
      "inputs": []
    }, 
    {
      "op": "BatchNorm", 
      "name": "xception3_match_conv_bn", 
      "attr": {
        "eps": "0.001", 
        "fix_gamma": "False", 
        "use_global_stats": "True"
      }, 
      "inputs": [[75, 0, 0], [76, 0, 0], [77, 0, 0], [78, 0, 1], [79, 0, 1]]
    }, 
    {
      "op": "Activation", 
      "name": "xception3_relu", 
      "attr": {"act_type": "relu"}, 
      "inputs": [[73, 0, 0]]
    }, 
    {
      "op": "null", 
      "name": "xception3_conv1_1_weight", 
      "attr": {
        "kernel": "(3, 3)", 
        "no_bias": "True", 
        "num_filter": "256", 
        "num_group": "256", 
        "pad": "(1, 1)", 
        "stride": "(1, 1)"
      }, 
      "inputs": []
    }, 
    {
      "op": "Convolution", 
      "name": "xception3_conv1_1", 
      "attr": {
        "kernel": "(3, 3)", 
        "no_bias": "True", 
        "num_filter": "256", 
        "num_group": "256", 
        "pad": "(1, 1)", 
        "stride": "(1, 1)"
      }, 
      "inputs": [[81, 0, 0], [82, 0, 0]]
    }, 
    {
      "op": "null", 
      "name": "xception3_conv1_2_weight", 
      "attr": {
        "kernel": "(1, 1)", 
        "no_bias": "True", 
        "num_filter": "728", 
        "pad": "(0, 0)", 
        "stride": "(1, 1)"
      }, 
      "inputs": []
    }, 
    {
      "op": "Convolution", 
      "name": "xception3_conv1_2", 
      "attr": {
        "kernel": "(1, 1)", 
        "no_bias": "True", 
        "num_filter": "728", 
        "pad": "(0, 0)", 
        "stride": "(1, 1)"
      }, 
      "inputs": [[83, 0, 0], [84, 0, 0]]
    }, 
    {
      "op": "null", 
      "name": "xception3_conv1_bn_gamma", 
      "attr": {
        "eps": "0.001", 
        "fix_gamma": "False", 
        "use_global_stats": "True"
      }, 
      "inputs": []
    }, 
    {
      "op": "null", 
      "name": "xception3_conv1_bn_beta", 
      "attr": {
        "eps": "0.001", 
        "fix_gamma": "False", 
        "use_global_stats": "True"
      }, 
      "inputs": []
    }, 
    {
      "op": "null", 
      "name": "xception3_conv1_bn_moving_mean", 
      "attr": {
        "__init__": "[\"zero\", {}]", 
        "eps": "0.001", 
        "fix_gamma": "False", 
        "use_global_stats": "True"
      }, 
      "inputs": []
    }, 
    {
      "op": "null", 
      "name": "xception3_conv1_bn_moving_var", 
      "attr": {
        "__init__": "[\"one\", {}]", 
        "eps": "0.001", 
        "fix_gamma": "False", 
        "use_global_stats": "True"
      }, 
      "inputs": []
    }, 
    {
      "op": "BatchNorm", 
      "name": "xception3_conv1_bn", 
      "attr": {
        "eps": "0.001", 
        "fix_gamma": "False", 
        "use_global_stats": "True"
      }, 
      "inputs": [[85, 0, 0], [86, 0, 0], [87, 0, 0], [88, 0, 1], [89, 0, 1]]
    }, 
    {
      "op": "Activation", 
      "name": "xception3_conv1_relu", 
      "attr": {"act_type": "relu"}, 
      "inputs": [[90, 0, 0]]
    }, 
    {
      "op": "null", 
      "name": "xception3_conv2_1_weight", 
      "attr": {
        "kernel": "(3, 3)", 
        "no_bias": "True", 
        "num_filter": "728", 
        "num_group": "728", 
        "pad": "(1, 1)", 
        "stride": "(1, 1)"
      }, 
      "inputs": []
    }, 
    {
      "op": "Convolution", 
      "name": "xception3_conv2_1", 
      "attr": {
        "kernel": "(3, 3)", 
        "no_bias": "True", 
        "num_filter": "728", 
        "num_group": "728", 
        "pad": "(1, 1)", 
        "stride": "(1, 1)"
      }, 
      "inputs": [[91, 0, 0], [92, 0, 0]]
    }, 
    {
      "op": "null", 
      "name": "xception3_conv2_2_weight", 
      "attr": {
        "kernel": "(1, 1)", 
        "no_bias": "True", 
        "num_filter": "728", 
        "pad": "(0, 0)", 
        "stride": "(1, 1)"
      }, 
      "inputs": []
    }, 
    {
      "op": "Convolution", 
      "name": "xception3_conv2_2", 
      "attr": {
        "kernel": "(1, 1)", 
        "no_bias": "True", 
        "num_filter": "728", 
        "pad": "(0, 0)", 
        "stride": "(1, 1)"
      }, 
      "inputs": [[93, 0, 0], [94, 0, 0]]
    }, 
    {
      "op": "null", 
      "name": "xception3_conv2_bn_gamma", 
      "attr": {
        "eps": "0.001", 
        "fix_gamma": "False", 
        "use_global_stats": "True"
      }, 
      "inputs": []
    }, 
    {
      "op": "null", 
      "name": "xception3_conv2_bn_beta", 
      "attr": {
        "eps": "0.001", 
        "fix_gamma": "False", 
        "use_global_stats": "True"
      }, 
      "inputs": []
    }, 
    {
      "op": "null", 
      "name": "xception3_conv2_bn_moving_mean", 
      "attr": {
        "__init__": "[\"zero\", {}]", 
        "eps": "0.001", 
        "fix_gamma": "False", 
        "use_global_stats": "True"
      }, 
      "inputs": []
    }, 
    {
      "op": "null", 
      "name": "xception3_conv2_bn_moving_var", 
      "attr": {
        "__init__": "[\"one\", {}]", 
        "eps": "0.001", 
        "fix_gamma": "False", 
        "use_global_stats": "True"
      }, 
      "inputs": []
    }, 
    {
      "op": "BatchNorm", 
      "name": "xception3_conv2_bn", 
      "attr": {
        "eps": "0.001", 
        "fix_gamma": "False", 
        "use_global_stats": "True"
      }, 
      "inputs": [[95, 0, 0], [96, 0, 0], [97, 0, 0], [98, 0, 1], [99, 0, 1]]
    }, 
    {
      "op": "Pooling", 
      "name": "xception3_pool", 
      "attr": {
        "kernel": "(3, 3)", 
        "pad": "(1, 1)", 
        "pool_type": "max", 
        "pooling_convention": "full", 
        "stride": "(2, 2)"
      }, 
      "inputs": [[100, 0, 0]]
    }, 
    {
      "op": "broadcast_add", 
      "name": "xception3_elewise", 
      "inputs": [[80, 0, 0], [101, 0, 0]]
    }, 
    {
      "op": "Activation", 
      "name": "xception4_relu", 
      "attr": {"act_type": "relu"}, 
      "inputs": [[102, 0, 0]]
    }, 
    {
      "op": "null", 
      "name": "xception4_conv1_1_weight", 
      "attr": {
        "kernel": "(3, 3)", 
        "no_bias": "True", 
        "num_filter": "728", 
        "num_group": "728", 
        "pad": "(1, 1)", 
        "stride": "(1, 1)"
      }, 
      "inputs": []
    }, 
    {
      "op": "Convolution", 
      "name": "xception4_conv1_1", 
      "attr": {
        "kernel": "(3, 3)", 
        "no_bias": "True", 
        "num_filter": "728", 
        "num_group": "728", 
        "pad": "(1, 1)", 
        "stride": "(1, 1)"
      }, 
      "inputs": [[103, 0, 0], [104, 0, 0]]
    }, 
    {
      "op": "null", 
      "name": "xception4_conv1_2_weight", 
      "attr": {
        "kernel": "(1, 1)", 
        "no_bias": "True", 
        "num_filter": "728", 
        "pad": "(0, 0)", 
        "stride": "(1, 1)"
      }, 
      "inputs": []
    }, 
    {
      "op": "Convolution", 
      "name": "xception4_conv1_2", 
      "attr": {
        "kernel": "(1, 1)", 
        "no_bias": "True", 
        "num_filter": "728", 
        "pad": "(0, 0)", 
        "stride": "(1, 1)"
      }, 
      "inputs": [[105, 0, 0], [106, 0, 0]]
    }, 
    {
      "op": "null", 
      "name": "xception4_conv1_bn_gamma", 
      "attr": {
        "eps": "0.001", 
        "fix_gamma": "False", 
        "use_global_stats": "True"
      }, 
      "inputs": []
    }, 
    {
      "op": "null", 
      "name": "xception4_conv1_bn_beta", 
      "attr": {
        "eps": "0.001", 
        "fix_gamma": "False", 
        "use_global_stats": "True"
      }, 
      "inputs": []
    }, 
    {
      "op": "null", 
      "name": "xception4_conv1_bn_moving_mean", 
      "attr": {
        "__init__": "[\"zero\", {}]", 
        "eps": "0.001", 
        "fix_gamma": "False", 
        "use_global_stats": "True"
      }, 
      "inputs": []
    }, 
    {
      "op": "null", 
      "name": "xception4_conv1_bn_moving_var", 
      "attr": {
        "__init__": "[\"one\", {}]", 
        "eps": "0.001", 
        "fix_gamma": "False", 
        "use_global_stats": "True"
      }, 
      "inputs": []
    }, 
    {
      "op": "BatchNorm", 
      "name": "xception4_conv1_bn", 
      "attr": {
        "eps": "0.001", 
        "fix_gamma": "False", 
        "use_global_stats": "True"
      }, 
      "inputs": [[107, 0, 0], [108, 0, 0], [109, 0, 0], [110, 0, 1], [111, 0, 1]]
    }, 
    {
      "op": "Activation", 
      "name": "xception4_conv1_relu", 
      "attr": {"act_type": "relu"}, 
      "inputs": [[112, 0, 0]]
    }, 
    {
      "op": "null", 
      "name": "xception4_conv2_1_weight", 
      "attr": {
        "kernel": "(3, 3)", 
        "no_bias": "True", 
        "num_filter": "728", 
        "num_group": "728", 
        "pad": "(1, 1)", 
        "stride": "(1, 1)"
      }, 
      "inputs": []
    }, 
    {
      "op": "Convolution", 
      "name": "xception4_conv2_1", 
      "attr": {
        "kernel": "(3, 3)", 
        "no_bias": "True", 
        "num_filter": "728", 
        "num_group": "728", 
        "pad": "(1, 1)", 
        "stride": "(1, 1)"
      }, 
      "inputs": [[113, 0, 0], [114, 0, 0]]
    }, 
    {
      "op": "null", 
      "name": "xception4_conv2_2_weight", 
      "attr": {
        "kernel": "(1, 1)", 
        "no_bias": "True", 
        "num_filter": "728", 
        "pad": "(0, 0)", 
        "stride": "(1, 1)"
      }, 
      "inputs": []
    }, 
    {
      "op": "Convolution", 
      "name": "xception4_conv2_2", 
      "attr": {
        "kernel": "(1, 1)", 
        "no_bias": "True", 
        "num_filter": "728", 
        "pad": "(0, 0)", 
        "stride": "(1, 1)"
      }, 
      "inputs": [[115, 0, 0], [116, 0, 0]]
    }, 
    {
      "op": "null", 
      "name": "xception4_conv2_bn_gamma", 
      "attr": {
        "eps": "0.001", 
        "fix_gamma": "False", 
        "use_global_stats": "True"
      }, 
      "inputs": []
    }, 
    {
      "op": "null", 
      "name": "xception4_conv2_bn_beta", 
      "attr": {
        "eps": "0.001", 
        "fix_gamma": "False", 
        "use_global_stats": "True"
      }, 
      "inputs": []
    }, 
    {
      "op": "null", 
      "name": "xception4_conv2_bn_moving_mean", 
      "attr": {
        "__init__": "[\"zero\", {}]", 
        "eps": "0.001", 
        "fix_gamma": "False", 
        "use_global_stats": "True"
      }, 
      "inputs": []
    }, 
    {
      "op": "null", 
      "name": "xception4_conv2_bn_moving_var", 
      "attr": {
        "__init__": "[\"one\", {}]", 
        "eps": "0.001", 
        "fix_gamma": "False", 
        "use_global_stats": "True"
      }, 
      "inputs": []
    }, 
    {
      "op": "BatchNorm", 
      "name": "xception4_conv2_bn", 
      "attr": {
        "eps": "0.001", 
        "fix_gamma": "False", 
        "use_global_stats": "True"
      }, 
      "inputs": [[117, 0, 0], [118, 0, 0], [119, 0, 0], [120, 0, 1], [121, 0, 1]]
    }, 
    {
      "op": "Activation", 
      "name": "xception4_conv2_relu", 
      "attr": {"act_type": "relu"}, 
      "inputs": [[122, 0, 0]]
    }, 
    {
      "op": "null", 
      "name": "xception4_conv3_1_weight", 
      "attr": {
        "kernel": "(3, 3)", 
        "no_bias": "True", 
        "num_filter": "728", 
        "num_group": "728", 
        "pad": "(1, 1)", 
        "stride": "(1, 1)"
      }, 
      "inputs": []
    }, 
    {
      "op": "Convolution", 
      "name": "xception4_conv3_1", 
      "attr": {
        "kernel": "(3, 3)", 
        "no_bias": "True", 
        "num_filter": "728", 
        "num_group": "728", 
        "pad": "(1, 1)", 
        "stride": "(1, 1)"
      }, 
      "inputs": [[123, 0, 0], [124, 0, 0]]
    }, 
    {
      "op": "null", 
      "name": "xception4_conv3_2_weight", 
      "attr": {
        "kernel": "(1, 1)", 
        "no_bias": "True", 
        "num_filter": "728", 
        "pad": "(0, 0)", 
        "stride": "(1, 1)"
      }, 
      "inputs": []
    }, 
    {
      "op": "Convolution", 
      "name": "xception4_conv3_2", 
      "attr": {
        "kernel": "(1, 1)", 
        "no_bias": "True", 
        "num_filter": "728", 
        "pad": "(0, 0)", 
        "stride": "(1, 1)"
      }, 
      "inputs": [[125, 0, 0], [126, 0, 0]]
    }, 
    {
      "op": "null", 
      "name": "xception4_conv3_bn_gamma", 
      "attr": {
        "eps": "0.001", 
        "fix_gamma": "False", 
        "use_global_stats": "True"
      }, 
      "inputs": []
    }, 
    {
      "op": "null", 
      "name": "xception4_conv3_bn_beta", 
      "attr": {
        "eps": "0.001", 
        "fix_gamma": "False", 
        "use_global_stats": "True"
      }, 
      "inputs": []
    }, 
    {
      "op": "null", 
      "name": "xception4_conv3_bn_moving_mean", 
      "attr": {
        "__init__": "[\"zero\", {}]", 
        "eps": "0.001", 
        "fix_gamma": "False", 
        "use_global_stats": "True"
      }, 
      "inputs": []
    }, 
    {
      "op": "null", 
      "name": "xception4_conv3_bn_moving_var", 
      "attr": {
        "__init__": "[\"one\", {}]", 
        "eps": "0.001", 
        "fix_gamma": "False", 
        "use_global_stats": "True"
      }, 
      "inputs": []
    }, 
    {
      "op": "BatchNorm", 
      "name": "xception4_conv3_bn", 
      "attr": {
        "eps": "0.001", 
        "fix_gamma": "False", 
        "use_global_stats": "True"
      }, 
      "inputs": [[127, 0, 0], [128, 0, 0], [129, 0, 0], [130, 0, 1], [131, 0, 1]]
    }, 
    {
      "op": "broadcast_add", 
      "name": "xception4_elewise", 
      "inputs": [[102, 0, 0], [132, 0, 0]]
    }, 
    {
      "op": "Activation", 
      "name": "xception5_relu", 
      "attr": {"act_type": "relu"}, 
      "inputs": [[133, 0, 0]]
    }, 
    {
      "op": "null", 
      "name": "xception5_conv1_1_weight", 
      "attr": {
        "kernel": "(3, 3)", 
        "no_bias": "True", 
        "num_filter": "728", 
        "num_group": "728", 
        "pad": "(1, 1)", 
        "stride": "(1, 1)"
      }, 
      "inputs": []
    }, 
    {
      "op": "Convolution", 
      "name": "xception5_conv1_1", 
      "attr": {
        "kernel": "(3, 3)", 
        "no_bias": "True", 
        "num_filter": "728", 
        "num_group": "728", 
        "pad": "(1, 1)", 
        "stride": "(1, 1)"
      }, 
      "inputs": [[134, 0, 0], [135, 0, 0]]
    }, 
    {
      "op": "null", 
      "name": "xception5_conv1_2_weight", 
      "attr": {
        "kernel": "(1, 1)", 
        "no_bias": "True", 
        "num_filter": "728", 
        "pad": "(0, 0)", 
        "stride": "(1, 1)"
      }, 
      "inputs": []
    }, 
    {
      "op": "Convolution", 
      "name": "xception5_conv1_2", 
      "attr": {
        "kernel": "(1, 1)", 
        "no_bias": "True", 
        "num_filter": "728", 
        "pad": "(0, 0)", 
        "stride": "(1, 1)"
      }, 
      "inputs": [[136, 0, 0], [137, 0, 0]]
    }, 
    {
      "op": "null", 
      "name": "xception5_conv1_bn_gamma", 
      "attr": {
        "eps": "0.001", 
        "fix_gamma": "False", 
        "use_global_stats": "True"
      }, 
      "inputs": []
    }, 
    {
      "op": "null", 
      "name": "xception5_conv1_bn_beta", 
      "attr": {
        "eps": "0.001", 
        "fix_gamma": "False", 
        "use_global_stats": "True"
      }, 
      "inputs": []
    }, 
    {
      "op": "null", 
      "name": "xception5_conv1_bn_moving_mean", 
      "attr": {
        "__init__": "[\"zero\", {}]", 
        "eps": "0.001", 
        "fix_gamma": "False", 
        "use_global_stats": "True"
      }, 
      "inputs": []
    }, 
    {
      "op": "null", 
      "name": "xception5_conv1_bn_moving_var", 
      "attr": {
        "__init__": "[\"one\", {}]", 
        "eps": "0.001", 
        "fix_gamma": "False", 
        "use_global_stats": "True"
      }, 
      "inputs": []
    }, 
    {
      "op": "BatchNorm", 
      "name": "xception5_conv1_bn", 
      "attr": {
        "eps": "0.001", 
        "fix_gamma": "False", 
        "use_global_stats": "True"
      }, 
      "inputs": [[138, 0, 0], [139, 0, 0], [140, 0, 0], [141, 0, 1], [142, 0, 1]]
    }, 
    {
      "op": "Activation", 
      "name": "xception5_conv1_relu", 
      "attr": {"act_type": "relu"}, 
      "inputs": [[143, 0, 0]]
    }, 
    {
      "op": "null", 
      "name": "xception5_conv2_1_weight", 
      "attr": {
        "kernel": "(3, 3)", 
        "no_bias": "True", 
        "num_filter": "728", 
        "num_group": "728", 
        "pad": "(1, 1)", 
        "stride": "(1, 1)"
      }, 
      "inputs": []
    }, 
    {
      "op": "Convolution", 
      "name": "xception5_conv2_1", 
      "attr": {
        "kernel": "(3, 3)", 
        "no_bias": "True", 
        "num_filter": "728", 
        "num_group": "728", 
        "pad": "(1, 1)", 
        "stride": "(1, 1)"
      }, 
      "inputs": [[144, 0, 0], [145, 0, 0]]
    }, 
    {
      "op": "null", 
      "name": "xception5_conv2_2_weight", 
      "attr": {
        "kernel": "(1, 1)", 
        "no_bias": "True", 
        "num_filter": "728", 
        "pad": "(0, 0)", 
        "stride": "(1, 1)"
      }, 
      "inputs": []
    }, 
    {
      "op": "Convolution", 
      "name": "xception5_conv2_2", 
      "attr": {
        "kernel": "(1, 1)", 
        "no_bias": "True", 
        "num_filter": "728", 
        "pad": "(0, 0)", 
        "stride": "(1, 1)"
      }, 
      "inputs": [[146, 0, 0], [147, 0, 0]]
    }, 
    {
      "op": "null", 
      "name": "xception5_conv2_bn_gamma", 
      "attr": {
        "eps": "0.001", 
        "fix_gamma": "False", 
        "use_global_stats": "True"
      }, 
      "inputs": []
    }, 
    {
      "op": "null", 
      "name": "xception5_conv2_bn_beta", 
      "attr": {
        "eps": "0.001", 
        "fix_gamma": "False", 
        "use_global_stats": "True"
      }, 
      "inputs": []
    }, 
    {
      "op": "null", 
      "name": "xception5_conv2_bn_moving_mean", 
      "attr": {
        "__init__": "[\"zero\", {}]", 
        "eps": "0.001", 
        "fix_gamma": "False", 
        "use_global_stats": "True"
      }, 
      "inputs": []
    }, 
    {
      "op": "null", 
      "name": "xception5_conv2_bn_moving_var", 
      "attr": {
        "__init__": "[\"one\", {}]", 
        "eps": "0.001", 
        "fix_gamma": "False", 
        "use_global_stats": "True"
      }, 
      "inputs": []
    }, 
    {
      "op": "BatchNorm", 
      "name": "xception5_conv2_bn", 
      "attr": {
        "eps": "0.001", 
        "fix_gamma": "False", 
        "use_global_stats": "True"
      }, 
      "inputs": [[148, 0, 0], [149, 0, 0], [150, 0, 0], [151, 0, 1], [152, 0, 1]]
    }, 
    {
      "op": "Activation", 
      "name": "xception5_conv2_relu", 
      "attr": {"act_type": "relu"}, 
      "inputs": [[153, 0, 0]]
    }, 
    {
      "op": "null", 
      "name": "xception5_conv3_1_weight", 
      "attr": {
        "kernel": "(3, 3)", 
        "no_bias": "True", 
        "num_filter": "728", 
        "num_group": "728", 
        "pad": "(1, 1)", 
        "stride": "(1, 1)"
      }, 
      "inputs": []
    }, 
    {
      "op": "Convolution", 
      "name": "xception5_conv3_1", 
      "attr": {
        "kernel": "(3, 3)", 
        "no_bias": "True", 
        "num_filter": "728", 
        "num_group": "728", 
        "pad": "(1, 1)", 
        "stride": "(1, 1)"
      }, 
      "inputs": [[154, 0, 0], [155, 0, 0]]
    }, 
    {
      "op": "null", 
      "name": "xception5_conv3_2_weight", 
      "attr": {
        "kernel": "(1, 1)", 
        "no_bias": "True", 
        "num_filter": "728", 
        "pad": "(0, 0)", 
        "stride": "(1, 1)"
      }, 
      "inputs": []
    }, 
    {
      "op": "Convolution", 
      "name": "xception5_conv3_2", 
      "attr": {
        "kernel": "(1, 1)", 
        "no_bias": "True", 
        "num_filter": "728", 
        "pad": "(0, 0)", 
        "stride": "(1, 1)"
      }, 
      "inputs": [[156, 0, 0], [157, 0, 0]]
    }, 
    {
      "op": "null", 
      "name": "xception5_conv3_bn_gamma", 
      "attr": {
        "eps": "0.001", 
        "fix_gamma": "False", 
        "use_global_stats": "True"
      }, 
      "inputs": []
    }, 
    {
      "op": "null", 
      "name": "xception5_conv3_bn_beta", 
      "attr": {
        "eps": "0.001", 
        "fix_gamma": "False", 
        "use_global_stats": "True"
      }, 
      "inputs": []
    }, 
    {
      "op": "null", 
      "name": "xception5_conv3_bn_moving_mean", 
      "attr": {
        "__init__": "[\"zero\", {}]", 
        "eps": "0.001", 
        "fix_gamma": "False", 
        "use_global_stats": "True"
      }, 
      "inputs": []
    }, 
    {
      "op": "null", 
      "name": "xception5_conv3_bn_moving_var", 
      "attr": {
        "__init__": "[\"one\", {}]", 
        "eps": "0.001", 
        "fix_gamma": "False", 
        "use_global_stats": "True"
      }, 
      "inputs": []
    }, 
    {
      "op": "BatchNorm", 
      "name": "xception5_conv3_bn", 
      "attr": {
        "eps": "0.001", 
        "fix_gamma": "False", 
        "use_global_stats": "True"
      }, 
      "inputs": [[158, 0, 0], [159, 0, 0], [160, 0, 0], [161, 0, 1], [162, 0, 1]]
    }, 
    {
      "op": "broadcast_add", 
      "name": "xception5_elewise", 
      "inputs": [[133, 0, 0], [163, 0, 0]]
    }, 
    {
      "op": "Activation", 
      "name": "xception6_relu", 
      "attr": {"act_type": "relu"}, 
      "inputs": [[164, 0, 0]]
    }, 
    {
      "op": "null", 
      "name": "xception6_conv1_1_weight", 
      "attr": {
        "kernel": "(3, 3)", 
        "no_bias": "True", 
        "num_filter": "728", 
        "num_group": "728", 
        "pad": "(1, 1)", 
        "stride": "(1, 1)"
      }, 
      "inputs": []
    }, 
    {
      "op": "Convolution", 
      "name": "xception6_conv1_1", 
      "attr": {
        "kernel": "(3, 3)", 
        "no_bias": "True", 
        "num_filter": "728", 
        "num_group": "728", 
        "pad": "(1, 1)", 
        "stride": "(1, 1)"
      }, 
      "inputs": [[165, 0, 0], [166, 0, 0]]
    }, 
    {
      "op": "null", 
      "name": "xception6_conv1_2_weight", 
      "attr": {
        "kernel": "(1, 1)", 
        "no_bias": "True", 
        "num_filter": "728", 
        "pad": "(0, 0)", 
        "stride": "(1, 1)"
      }, 
      "inputs": []
    }, 
    {
      "op": "Convolution", 
      "name": "xception6_conv1_2", 
      "attr": {
        "kernel": "(1, 1)", 
        "no_bias": "True", 
        "num_filter": "728", 
        "pad": "(0, 0)", 
        "stride": "(1, 1)"
      }, 
      "inputs": [[167, 0, 0], [168, 0, 0]]
    }, 
    {
      "op": "null", 
      "name": "xception6_conv1_bn_gamma", 
      "attr": {
        "eps": "0.001", 
        "fix_gamma": "False", 
        "use_global_stats": "True"
      }, 
      "inputs": []
    }, 
    {
      "op": "null", 
      "name": "xception6_conv1_bn_beta", 
      "attr": {
        "eps": "0.001", 
        "fix_gamma": "False", 
        "use_global_stats": "True"
      }, 
      "inputs": []
    }, 
    {
      "op": "null", 
      "name": "xception6_conv1_bn_moving_mean", 
      "attr": {
        "__init__": "[\"zero\", {}]", 
        "eps": "0.001", 
        "fix_gamma": "False", 
        "use_global_stats": "True"
      }, 
      "inputs": []
    }, 
    {
      "op": "null", 
      "name": "xception6_conv1_bn_moving_var", 
      "attr": {
        "__init__": "[\"one\", {}]", 
        "eps": "0.001", 
        "fix_gamma": "False", 
        "use_global_stats": "True"
      }, 
      "inputs": []
    }, 
    {
      "op": "BatchNorm", 
      "name": "xception6_conv1_bn", 
      "attr": {
        "eps": "0.001", 
        "fix_gamma": "False", 
        "use_global_stats": "True"
      }, 
      "inputs": [[169, 0, 0], [170, 0, 0], [171, 0, 0], [172, 0, 1], [173, 0, 1]]
    }, 
    {
      "op": "Activation", 
      "name": "xception6_conv1_relu", 
      "attr": {"act_type": "relu"}, 
      "inputs": [[174, 0, 0]]
    }, 
    {
      "op": "null", 
      "name": "xception6_conv2_1_weight", 
      "attr": {
        "kernel": "(3, 3)", 
        "no_bias": "True", 
        "num_filter": "728", 
        "num_group": "728", 
        "pad": "(1, 1)", 
        "stride": "(1, 1)"
      }, 
      "inputs": []
    }, 
    {
      "op": "Convolution", 
      "name": "xception6_conv2_1", 
      "attr": {
        "kernel": "(3, 3)", 
        "no_bias": "True", 
        "num_filter": "728", 
        "num_group": "728", 
        "pad": "(1, 1)", 
        "stride": "(1, 1)"
      }, 
      "inputs": [[175, 0, 0], [176, 0, 0]]
    }, 
    {
      "op": "null", 
      "name": "xception6_conv2_2_weight", 
      "attr": {
        "kernel": "(1, 1)", 
        "no_bias": "True", 
        "num_filter": "728", 
        "pad": "(0, 0)", 
        "stride": "(1, 1)"
      }, 
      "inputs": []
    }, 
    {
      "op": "Convolution", 
      "name": "xception6_conv2_2", 
      "attr": {
        "kernel": "(1, 1)", 
        "no_bias": "True", 
        "num_filter": "728", 
        "pad": "(0, 0)", 
        "stride": "(1, 1)"
      }, 
      "inputs": [[177, 0, 0], [178, 0, 0]]
    }, 
    {
      "op": "null", 
      "name": "xception6_conv2_bn_gamma", 
      "attr": {
        "eps": "0.001", 
        "fix_gamma": "False", 
        "use_global_stats": "True"
      }, 
      "inputs": []
    }, 
    {
      "op": "null", 
      "name": "xception6_conv2_bn_beta", 
      "attr": {
        "eps": "0.001", 
        "fix_gamma": "False", 
        "use_global_stats": "True"
      }, 
      "inputs": []
    }, 
    {
      "op": "null", 
      "name": "xception6_conv2_bn_moving_mean", 
      "attr": {
        "__init__": "[\"zero\", {}]", 
        "eps": "0.001", 
        "fix_gamma": "False", 
        "use_global_stats": "True"
      }, 
      "inputs": []
    }, 
    {
      "op": "null", 
      "name": "xception6_conv2_bn_moving_var", 
      "attr": {
        "__init__": "[\"one\", {}]", 
        "eps": "0.001", 
        "fix_gamma": "False", 
        "use_global_stats": "True"
      }, 
      "inputs": []
    }, 
    {
      "op": "BatchNorm", 
      "name": "xception6_conv2_bn", 
      "attr": {
        "eps": "0.001", 
        "fix_gamma": "False", 
        "use_global_stats": "True"
      }, 
      "inputs": [[179, 0, 0], [180, 0, 0], [181, 0, 0], [182, 0, 1], [183, 0, 1]]
    }, 
    {
      "op": "Activation", 
      "name": "xception6_conv2_relu", 
      "attr": {"act_type": "relu"}, 
      "inputs": [[184, 0, 0]]
    }, 
    {
      "op": "null", 
      "name": "xception6_conv3_1_weight", 
      "attr": {
        "kernel": "(3, 3)", 
        "no_bias": "True", 
        "num_filter": "728", 
        "num_group": "728", 
        "pad": "(1, 1)", 
        "stride": "(1, 1)"
      }, 
      "inputs": []
    }, 
    {
      "op": "Convolution", 
      "name": "xception6_conv3_1", 
      "attr": {
        "kernel": "(3, 3)", 
        "no_bias": "True", 
        "num_filter": "728", 
        "num_group": "728", 
        "pad": "(1, 1)", 
        "stride": "(1, 1)"
      }, 
      "inputs": [[185, 0, 0], [186, 0, 0]]
    }, 
    {
      "op": "null", 
      "name": "xception6_conv3_2_weight", 
      "attr": {
        "kernel": "(1, 1)", 
        "no_bias": "True", 
        "num_filter": "728", 
        "pad": "(0, 0)", 
        "stride": "(1, 1)"
      }, 
      "inputs": []
    }, 
    {
      "op": "Convolution", 
      "name": "xception6_conv3_2", 
      "attr": {
        "kernel": "(1, 1)", 
        "no_bias": "True", 
        "num_filter": "728", 
        "pad": "(0, 0)", 
        "stride": "(1, 1)"
      }, 
      "inputs": [[187, 0, 0], [188, 0, 0]]
    }, 
    {
      "op": "null", 
      "name": "xception6_conv3_bn_gamma", 
      "attr": {
        "eps": "0.001", 
        "fix_gamma": "False", 
        "use_global_stats": "True"
      }, 
      "inputs": []
    }, 
    {
      "op": "null", 
      "name": "xception6_conv3_bn_beta", 
      "attr": {
        "eps": "0.001", 
        "fix_gamma": "False", 
        "use_global_stats": "True"
      }, 
      "inputs": []
    }, 
    {
      "op": "null", 
      "name": "xception6_conv3_bn_moving_mean", 
      "attr": {
        "__init__": "[\"zero\", {}]", 
        "eps": "0.001", 
        "fix_gamma": "False", 
        "use_global_stats": "True"
      }, 
      "inputs": []
    }, 
    {
      "op": "null", 
      "name": "xception6_conv3_bn_moving_var", 
      "attr": {
        "__init__": "[\"one\", {}]", 
        "eps": "0.001", 
        "fix_gamma": "False", 
        "use_global_stats": "True"
      }, 
      "inputs": []
    }, 
    {
      "op": "BatchNorm", 
      "name": "xception6_conv3_bn", 
      "attr": {
        "eps": "0.001", 
        "fix_gamma": "False", 
        "use_global_stats": "True"
      }, 
      "inputs": [[189, 0, 0], [190, 0, 0], [191, 0, 0], [192, 0, 1], [193, 0, 1]]
    }, 
    {
      "op": "broadcast_add", 
      "name": "xception6_elewise", 
      "inputs": [[164, 0, 0], [194, 0, 0]]
    }, 
    {
      "op": "Activation", 
      "name": "xception7_relu", 
      "attr": {"act_type": "relu"}, 
      "inputs": [[195, 0, 0]]
    }, 
    {
      "op": "null", 
      "name": "xception7_conv1_1_weight", 
      "attr": {
        "kernel": "(3, 3)", 
        "no_bias": "True", 
        "num_filter": "728", 
        "num_group": "728", 
        "pad": "(1, 1)", 
        "stride": "(1, 1)"
      }, 
      "inputs": []
    }, 
    {
      "op": "Convolution", 
      "name": "xception7_conv1_1", 
      "attr": {
        "kernel": "(3, 3)", 
        "no_bias": "True", 
        "num_filter": "728", 
        "num_group": "728", 
        "pad": "(1, 1)", 
        "stride": "(1, 1)"
      }, 
      "inputs": [[196, 0, 0], [197, 0, 0]]
    }, 
    {
      "op": "null", 
      "name": "xception7_conv1_2_weight", 
      "attr": {
        "kernel": "(1, 1)", 
        "no_bias": "True", 
        "num_filter": "728", 
        "pad": "(0, 0)", 
        "stride": "(1, 1)"
      }, 
      "inputs": []
    }, 
    {
      "op": "Convolution", 
      "name": "xception7_conv1_2", 
      "attr": {
        "kernel": "(1, 1)", 
        "no_bias": "True", 
        "num_filter": "728", 
        "pad": "(0, 0)", 
        "stride": "(1, 1)"
      }, 
      "inputs": [[198, 0, 0], [199, 0, 0]]
    }, 
    {
      "op": "null", 
      "name": "xception7_conv1_bn_gamma", 
      "attr": {
        "eps": "0.001", 
        "fix_gamma": "False", 
        "use_global_stats": "True"
      }, 
      "inputs": []
    }, 
    {
      "op": "null", 
      "name": "xception7_conv1_bn_beta", 
      "attr": {
        "eps": "0.001", 
        "fix_gamma": "False", 
        "use_global_stats": "True"
      }, 
      "inputs": []
    }, 
    {
      "op": "null", 
      "name": "xception7_conv1_bn_moving_mean", 
      "attr": {
        "__init__": "[\"zero\", {}]", 
        "eps": "0.001", 
        "fix_gamma": "False", 
        "use_global_stats": "True"
      }, 
      "inputs": []
    }, 
    {
      "op": "null", 
      "name": "xception7_conv1_bn_moving_var", 
      "attr": {
        "__init__": "[\"one\", {}]", 
        "eps": "0.001", 
        "fix_gamma": "False", 
        "use_global_stats": "True"
      }, 
      "inputs": []
    }, 
    {
      "op": "BatchNorm", 
      "name": "xception7_conv1_bn", 
      "attr": {
        "eps": "0.001", 
        "fix_gamma": "False", 
        "use_global_stats": "True"
      }, 
      "inputs": [[200, 0, 0], [201, 0, 0], [202, 0, 0], [203, 0, 1], [204, 0, 1]]
    }, 
    {
      "op": "Activation", 
      "name": "xception7_conv1_relu", 
      "attr": {"act_type": "relu"}, 
      "inputs": [[205, 0, 0]]
    }, 
    {
      "op": "null", 
      "name": "xception7_conv2_1_weight", 
      "attr": {
        "kernel": "(3, 3)", 
        "no_bias": "True", 
        "num_filter": "728", 
        "num_group": "728", 
        "pad": "(1, 1)", 
        "stride": "(1, 1)"
      }, 
      "inputs": []
    }, 
    {
      "op": "Convolution", 
      "name": "xception7_conv2_1", 
      "attr": {
        "kernel": "(3, 3)", 
        "no_bias": "True", 
        "num_filter": "728", 
        "num_group": "728", 
        "pad": "(1, 1)", 
        "stride": "(1, 1)"
      }, 
      "inputs": [[206, 0, 0], [207, 0, 0]]
    }, 
    {
      "op": "null", 
      "name": "xception7_conv2_2_weight", 
      "attr": {
        "kernel": "(1, 1)", 
        "no_bias": "True", 
        "num_filter": "728", 
        "pad": "(0, 0)", 
        "stride": "(1, 1)"
      }, 
      "inputs": []
    }, 
    {
      "op": "Convolution", 
      "name": "xception7_conv2_2", 
      "attr": {
        "kernel": "(1, 1)", 
        "no_bias": "True", 
        "num_filter": "728", 
        "pad": "(0, 0)", 
        "stride": "(1, 1)"
      }, 
      "inputs": [[208, 0, 0], [209, 0, 0]]
    }, 
    {
      "op": "null", 
      "name": "xception7_conv2_bn_gamma", 
      "attr": {
        "eps": "0.001", 
        "fix_gamma": "False", 
        "use_global_stats": "True"
      }, 
      "inputs": []
    }, 
    {
      "op": "null", 
      "name": "xception7_conv2_bn_beta", 
      "attr": {
        "eps": "0.001", 
        "fix_gamma": "False", 
        "use_global_stats": "True"
      }, 
      "inputs": []
    }, 
    {
      "op": "null", 
      "name": "xception7_conv2_bn_moving_mean", 
      "attr": {
        "__init__": "[\"zero\", {}]", 
        "eps": "0.001", 
        "fix_gamma": "False", 
        "use_global_stats": "True"
      }, 
      "inputs": []
    }, 
    {
      "op": "null", 
      "name": "xception7_conv2_bn_moving_var", 
      "attr": {
        "__init__": "[\"one\", {}]", 
        "eps": "0.001", 
        "fix_gamma": "False", 
        "use_global_stats": "True"
      }, 
      "inputs": []
    }, 
    {
      "op": "BatchNorm", 
      "name": "xception7_conv2_bn", 
      "attr": {
        "eps": "0.001", 
        "fix_gamma": "False", 
        "use_global_stats": "True"
      }, 
      "inputs": [[210, 0, 0], [211, 0, 0], [212, 0, 0], [213, 0, 1], [214, 0, 1]]
    }, 
    {
      "op": "Activation", 
      "name": "xception7_conv2_relu", 
      "attr": {"act_type": "relu"}, 
      "inputs": [[215, 0, 0]]
    }, 
    {
      "op": "null", 
      "name": "xception7_conv3_1_weight", 
      "attr": {
        "kernel": "(3, 3)", 
        "no_bias": "True", 
        "num_filter": "728", 
        "num_group": "728", 
        "pad": "(1, 1)", 
        "stride": "(1, 1)"
      }, 
      "inputs": []
    }, 
    {
      "op": "Convolution", 
      "name": "xception7_conv3_1", 
      "attr": {
        "kernel": "(3, 3)", 
        "no_bias": "True", 
        "num_filter": "728", 
        "num_group": "728", 
        "pad": "(1, 1)", 
        "stride": "(1, 1)"
      }, 
      "inputs": [[216, 0, 0], [217, 0, 0]]
    }, 
    {
      "op": "null", 
      "name": "xception7_conv3_2_weight", 
      "attr": {
        "kernel": "(1, 1)", 
        "no_bias": "True", 
        "num_filter": "728", 
        "pad": "(0, 0)", 
        "stride": "(1, 1)"
      }, 
      "inputs": []
    }, 
    {
      "op": "Convolution", 
      "name": "xception7_conv3_2", 
      "attr": {
        "kernel": "(1, 1)", 
        "no_bias": "True", 
        "num_filter": "728", 
        "pad": "(0, 0)", 
        "stride": "(1, 1)"
      }, 
      "inputs": [[218, 0, 0], [219, 0, 0]]
    }, 
    {
      "op": "null", 
      "name": "xception7_conv3_bn_gamma", 
      "attr": {
        "eps": "0.001", 
        "fix_gamma": "False", 
        "use_global_stats": "True"
      }, 
      "inputs": []
    }, 
    {
      "op": "null", 
      "name": "xception7_conv3_bn_beta", 
      "attr": {
        "eps": "0.001", 
        "fix_gamma": "False", 
        "use_global_stats": "True"
      }, 
      "inputs": []
    }, 
    {
      "op": "null", 
      "name": "xception7_conv3_bn_moving_mean", 
      "attr": {
        "__init__": "[\"zero\", {}]", 
        "eps": "0.001", 
        "fix_gamma": "False", 
        "use_global_stats": "True"
      }, 
      "inputs": []
    }, 
    {
      "op": "null", 
      "name": "xception7_conv3_bn_moving_var", 
      "attr": {
        "__init__": "[\"one\", {}]", 
        "eps": "0.001", 
        "fix_gamma": "False", 
        "use_global_stats": "True"
      }, 
      "inputs": []
    }, 
    {
      "op": "BatchNorm", 
      "name": "xception7_conv3_bn", 
      "attr": {
        "eps": "0.001", 
        "fix_gamma": "False", 
        "use_global_stats": "True"
      }, 
      "inputs": [[220, 0, 0], [221, 0, 0], [222, 0, 0], [223, 0, 1], [224, 0, 1]]
    }, 
    {
      "op": "broadcast_add", 
      "name": "xception7_elewise", 
      "inputs": [[195, 0, 0], [225, 0, 0]]
    }, 
    {
      "op": "Activation", 
      "name": "xception8_relu", 
      "attr": {"act_type": "relu"}, 
      "inputs": [[226, 0, 0]]
    }, 
    {
      "op": "null", 
      "name": "xception8_conv1_1_weight", 
      "attr": {
        "kernel": "(3, 3)", 
        "no_bias": "True", 
        "num_filter": "728", 
        "num_group": "728", 
        "pad": "(1, 1)", 
        "stride": "(1, 1)"
      }, 
      "inputs": []
    }, 
    {
      "op": "Convolution", 
      "name": "xception8_conv1_1", 
      "attr": {
        "kernel": "(3, 3)", 
        "no_bias": "True", 
        "num_filter": "728", 
        "num_group": "728", 
        "pad": "(1, 1)", 
        "stride": "(1, 1)"
      }, 
      "inputs": [[227, 0, 0], [228, 0, 0]]
    }, 
    {
      "op": "null", 
      "name": "xception8_conv1_2_weight", 
      "attr": {
        "kernel": "(1, 1)", 
        "no_bias": "True", 
        "num_filter": "728", 
        "pad": "(0, 0)", 
        "stride": "(1, 1)"
      }, 
      "inputs": []
    }, 
    {
      "op": "Convolution", 
      "name": "xception8_conv1_2", 
      "attr": {
        "kernel": "(1, 1)", 
        "no_bias": "True", 
        "num_filter": "728", 
        "pad": "(0, 0)", 
        "stride": "(1, 1)"
      }, 
      "inputs": [[229, 0, 0], [230, 0, 0]]
    }, 
    {
      "op": "null", 
      "name": "xception8_conv1_bn_gamma", 
      "attr": {
        "eps": "0.001", 
        "fix_gamma": "False", 
        "use_global_stats": "True"
      }, 
      "inputs": []
    }, 
    {
      "op": "null", 
      "name": "xception8_conv1_bn_beta", 
      "attr": {
        "eps": "0.001", 
        "fix_gamma": "False", 
        "use_global_stats": "True"
      }, 
      "inputs": []
    }, 
    {
      "op": "null", 
      "name": "xception8_conv1_bn_moving_mean", 
      "attr": {
        "__init__": "[\"zero\", {}]", 
        "eps": "0.001", 
        "fix_gamma": "False", 
        "use_global_stats": "True"
      }, 
      "inputs": []
    }, 
    {
      "op": "null", 
      "name": "xception8_conv1_bn_moving_var", 
      "attr": {
        "__init__": "[\"one\", {}]", 
        "eps": "0.001", 
        "fix_gamma": "False", 
        "use_global_stats": "True"
      }, 
      "inputs": []
    }, 
    {
      "op": "BatchNorm", 
      "name": "xception8_conv1_bn", 
      "attr": {
        "eps": "0.001", 
        "fix_gamma": "False", 
        "use_global_stats": "True"
      }, 
      "inputs": [[231, 0, 0], [232, 0, 0], [233, 0, 0], [234, 0, 1], [235, 0, 1]]
    }, 
    {
      "op": "Activation", 
      "name": "xception8_conv1_relu", 
      "attr": {"act_type": "relu"}, 
      "inputs": [[236, 0, 0]]
    }, 
    {
      "op": "null", 
      "name": "xception8_conv2_1_weight", 
      "attr": {
        "kernel": "(3, 3)", 
        "no_bias": "True", 
        "num_filter": "728", 
        "num_group": "728", 
        "pad": "(1, 1)", 
        "stride": "(1, 1)"
      }, 
      "inputs": []
    }, 
    {
      "op": "Convolution", 
      "name": "xception8_conv2_1", 
      "attr": {
        "kernel": "(3, 3)", 
        "no_bias": "True", 
        "num_filter": "728", 
        "num_group": "728", 
        "pad": "(1, 1)", 
        "stride": "(1, 1)"
      }, 
      "inputs": [[237, 0, 0], [238, 0, 0]]
    }, 
    {
      "op": "null", 
      "name": "xception8_conv2_2_weight", 
      "attr": {
        "kernel": "(1, 1)", 
        "no_bias": "True", 
        "num_filter": "728", 
        "pad": "(0, 0)", 
        "stride": "(1, 1)"
      }, 
      "inputs": []
    }, 
    {
      "op": "Convolution", 
      "name": "xception8_conv2_2", 
      "attr": {
        "kernel": "(1, 1)", 
        "no_bias": "True", 
        "num_filter": "728", 
        "pad": "(0, 0)", 
        "stride": "(1, 1)"
      }, 
      "inputs": [[239, 0, 0], [240, 0, 0]]
    }, 
    {
      "op": "null", 
      "name": "xception8_conv2_bn_gamma", 
      "attr": {
        "eps": "0.001", 
        "fix_gamma": "False", 
        "use_global_stats": "True"
      }, 
      "inputs": []
    }, 
    {
      "op": "null", 
      "name": "xception8_conv2_bn_beta", 
      "attr": {
        "eps": "0.001", 
        "fix_gamma": "False", 
        "use_global_stats": "True"
      }, 
      "inputs": []
    }, 
    {
      "op": "null", 
      "name": "xception8_conv2_bn_moving_mean", 
      "attr": {
        "__init__": "[\"zero\", {}]", 
        "eps": "0.001", 
        "fix_gamma": "False", 
        "use_global_stats": "True"
      }, 
      "inputs": []
    }, 
    {
      "op": "null", 
      "name": "xception8_conv2_bn_moving_var", 
      "attr": {
        "__init__": "[\"one\", {}]", 
        "eps": "0.001", 
        "fix_gamma": "False", 
        "use_global_stats": "True"
      }, 
      "inputs": []
    }, 
    {
      "op": "BatchNorm", 
      "name": "xception8_conv2_bn", 
      "attr": {
        "eps": "0.001", 
        "fix_gamma": "False", 
        "use_global_stats": "True"
      }, 
      "inputs": [[241, 0, 0], [242, 0, 0], [243, 0, 0], [244, 0, 1], [245, 0, 1]]
    }, 
    {
      "op": "Activation", 
      "name": "xception8_conv2_relu", 
      "attr": {"act_type": "relu"}, 
      "inputs": [[246, 0, 0]]
    }, 
    {
      "op": "null", 
      "name": "xception8_conv3_1_weight", 
      "attr": {
        "kernel": "(3, 3)", 
        "no_bias": "True", 
        "num_filter": "728", 
        "num_group": "728", 
        "pad": "(1, 1)", 
        "stride": "(1, 1)"
      }, 
      "inputs": []
    }, 
    {
      "op": "Convolution", 
      "name": "xception8_conv3_1", 
      "attr": {
        "kernel": "(3, 3)", 
        "no_bias": "True", 
        "num_filter": "728", 
        "num_group": "728", 
        "pad": "(1, 1)", 
        "stride": "(1, 1)"
      }, 
      "inputs": [[247, 0, 0], [248, 0, 0]]
    }, 
    {
      "op": "null", 
      "name": "xception8_conv3_2_weight", 
      "attr": {
        "kernel": "(1, 1)", 
        "no_bias": "True", 
        "num_filter": "728", 
        "pad": "(0, 0)", 
        "stride": "(1, 1)"
      }, 
      "inputs": []
    }, 
    {
      "op": "Convolution", 
      "name": "xception8_conv3_2", 
      "attr": {
        "kernel": "(1, 1)", 
        "no_bias": "True", 
        "num_filter": "728", 
        "pad": "(0, 0)", 
        "stride": "(1, 1)"
      }, 
      "inputs": [[249, 0, 0], [250, 0, 0]]
    }, 
    {
      "op": "null", 
      "name": "xception8_conv3_bn_gamma", 
      "attr": {
        "eps": "0.001", 
        "fix_gamma": "False", 
        "use_global_stats": "True"
      }, 
      "inputs": []
    }, 
    {
      "op": "null", 
      "name": "xception8_conv3_bn_beta", 
      "attr": {
        "eps": "0.001", 
        "fix_gamma": "False", 
        "use_global_stats": "True"
      }, 
      "inputs": []
    }, 
    {
      "op": "null", 
      "name": "xception8_conv3_bn_moving_mean", 
      "attr": {
        "__init__": "[\"zero\", {}]", 
        "eps": "0.001", 
        "fix_gamma": "False", 
        "use_global_stats": "True"
      }, 
      "inputs": []
    }, 
    {
      "op": "null", 
      "name": "xception8_conv3_bn_moving_var", 
      "attr": {
        "__init__": "[\"one\", {}]", 
        "eps": "0.001", 
        "fix_gamma": "False", 
        "use_global_stats": "True"
      }, 
      "inputs": []
    }, 
    {
      "op": "BatchNorm", 
      "name": "xception8_conv3_bn", 
      "attr": {
        "eps": "0.001", 
        "fix_gamma": "False", 
        "use_global_stats": "True"
      }, 
      "inputs": [[251, 0, 0], [252, 0, 0], [253, 0, 0], [254, 0, 1], [255, 0, 1]]
    }, 
    {
      "op": "broadcast_add", 
      "name": "xception8_elewise", 
      "inputs": [[226, 0, 0], [256, 0, 0]]
    }, 
    {
      "op": "Activation", 
      "name": "xception9_relu", 
      "attr": {"act_type": "relu"}, 
      "inputs": [[257, 0, 0]]
    }, 
    {
      "op": "null", 
      "name": "xception9_conv1_1_weight", 
      "attr": {
        "kernel": "(3, 3)", 
        "no_bias": "True", 
        "num_filter": "728", 
        "num_group": "728", 
        "pad": "(1, 1)", 
        "stride": "(1, 1)"
      }, 
      "inputs": []
    }, 
    {
      "op": "Convolution", 
      "name": "xception9_conv1_1", 
      "attr": {
        "kernel": "(3, 3)", 
        "no_bias": "True", 
        "num_filter": "728", 
        "num_group": "728", 
        "pad": "(1, 1)", 
        "stride": "(1, 1)"
      }, 
      "inputs": [[258, 0, 0], [259, 0, 0]]
    }, 
    {
      "op": "null", 
      "name": "xception9_conv1_2_weight", 
      "attr": {
        "kernel": "(1, 1)", 
        "no_bias": "True", 
        "num_filter": "728", 
        "pad": "(0, 0)", 
        "stride": "(1, 1)"
      }, 
      "inputs": []
    }, 
    {
      "op": "Convolution", 
      "name": "xception9_conv1_2", 
      "attr": {
        "kernel": "(1, 1)", 
        "no_bias": "True", 
        "num_filter": "728", 
        "pad": "(0, 0)", 
        "stride": "(1, 1)"
      }, 
      "inputs": [[260, 0, 0], [261, 0, 0]]
    }, 
    {
      "op": "null", 
      "name": "xception9_conv1_bn_gamma", 
      "attr": {
        "eps": "0.001", 
        "fix_gamma": "False", 
        "use_global_stats": "True"
      }, 
      "inputs": []
    }, 
    {
      "op": "null", 
      "name": "xception9_conv1_bn_beta", 
      "attr": {
        "eps": "0.001", 
        "fix_gamma": "False", 
        "use_global_stats": "True"
      }, 
      "inputs": []
    }, 
    {
      "op": "null", 
      "name": "xception9_conv1_bn_moving_mean", 
      "attr": {
        "__init__": "[\"zero\", {}]", 
        "eps": "0.001", 
        "fix_gamma": "False", 
        "use_global_stats": "True"
      }, 
      "inputs": []
    }, 
    {
      "op": "null", 
      "name": "xception9_conv1_bn_moving_var", 
      "attr": {
        "__init__": "[\"one\", {}]", 
        "eps": "0.001", 
        "fix_gamma": "False", 
        "use_global_stats": "True"
      }, 
      "inputs": []
    }, 
    {
      "op": "BatchNorm", 
      "name": "xception9_conv1_bn", 
      "attr": {
        "eps": "0.001", 
        "fix_gamma": "False", 
        "use_global_stats": "True"
      }, 
      "inputs": [[262, 0, 0], [263, 0, 0], [264, 0, 0], [265, 0, 1], [266, 0, 1]]
    }, 
    {
      "op": "Activation", 
      "name": "xception9_conv1_relu", 
      "attr": {"act_type": "relu"}, 
      "inputs": [[267, 0, 0]]
    }, 
    {
      "op": "null", 
      "name": "xception9_conv2_1_weight", 
      "attr": {
        "kernel": "(3, 3)", 
        "no_bias": "True", 
        "num_filter": "728", 
        "num_group": "728", 
        "pad": "(1, 1)", 
        "stride": "(1, 1)"
      }, 
      "inputs": []
    }, 
    {
      "op": "Convolution", 
      "name": "xception9_conv2_1", 
      "attr": {
        "kernel": "(3, 3)", 
        "no_bias": "True", 
        "num_filter": "728", 
        "num_group": "728", 
        "pad": "(1, 1)", 
        "stride": "(1, 1)"
      }, 
      "inputs": [[268, 0, 0], [269, 0, 0]]
    }, 
    {
      "op": "null", 
      "name": "xception9_conv2_2_weight", 
      "attr": {
        "kernel": "(1, 1)", 
        "no_bias": "True", 
        "num_filter": "728", 
        "pad": "(0, 0)", 
        "stride": "(1, 1)"
      }, 
      "inputs": []
    }, 
    {
      "op": "Convolution", 
      "name": "xception9_conv2_2", 
      "attr": {
        "kernel": "(1, 1)", 
        "no_bias": "True", 
        "num_filter": "728", 
        "pad": "(0, 0)", 
        "stride": "(1, 1)"
      }, 
      "inputs": [[270, 0, 0], [271, 0, 0]]
    }, 
    {
      "op": "null", 
      "name": "xception9_conv2_bn_gamma", 
      "attr": {
        "eps": "0.001", 
        "fix_gamma": "False", 
        "use_global_stats": "True"
      }, 
      "inputs": []
    }, 
    {
      "op": "null", 
      "name": "xception9_conv2_bn_beta", 
      "attr": {
        "eps": "0.001", 
        "fix_gamma": "False", 
        "use_global_stats": "True"
      }, 
      "inputs": []
    }, 
    {
      "op": "null", 
      "name": "xception9_conv2_bn_moving_mean", 
      "attr": {
        "__init__": "[\"zero\", {}]", 
        "eps": "0.001", 
        "fix_gamma": "False", 
        "use_global_stats": "True"
      }, 
      "inputs": []
    }, 
    {
      "op": "null", 
      "name": "xception9_conv2_bn_moving_var", 
      "attr": {
        "__init__": "[\"one\", {}]", 
        "eps": "0.001", 
        "fix_gamma": "False", 
        "use_global_stats": "True"
      }, 
      "inputs": []
    }, 
    {
      "op": "BatchNorm", 
      "name": "xception9_conv2_bn", 
      "attr": {
        "eps": "0.001", 
        "fix_gamma": "False", 
        "use_global_stats": "True"
      }, 
      "inputs": [[272, 0, 0], [273, 0, 0], [274, 0, 0], [275, 0, 1], [276, 0, 1]]
    }, 
    {
      "op": "Activation", 
      "name": "xception9_conv2_relu", 
      "attr": {"act_type": "relu"}, 
      "inputs": [[277, 0, 0]]
    }, 
    {
      "op": "null", 
      "name": "xception9_conv3_1_weight", 
      "attr": {
        "kernel": "(3, 3)", 
        "no_bias": "True", 
        "num_filter": "728", 
        "num_group": "728", 
        "pad": "(1, 1)", 
        "stride": "(1, 1)"
      }, 
      "inputs": []
    }, 
    {
      "op": "Convolution", 
      "name": "xception9_conv3_1", 
      "attr": {
        "kernel": "(3, 3)", 
        "no_bias": "True", 
        "num_filter": "728", 
        "num_group": "728", 
        "pad": "(1, 1)", 
        "stride": "(1, 1)"
      }, 
      "inputs": [[278, 0, 0], [279, 0, 0]]
    }, 
    {
      "op": "null", 
      "name": "xception9_conv3_2_weight", 
      "attr": {
        "kernel": "(1, 1)", 
        "no_bias": "True", 
        "num_filter": "728", 
        "pad": "(0, 0)", 
        "stride": "(1, 1)"
      }, 
      "inputs": []
    }, 
    {
      "op": "Convolution", 
      "name": "xception9_conv3_2", 
      "attr": {
        "kernel": "(1, 1)", 
        "no_bias": "True", 
        "num_filter": "728", 
        "pad": "(0, 0)", 
        "stride": "(1, 1)"
      }, 
      "inputs": [[280, 0, 0], [281, 0, 0]]
    }, 
    {
      "op": "null", 
      "name": "xception9_conv3_bn_gamma", 
      "attr": {
        "eps": "0.001", 
        "fix_gamma": "False", 
        "use_global_stats": "True"
      }, 
      "inputs": []
    }, 
    {
      "op": "null", 
      "name": "xception9_conv3_bn_beta", 
      "attr": {
        "eps": "0.001", 
        "fix_gamma": "False", 
        "use_global_stats": "True"
      }, 
      "inputs": []
    }, 
    {
      "op": "null", 
      "name": "xception9_conv3_bn_moving_mean", 
      "attr": {
        "__init__": "[\"zero\", {}]", 
        "eps": "0.001", 
        "fix_gamma": "False", 
        "use_global_stats": "True"
      }, 
      "inputs": []
    }, 
    {
      "op": "null", 
      "name": "xception9_conv3_bn_moving_var", 
      "attr": {
        "__init__": "[\"one\", {}]", 
        "eps": "0.001", 
        "fix_gamma": "False", 
        "use_global_stats": "True"
      }, 
      "inputs": []
    }, 
    {
      "op": "BatchNorm", 
      "name": "xception9_conv3_bn", 
      "attr": {
        "eps": "0.001", 
        "fix_gamma": "False", 
        "use_global_stats": "True"
      }, 
      "inputs": [[282, 0, 0], [283, 0, 0], [284, 0, 0], [285, 0, 1], [286, 0, 1]]
    }, 
    {
      "op": "broadcast_add", 
      "name": "xception9_elewise", 
      "inputs": [[257, 0, 0], [287, 0, 0]]
    }, 
    {
      "op": "Activation", 
      "name": "xception10_relu", 
      "attr": {"act_type": "relu"}, 
      "inputs": [[288, 0, 0]]
    }, 
    {
      "op": "null", 
      "name": "xception10_conv1_1_weight", 
      "attr": {
        "kernel": "(3, 3)", 
        "no_bias": "True", 
        "num_filter": "728", 
        "num_group": "728", 
        "pad": "(1, 1)", 
        "stride": "(1, 1)"
      }, 
      "inputs": []
    }, 
    {
      "op": "Convolution", 
      "name": "xception10_conv1_1", 
      "attr": {
        "kernel": "(3, 3)", 
        "no_bias": "True", 
        "num_filter": "728", 
        "num_group": "728", 
        "pad": "(1, 1)", 
        "stride": "(1, 1)"
      }, 
      "inputs": [[289, 0, 0], [290, 0, 0]]
    }, 
    {
      "op": "null", 
      "name": "xception10_conv1_2_weight", 
      "attr": {
        "kernel": "(1, 1)", 
        "no_bias": "True", 
        "num_filter": "728", 
        "pad": "(0, 0)", 
        "stride": "(1, 1)"
      }, 
      "inputs": []
    }, 
    {
      "op": "Convolution", 
      "name": "xception10_conv1_2", 
      "attr": {
        "kernel": "(1, 1)", 
        "no_bias": "True", 
        "num_filter": "728", 
        "pad": "(0, 0)", 
        "stride": "(1, 1)"
      }, 
      "inputs": [[291, 0, 0], [292, 0, 0]]
    }, 
    {
      "op": "null", 
      "name": "xception10_conv1_bn_gamma", 
      "attr": {
        "eps": "0.001", 
        "fix_gamma": "False", 
        "use_global_stats": "True"
      }, 
      "inputs": []
    }, 
    {
      "op": "null", 
      "name": "xception10_conv1_bn_beta", 
      "attr": {
        "eps": "0.001", 
        "fix_gamma": "False", 
        "use_global_stats": "True"
      }, 
      "inputs": []
    }, 
    {
      "op": "null", 
      "name": "xception10_conv1_bn_moving_mean", 
      "attr": {
        "__init__": "[\"zero\", {}]", 
        "eps": "0.001", 
        "fix_gamma": "False", 
        "use_global_stats": "True"
      }, 
      "inputs": []
    }, 
    {
      "op": "null", 
      "name": "xception10_conv1_bn_moving_var", 
      "attr": {
        "__init__": "[\"one\", {}]", 
        "eps": "0.001", 
        "fix_gamma": "False", 
        "use_global_stats": "True"
      }, 
      "inputs": []
    }, 
    {
      "op": "BatchNorm", 
      "name": "xception10_conv1_bn", 
      "attr": {
        "eps": "0.001", 
        "fix_gamma": "False", 
        "use_global_stats": "True"
      }, 
      "inputs": [[293, 0, 0], [294, 0, 0], [295, 0, 0], [296, 0, 1], [297, 0, 1]]
    }, 
    {
      "op": "Activation", 
      "name": "xception10_conv1_relu", 
      "attr": {"act_type": "relu"}, 
      "inputs": [[298, 0, 0]]
    }, 
    {
      "op": "null", 
      "name": "xception10_conv2_1_weight", 
      "attr": {
        "kernel": "(3, 3)", 
        "no_bias": "True", 
        "num_filter": "728", 
        "num_group": "728", 
        "pad": "(1, 1)", 
        "stride": "(1, 1)"
      }, 
      "inputs": []
    }, 
    {
      "op": "Convolution", 
      "name": "xception10_conv2_1", 
      "attr": {
        "kernel": "(3, 3)", 
        "no_bias": "True", 
        "num_filter": "728", 
        "num_group": "728", 
        "pad": "(1, 1)", 
        "stride": "(1, 1)"
      }, 
      "inputs": [[299, 0, 0], [300, 0, 0]]
    }, 
    {
      "op": "null", 
      "name": "xception10_conv2_2_weight", 
      "attr": {
        "kernel": "(1, 1)", 
        "no_bias": "True", 
        "num_filter": "728", 
        "pad": "(0, 0)", 
        "stride": "(1, 1)"
      }, 
      "inputs": []
    }, 
    {
      "op": "Convolution", 
      "name": "xception10_conv2_2", 
      "attr": {
        "kernel": "(1, 1)", 
        "no_bias": "True", 
        "num_filter": "728", 
        "pad": "(0, 0)", 
        "stride": "(1, 1)"
      }, 
      "inputs": [[301, 0, 0], [302, 0, 0]]
    }, 
    {
      "op": "null", 
      "name": "xception10_conv2_bn_gamma", 
      "attr": {
        "eps": "0.001", 
        "fix_gamma": "False", 
        "use_global_stats": "True"
      }, 
      "inputs": []
    }, 
    {
      "op": "null", 
      "name": "xception10_conv2_bn_beta", 
      "attr": {
        "eps": "0.001", 
        "fix_gamma": "False", 
        "use_global_stats": "True"
      }, 
      "inputs": []
    }, 
    {
      "op": "null", 
      "name": "xception10_conv2_bn_moving_mean", 
      "attr": {
        "__init__": "[\"zero\", {}]", 
        "eps": "0.001", 
        "fix_gamma": "False", 
        "use_global_stats": "True"
      }, 
      "inputs": []
    }, 
    {
      "op": "null", 
      "name": "xception10_conv2_bn_moving_var", 
      "attr": {
        "__init__": "[\"one\", {}]", 
        "eps": "0.001", 
        "fix_gamma": "False", 
        "use_global_stats": "True"
      }, 
      "inputs": []
    }, 
    {
      "op": "BatchNorm", 
      "name": "xception10_conv2_bn", 
      "attr": {
        "eps": "0.001", 
        "fix_gamma": "False", 
        "use_global_stats": "True"
      }, 
      "inputs": [[303, 0, 0], [304, 0, 0], [305, 0, 0], [306, 0, 1], [307, 0, 1]]
    }, 
    {
      "op": "Activation", 
      "name": "xception10_conv2_relu", 
      "attr": {"act_type": "relu"}, 
      "inputs": [[308, 0, 0]]
    }, 
    {
      "op": "null", 
      "name": "xception10_conv3_1_weight", 
      "attr": {
        "kernel": "(3, 3)", 
        "no_bias": "True", 
        "num_filter": "728", 
        "num_group": "728", 
        "pad": "(1, 1)", 
        "stride": "(1, 1)"
      }, 
      "inputs": []
    }, 
    {
      "op": "Convolution", 
      "name": "xception10_conv3_1", 
      "attr": {
        "kernel": "(3, 3)", 
        "no_bias": "True", 
        "num_filter": "728", 
        "num_group": "728", 
        "pad": "(1, 1)", 
        "stride": "(1, 1)"
      }, 
      "inputs": [[309, 0, 0], [310, 0, 0]]
    }, 
    {
      "op": "null", 
      "name": "xception10_conv3_2_weight", 
      "attr": {
        "kernel": "(1, 1)", 
        "no_bias": "True", 
        "num_filter": "728", 
        "pad": "(0, 0)", 
        "stride": "(1, 1)"
      }, 
      "inputs": []
    }, 
    {
      "op": "Convolution", 
      "name": "xception10_conv3_2", 
      "attr": {
        "kernel": "(1, 1)", 
        "no_bias": "True", 
        "num_filter": "728", 
        "pad": "(0, 0)", 
        "stride": "(1, 1)"
      }, 
      "inputs": [[311, 0, 0], [312, 0, 0]]
    }, 
    {
      "op": "null", 
      "name": "xception10_conv3_bn_gamma", 
      "attr": {
        "eps": "0.001", 
        "fix_gamma": "False", 
        "use_global_stats": "True"
      }, 
      "inputs": []
    }, 
    {
      "op": "null", 
      "name": "xception10_conv3_bn_beta", 
      "attr": {
        "eps": "0.001", 
        "fix_gamma": "False", 
        "use_global_stats": "True"
      }, 
      "inputs": []
    }, 
    {
      "op": "null", 
      "name": "xception10_conv3_bn_moving_mean", 
      "attr": {
        "__init__": "[\"zero\", {}]", 
        "eps": "0.001", 
        "fix_gamma": "False", 
        "use_global_stats": "True"
      }, 
      "inputs": []
    }, 
    {
      "op": "null", 
      "name": "xception10_conv3_bn_moving_var", 
      "attr": {
        "__init__": "[\"one\", {}]", 
        "eps": "0.001", 
        "fix_gamma": "False", 
        "use_global_stats": "True"
      }, 
      "inputs": []
    }, 
    {
      "op": "BatchNorm", 
      "name": "xception10_conv3_bn", 
      "attr": {
        "eps": "0.001", 
        "fix_gamma": "False", 
        "use_global_stats": "True"
      }, 
      "inputs": [[313, 0, 0], [314, 0, 0], [315, 0, 0], [316, 0, 1], [317, 0, 1]]
    }, 
    {
      "op": "broadcast_add", 
      "name": "xception10_elewise", 
      "inputs": [[288, 0, 0], [318, 0, 0]]
    }, 
    {
      "op": "Activation", 
      "name": "xception11_relu", 
      "attr": {"act_type": "relu"}, 
      "inputs": [[319, 0, 0]]
    }, 
    {
      "op": "null", 
      "name": "xception11_conv1_1_weight", 
      "attr": {
        "kernel": "(3, 3)", 
        "no_bias": "True", 
        "num_filter": "728", 
        "num_group": "728", 
        "pad": "(1, 1)", 
        "stride": "(1, 1)"
      }, 
      "inputs": []
    }, 
    {
      "op": "Convolution", 
      "name": "xception11_conv1_1", 
      "attr": {
        "kernel": "(3, 3)", 
        "no_bias": "True", 
        "num_filter": "728", 
        "num_group": "728", 
        "pad": "(1, 1)", 
        "stride": "(1, 1)"
      }, 
      "inputs": [[320, 0, 0], [321, 0, 0]]
    }, 
    {
      "op": "null", 
      "name": "xception11_conv1_2_weight", 
      "attr": {
        "kernel": "(1, 1)", 
        "no_bias": "True", 
        "num_filter": "728", 
        "pad": "(0, 0)", 
        "stride": "(1, 1)"
      }, 
      "inputs": []
    }, 
    {
      "op": "Convolution", 
      "name": "xception11_conv1_2", 
      "attr": {
        "kernel": "(1, 1)", 
        "no_bias": "True", 
        "num_filter": "728", 
        "pad": "(0, 0)", 
        "stride": "(1, 1)"
      }, 
      "inputs": [[322, 0, 0], [323, 0, 0]]
    }, 
    {
      "op": "null", 
      "name": "xception11_conv1_bn_gamma", 
      "attr": {
        "eps": "0.001", 
        "fix_gamma": "False", 
        "use_global_stats": "True"
      }, 
      "inputs": []
    }, 
    {
      "op": "null", 
      "name": "xception11_conv1_bn_beta", 
      "attr": {
        "eps": "0.001", 
        "fix_gamma": "False", 
        "use_global_stats": "True"
      }, 
      "inputs": []
    }, 
    {
      "op": "null", 
      "name": "xception11_conv1_bn_moving_mean", 
      "attr": {
        "__init__": "[\"zero\", {}]", 
        "eps": "0.001", 
        "fix_gamma": "False", 
        "use_global_stats": "True"
      }, 
      "inputs": []
    }, 
    {
      "op": "null", 
      "name": "xception11_conv1_bn_moving_var", 
      "attr": {
        "__init__": "[\"one\", {}]", 
        "eps": "0.001", 
        "fix_gamma": "False", 
        "use_global_stats": "True"
      }, 
      "inputs": []
    }, 
    {
      "op": "BatchNorm", 
      "name": "xception11_conv1_bn", 
      "attr": {
        "eps": "0.001", 
        "fix_gamma": "False", 
        "use_global_stats": "True"
      }, 
      "inputs": [[324, 0, 0], [325, 0, 0], [326, 0, 0], [327, 0, 1], [328, 0, 1]]
    }, 
    {
      "op": "Activation", 
      "name": "xception11_conv1_relu", 
      "attr": {"act_type": "relu"}, 
      "inputs": [[329, 0, 0]]
    }, 
    {
      "op": "null", 
      "name": "xception11_conv2_1_weight", 
      "attr": {
        "kernel": "(3, 3)", 
        "no_bias": "True", 
        "num_filter": "728", 
        "num_group": "728", 
        "pad": "(1, 1)", 
        "stride": "(1, 1)"
      }, 
      "inputs": []
    }, 
    {
      "op": "Convolution", 
      "name": "xception11_conv2_1", 
      "attr": {
        "kernel": "(3, 3)", 
        "no_bias": "True", 
        "num_filter": "728", 
        "num_group": "728", 
        "pad": "(1, 1)", 
        "stride": "(1, 1)"
      }, 
      "inputs": [[330, 0, 0], [331, 0, 0]]
    }, 
    {
      "op": "null", 
      "name": "xception11_conv2_2_weight", 
      "attr": {
        "kernel": "(1, 1)", 
        "no_bias": "True", 
        "num_filter": "728", 
        "pad": "(0, 0)", 
        "stride": "(1, 1)"
      }, 
      "inputs": []
    }, 
    {
      "op": "Convolution", 
      "name": "xception11_conv2_2", 
      "attr": {
        "kernel": "(1, 1)", 
        "no_bias": "True", 
        "num_filter": "728", 
        "pad": "(0, 0)", 
        "stride": "(1, 1)"
      }, 
      "inputs": [[332, 0, 0], [333, 0, 0]]
    }, 
    {
      "op": "null", 
      "name": "xception11_conv2_bn_gamma", 
      "attr": {
        "eps": "0.001", 
        "fix_gamma": "False", 
        "use_global_stats": "True"
      }, 
      "inputs": []
    }, 
    {
      "op": "null", 
      "name": "xception11_conv2_bn_beta", 
      "attr": {
        "eps": "0.001", 
        "fix_gamma": "False", 
        "use_global_stats": "True"
      }, 
      "inputs": []
    }, 
    {
      "op": "null", 
      "name": "xception11_conv2_bn_moving_mean", 
      "attr": {
        "__init__": "[\"zero\", {}]", 
        "eps": "0.001", 
        "fix_gamma": "False", 
        "use_global_stats": "True"
      }, 
      "inputs": []
    }, 
    {
      "op": "null", 
      "name": "xception11_conv2_bn_moving_var", 
      "attr": {
        "__init__": "[\"one\", {}]", 
        "eps": "0.001", 
        "fix_gamma": "False", 
        "use_global_stats": "True"
      }, 
      "inputs": []
    }, 
    {
      "op": "BatchNorm", 
      "name": "xception11_conv2_bn", 
      "attr": {
        "eps": "0.001", 
        "fix_gamma": "False", 
        "use_global_stats": "True"
      }, 
      "inputs": [[334, 0, 0], [335, 0, 0], [336, 0, 0], [337, 0, 1], [338, 0, 1]]
    }, 
    {
      "op": "Activation", 
      "name": "xception11_conv2_relu", 
      "attr": {"act_type": "relu"}, 
      "inputs": [[339, 0, 0]]
    }, 
    {
      "op": "null", 
      "name": "xception11_conv3_1_weight", 
      "attr": {
        "kernel": "(3, 3)", 
        "no_bias": "True", 
        "num_filter": "728", 
        "num_group": "728", 
        "pad": "(1, 1)", 
        "stride": "(1, 1)"
      }, 
      "inputs": []
    }, 
    {
      "op": "Convolution", 
      "name": "xception11_conv3_1", 
      "attr": {
        "kernel": "(3, 3)", 
        "no_bias": "True", 
        "num_filter": "728", 
        "num_group": "728", 
        "pad": "(1, 1)", 
        "stride": "(1, 1)"
      }, 
      "inputs": [[340, 0, 0], [341, 0, 0]]
    }, 
    {
      "op": "null", 
      "name": "xception11_conv3_2_weight", 
      "attr": {
        "kernel": "(1, 1)", 
        "no_bias": "True", 
        "num_filter": "728", 
        "pad": "(0, 0)", 
        "stride": "(1, 1)"
      }, 
      "inputs": []
    }, 
    {
      "op": "Convolution", 
      "name": "xception11_conv3_2", 
      "attr": {
        "kernel": "(1, 1)", 
        "no_bias": "True", 
        "num_filter": "728", 
        "pad": "(0, 0)", 
        "stride": "(1, 1)"
      }, 
      "inputs": [[342, 0, 0], [343, 0, 0]]
    }, 
    {
      "op": "null", 
      "name": "xception11_conv3_bn_gamma", 
      "attr": {
        "eps": "0.001", 
        "fix_gamma": "False", 
        "use_global_stats": "True"
      }, 
      "inputs": []
    }, 
    {
      "op": "null", 
      "name": "xception11_conv3_bn_beta", 
      "attr": {
        "eps": "0.001", 
        "fix_gamma": "False", 
        "use_global_stats": "True"
      }, 
      "inputs": []
    }, 
    {
      "op": "null", 
      "name": "xception11_conv3_bn_moving_mean", 
      "attr": {
        "__init__": "[\"zero\", {}]", 
        "eps": "0.001", 
        "fix_gamma": "False", 
        "use_global_stats": "True"
      }, 
      "inputs": []
    }, 
    {
      "op": "null", 
      "name": "xception11_conv3_bn_moving_var", 
      "attr": {
        "__init__": "[\"one\", {}]", 
        "eps": "0.001", 
        "fix_gamma": "False", 
        "use_global_stats": "True"
      }, 
      "inputs": []
    }, 
    {
      "op": "BatchNorm", 
      "name": "xception11_conv3_bn", 
      "attr": {
        "eps": "0.001", 
        "fix_gamma": "False", 
        "use_global_stats": "True"
      }, 
      "inputs": [[344, 0, 0], [345, 0, 0], [346, 0, 0], [347, 0, 1], [348, 0, 1]]
    }, 
    {
      "op": "broadcast_add", 
      "name": "xception11_elewise", 
      "inputs": [[319, 0, 0], [349, 0, 0]]
    }, 
    {
      "op": "null", 
      "name": "xception12_match_conv_weight", 
      "attr": {
        "kernel": "(1, 1)", 
        "no_bias": "True", 
        "num_filter": "1024", 
        "pad": "(0, 0)", 
        "stride": "(2, 2)"
      }, 
      "inputs": []
    }, 
    {
      "op": "Convolution", 
      "name": "xception12_match_conv", 
      "attr": {
        "kernel": "(1, 1)", 
        "no_bias": "True", 
        "num_filter": "1024", 
        "pad": "(0, 0)", 
        "stride": "(2, 2)"
      }, 
      "inputs": [[350, 0, 0], [351, 0, 0]]
    }, 
    {
      "op": "null", 
      "name": "xception12_match_conv_bn_gamma", 
      "attr": {
        "eps": "0.001", 
        "fix_gamma": "False", 
        "use_global_stats": "True"
      }, 
      "inputs": []
    }, 
    {
      "op": "null", 
      "name": "xception12_match_conv_bn_beta", 
      "attr": {
        "eps": "0.001", 
        "fix_gamma": "False", 
        "use_global_stats": "True"
      }, 
      "inputs": []
    }, 
    {
      "op": "null", 
      "name": "xception12_match_conv_bn_moving_mean", 
      "attr": {
        "__init__": "[\"zero\", {}]", 
        "eps": "0.001", 
        "fix_gamma": "False", 
        "use_global_stats": "True"
      }, 
      "inputs": []
    }, 
    {
      "op": "null", 
      "name": "xception12_match_conv_bn_moving_var", 
      "attr": {
        "__init__": "[\"one\", {}]", 
        "eps": "0.001", 
        "fix_gamma": "False", 
        "use_global_stats": "True"
      }, 
      "inputs": []
    }, 
    {
      "op": "BatchNorm", 
      "name": "xception12_match_conv_bn", 
      "attr": {
        "eps": "0.001", 
        "fix_gamma": "False", 
        "use_global_stats": "True"
      }, 
      "inputs": [[352, 0, 0], [353, 0, 0], [354, 0, 0], [355, 0, 1], [356, 0, 1]]
    }, 
    {
      "op": "Activation", 
      "name": "xception12_relu", 
      "attr": {"act_type": "relu"}, 
      "inputs": [[350, 0, 0]]
    }, 
    {
      "op": "null", 
      "name": "xception12_conv1_1_weight", 
      "attr": {
        "kernel": "(3, 3)", 
        "no_bias": "True", 
        "num_filter": "728", 
        "num_group": "728", 
        "pad": "(1, 1)", 
        "stride": "(1, 1)"
      }, 
      "inputs": []
    }, 
    {
      "op": "Convolution", 
      "name": "xception12_conv1_1", 
      "attr": {
        "kernel": "(3, 3)", 
        "no_bias": "True", 
        "num_filter": "728", 
        "num_group": "728", 
        "pad": "(1, 1)", 
        "stride": "(1, 1)"
      }, 
      "inputs": [[358, 0, 0], [359, 0, 0]]
    }, 
    {
      "op": "null", 
      "name": "xception12_conv1_2_weight", 
      "attr": {
        "kernel": "(1, 1)", 
        "no_bias": "True", 
        "num_filter": "728", 
        "pad": "(0, 0)", 
        "stride": "(1, 1)"
      }, 
      "inputs": []
    }, 
    {
      "op": "Convolution", 
      "name": "xception12_conv1_2", 
      "attr": {
        "kernel": "(1, 1)", 
        "no_bias": "True", 
        "num_filter": "728", 
        "pad": "(0, 0)", 
        "stride": "(1, 1)"
      }, 
      "inputs": [[360, 0, 0], [361, 0, 0]]
    }, 
    {
      "op": "null", 
      "name": "xception12_conv1_bn_gamma", 
      "attr": {
        "eps": "0.001", 
        "fix_gamma": "False", 
        "use_global_stats": "True"
      }, 
      "inputs": []
    }, 
    {
      "op": "null", 
      "name": "xception12_conv1_bn_beta", 
      "attr": {
        "eps": "0.001", 
        "fix_gamma": "False", 
        "use_global_stats": "True"
      }, 
      "inputs": []
    }, 
    {
      "op": "null", 
      "name": "xception12_conv1_bn_moving_mean", 
      "attr": {
        "__init__": "[\"zero\", {}]", 
        "eps": "0.001", 
        "fix_gamma": "False", 
        "use_global_stats": "True"
      }, 
      "inputs": []
    }, 
    {
      "op": "null", 
      "name": "xception12_conv1_bn_moving_var", 
      "attr": {
        "__init__": "[\"one\", {}]", 
        "eps": "0.001", 
        "fix_gamma": "False", 
        "use_global_stats": "True"
      }, 
      "inputs": []
    }, 
    {
      "op": "BatchNorm", 
      "name": "xception12_conv1_bn", 
      "attr": {
        "eps": "0.001", 
        "fix_gamma": "False", 
        "use_global_stats": "True"
      }, 
      "inputs": [[362, 0, 0], [363, 0, 0], [364, 0, 0], [365, 0, 1], [366, 0, 1]]
    }, 
    {
      "op": "Activation", 
      "name": "xception12_conv1_relu", 
      "attr": {"act_type": "relu"}, 
      "inputs": [[367, 0, 0]]
    }, 
    {
      "op": "null", 
      "name": "xception12_conv2_1_weight", 
      "attr": {
        "kernel": "(3, 3)", 
        "no_bias": "True", 
        "num_filter": "728", 
        "num_group": "728", 
        "pad": "(1, 1)", 
        "stride": "(1, 1)"
      }, 
      "inputs": []
    }, 
    {
      "op": "Convolution", 
      "name": "xception12_conv2_1", 
      "attr": {
        "kernel": "(3, 3)", 
        "no_bias": "True", 
        "num_filter": "728", 
        "num_group": "728", 
        "pad": "(1, 1)", 
        "stride": "(1, 1)"
      }, 
      "inputs": [[368, 0, 0], [369, 0, 0]]
    }, 
    {
      "op": "null", 
      "name": "xception12_conv2_2_weight", 
      "attr": {
        "kernel": "(1, 1)", 
        "no_bias": "True", 
        "num_filter": "1024", 
        "pad": "(0, 0)", 
        "stride": "(1, 1)"
      }, 
      "inputs": []
    }, 
    {
      "op": "Convolution", 
      "name": "xception12_conv2_2", 
      "attr": {
        "kernel": "(1, 1)", 
        "no_bias": "True", 
        "num_filter": "1024", 
        "pad": "(0, 0)", 
        "stride": "(1, 1)"
      }, 
      "inputs": [[370, 0, 0], [371, 0, 0]]
    }, 
    {
      "op": "null", 
      "name": "xception12_conv2_bn_gamma", 
      "attr": {
        "eps": "0.001", 
        "fix_gamma": "False", 
        "use_global_stats": "True"
      }, 
      "inputs": []
    }, 
    {
      "op": "null", 
      "name": "xception12_conv2_bn_beta", 
      "attr": {
        "eps": "0.001", 
        "fix_gamma": "False", 
        "use_global_stats": "True"
      }, 
      "inputs": []
    }, 
    {
      "op": "null", 
      "name": "xception12_conv2_bn_moving_mean", 
      "attr": {
        "__init__": "[\"zero\", {}]", 
        "eps": "0.001", 
        "fix_gamma": "False", 
        "use_global_stats": "True"
      }, 
      "inputs": []
    }, 
    {
      "op": "null", 
      "name": "xception12_conv2_bn_moving_var", 
      "attr": {
        "__init__": "[\"one\", {}]", 
        "eps": "0.001", 
        "fix_gamma": "False", 
        "use_global_stats": "True"
      }, 
      "inputs": []
    }, 
    {
      "op": "BatchNorm", 
      "name": "xception12_conv2_bn", 
      "attr": {
        "eps": "0.001", 
        "fix_gamma": "False", 
        "use_global_stats": "True"
      }, 
      "inputs": [[372, 0, 0], [373, 0, 0], [374, 0, 0], [375, 0, 1], [376, 0, 1]]
    }, 
    {
      "op": "Pooling", 
      "name": "xception12_pool", 
      "attr": {
        "kernel": "(3, 3)", 
        "pad": "(1, 1)", 
        "pool_type": "max", 
        "pooling_convention": "full", 
        "stride": "(2, 2)"
      }, 
      "inputs": [[377, 0, 0]]
    }, 
    {
      "op": "broadcast_add", 
      "name": "xception12_elewise", 
      "inputs": [[357, 0, 0], [378, 0, 0]]
    }, 
    {
      "op": "null", 
      "name": "conv3_1_weight", 
      "attr": {
        "kernel": "(3, 3)", 
        "no_bias": "True", 
        "num_filter": "1024", 
        "num_group": "1024", 
        "pad": "(1, 1)", 
        "stride": "(1, 1)"
      }, 
      "inputs": []
    }, 
    {
      "op": "Convolution", 
      "name": "conv3_1", 
      "attr": {
        "kernel": "(3, 3)", 
        "no_bias": "True", 
        "num_filter": "1024", 
        "num_group": "1024", 
        "pad": "(1, 1)", 
        "stride": "(1, 1)"
      }, 
      "inputs": [[379, 0, 0], [380, 0, 0]]
    }, 
    {
      "op": "null", 
      "name": "conv3_2_weight", 
      "attr": {
        "kernel": "(1, 1)", 
        "no_bias": "True", 
        "num_filter": "1536", 
        "pad": "(0, 0)", 
        "stride": "(1, 1)"
      }, 
      "inputs": []
    }, 
    {
      "op": "Convolution", 
      "name": "conv3_2", 
      "attr": {
        "kernel": "(1, 1)", 
        "no_bias": "True", 
        "num_filter": "1536", 
        "pad": "(0, 0)", 
        "stride": "(1, 1)"
      }, 
      "inputs": [[381, 0, 0], [382, 0, 0]]
    }, 
    {
      "op": "null", 
      "name": "conv3_bn_gamma", 
      "attr": {
        "eps": "0.001", 
        "fix_gamma": "False", 
        "use_global_stats": "True"
      }, 
      "inputs": []
    }, 
    {
      "op": "null", 
      "name": "conv3_bn_beta", 
      "attr": {
        "eps": "0.001", 
        "fix_gamma": "False", 
        "use_global_stats": "True"
      }, 
      "inputs": []
    }, 
    {
      "op": "null", 
      "name": "conv3_bn_moving_mean", 
      "attr": {
        "__init__": "[\"zero\", {}]", 
        "eps": "0.001", 
        "fix_gamma": "False", 
        "use_global_stats": "True"
      }, 
      "inputs": []
    }, 
    {
      "op": "null", 
      "name": "conv3_bn_moving_var", 
      "attr": {
        "__init__": "[\"one\", {}]", 
        "eps": "0.001", 
        "fix_gamma": "False", 
        "use_global_stats": "True"
      }, 
      "inputs": []
    }, 
    {
      "op": "BatchNorm", 
      "name": "conv3_bn", 
      "attr": {
        "eps": "0.001", 
        "fix_gamma": "False", 
        "use_global_stats": "True"
      }, 
      "inputs": [[383, 0, 0], [384, 0, 0], [385, 0, 0], [386, 0, 1], [387, 0, 1]]
    }, 
    {
      "op": "Activation", 
      "name": "conv3_relu", 
      "attr": {"act_type": "relu"}, 
      "inputs": [[388, 0, 0]]
    }, 
    {
      "op": "null", 
      "name": "conv4_1_weight", 
      "attr": {
        "kernel": "(3, 3)", 
        "no_bias": "True", 
        "num_filter": "1536", 
        "num_group": "1536", 
        "pad": "(1, 1)", 
        "stride": "(1, 1)"
      }, 
      "inputs": []
    }, 
    {
      "op": "Convolution", 
      "name": "conv4_1", 
      "attr": {
        "kernel": "(3, 3)", 
        "no_bias": "True", 
        "num_filter": "1536", 
        "num_group": "1536", 
        "pad": "(1, 1)", 
        "stride": "(1, 1)"
      }, 
      "inputs": [[389, 0, 0], [390, 0, 0]]
    }, 
    {
      "op": "null", 
      "name": "conv4_2_weight", 
      "attr": {
        "kernel": "(1, 1)", 
        "no_bias": "True", 
        "num_filter": "2048", 
        "pad": "(0, 0)", 
        "stride": "(1, 1)"
      }, 
      "inputs": []
    }, 
    {
      "op": "Convolution", 
      "name": "conv4_2", 
      "attr": {
        "kernel": "(1, 1)", 
        "no_bias": "True", 
        "num_filter": "2048", 
        "pad": "(0, 0)", 
        "stride": "(1, 1)"
      }, 
      "inputs": [[391, 0, 0], [392, 0, 0]]
    }, 
    {
      "op": "null", 
      "name": "conv4_bn_gamma", 
      "attr": {
        "eps": "0.001", 
        "fix_gamma": "False", 
        "use_global_stats": "True"
      }, 
      "inputs": []
    }, 
    {
      "op": "null", 
      "name": "conv4_bn_beta", 
      "attr": {
        "eps": "0.001", 
        "fix_gamma": "False", 
        "use_global_stats": "True"
      }, 
      "inputs": []
    }, 
    {
      "op": "null", 
      "name": "conv4_bn_moving_mean", 
      "attr": {
        "__init__": "[\"zero\", {}]", 
        "eps": "0.001", 
        "fix_gamma": "False", 
        "use_global_stats": "True"
      }, 
      "inputs": []
    }, 
    {
      "op": "null", 
      "name": "conv4_bn_moving_var", 
      "attr": {
        "__init__": "[\"one\", {}]", 
        "eps": "0.001", 
        "fix_gamma": "False", 
        "use_global_stats": "True"
      }, 
      "inputs": []
    }, 
    {
      "op": "BatchNorm", 
      "name": "conv4_bn", 
      "attr": {
        "eps": "0.001", 
        "fix_gamma": "False", 
        "use_global_stats": "True"
      }, 
      "inputs": [[393, 0, 0], [394, 0, 0], [395, 0, 0], [396, 0, 1], [397, 0, 1]]
    }, 
    {
      "op": "Activation", 
      "name": "conv4_relu", 
      "attr": {"act_type": "relu"}, 
      "inputs": [[398, 0, 0]]
    }, 
    {
      "op": "Pooling", 
      "name": "pool_ave", 
      "attr": {
        "global_pool": "True", 
        "kernel": "(1, 1)", 
        "pool_type": "avg", 
        "pooling_convention": "full"
      }, 
      "inputs": [[399, 0, 0]]
    }, 
    {
      "op": "Flatten", 
      "name": "flatten_0", 
      "inputs": [[400, 0, 0]]
    }, 
    {
      "op": "null", 
      "name": "classifier_weight", 
      "attr": {
        "no_bias": "False", 
        "num_hidden": "1000"
      }, 
      "inputs": []
    }, 
    {
      "op": "null", 
      "name": "classifier_bias", 
      "attr": {
        "no_bias": "False", 
        "num_hidden": "1000"
      }, 
      "inputs": []
    }, 
    {
      "op": "FullyConnected", 
      "name": "classifier", 
      "attr": {
        "no_bias": "False", 
        "num_hidden": "1000"
      }, 
      "inputs": [[401, 0, 0], [402, 0, 0], [403, 0, 0]]
    }, 
    {
      "op": "null", 
      "name": "prob_label", 
      "inputs": []
    }, 
    {
      "op": "SoftmaxOutput", 
      "name": "prob", 
      "inputs": [[404, 0, 0], [405, 0, 0]]
    }
  ], 
  "arg_nodes": [
    0, 
    1, 
    3, 
    4, 
    5, 
    6, 
    9, 
    11, 
    12, 
    13, 
    14, 
    17, 
    19, 
    20, 
    21, 
    22, 
    24, 
    26, 
    28, 
    29, 
    30, 
    31, 
    34, 
    36, 
    38, 
    39, 
    40, 
    41, 
    45, 
    47, 
    48, 
    49, 
    50, 
    53, 
    55, 
    57, 
    58, 
    59, 
    60, 
    63, 
    65, 
    67, 
    68, 
    69, 
    70, 
    74, 
    76, 
    77, 
    78, 
    79, 
    82, 
    84, 
    86, 
    87, 
    88, 
    89, 
    92, 
    94, 
    96, 
    97, 
    98, 
    99, 
    104, 
    106, 
    108, 
    109, 
    110, 
    111, 
    114, 
    116, 
    118, 
    119, 
    120, 
    121, 
    124, 
    126, 
    128, 
    129, 
    130, 
    131, 
    135, 
    137, 
    139, 
    140, 
    141, 
    142, 
    145, 
    147, 
    149, 
    150, 
    151, 
    152, 
    155, 
    157, 
    159, 
    160, 
    161, 
    162, 
    166, 
    168, 
    170, 
    171, 
    172, 
    173, 
    176, 
    178, 
    180, 
    181, 
    182, 
    183, 
    186, 
    188, 
    190, 
    191, 
    192, 
    193, 
    197, 
    199, 
    201, 
    202, 
    203, 
    204, 
    207, 
    209, 
    211, 
    212, 
    213, 
    214, 
    217, 
    219, 
    221, 
    222, 
    223, 
    224, 
    228, 
    230, 
    232, 
    233, 
    234, 
    235, 
    238, 
    240, 
    242, 
    243, 
    244, 
    245, 
    248, 
    250, 
    252, 
    253, 
    254, 
    255, 
    259, 
    261, 
    263, 
    264, 
    265, 
    266, 
    269, 
    271, 
    273, 
    274, 
    275, 
    276, 
    279, 
    281, 
    283, 
    284, 
    285, 
    286, 
    290, 
    292, 
    294, 
    295, 
    296, 
    297, 
    300, 
    302, 
    304, 
    305, 
    306, 
    307, 
    310, 
    312, 
    314, 
    315, 
    316, 
    317, 
    321, 
    323, 
    325, 
    326, 
    327, 
    328, 
    331, 
    333, 
    335, 
    336, 
    337, 
    338, 
    341, 
    343, 
    345, 
    346, 
    347, 
    348, 
    351, 
    353, 
    354, 
    355, 
    356, 
    359, 
    361, 
    363, 
    364, 
    365, 
    366, 
    369, 
    371, 
    373, 
    374, 
    375, 
    376, 
    380, 
    382, 
    384, 
    385, 
    386, 
    387, 
    390, 
    392, 
    394, 
    395, 
    396, 
    397, 
    402, 
    403, 
    405
  ], 
  "node_row_ptr": [
    0, 
    1, 
    2, 
    3, 
    4, 
    5, 
    6, 
    7, 
    10, 
    11, 
    12, 
    13, 
    14, 
    15, 
    16, 
    17, 
    20, 
    21, 
    22, 
    23, 
    24, 
    25, 
    26, 
    27, 
    30, 
    31, 
    32, 
    33, 
    34, 
    35, 
    36, 
    37, 
    38, 
    41, 
    42, 
    43, 
    44, 
    45, 
    46, 
    47, 
    48, 
    49, 
    50, 
    53, 
    54, 
    55, 
    56, 
    57, 
    58, 
    59, 
    60, 
    61, 
    64, 
    65, 
    66, 
    67, 
    68, 
    69, 
    70, 
    71, 
    72, 
    73, 
    76, 
    77, 
    78, 
    79, 
    80, 
    81, 
    82, 
    83, 
    84, 
    85, 
    88, 
    89, 
    90, 
    91, 
    92, 
    93, 
    94, 
    95, 
    96, 
    99, 
    100, 
    101, 
    102, 
    103, 
    104, 
    105, 
    106, 
    107, 
    108, 
    111, 
    112, 
    113, 
    114, 
    115, 
    116, 
    117, 
    118, 
    119, 
    120, 
    123, 
    124, 
    125, 
    126, 
    127, 
    128, 
    129, 
    130, 
    131, 
    132, 
    133, 
    134, 
    137, 
    138, 
    139, 
    140, 
    141, 
    142, 
    143, 
    144, 
    145, 
    146, 
    149, 
    150, 
    151, 
    152, 
    153, 
    154, 
    155, 
    156, 
    157, 
    158, 
    161, 
    162, 
    163, 
    164, 
    165, 
    166, 
    167, 
    168, 
    169, 
    170, 
    171, 
    174, 
    175, 
    176, 
    177, 
    178, 
    179, 
    180, 
    181, 
    182, 
    183, 
    186, 
    187, 
    188, 
    189, 
    190, 
    191, 
    192, 
    193, 
    194, 
    195, 
    198, 
    199, 
    200, 
    201, 
    202, 
    203, 
    204, 
    205, 
    206, 
    207, 
    208, 
    211, 
    212, 
    213, 
    214, 
    215, 
    216, 
    217, 
    218, 
    219, 
    220, 
    223, 
    224, 
    225, 
    226, 
    227, 
    228, 
    229, 
    230, 
    231, 
    232, 
    235, 
    236, 
    237, 
    238, 
    239, 
    240, 
    241, 
    242, 
    243, 
    244, 
    245, 
    248, 
    249, 
    250, 
    251, 
    252, 
    253, 
    254, 
    255, 
    256, 
    257, 
    260, 
    261, 
    262, 
    263, 
    264, 
    265, 
    266, 
    267, 
    268, 
    269, 
    272, 
    273, 
    274, 
    275, 
    276, 
    277, 
    278, 
    279, 
    280, 
    281, 
    282, 
    285, 
    286, 
    287, 
    288, 
    289, 
    290, 
    291, 
    292, 
    293, 
    294, 
    297, 
    298, 
    299, 
    300, 
    301, 
    302, 
    303, 
    304, 
    305, 
    306, 
    309, 
    310, 
    311, 
    312, 
    313, 
    314, 
    315, 
    316, 
    317, 
    318, 
    319, 
    322, 
    323, 
    324, 
    325, 
    326, 
    327, 
    328, 
    329, 
    330, 
    331, 
    334, 
    335, 
    336, 
    337, 
    338, 
    339, 
    340, 
    341, 
    342, 
    343, 
    346, 
    347, 
    348, 
    349, 
    350, 
    351, 
    352, 
    353, 
    354, 
    355, 
    356, 
    359, 
    360, 
    361, 
    362, 
    363, 
    364, 
    365, 
    366, 
    367, 
    368, 
    371, 
    372, 
    373, 
    374, 
    375, 
    376, 
    377, 
    378, 
    379, 
    380, 
    383, 
    384, 
    385, 
    386, 
    387, 
    388, 
    389, 
    390, 
    391, 
    392, 
    393, 
    396, 
    397, 
    398, 
    399, 
    400, 
    401, 
    402, 
    403, 
    404, 
    405, 
    408, 
    409, 
    410, 
    411, 
    412, 
    413, 
    414, 
    415, 
    416, 
    417, 
    420, 
    421, 
    422, 
    423, 
    424, 
    425, 
    426, 
    427, 
    430, 
    431, 
    432, 
    433, 
    434, 
    435, 
    436, 
    437, 
    438, 
    439, 
    442, 
    443, 
    444, 
    445, 
    446, 
    447, 
    448, 
    449, 
    450, 
    451, 
    454, 
    455, 
    456, 
    457, 
    458, 
    459, 
    460, 
    461, 
    462, 
    463, 
    464, 
    467, 
    468, 
    469, 
    470, 
    471, 
    472, 
    473, 
    474, 
    475, 
    476, 
    479, 
    480, 
    481, 
    482, 
    483, 
    484, 
    485, 
    486, 
    487
  ], 
  "heads": [[406, 0, 0]], 
  "attrs": {"mxnet_version": ["int", 1100]}
}